competition/result/lstm_win5_noStandardized_2layer_16hidden_0.99g_recent1000/trained_model/all_model/critic_num_epoch_5.pth (torch, 22328 bytes, 10 tensors)

weight_ih_l0 f4 [64, 11]
000000 bf 34 6d 3d 2c 69 45 be 1f 0c 1d be e1 3f 92 3c
       0.05791163 -0.19278401 -0.15336655 0.017852725
000010 79 eb 13 3c 86 df 5d 3e 1d 98 a2 bd d9 db 29 3e
       0.009028309 0.21667299 -0.079391696 0.16587771
000020 26 fb 32 3e 42 ca 31 3e 6a e7 5a 3e 9f 57 21 be
       0.17478618 0.17362311 0.2137734 -0.15756081
000030 61 be 7d bc 9f de 06 bd 31 89 0e 3e d5 72 9e bd
       -0.015487284 -0.03292715 0.13919522 -0.07736746
000040 5e 59 ec bd b9 ae c5 3d 78 d0 2c be 5e 3b 64 3e
       -0.11540483 0.09652466 -0.168764 0.22288272
000050 65 50 6c 3d 47 27 bb 3d 61 72 3f 3e 1e 03 11 3d
       0.057693858 0.09138351 0.18695976 0.035403363
000060 b4 c9 f1 bb b3 96 1c be 97 2b 0d be c3 ee 02 bd
       -0.007378781 -0.15291862 -0.1378616 -0.031965982
000070 3d 55 48 3e 3b 1f d2 bd 19 e9 1e 3e 75 57 38 be
       0.19563766 -0.10259863 0.15518607 -0.18002112
000080 29 40 11 be b3 44 0c be 4a a8 34 be 57 9d 58 3d
       -0.14184631 -0.13698082 -0.17642322 0.052884426
000090 7c 0b 27 3e 46 35 8c bd 67 ef 54 be 4e b8 50 3e
       0.16312975 -0.068460986 -0.2079445 0.20382807
0000a0 b3 17 7d bc c6 d4 4c 3e 9c 72 2d 3e 4e 46 7a be
       -0.015447545 0.20003042 0.16938251 -0.24440882
0000b0 25 9e 43 3e c6 11 65 3e 33 1b 14 3e 92 bd 3f 3e
       0.19103296 0.22370061 0.144635 0.18724659
0000c0 1f b9 24 3e 53 a0 29 3e 31 a9 54 3c 50 72 4f be
       0.16086243 0.16565065 0.0129797915 -0.2025845
0000d0 b0 fd 56 3e 1b b7 61 3d 26 af fa bd 97 4c b0 3d
       0.20995212 0.055106264 -0.12240438 0.08608358
0000e0 30 35 d0 bc 83 10 4f be 01 f6 e3 bc 61 be 1d be
       -0.025415987 -0.20221142 -0.027827265 -0.15404655
0000f0 c2 08 b8 bd a2 de f4 bc d1 26 03 bd 64 b3 36 bd
       -0.089860454 -0.029891316 -0.03201944 -0.044604674
000100 f7 cc 6b 3e e5 2d 1a 3e be 15 a5 3d f6 03 88 3e
       0.23027407 0.1505657 0.080607876 0.26565522
000110 3d 56 46 be e6 60 37 be e3 46 c1 3d c9 b9 7a 3e
       -0.19368835 -0.17908058 0.09437349 0.24484934
000120 25 97 74 3d 44 3d 0c be 8b 40 1b 3e 05 69 82 be
       0.059714455 -0.13695246 0.1516134 -0.2547075
000130 6e f7 39 be 5c 4d af 3d fd c7 00 3e 02 e8 8b bd
       -0.18160793 0.08559677 0.1257629 -0.06831361
000140 90 8b 38 be f6 b1 46 bd b4 dd 87 bb c7 68 fe bc
       -0.18021989 -0.04850956 -0.004146302 -0.031055821
000150 c7 d7 6e be e9 41 6d 3c 62 7a f4 3d fe b1 55 be
       -0.233245 0.014481046 0.11937405 -0.2086868
000160 fa 1e d7 bd a0 99 cd 3d 20 fc 76 3d fc 0d 36 3d
       -0.10503955 0.10039067 0.06029904 0.04444693
000170 fe e8 81 be 3f aa 70 3e a3 98 d7 3d 0d 67 17 be
       -0.2537307 0.23502444 0.1052716 -0.14785405
000180 cc 28 c8 bd d1 b7 17 be 56 93 28 be 16 a8 77 be
       -0.097734064 -0.14816214 -0.16462454 -0.24185213
000190 07 10 8b bd 77 2b 4e be 11 a2 0e be 4e 9d 74 3e
       -0.06790166 -0.20133768 -0.13929011 0.23888132
0001a0 7f 4e 36 3e f9 ea eb bc 91 2e 62 3e 7a 51 99 3d
       0.17803381 -0.028798567 0.22088076 0.074862435
0001b0 fd 0b 3f be cd 61 d2 3c ec 00 59 be 0c 43 0d be
       -0.18656917 0.0256814 -0.21191758 -0.13795108
0001c0 bc b0 1a 3e 93 cb 92 3d c4 40 88 bc b2 26 1d 3e
       0.15106481 0.07167735 -0.016632445 0.15346792
0001d0 6b a2 38 be 14 6c 3c bd 13 55 4b 3e cb 76 05 3d
       -0.18030708 -0.04600151 0.19856672 0.032583993
0001e0 13 23 fd 3d 7d 1a 58 3c ea c9 b2 3d fd 2d 04 be
       0.123602055 0.013189909 0.08729918 -0.12908168
0001f0 07 c4 10 3e 4e 5e 07 3e c4 8c 72 3e 63 cc 83 bd
       0.14137278 0.13219568 0.2368651 -0.06435468
000200 ce 30 33 bd 87 7f 83 be 8c 68 9a bd 9e 9d 12 be
       -0.043747716 -0.25683233 -0.07539472 -0.14317939
000210 7a f3 e4 bd 1e 71 f4 3d 43 6e 54 3e f1 6d 94 bc
       -0.11179252 0.11935638 0.20745187 -0.01811883
000220 9e 7c 31 bd 52 e2 51 3d ab f3 29 be 93 34 14 3e
       -0.043331735 0.051241226 -0.16596858 0.1447318
000230 07 e1 b3 bd c4 c5 d5 bd bd 71 81 be 0c 47 a6 bd
       -0.08783155 -0.104381114 -0.25282088 -0.0811902
000240 a0 aa d7 3d 6b d5 2d 3e ba cf d7 bd 85 bf f6 bd
       0.10530591 0.16975944 -0.105376676 -0.12048248
000250 3e 8e dd 3d f9 26 61 be 21 42 0b bc 5c c9 6c 3e
       0.10818146 -0.21987523 -0.008499653 0.23123688
000260 e5 9e d8 bd 94 92 aa 3d 00 59 be bd 24 20 85 be
       -0.10577182 0.08328739 -0.09294319 -0.26001084
000270 7a 79 02 3e 8c 17 06 3d 49 80 16 3e 42 71 e3 3d
       0.12741652 0.0327373 0.14697374 0.111055866
000280 37 6c 0d be 54 cd 42 3e 36 34 86 3d 50 ae b6 3c
       -0.13810812 0.19023639 0.06552927 0.022299916
000290 8f 1f 28 bd 41 a7 ff bc 85 2d a5 3d 97 56 82 be
       -0.04104572 -0.031207683 0.08065323 -0.25456688
0002a0 5f 42 50 bd 18 3c be bd 5e 2d 10 be f2 bc f1 bc
       -0.050844546 -0.09288806 -0.14079806 -0.029509041
0002b0 72 16 e7 bd e3 9e 0e 3e af 17 aa 3d 42 8e cf 3d
       -0.11283578 0.13927798 0.083052985 0.101345554
0002c0 e1 8e 9e bc 2e cf 18 3e a7 f6 40 be ef db 07 be
       -0.01935524 0.14922783 -0.1884409 -0.13267492
0002d0 66 b4 1e 3d 8a ba c8 bd 0c 48 04 3e ac 2e 00 be
       0.03874626 -0.098012045 0.12918109 -0.12517804
0002e0 b3 41 df 3d 0a fb 1f 3e 23 e3 99 3d f6 98 b6 bd
       0.10901203 0.15623108 0.07514026 -0.08915894
0002f0 b0 93 96 bd 0d e4 3d be af cc 1f be 26 4b fb bb
       -0.07352388 -0.18544026 -0.15605424 -0.0076688705
000300 ba 39 27 3e be 36 7c 3e a5 ac f8 bd b9 b5 14 3e
       0.16330615 0.24630257 -0.12142304 0.14522447
000310 6c 3b 84 bd 7b 61 22 3e e2 d6 c0 3d 6e dc 9b bc
       -0.06456646 0.15857498 0.09415986 -0.019026008
000320 fd a9 81 be 9f 30 d1 bc 2c 54 60 3c 85 39 29 3d
       -0.25325003 -0.02553588 0.013691943 0.04131462
000330 3b f3 70 3e 7c 35 a5 bd 48 93 dc bd 6a f7 12 be
       0.23530285 -0.08066842 -0.10770279 -0.14352193
000340 82 74 29 be 19 f6 72 be 80 f6 82 bd c0 26 10 3e
       -0.1654835 -0.23726691 -0.063946724 0.14077282
000350 57 e9 41 be 5c 31 53 3e 7e f6 af 3d 78 95 ab bb
       -0.18936668 0.20624298 0.085919365 -0.005236324
000360 19 77 05 bd 4d ec 5e bd 16 af d1 3d 92 43 5f 3e
       -0.032584284 -0.054424573 0.10238473 0.2180312
000370 e8 6d 6d be 6f 50 97 3c 70 e4 22 be 79 9f 2f be
       -0.23186457 0.01847097 -0.15907454 -0.17150678
000380 c0 f5 5a 3e cf 8e e4 3d 41 e0 30 3e 95 78 dc bc
       0.21382809 0.11160051 0.17273046 -0.026912967
000390 ef 4b e1 3b b8 03 5d be 6a 51 5a be aa 5c 42 be
       0.006875507 -0.2158345 -0.2132012 -0.18980661
0003a0 f4 8e 2b bd c6 46 89 3d 80 95 42 be 2d 56 11 3e
       -0.041884378 0.06702952 -0.19002342 0.1419303
0003b0 d9 66 04 be a7 27 7a be 62 a1 b1 bd 3b 4f 80 be
       -0.12929858 -0.24429189 -0.086733595 -0.25060448
0003c0 c4 4b 16 be fc fd b0 bb e3 2f 43 be 7e 11 cb 3d
       -0.1467734 -0.005401371 -0.19061236 0.09915446
0003d0 58 99 b2 bd 7e 00 04 3e cc 51 a0 bd c4 a6 ad bd
       -0.08720654 0.12890813 -0.078281015 -0.08479074
0003e0 37 d9 4f be 16 46 69 3e b5 cd c0 3c b2 e6 00 3e
       -0.20297705 0.22780642 0.023535589 0.12588003
0003f0 4b 8b fa bd 48 92 4f 3d 9a 03 48 be 9b 36 3a be
       -0.12233599 0.050676614 -0.19532624 -0.18184893

weight_hh_l0 f4 [64, 16]
000000 96 38 b7 3d e6 a7 62 3e cf 30 b5 bb 59 70 64 be
       0.0894634 0.2213436 -0.0055295 -0.22308482
000010 77 28 5f 3e 61 b6 20 be 39 38 66 be 92 56 83 3e
       0.2179278 -0.15694572 -0.22482385 0.25651985
000020 8d d5 f9 3c d6 55 2d bc a7 f8 7e be 05 26 46 be
       0.030497337 -0.010579547 -0.24899541 -0.19350441
000030 92 0d 37 be 5b f6 4c be 68 0e 19 be db ba 42 be
       -0.1787627 -0.20015852 -0.14946902 -0.19016592
000040 d4 e0 c3 bc b6 0c bb bd 75 91 9e 3d 5c 0f 71 3e
       -0.023910917 -0.09133284 0.077425875 0.23541015
000050 56 3b 16 3e e0 7b 09 3e aa 33 c7 3d d9 e6 11 be
       0.14671072 0.13426161 0.09726651 -0.14248218
000060 cc 98 ca bd 8e 98 57 3e 72 c1 45 3d b0 4c 09 3e
       -0.09892425 0.21054289 0.048280187 0.1340816
000070 3b 2c 01 be 73 02 0b bd ed bd 22 bd e1 9d 7c 3e
       -0.12614529 -0.033937883 -0.03973191 0.24669601
000080 67 79 32 be 13 59 67 be 00 3f d2 3b b0 92 88 be
       -0.17429124 -0.22592573 0.0064162016 -0.26674414
000090 10 b9 9f 3b 23 e9 3c be 49 d0 d8 3d ef 10 82 be
       0.004874356 -0.1844831 0.10586602 -0.25403544
0000a0 cd b3 be bd 6f 26 92 3d d7 1e d1 bd b8 22 3f 3e
       -0.09311638 0.07136237 -0.1021096 0.18665588
0000b0 6d ff 0e 3e cc cf 77 be d0 36 17 bd 3e 41 85 be
       0.13964625 -0.24200362 -0.036917508 -0.26026338
0000c0 68 91 37 3e 19 9a 06 3e 18 14 1c be b5 6b d6 3d
       0.17926562 0.13144721 -0.1524204 0.10469762
0000d0 dc 46 16 3e a8 89 dd 3d 2d a5 6e bd 57 b8 24 be
       0.14675468 0.108172715 -0.058262993 -0.16085945
0000e0 3c cd 14 3e a1 66 5f be 0b 5b 7a be ce ae 9f bd
       0.14531416 -0.21816494 -0.24448793 -0.07797013
0000f0 bf 0c b6 3d 31 49 73 3e b6 db de 3b f7 ba 54 be
       0.0888915 0.23758389 0.006801094 -0.20774446
000100 32 4e 50 be da 0b 21 3e 64 59 21 3e 22 d0 b9 3b
       -0.20342329 0.15727177 0.15756756 0.0056705633
000110 61 75 af 3c 28 48 2c be 8b c4 4d bd 3a 97 40 bd
       0.021418275 -0.168244 -0.050236266 -0.04701922
000120 e0 09 99 bd 74 79 40 3e 1a 3e 91 bb 99 63 5a be
       -0.07472587 0.1879633 -0.004432452 -0.21327056
000130 4a 0d 10 3e c3 43 44 3e c7 1f 7e 3d ad f0 ea 3c
       0.1406757 0.19166474 0.062042024 0.028679216
000140 a3 35 55 bc dc 1c 56 be 3b 80 66 3c 61 02 e0 3c
       -0.013013276 -0.20909446 0.014068658 0.027344884
000150 b3 c2 2a be 50 39 50 3e 7f 6c cc 3c fd d0 3f 3e
       -0.16675834 0.20334363 0.024954079 0.18732066
000160 31 4a 05 bb 3f 1e c8 3d 10 c4 6d be 59 ca 47 3e
       -0.002033841 0.09771394 -0.23219323 0.19510783
000170 fb 03 73 be 9d 64 7b 3e c5 7e 22 3e d8 42 91 3d
       -0.23731987 0.245501 0.15868671 0.070928276
000180 54 ea 3c be 7f 65 41 be 17 3e cb 3d 9e ff 82 3d
       -0.18448764 -0.18886374 0.09923952 0.06396411
000190 18 3d 76 bd 85 b8 30 3d 26 cd 59 3d 41 16 9f 3d
       -0.060116857 0.04314472 0.05317416 0.077679165
0001a0 a1 20 3f bc 3b d0 47 3e 16 e5 ef bc 8c dc 2e 3e
       -0.011665494 0.19513027 -0.029284041 0.1707632
0001b0 29 a0 de bd 80 f7 d7 bd 3f be 2b 3e 1e 14 fa bc
       -0.10870392 -0.10545254 0.16771792 -0.03052717
0001c0 3f aa 69 3e 06 84 8b bd 94 00 d6 3d ca 37 84 3e
       0.2281885 -0.06812291 0.10449329 0.25823814
0001d0 5e 5c 76 bd 35 28 17 be 15 f8 c5 3b 05 6e 33 3c
       -0.060146682 -0.14761432 0.0060415366 0.010951524
0001e0 b6 92 a1 3c 4b 11 0b be 8e b2 6d be d5 08 74 bb
       0.019723278 -0.13580815 -0.23212644 -0.003723671
0001f0 74 46 2a be b3 b6 b0 3d 25 b4 7e be 57 8c 85 3c
       -0.16628438 0.08628597 -0.24873407 0.01630227
000200 a7 c4 6d be b9 a3 42 3e e6 64 03 3c 7a 6b 79 be
       -0.23219548 0.19007768 0.0080196615 -0.24357405
000210 35 7e 3c 3e 47 ad a9 bd 1f b6 d3 3d 60 d8 72 bd
       0.18407519 -0.08285003 0.10337471 -0.059288383
000220 aa 72 61 be 5e 49 16 be b0 68 76 3e f9 c2 2d be
       -0.22016397 -0.14676425 0.24063373 -0.16968907
000230 a0 17 64 3e 5e da e4 3c b7 8f 69 3e 3c 98 01 bc
       0.22274637 0.027936157 0.22808729 -0.007909831
000240 2a 9b cc 3d a8 10 6d be 96 d8 79 be a1 c3 c4 3d
       0.09990533 -0.23150885 -0.24399027 0.09607626
000250 34 ea cb 3d 45 45 d6 3d a4 a1 63 3e 4f 9a 05 3e
       0.0995678 0.10462431 0.2222963 0.13047145
000260 f9 ed 36 3d aa 30 f3 3c cc 07 11 bd 52 f4 d2 bc
       0.044660542 0.02968629 -0.035407826 -0.025751267
000270 85 d5 03 be 5e 37 43 3e e2 0a e0 3d ab ea 32 3e
       -0.1287442 0.1906409 0.10939576 0.17472331
000280 d3 55 80 3d 77 03 97 bd b9 6b 90 3d 54 58 87 3d
       0.0626637 -0.07373708 0.070517965 0.06608644
000290 93 ac 6f 3d 9a 41 a5 3d 2f 18 44 3e d9 9a 1d be
       0.05851419 0.08069153 0.1914985 -0.15391101
0002a0 e0 c9 da 3d 8e 27 dd 3d 52 7d 4d be cd e6 e0 3d
       0.10683036 0.1079856 -0.20067337 0.10981522
0002b0 5d 52 8d bd 53 ea 06 be a0 5a 7f 3e f7 04 94 3d
       -0.06900475 -0.13175325 0.24936914 0.072275095
0002c0 48 94 3b be 13 c1 85 bc 55 05 cc bd c2 50 be bd
       -0.18318284 -0.016327417 -0.099619545 -0.09292747
0002d0 44 92 88 bd a5 e2 78 bc 4f 0e 9a 3d d9 a5 0f be
       -0.06668523 -0.015190755 0.075222604 -0.1402811
0002e0 0e f3 4e 3e 7a 87 10 3d 13 85 4d 3e 93 e5 65 be
       0.20209906 0.03528545 0.20070295 -0.22450857
0002f0 11 54 87 3d ab 37 3b be 0f 87 3d 3e 90 f2 79 be
       0.06607831 -0.18282954 0.18508552 -0.24408937
000300 f8 eb db 3d e5 8c ab 3d 4a 6e 3e 3c ad 51 22 3d
       0.10738367 0.08376483 0.011622975 0.039628673
000310 a9 d4 b2 3d 4d f5 11 3e 3a 2e 5e 3e 97 ab 0b bd
       0.08731968 0.14253731 0.21697322 -0.034099188
000320 ab 3b 17 be ea e6 5b be 5e d0 b0 bd 6e 8a 4d bd
       -0.14768855 -0.21474805 -0.08633493 -0.050180845
000330 3e 0e 73 be 25 76 ae bd 0a 8d 6e 3e 48 80 68 be
       -0.23735902 -0.08518628 0.2329599 -0.22705185
000340 91 2e 7c bb 89 bb 9e 3c 85 6e 61 be 0f 1d 2c 3e
       -0.0038479904 0.019376533 -0.22014816 0.1680796
000350 1f 46 76 bd 23 fb 68 be c0 0f 5d bb 72 be 1a 3e
       -0.060125466 -0.22752051 -0.0033731312 0.15111712
000360 e6 31 5b be f3 6b 9d 3d 2a 8f 3f be e1 fe 4c be
       -0.21405753 0.07686605 -0.18706957 -0.20019104
000370 e1 1f e5 3c fd 1b 56 be 79 63 12 3e cb 26 84 3e
       0.027969303 -0.20909114 0.14295758 0.25810847
000380 02 9d 1a 3d ec 9d f0 3d 49 c4 42 3e 33 b9 60 bc
       0.03774739 0.11748871 0.1902019 -0.01371603
000390 0c af 38 3d ea 65 35 3d 58 5e e7 bd 0a 3c d1 bc
       0.045088813 0.044286646 -0.112972915 -0.025541324
0003a0 f4 ae f1 3d fb d8 23 bd 94 3e 47 bd d3 93 56 bd
       0.11800948 -0.04000185 -0.048643664 -0.05238707
0003b0 01 5f 27 be 8b 33 18 3e 19 70 10 3e cf 0e 51 3e
       -0.16344835 0.14863412 0.14105262 0.20415805
0003c0 2f 68 3d 3d f6 6f df bd 3a e4 28 3e b7 8b 71 bc
       0.046241935 -0.10910027 0.16493312 -0.014742783
0003d0 a7 19 36 3e fd 54 9c bd c7 53 b9 3d c8 73 14 be
       0.17783223 -0.07633398 0.090491824 -0.14497292
0003e0 3c 46 e9 bd 57 4f a2 3d 14 5f 10 3e 27 8c 6c 3e
       -0.11390349 0.07925289 0.1409877 0.23100339
0003f0 90 66 11 be 02 d1 3b be ef e0 6d be 42 1f e8 bd
       -0.1419928 -0.18341449 -0.23230337 -0.11334087

bias_ih_l0 f4 [64]
000000 84 5b 81 be 84 f3 0a bd fa 9f 3e be 05 9b 55 3d
       -0.25265133 -0.03392364 -0.18615714 0.05214979
000010 85 f6 8b 3e 1f 49 30 bd 4d 78 48 be 4e 41 02 3e
       0.27336517 -0.043038484 -0.19577141 0.12720224
000020 2b 14 13 3e c0 05 16 bd cb d2 68 3e c8 b3 45 bd
       0.14363162 -0.036626577 0.22736661 -0.048267156
000030 bd a5 8a 3e 22 ee ce 3d 32 07 1f 3d d4 5d 35 3e
       0.27079573 0.10104014 0.03882522 0.17711574
000040 fb 85 f3 3c 28 75 7f be 9e 36 f1 bd bf 70 c5 3d
       0.029726973 -0.24947035 -0.117779955 0.09640645
000050 82 cf 0a 3e 95 5e 2e 3e 12 6e 56 3e 95 28 98 bd
       0.1355572 0.17028268 0.20940426 -0.074296154
000060 19 3b 14 3e f5 8c c7 3d c5 72 90 3e 4c a5 34 3e
       0.14475669 0.09743682 0.28212562 0.17641181
000070 b6 03 98 bd 06 e2 38 3d 1f 31 e5 3b 72 a9 36 3d
       -0.07422583 0.045137428 0.006994381 0.04459519
000080 d5 7a 73 3d dd 83 5a be e8 8c b6 3c 75 eb ff bc
       0.059443314 -0.21339364 0.022283986 -0.031240204
000090 af cc 06 be bf 8f 5e 3e 09 96 49 3e cd b4 84 3d
       -0.13164018 0.21734522 0.1968614 0.064797975
0000a0 3d 63 68 be 2e 12 b2 3d d6 04 1c 3e 62 0d 88 be
       -0.22694106 0.08694874 0.1523622 -0.2657271
0000b0 9a b7 63 be 68 84 c7 bd bc f0 2c 3e 5f 9f 1d 3c
       -0.22238007 -0.09742051 0.16888708 0.009620517
0000c0 aa 95 2b be 58 73 a6 3d 3f 9d 0b be 4f e0 c6 3d
       -0.16756311 0.08127469 -0.13634203 0.09710752
0000d0 28 ce a9 bd bf 71 68 be 8e f8 4e 3e 69 ea 11 bd
       -0.08291274 -0.2269964 0.20212004 -0.03562394
0000e0 67 a8 4c 3d 86 85 22 be 7a c3 52 3e 5e 77 86 3c
       0.04996529 -0.15871248 0.20582381 0.01641434
0000f0 f2 69 cc bc 40 10 d6 bd 06 61 f9 bd 3f 33 f3 bd
       -0.024952862 -0.10452318 -0.12176709 -0.11875009

bias_hh_l0 f4 [64]
000000 bd dd d3 bb 46 96 25 be 89 05 44 3d f6 14 03 be
       -0.0064656422 -0.16170606 0.04785684 -0.12800965
000010 c7 33 96 3d e4 60 37 3e a1 f3 dc 3d 99 d8 f8 bd
       0.073340945 0.17908055 0.10788656 -0.12150688
000020 95 51 53 be bb 93 fe 3d f7 4d 39 be 8c 9e a7 bd
       -0.2063659 0.12430521 -0.18096147 -0.08184537
000030 f5 bb 84 bd 08 ae 84 bc b3 68 1c 3e 5d 15 36 3d
       -0.064811625 -0.016196266 0.15274315 0.044453967
000040 3b 70 d1 3d 84 8b 7b be d8 96 2b 3e 42 aa a1 3d
       0.102264844 -0.2456494 0.16756761 0.07893802
000050 f9 7d f0 bd 2a d2 7c 3d 9d 75 50 be be a7 62 be
       -0.117427774 0.061723866 -0.20357366 -0.22134301
000060 3c da 67 3e 71 40 03 3e 3a 68 18 be 7f e9 b8 bd
       0.22641844 0.12817551 -0.1488351 -0.09028911
000070 ec df 23 be a2 40 34 be b2 03 b4 bd 4c bb dd 3d
       -0.16003388 -0.1760278 -0.08789767 0.1082674
000080 97 61 c1 3c bd d2 5b be 7b ad 54 3e 62 55 8e bd
       0.023606105 -0.21467109 0.20769303 -0.06949879
000090 25 cc a7 bd 3f 89 30 3e 36 2d 46 3e 82 73 2d be
       -0.08193234 0.17239855 0.19353184 -0.16938594
0000a0 c4 4f a2 bb b5 c5 d4 bd 3f 03 22 3d 54 09 bf bd
       -0.0049533565 -0.10389272 0.039553877 -0.09327951
0000b0 46 5f 85 bd 8b bf 3a bb ae 23 6d 3d 8d f7 2f be
       -0.065123126 -0.0028495516 0.057895355 -0.17184277
0000c0 63 58 3d bd 82 dd 8a be 58 dd 65 3e 0d 58 00 be
       -0.04622687 -0.27122122 0.22447717 -0.12533589
0000d0 43 c7 0b be a5 61 05 be 01 8d fb 3d 00 74 9a 3d
       -0.13650231 -0.1302553 0.12282754 0.075416565
0000e0 1f 1b eb 3d 01 45 e4 3d 71 07 91 3e a7 f2 4c 3e
       0.11479782 0.11145974 0.2832599 0.2001444
0000f0 15 78 3d be 48 04 5c 3c 93 f9 da bd 31 48 7d 3e
       -0.18502839 0.013428755 -0.10692134 0.2473457

weight_ih_l1 f4 [64, 16]
000000 2c c5 92 3d a2 5a ce bd 66 14 32 3d 59 f9 49 3e
       0.07166514 -0.100758806 0.043476485 0.19724025
000010 90 f4 85 be 01 bd 38 3e ea 17 83 3e 2f 12 45 be
       -0.2616315 0.1804085 0.25604182 -0.19245218
000020 b9 7e 17 bb 24 ec 91 bc e6 3f 12 be 09 d5 19 3e
       -0.0023116304 -0.017812796 -0.14282188 0.15022673
000030 95 40 97 bd 2a de 0d be 64 69 11 3e 44 0c b5 3d
       -0.07385365 -0.1385428 0.1420036 0.0884023
000040 2e ce 62 be 2a f8 dc 3d 3c 32 40 bd 03 bc 42 be
       -0.22148964 0.10789521 -0.046922907 -0.19017033
000050 98 fa 20 3e 98 37 4b be 33 a4 54 be d7 e8 5b 3e
       0.15720594 -0.19845426 -0.20765762 0.2147554
000060 b8 2e 0f be 1d 7f 20 be f0 32 88 be 42 54 43 bd
       -0.13982666 -0.1567349 -0.26601362 -0.047687776
000070 ee f7 f2 3d 43 95 80 3e 47 a2 4a be 88 cc 1a be
       0.11863695 0.25113878 -0.19788466 -0.15117085
000080 54 5e 0b be c2 4e 44 3e e7 00 e9 3d 7f 3f 4d 3e
       -0.13610202 0.19170669 0.11377125 0.20043753
000090 0c f7 8d be 66 86 31 be 7f 21 9a bc 9b 55 79 bc
       -0.27727544 -0.17336425 -0.0188148 -0.015218164
0000a0 37 6c f6 bc 5f 13 91 3c 35 fd 9a 3d 7f 60 6b 3d
       -0.030080898 0.017709432 0.07567827 0.057465073
0000b0 01 2c 6e 3d ca c2 7d be c0 ab 09 3e 3e fe 82 be
       0.058147434 -0.24781337 0.13444424 -0.25584596
0000c0 a2 07 15 be f0 10 e2 3c 2c d8 2f be 8c 18 7f 3d
       -0.14553693 0.027595967 -0.17172307 0.06227927
0000d0 dc d2 04 be 42 60 98 3d 1a 98 82 3e b0 16 4d be
       -0.12971061 0.07440235 0.2550667 -0.20028186
0000e0 28 c8 d2 bd 34 1b e3 bd 2e 65 13 3e f5 19 43 3e
       -0.10292083 -0.11089173 0.14394066 0.1905287
0000f0 f0 2e 6a be bc b5 3f be e6 7a 4f 3e 04 fe 92 be
       -0.22869468 -0.1872167 0.20261726 -0.28709424
000100 93 f7 4d 3d 4d 05 df 3d 03 11 38 3e b2 38 0a bd
       0.050284933 0.10889683 0.1797524 -0.033745475
000110 1f 10 35 3e 29 fc d8 bd 85 fc 06 be fa 7e 8a be
       0.17681931 -0.10594971 -0.13182266 -0.2705
000120 be de da bc 0f cf 39 3e eb 98 23 bc f6 9c 13 be
       -0.02671754 0.18145393 -0.009985189 -0.14415345
000130 3e a8 14 be 71 de 22 be 44 d3 3b 3e 0c 28 dc bc
       -0.14517304 -0.15905167 0.1834231 -0.026874565
000140 44 b3 65 bd 53 f3 36 3e d6 b4 57 3d a0 4d 81 3d
       -0.056079164 0.17866258 0.052662693 0.06313634
000150 55 fa 19 3e f2 03 c6 3d 82 6f 7f 3e 7b 95 8e be
       0.150369 0.09668721 0.2494488 -0.2784842
000160 06 dd 4b be 87 5c 05 bd 06 90 ba 3d 02 f4 68 bd
       -0.19908533 -0.032558944 0.091095015 -0.05687333
000170 dd 8d 21 3e 30 e0 c3 3d e8 70 4b 3e 5b 4b 7d be
       0.15776773 0.09564245 0.19867289 -0.24735777
000180 13 f0 d4 bd f6 bf f1 3b bd 73 dd bd b5 13 15 3e
       -0.10397353 0.00737762 -0.10813091 0.14558299
000190 ea ae 7a bd 08 d8 67 3d de 49 c9 bd 4a 43 d9 3d
       -0.061201967 0.056602508 -0.09828542 0.106085375
0001a0 49 48 80 be 9f f4 08 be 9e 32 8b 3e d5 5e 93 bd
       -0.2505515 -0.13374566 0.27187055 -0.07195822
0001b0 46 74 1a be 81 fd 23 3c 7d ed 0a 3d 0e ff 52 be
       -0.15083417 0.0100091705 0.033917893 -0.20605108
0001c0 f9 3a 86 3e e8 62 7b 3c 3f 10 37 3e 16 db 7a bd
       0.26216868 0.015343405 0.17877291 -0.061244093
0001d0 4a 98 5c bc 42 70 8c 3e f2 d1 2b 3e 22 40 1c 3e
       -0.013464043 0.27429396 0.16779307 0.1525884
0001e0 04 7f 36 3e 3b 07 fb bd a4 fd 11 3e c2 ac bc bd
       0.1782189 -0.122572385 0.14256912 -0.092126384
0001f0 38 24 e8 3d 5f d0 0f bd b7 7a 91 bd 20 61 a1 bd
       0.11335033 -0.035110828 -0.07103484 -0.07879853
000200 1b 7a bb bd f7 76 5a be 01 17 48 bd 74 4f ab 3d
       -0.09154149 -0.21334444 -0.048850063 0.08364764
000210 a4 c9 19 be 25 d1 8f 3d 56 b1 3a 3e 8e 03 f7 bd
       -0.15018326 0.07022313 0.18231711 -0.12061225
000220 aa fa 29 3c 06 20 8c 3d ac a1 5e be 4f 71 4b be
       0.010374704 0.068420455 -0.2174136 -0.19867443
000230 00 93 83 3d c1 e7 62 be 3d 9c 08 bd e2 a1 38 bd
       0.064245224 -0.2215872 -0.033352125 -0.04507626
000240 94 9d e6 3d c3 d7 28 3e cc d9 66 be 8a 69 d0 bd
       0.112605244 0.16488557 -0.2254402 -0.1017638
000250 4f 95 82 3e 49 c6 72 3c b9 8a 53 be ff ce 81 bc
       0.25504538 0.014817783 -0.20658387 -0.015845774
000260 44 97 89 3d 5f 31 f8 bd 9d 19 cf bd 1b 1c 1f 3c
       0.06718305 -0.12118792 -0.10112307 0.009711291
000270 6a be b7 3d fe cb 90 bc a2 b2 70 be ba 00 d1 3d
       0.089718655 -0.017675396 -0.23505643 0.10205217
000280 28 5d 92 3e ca b1 01 3e 12 01 05 3d 02 07 4e be
       0.28586698 0.12665477 0.032471724 -0.20119861
000290 a8 6a 53 bd b7 c1 53 3e 25 a8 66 bd 01 65 84 3d
       -0.051615387 0.20679365 -0.0563127 0.064645775
0002a0 63 44 a8 bd fc 39 c8 bc c2 30 24 3e f7 d4 b3 3d
       -0.08216169 -0.024441712 0.16034225 0.08780854
0002b0 5f b9 83 3d b6 fd c9 bd c3 02 e7 bc 90 cd 45 be
       0.06431841 -0.09862845 -0.02819956 -0.19316697
0002c0 ac 88 07 3e 9f 4a 66 be c5 79 8c be 58 34 40 3e
       0.1323573 -0.22489403 -0.27436653 0.18769968
0002d0 d1 57 64 3e 9d a5 a8 bd a5 51 80 be 40 43 08 be
       0.22299124 -0.08234713 -0.2506229 -0.13306904
0002e0 ee ca 24 be 68 e9 03 be 3f 5b ec bc 14 2a 9d bc
       -0.16093037 -0.12882006 -0.028852103 -0.019185103
0002f0 53 d1 2b be 19 f5 1f 3e 7b ac 75 3d b5 1f 8c 3e
       -0.1677907 0.15620841 0.059978943 0.2736794
000300 55 e2 5f bc 57 ee 6d be 02 0c 8d 3e 8d 3a 0c be
       -0.013664802 -0.2323545 0.27548224 -0.1369421
000310 42 6b 72 be f0 f1 94 bd 4d eb 32 3e ab a6 e8 3d
       -0.23673728 -0.072727084 0.17472573 0.113599144
000320 97 c9 0c be ad 7a 9b bd 72 c9 1c be 92 28 04 bd
       -0.13748775 -0.07591758 -0.1531122 -0.032265253
000330 16 b2 93 be ff 85 95 3d 6a 01 38 be c6 d1 a5 bd
       -0.28846806 0.07300948 -0.1796929 -0.08096652
000340 b6 57 56 be 0d 75 53 bd a4 f0 3a be b8 c5 08 be
       -0.20931897 -0.0516253 -0.1825586 -0.13356674
000350 9d 55 2a be 18 a8 52 3e fb 83 19 3e e4 cd 40 3e
       -0.16634221 0.20571935 0.14991753 0.18828541
000360 90 2e d6 3d 35 f1 14 be 33 e2 65 3e ac 93 49 bd
       0.104581 -0.14545138 0.2244957 -0.049213096
000370 bd fb 2f 3e 09 12 84 be dd a9 47 3e 04 81 84 3d
       0.17185874 -0.2579501 0.19498391 0.0646992
000380 54 4c 5c be 0f 40 2c bd d5 e7 6c 3e 9f d4 0e 3e
       -0.21513492 -0.04205328 0.23135312 0.13948296
000390 ca c1 7d be 72 87 d4 bd 82 31 4f be e4 e3 23 3e
       -0.24780956 -0.10377397 -0.2023373 0.16004902
0003a0 b5 d3 fb 3b 46 68 0c be c6 8a 58 3e ca 50 f9 bc
       0.0076851496 -0.13711652 0.21146688 -0.030434031
0003b0 e1 05 3b 3e 12 01 70 3d cc a8 03 be 8a 1e 03 bd
       0.18263961 0.05859477 -0.1285736 -0.032011546
0003c0 62 6d f2 bd ae 18 31 3e 55 39 5a 3e 2b 60 52 3e
       -0.11837269 0.17294571 0.21310933 0.20544498
0003d0 3e 3f 86 3e a8 46 ab 3d 12 2e 5f 3d 02 f6 ac bd
       0.26220125 0.08363086 0.054487295 -0.0844536
0003e0 be 81 e4 bc 1d 99 9b 3d cf ba d8 bd 3f a3 1b 3e
       -0.027893897 0.075975634 -0.10582506 0.15198992
0003f0 2e 2a df bd b7 5a 88 3e 4b 3a 72 be 60 d4 57 be
       -0.10896717 0.2663171 -0.2365505 -0.21077108

weight_hh_l1 f4 [64, 16]
000000 d7 90 42 3e c1 88 51 be 10 3d 43 be e2 b4 de bd
       0.19000565 -0.20462324 -0.19066262 -0.108743444
000010 cb 9c 0b 3e 82 10 82 be ec b0 a1 bc b4 da 06 be
       0.1363403 -0.2540322 -0.019737683 -0.13169366
000020 4c af f9 3d 20 00 ba bd ba 52 b0 bd 5d e0 b0 bd
       0.12191638 -0.09082055 -0.08609529 -0.08636544
000030 00 3f 84 be 30 3d 81 3e 7d 0f 0f bd 42 36 97 bd
       -0.25829315 0.25241995 -0.03492688 -0.07383396
000040 5c a0 47 3e 27 96 26 3e 99 9c 39 3e 97 25 68 bd
       0.19494766 0.16268216 0.18126144 -0.056676473
000050 82 98 08 be 43 89 31 3e 07 9c f4 bd 6b d6 82 3d
       -0.13339427 0.17337517 -0.11943822 0.06388553
000060 f4 c2 22 3d 94 27 ea 3c c3 6f 7c be 19 5d 83 bc
       0.039736703 0.028583325 -0.24652009 -0.016035603
000070 0f ee 6b 3e aa d6 f0 3d 74 dd fe bd b6 f8 3c 3e
       0.23040031 0.11759694 -0.124445826 0.1845425
000080 91 a6 45 be 6d e7 44 3e de c9 cd 3d 9d 1c 18 bd
       -0.19301821 0.19228907 0.10048269 -0.037136663
000090 bd 85 c2 3d 7a 04 80 3d ed 98 e5 3d ec e0 28 be
       0.09498165 0.06250854 0.11210809 -0.16492051
0000a0 73 3f 57 3d 66 b2 37 3c 2d de 7c 3e 8f 2d 96 3e
       0.052550744 0.011211967 0.24694128 0.29331633
0000b0 c5 62 82 be 57 18 f9 3d f9 76 38 be ef e5 8b be
       -0.2546598 0.121628456 -0.18014134 -0.27323863
0000c0 0d 8f 88 3e 01 e1 74 be 10 93 bd 3d c9 6f 38 be
       0.2667164 -0.23913957 0.092565656 -0.18011393
0000d0 2f 4e 08 3e 02 3a 4b 3c 83 6e d2 bd 92 1c 59 3e
       0.13311075 0.012403967 -0.10274985 0.21202305
0000e0 9c c3 9a bb 7f 0e e7 bd 00 56 8b 3e 43 5b 3a bd
       -0.0047230255 -0.11282062 0.2721405 -0.04549719
0000f0 6d ef 86 3d 27 63 b7 bd b2 f0 8b 3e 3a 02 f3 3c
       0.065886356 -0.08954459 0.27332073 0.029664148
000100 23 33 d4 bd d7 22 2d 3e 8c 01 1c 3e 22 ae 84 3d
       -0.10361316 0.16907822 0.15234965 0.06478526
000110 fb 70 0d be 0a 87 c0 3d 9e 4c 9b 3d f5 92 2d be
       -0.1381263 0.09400757 0.07582973 -0.16950591
000120 2c f3 cd bd ed 1c 3e bd 2c 93 8a 3e 0e 10 22 be
       -0.10056147 -0.046414305 0.27065408 -0.15826437
000130 16 7a 01 3d 7b 08 0a 3e 44 6e ee bd f7 b0 65 bd
       0.03161057 0.13479798 -0.11642125 -0.05607697
000140 45 65 61 3d 41 02 41 be 53 13 57 be 15 ed d5 3d
       0.05502822 -0.18848516 -0.21003465 0.104456104
000150 2a b4 d4 3d f1 f6 6d 3d 82 e5 b7 3d 7a cb 44 be
       0.10385926 0.05809683 0.08979322 -0.19218245
000160 f9 35 a0 3d f5 a8 57 be 0f 68 8e 3c e3 d4 3f be
       0.078227945 -0.21060546 0.017383603 -0.18733554
000170 8c 00 17 3e 61 d1 08 bd c6 ad 11 3d ca b0 7f bd
       0.14746302 -0.033402804 0.035566114 -0.06242446
000180 bd 66 2e be 81 94 83 be c5 a2 93 be 81 33 06 be
       -0.17031379 -0.25699237 -0.2883512 -0.13105585
000190 cb d8 2d bd 06 f1 01 3d 43 b7 c9 3d 2d f5 b8 3d
       -0.042443078 0.031724 0.098494075 0.090311386
0001a0 85 99 35 3e 76 a7 bc 3d b1 68 3c 3e b5 31 82 3e
       0.17734344 0.09211628 0.18399312 0.25428548
0001b0 98 0b 7c 3d b4 ef 23 3e 8b 0b 8b 3e 54 a6 66 be
       0.061534494 0.16009408 0.27157244 -0.22524387
0001c0 97 11 41 3e 03 96 0b be 0e ce 37 bc 6c 54 34 be
       0.18854366 -0.13631444 -0.011218561 -0.1761033
0001d0 63 fa 90 be 0a 65 b3 bc c0 14 5c bd 93 f8 b1 bd
       -0.2831603 -0.021898765 -0.053730726 -0.0868999
0001e0 a8 98 29 3e 9b f8 63 3d a1 69 3e be 69 98 82 3d
       0.1656214 0.05565701 -0.18594982 0.06376726
0001f0 e8 95 26 3e f3 27 55 3c bd b7 aa 3d 4c 22 c2 bd
       0.16268122 0.013010013 0.083358265 -0.09479198
000200 d8 f6 41 be f3 2f 85 3e 44 f4 3a be 29 ed 01 be
       -0.1894182 0.26013145 -0.18257242 -0.12688126
000210 86 e6 29 3e c5 8c c8 bc 5d ed 0d 3d 56 2e e0 bc
       0.16591844 -0.024481187 0.034650195 -0.027365845
000220 21 28 62 bd e8 58 83 be 36 e6 12 be 27 04 0b be
       -0.05521405 -0.25653768 -0.14345631 -0.13575803
000230 32 9c 8d bd 60 0d 8d bd 0e bd 47 be 81 df 64 bd
       -0.069145575 -0.06887317 -0.19505712 -0.055877212
000240 2a 0a c8 3d f2 53 51 3e bd 76 f3 bd 65 4c d5 bd
       0.09767564 0.20442179 -0.11887882 -0.10414962
000250 70 68 3a 3e 18 7a 2c be 9b 76 33 be cf cf 74 be
       0.18203902 -0.1684345 -0.17525713 -0.23907398
000260 34 3f 6c 3e 23 9d c8 bb 5e 2d 41 be f6 55 cc 3d
       0.23070985 -0.006122248 -0.18864962 0.09977333
000270 64 af 82 3e 75 ed 9b bd 9f 45 4f be b8 da 1a be
       0.25524437 -0.07613651 -0.20241402 -0.15122497
000280 e8 b2 2e be 00 7f 95 3d 63 45 87 be b4 b1 da 3d
       -0.17060435 0.07299614 -0.26420125 0.106784254
000290 ed 7d 86 bd 90 46 05 3c 92 88 66 3e 20 42 35 be
       -0.06566987 0.008134499 0.22513035 -0.17701006
0002a0 c7 7f ce 3d 74 ad 50 3e 0d 26 41 3c 1d de 14 be
       0.10082965 0.20378667 0.011788857 -0.14537854
0002b0 f9 c1 b1 bb e8 4f c8 bd 2c a8 96 3e 07 ba 6f be
       -0.0054247347 -0.09780866 0.2942518 -0.23410808
0002c0 65 52 f4 bd d4 48 01 3e c0 ac 33 bb 45 02 c0 3d
       -0.11929778 0.12625438 -0.00274162 0.09375433
0002d0 a9 cf 42 be 2e cb 26 be 30 b9 64 be ad da d7 bd
       -0.19024529 -0.16288444 -0.22336268 -0.10539756
0002e0 1e c9 0a 3e da 7f 15 3e 1c fb b0 bd 39 84 c2 3d
       0.13553283 0.14599553 -0.08641645 0.09497876
0002f0 83 5b ef bd 00 41 a2 bd 4d 01 57 3e 34 3b 02 3c
       -0.11687376 -0.07922554 0.2099659 0.007948685
000300 22 55 23 3e 29 4e 3d 3e b5 24 0b 3e 6f f7 c0 bd
       0.15950444 0.18486847 0.13588221 -0.09422194
000310 6d 16 e3 bd 03 e4 e0 bd a7 70 21 be 17 8f 26 bd
       -0.11088262 -0.1098099 -0.1576563 -0.040663805
000320 e5 9a 79 be 83 26 48 be 20 1a 12 3e 92 04 79 3e
       -0.24375494 -0.19545941 0.14267778 0.2431815
000330 9f fb 37 3e f5 7c 03 be fd 16 d5 bd b0 f4 50 be
       0.1796708 -0.12840636 -0.10404775 -0.20405841
000340 63 17 fa bd 24 4a f3 bc 9d 48 90 be 35 e8 29 3e
       -0.12211492 -0.029698439 -0.281804 0.16592486
000350 79 79 51 be 18 54 f4 3a b5 c0 a0 3d 31 7e 46 3d
       -0.20456494 0.0018640785 0.07849256 0.04846019
000360 db bc 55 bc e8 55 3f be 8c 0d 87 3e b5 cb 03 be
       -0.013045515 -0.18685114 0.26377523 -0.12870677
000370 f5 d3 5b be d8 3a 2b be 1b b1 27 be ad 5a a8 3d
       -0.21467574 -0.16721666 -0.16376154 0.0822042
000380 51 c9 e4 3d b1 f0 84 bd b2 62 fb 3d 4a 2e 14 3e
       0.111712106 -0.06491221 0.12274684 0.14470783
000390 4f d2 92 be 02 5f 09 3e 51 c5 63 bb 25 50 26 3e
       -0.28676078 0.13415149 -0.003475506 0.1624151
0003a0 12 11 2e 3e d5 66 6e 3d 49 72 06 be 28 59 1d be
       0.169987 0.058203537 -0.13129534 -0.15366042
0003b0 b2 54 40 be d6 16 5c 3e 29 ea 50 be 71 d1 65 3b
       -0.18782309 0.21493086 -0.20401825 0.0035067464
0003c0 b8 4d 16 3e af 11 fe 3d 72 05 6e 3d 63 54 95 3d
       0.14678085 0.12405717 0.05811066 0.07291486
0003d0 1a 05 6b bb 8c af 20 3e 23 c4 9b 3a 81 4e 32 bd
       -0.0035861195 0.15691966 0.0011884015 -0.0435319
0003e0 9f 3f 83 3e 2a f5 15 3e 3c 81 33 be 6f e3 3f 3e
       0.25634477 0.14644304 -0.17529768 0.18739103
0003f0 9b 24 c3 3d 85 b7 35 be 99 a2 68 3d 1a 6b 19 be
       0.09528466 -0.17745788 0.05679569 -0.14982262

bias_ih_l1 f4 [64]
000000 b7 dd 5a 3e c1 ce 6f be 41 59 91 3e 21 c0 66 bd
       0.2137364 -0.23418714 0.28388408 -0.056335572
000010 5f 21 c0 bd 83 cc 51 3e 22 2a 85 3e 3d 5c 90 3e
       -0.09381365 0.20488171 0.26008707 0.28195372
000020 3c cc fb 3d 3a eb 30 be a6 ba 50 3e 57 3f 76 bd
       0.12294814 -0.17277232 0.203837 -0.060119
000030 69 b3 4c be b7 50 81 3d 84 53 1c be 72 c3 61 be
       -0.19990315 0.06314223 -0.15266234 -0.22047213
000040 71 57 fa bd 3d d7 05 be 38 b0 71 3d 7f c4 20 bd
       -0.122237094 -0.13070388 0.059005946 -0.039249893
000050 84 73 6c 3e 7f 18 68 3e 4c 11 1b be 85 4e 6d 3e
       0.2309094 0.22665595 -0.15143317 0.23174484
000060 5c 6c 22 be 78 ee c8 3d 39 bd bd 3d e1 32 3b be
       -0.15861648 0.09811109 0.09264607 -0.18281128
000070 7e 14 1d be 6d 1a 83 3e 3a 8c 46 3d 0a 43 3d 3e
       -0.15339848 0.256061 0.048473574 0.18482605
000080 64 31 ce 3d 22 e0 1c 3e 76 c9 7c 3d d9 3a f8 bd
       0.10068014 0.15319875 0.061715566 -0.12120599
000090 5b bc 71 be 9c 34 c0 3c 78 5f 58 3e b1 87 0c bd
       -0.23607008 0.023462586 0.21130168 -0.034309093
0000a0 92 c9 23 be 66 47 e2 bd d6 40 07 be b7 26 16 3e
       -0.15994862 -0.110487744 -0.13208327 0.14663206
0000b0 f5 08 8c 3c 1c 89 67 3e 59 23 fa 3d 6e f1 5c be
       0.017094115 0.22610897 0.12213773 -0.21576473
0000c0 c9 a9 ab bd 8f 2c 54 3e bd 48 83 3e 12 11 e4 bd
       -0.08381993 0.20720123 0.25641432 -0.111360684
0000d0 03 8c 89 3e 66 d7 f6 3d 51 20 48 3e 5b 9a cf 3d
       0.26864633 0.12052803 0.19543578 0.10136863
0000e0 54 0e 95 bd a2 05 85 be 7a e6 3e 3e 24 c2 3f 3e
       -0.072781235 -0.2598086 0.18642607 0.18726403
0000f0 40 8f a3 bd 1e 40 80 3e a6 46 29 bd 68 3e 24 3e
       -0.07986307 0.25048918 -0.04132714 0.16039431

bias_hh_l1 f4 [64]
000000 5f 4b d0 3d ce 3b 3a 3d 02 38 d2 3d 7d ec 95 3b
       0.10170626 0.04546719 0.10264589 0.0045753107
000010 d1 45 43 bb 26 66 fd bd 30 49 f8 3c 06 ed 47 3e
       -0.0029796252 -0.12372999 0.030308336 0.19524011
000020 30 c1 61 be 21 38 a8 3d 66 8f 25 be ff 0c 5c bd
       -0.22046351 0.08213831 -0.16167983 -0.05372333
000030 05 85 32 be c5 5f 05 3e 26 85 57 3e f1 9b 21 be
       -0.17433555 0.13024814 0.21046886 -0.15782143
000040 df 90 f5 3d 7d 5c 64 be 4e c3 36 3e be 8e 61 3e
       0.119905226 -0.22300906 0.1784794 0.22027108
000050 1a c8 6f 3d 57 1d 8d bd fe 7e be bd 9d d0 97 bd
       0.05854044 -0.06890362 -0.093015656 -0.07412837
000060 d6 43 e5 bd af e8 4a bd 40 85 85 bc 37 69 1e 3e
       -0.11194579 -0.04953831 -0.01629889 0.15469824
000070 ec a5 26 3e 0a f5 25 be c9 0c 1e be fe 8b 18 be
       0.16274232 -0.16206756 -0.15434565 -0.14897153
000080 2c 8f 9f 3d 68 c0 65 be d7 62 9c bd a7 79 6d 3e
       0.0779098 -0.22436678 -0.0763604 0.23190938
000090 f3 a9 2d 3e 6c b4 62 be 47 c1 ec 3c b7 8d 06 3e
       0.16959362 -0.22139138 0.028900756 0.13139997
0000a0 46 de 25 bd 71 79 bd 3d 56 a5 2c 3e 68 ff 3c 3d
       -0.04049518 0.09251679 0.16859946 0.046142012
0000b0 a1 1c 19 be 2f 6c 95 bd b4 a7 cf 3d 57 4d 8a 3d
       -0.14952327 -0.07296025 0.10139409 0.06753033
0000c0 a8 29 22 bd ee c0 77 be a4 00 08 bd 7b 48 61 3e
       -0.039590508 -0.2419469 -0.033203736 0.22000305
0000d0 75 67 af 3d 3a 9b c1 bb a4 48 0f 3e c8 ce eb bd
       0.08564655 -0.005908397 0.13992554 -0.1151405
0000e0 d4 8a 3d 3e 26 ea c8 bc a1 3a e1 3d 92 0c 2e 3e
       0.1850999 -0.024525713 0.10997511 0.16996983
0000f0 8d 18 0a bd b4 08 78 3d f6 15 39 3e 77 c8 f6 3d
       -0.03371482 0.060555175 0.18074784 0.120499544

weight f4 [1, 16]
000000 35 09 86 be b4 a5 23 be 49 71 1b 3d 3e fe 8f be
       -0.261789 -0.1598118 0.037949834 -0.2812366
000010 7b a7 55 3e 5b 6f 83 3e 35 b4 fb bd 30 d1 86 be
       0.2086467 0.25670895 -0.12290231 -0.26331472
000020 bc 76 33 be e7 83 9c 3d 23 77 16 be 5b d0 d6 3d
       -0.17525762 0.07642346 -0.14693885 0.104889594
000030 62 03 1b 3e 40 a7 8f be ea c0 d5 bd c2 4d 12 be
       0.15138009 -0.2805729 -0.10437186 -0.14287475

weight f4 [1, 32]
000000 f4 cb 1f be 55 8e 15 3e 18 80 26 be e9 3e 25 be
       -0.15605146 0.14605077 -0.16259801 -0.1613728
000010 79 5c fb bd 6d 56 05 3e 74 88 8a 3d 18 27 de bd
       -0.12273497 0.1302125 0.067643076 -0.108473
000020 59 8a 26 3e 2a 33 fa 3d 38 d3 96 bc b4 44 56 3d
       0.16263713 0.1221679 -0.018411264 0.052311614
000030 fa 5c ba 3d 33 23 1c 3e 5e 1f 58 bd c0 dc 0f 3c
       0.09099765 0.15247802 -0.05276429 0.008780658
000040 b1 02 07 3e 90 4d 26 3c 78 6d bf 3c 8f 45 1f 3e
       0.1318462 0.010150328 0.023367628 0.15553878
000050 00 d4 ec bc 06 5f df 3d d9 75 9b bd 86 19 cb 3d
       -0.028909683 0.10906796 -0.07590837 0.099169776
000060 5a 4e dc 3d 8e be 84 3d c1 4d 32 3e 4e 6d 2e be
       0.10757132 0.06481658 0.17412473 -0.17033884
000070 e7 d1 fe bd ee 40 97 3d c0 0d 8b bc 04 8c 1d 3d
       -0.124423794 0.07385431 -0.01697433 0.038463607
