competition/result/lstm_win10/trained_model/best_model/critic.pth (torch, 28164 bytes, 6 tensors)

weight_ih_l0 f4 [128, 11]
0	0xbdafa875	-0.085770525
1	0x3cbabe73	0.022795891
2	0xbc801f30	-0.015639871
3	0xbc842da3	-0.016135043
4	0x3a989c9b	0.0011643352
5	0xbdb4909c	-0.088166445
6	0xbde11eb7	-0.109921865
7	0x3e0d07c8	0.137725
8	0xbd00b97e	-0.0314269
9	0xbbafad20	-0.0053612143
10	0x3e32c651	0.17458464
11	0x3d562340	0.05227971
12	0x3e314fba	0.1731557
13	0xbe2be920	-0.16788149
14	0x3df01d04	0.11724284
15	0xbe19b9b7	-0.15012251
16	0xbdec1352	-0.115271226
17	0x3db1e957	0.08687084
18	0x3df4a1c3	0.11944916
19	0xbca036a8	-0.019557312
20	0x3dbdd3ee	0.09268938
21	0xbd87b413	-0.06626143
22	0x3d186335	0.037203986
23	0xbca1d072	-0.019752715
24	0xbd4fc0ac	-0.050720856
25	0x3d80a4d0	0.062814355
26	0xbd2c4f81	-0.04206801
27	0xbceb822a	-0.02874859
28	0x3e18c58a	0.14919105
29	0xbdf401a9	-0.11914379
30	0xbc8a3f39	-0.01687585
31	0xbd99d5d3	-0.07511487
32	0xbe213cb4	-0.15745813
33	0xbdb3a19e	-0.087710604
34	0x3d146629	0.03623024
35	0xbd42c87a	-0.04755447
36	0x3d4812ef	0.04884618
37	0xbe192fa3	-0.14959578
38	0xbe23f20c	-0.16010302
39	0xbd8109a7	-0.06300669
40	0x3d0ed478	0.034870595
41	0x3e29cae6	0.16581306
42	0x3d839aa4	0.0642598
43	0x3df6c155	0.12048594
44	0x3dd1b9d1	0.1024052
45	0xbd39322e	-0.04521387
46	0x3dd1b5b2	0.10239734
47	0xbdf2321d	-0.118259646
48	0xbe386fe0	-0.18011427
49	0x3e28e004	0.16491705
50	0xbcfe9015	-0.031074563
51	0x3cc47322	0.02398068
52	0xbe2d876a	-0.16946188
53	0x3d14ec2e	0.03635805
54	0x3b99f86f	0.004698805
55	0x3da63b02	0.081167236
56	0x3dbe4cc0	0.09291983
57	0xbd20ee1a	-0.03928957
58	0x3e19754d	0.14986153
59	0xbdc8064b	-0.09766825
60	0xbe0f3597	-0.13985287
61	0x3e0e2df2	0.13884714
62	0x3d9e1af7	0.07719987
63	0xbde56fc3	-0.112029575
64	0x3aa98863	0.0012934323
65	0xbcd3fc92	-0.02587727
66	0x3d11ab8b	0.035563987
67	0xbe1c4751	-0.1526158
68	0x3e085fd6	0.13317809
69	0xb6eb12dd	-7.0057417e-06
70	0x3d73bc61	0.059505824
71	0xbe090b35	-0.13383181
72	0xbcd5c402	-0.02609444
73	0x3de2d2e4	0.110753804
74	0xbdc2db5f	-0.09514498
75	0x3dbc7cf6	0.09203522
76	0x3dd63a76	0.10460369
77	0xbcbb0c9b	-0.02283316
78	0x3df0a49c	0.11750147
79	0x3c065edf	0.00820133
80	0x3d0a8fc7	0.033828523
81	0x3de542fc	0.11194417
82	0x3d35655d	0.04428612
83	0x3de57aef	0.11205088
84	0x3e044684	0.12917525
85	0xb92069ea	-0.00015298245
86	0x3e15d483	0.14631848
87	0x3dc03342	0.09384777
88	0x3cb885ac	0.022524677
89	0x3e281623	0.16414694
90	0x3db9e67c	0.090771645
91	0x3cbc10b0	0.022957176
92	0xbdb99c51	-0.09063018
93	0x3c86ced4	0.016456045
94	0xbd95941b	-0.073036395
95	0x3d7b62cb	0.061373513
96	0xbd0a7ed7	-0.03381237
97	0xbe05ec4f	-0.13078426
98	0x3cde3b96	0.027128022
99	0x3e1ddc18	0.1541599
100	0xbd3c7422	-0.04600919
101	0xbca081c0	-0.01959312
102	0x3e1fa6b9	0.15590943
103	0xbe24fd04	-0.16112143
104	0x3df09879	0.11747832
105	0x39b7df27	0.0003507074
106	0xbcc3380d	-0.023830438
107	0xbcfdb192	-0.030968461
108	0xbdcfbff8	-0.10144037
109	0x3c606572	0.013696061
110	0x3dc68bb1	0.09694613
111	0x3d7d3f06	0.061827682
112	0x3dbd45ca	0.09241827
113	0x3e0bee1d	0.13665052
114	0x3dca66b1	0.09882868
115	0xbdd49f65	-0.103819646
116	0x3db8bded	0.090206005
117	0xbbead74d	-0.007166779
118	0xbdf9f91e	-0.122057185
119	0xbcf1d1c6	-0.029518973
120	0xb9280720	-0.00016024383
121	0xbe2d8d27	-0.16948377
122	0x3e1bf5d0	0.15230489
123	0xbd3ef9a8	-0.04662481
124	0x3d6120e3	0.054963004
125	0xbe2380e2	-0.15967134
126	0xbd934413	-0.071907185
127	0xbdf8581b	-0.1212618
128	0xbe1df9fd	-0.15427394
129	0xbcb5725c	-0.022149257
130	0xbcebb0ac	-0.028770767
131	0x3d4c2fd3	0.049850296
132	0xbe3104b1	-0.17286946
133	0xbacab746	-0.0015465997
134	0xbbfce98d	-0.007718271
135	0xbc0e0b69	-0.008669713
136	0xb94db2b2	-0.00019616893
137	0x3e35879c	0.17727512
138	0x3dc3b187	0.09555345
139	0xbdd0946c	-0.10184559
140	0x3d280b7a	0.04102657
141	0x3c7d979d	0.015478042
142	0xbc4024c0	-0.011727512
143	0xbe1c8db0	-0.15288424
144	0xbe1ab535	-0.15108187
145	0xbde3eeb2	-0.11129512
146	0xbdcb2592	-0.09919275
147	0xbd96b9ae	-0.07359634
148	0x3d09c6ef	0.033636983
149	0xbdc0884c	-0.094009966
150	0x3d48e6c0	0.049048185
151	0xbe138529	-0.14406265
152	0xbdf7ab5a	-0.120932296
153	0xbd0ba262	-0.034090407
154	0x3df0c945	0.11757139
155	0x3cbdaf46	0.023154866
156	0x3e2500d9	0.16113605
157	0x3dba6f57	0.09103268
158	0x3e220da6	0.15825519
159	0xbe1a731d	-0.15082975
160	0xbded8f88	-0.11599642
161	0x3d19fa94	0.037592486
162	0xbcb07cb6	-0.021543842
163	0xbd193b3f	-0.037410017
164	0xbd399c4e	-0.04531508
165	0xbdbee88f	-0.09321701
166	0xbcebdbb7	-0.028791292
167	0x3c1b6fd9	0.009487116
168	0xbdfae3bb	-0.122504674
169	0xbe21bab9	-0.15793885
170	0x3d6f5d0e	0.058438353
171	0xbc7fd87c	-0.015615579
172	0xbd039ac2	-0.03213001
173	0xbd52cc57	-0.051464405
174	0xbb8f6bb3	-0.0043768524
175	0xbe184d35	-0.14873202
176	0xbc6ffa39	-0.01464706
177	0x3d6d3c4d	0.057918835
178	0xbdc21389	-0.09476382
179	0x3dc0bf60	0.09411502
180	0x3daf8097	0.085694484
181	0xbe296b4a	-0.16544834
182	0x3df57a18	0.11986178
183	0x3cba0a94	0.022710122
184	0xbe1a39e8	-0.15061152
185	0x3e25e7b2	0.16201666
186	0xbd430c8c	-0.047619388
187	0xbc03ca47	-0.008043832
188	0x3cbf70d5	0.023369232
189	0xbdfdb599	-0.12388153
190	0x3d25d73d	0.04048847
191	0x3dad2ba7	0.08455592
192	0xbd249cd9	-0.040188644
193	0xbc496ec0	-0.012294471
194	0x3e32b222	0.17450765
195	0xbdb23c8f	-0.08702957
196	0xbe3285ed	-0.17433901
197	0x3c9046df	0.017611919
198	0x3e11ad5c	0.14226288
199	0xbe0b0fa0	-0.13580179
200	0x3c831a46	0.01600374
201	0xbe24f755	-0.16109975
202	0xbda9f865	-0.082993306
203	0xbdbbe48c	-0.09174451
204	0xbd35f479	-0.0444226
205	0xbe190b94	-0.14945823
206	0x3d43f788	0.047843486
207	0xbd41dfe1	-0.04733265
208	0x3e02652f	0.12733911
209	0x3e1faa2e	0.15592262
210	0xbe0480eb	-0.12939803
211	0x3dab636a	0.08368571
212	0xbcfc2301	-0.03077841
213	0xbdb5007f	-0.08837985
214	0x3dd6ebe4	0.10494211
215	0xbde346e3	-0.11097505
216	0x3cda854e	0.026674893
217	0xbdaab8f0	-0.08336055
218	0xbd5680cd	-0.052368928
219	0xbd356ef2	-0.04429526
220	0xbd86813f	-0.065676205
221	0x3d024494	0.031803682
222	0xbe2281fc	-0.15869898
223	0xbe188b1d	-0.14896818
224	0x3d226aa0	0.039652467
225	0x3e134b9b	0.1438431
226	0xbd973169	-0.07382471
227	0xbcba47c2	-0.022739295
228	0xbd1f2827	-0.03885665
229	0x3d07b8dd	0.033135284
230	0xbd16d910	-0.0368281
231	0x3df818f7	0.12114137
232	0x3c37a686	0.011209136
233	0xbaf081d8	-0.0018349243
234	0x3e06c033	0.13159256
235	0x3e2d010a	0.16894928
236	0xbdde4548	-0.10853058
237	0xbdd7e966	-0.10542564
238	0xbd53840a	-0.051639594
239	0x3e1bf363	0.15229563
240	0x3d501598	0.050801843
241	0xbd78c228	-0.060732037
242	0xbe0b569b	-0.13607256
243	0xbcacf932	-0.02111492
244	0xbe0279b1	-0.12741734
245	0x3d4089e7	0.047006514
246	0xbe19f113	-0.15033369
247	0x3e01074b	0.12600438
248	0xbbec5aa5	-0.007212954
249	0x3e26419d	0.16235967
250	0x3d20b599	0.039235685
251	0xbdb3c6a9	-0.08778126
252	0xbc8b0a43	-0.016972667
253	0x3e06da3b	0.13169186
254	0x3e177de2	0.14794114
255	0x3d3215bd	0.043477762

weight_hh_l0 f4 [128, 32]
0	0xbe0e57db	-0.13900702
1	0xbc25e66a	-0.010125736
2	0x3db89b45	0.0901399
3	0x3d8270b0	0.0636915
4	0x3daf90a3	0.08572509
5	0xbdfe5ed6	-0.12420432
6	0x3d398f51	0.045302693
7	0x3daa94b5	0.08329145
8	0x3da68d90	0.0813247
9	0xbc445246	-0.011982506
10	0xbd617290	-0.055040896
11	0x3d71249c	0.058872804
12	0x3d943aa2	0.07237746
13	0xbdfc8ff9	-0.12332148
14	0x3d5239fe	0.051324837
15	0xbd96528b	-0.073399626
16	0x3dd4d017	0.103912525
17	0x3cbc30d9	0.022972511
18	0xbca4b954	-0.020107903
19	0x3dab22f7	0.083562784
20	0xbe28f0fd	-0.1649818
21	0x3d7a278c	0.06107287
22	0xbe231dff	-0.15929411
23	0xbcdf8aac	-0.027287804
24	0x3db27289	0.08713252
25	0x3e20198a	0.15634742
26	0xbc80fb40	-0.015744805
27	0xbddbd999	-0.10734863
28	0x3d5a72e1	0.053332213
29	0x3d13f406	0.03612139
30	0x3b79f28d	0.0038138956
31	0x3ddad193	0.10684504
32	0x3cb70b61	0.022344293
33	0xbc2a0aef	-0.010378583
34	0xbd3ac20d	-0.045595217
35	0x3e1d44d7	0.15358292
36	0x3df856ba	0.12125917
37	0xbdb16e25	-0.086635865
38	0x3de83930	0.11339033
39	0xbe16064b	-0.14650838
40	0xbd9efe4f	-0.07763349
41	0x3c9c8b19	0.019109296
42	0xbd0fa983	-0.03507377
43	0xbe00fe33	-0.1259697
44	0xbe0ffaaf	-0.14060472
45	0x3df0c326	0.117559716
46	0xbd6d6a1b	-0.05796252
47	0x3e0f7945	0.14011104
48	0x3e001145	0.12506588
49	0x3d47beda	0.048765995
50	0x3db7213c	0.08941886
51	0x3c1c2171	0.009529457
52	0x3e3871dd	0.18012185
53	0xbd081165	-0.033219714
54	0x3e41d496	0.18928751
55	0x3e4338bc	0.19064611
56	0xbd3a67d8	-0.04550919
57	0x3de990a4	0.11404541
58	0x3de7a764	0.11311224
59	0xbd85af9a	-0.06527634
60	0x3d7a0b23	0.061045777
61	0xbd69deee	-0.057097368
62	0x3dc4a873	0.09602442
63	0x3dab2df6	0.08358376
64	0xbe313241	-0.17304327
65	0x3d860b06	0.06545071
66	0xbe23caee	-0.1599538
67	0x3d26fc5b	0.04076801
68	0x3d8ef12a	0.06979592
69	0x3db610c0	0.088899136
70	0xbd096ed4	-0.03355296
71	0xbd5a262f	-0.05325907
72	0xbe2c9398	-0.16853178
73	0x3ce7de66	0.02830429
74	0xbdb0db0d	-0.086355306
75	0x3dd58cf5	0.10427276
76	0xbca8d61a	-0.020609904
77	0xbdc92c36	-0.09822886
78	0xbe1d4ff4	-0.15362531
79	0x3e1bcd43	0.1521502
80	0xbd5000bb	-0.050781947
81	0xbc6d6e93	-0.014491695
82	0x3e0c68aa	0.13711801
83	0xbdc2aef8	-0.09506029
84	0x3ddeb5c2	0.10874511
85	0xbe140beb	-0.14457671
86	0xbe235dc0	-0.15953732
87	0x3ce0bdb2	0.027434204
88	0xbe00accc	-0.12565917
89	0x3e09a896	0.13443217
90	0xbd82b3ec	-0.063819736
91	0xbe1b438c	-0.15162486
92	0x3cba5426	0.022745203
93	0x3d843165	0.06454734
94	0x3d9f7750	0.07786429
95	0xbc84ba88	-0.016202226
96	0x3d9af580	0.07566357
97	0xbe012908	-0.12613308
98	0xbe101b72	-0.1407297
99	0xbe0579d7	-0.1303476
100	0x3e055288	0.13019764
101	0x3de173b0	0.11008394
102	0x3d202422	0.03909696
103	0xbb5c915a	-0.0033655972
104	0xbdb879f7	-0.09007638
105	0xbcaa42a4	-0.02078373
106	0xbda4df12	-0.0805036
107	0xbd4f3f06	-0.050597213
108	0xbe0c8415	-0.1372226
109	0xbd689629	-0.05678383
110	0xbde63b1f	-0.11241745
111	0xbdeb0c79	-0.11476988
112	0xbdf37e83	-0.118893646
113	0x3e2021cf	0.15637897
114	0xbd66c43e	-0.056339495
115	0x3e43d466	0.19123992
116	0x3e13e874	0.14444143
117	0x3d72c886	0.059273265
118	0xbdcf8c5f	-0.101341955
119	0xbd42933c	-0.047503695
120	0xbe20a1e1	-0.15686752
121	0x3e17c549	0.14821352
122	0x3c825a00	0.015912056
123	0xbd8ad182	-0.06778242
124	0xbc91e2f8	-0.017808422
125	0x3d87b8fe	0.06627081
126	0x3d776d27	0.06040683
127	0xbe03c0a0	-0.1286645
128	0xbdc1c6ce	-0.09461747
129	0x3cbeee75	0.023307065
130	0xbd1c0d4c	-0.03809862
131	0x3d7c22bb	0.06155656
132	0xbde1890f	-0.1101247
133	0x3cf988a5	0.030460665
134	0xbd7fabd1	-0.062419716
135	0xbd9eade4	-0.07748011
136	0xbd32a504	-0.043614402
137	0x3e3f6fa6	0.18694934
138	0xbd4b9593	-0.049703192
139	0xbd5d2297	-0.053988066
140	0x3c36162d	0.011113686
141	0x3e1ca8b3	0.15298729
142	0x3e118b2f	0.1421325
143	0xbd7f1490	-0.06227547
144	0xbe1ff6ab	-0.1562144
145	0xbe03d1b2	-0.12872961
146	0xbde93d16	-0.11388604
147	0xbe113beb	-0.14183013
148	0x3d377d91	0.044797484
149	0x3d2f5816	0.042808615
150	0x3da38ef5	0.07986251
151	0xbe2bbe51	-0.16771819
152	0x3d48ada4	0.04899372
153	0x3d1dc813	0.038520884
154	0xbdb0e6bf	-0.08637761
155	0xbe1e2a5e	-0.1544585
156	0xbde05117	-0.10952967
157	0xbdc787da	-0.097427085
158	0xbe2d9bb0	-0.16953921
159	0xbdb11e49	-0.086483546
160	0x3db2bf76	0.087279245
161	0xbd0deb72	-0.034648366
162	0x3cc41efb	0.023940554
163	0x3e0aa9c1	0.13541318
164	0x3ca8ba1d	0.020596558
165	0xbde37f48	-0.11108261
166	0xbbe0f1ce	-0.006864763
167	0xbc35cd40	-0.011096299
168	0x3e390ab3	0.18070488
169	0xbd99a567	-0.07502251
170	0x3dc37607	0.09543996
171	0x3c509352	0.012730436
172	0x3e17f038	0.1483773
173	0x3d423174	0.047410443
174	0x3e1316f5	0.14364226
175	0xbe26bebd	-0.16283698
176	0xbd918101	-0.07104684
177	0xbe1210cf	-0.14264224
178	0x3a9707ed	0.0011522748
179	0xbc95c5a2	-0.018282715
180	0x3dff8980	0.12477398
181	0xbd38d8c2	-0.04512859
182	0x3e178590	0.14797044
183	0x3d6d6c80	0.0579648
184	0xbcd4071a	-0.025882293
185	0xbb70e731	-0.0036758895
186	0xbc72c59f	-0.014817624
187	0xbc6b4d85	-0.014361744
188	0x3e3c4933	0.18387298
189	0xbd26766f	-0.04064029
190	0x3e0d490b	0.13797395
191	0xbe22a4fc	-0.15883249
192	0xbde732e0	-0.112890005
193	0xbe220d60	-0.15825415
194	0x3d9122ee	0.070867404
195	0xbdb3c2bd	-0.08777378
196	0x3e122a27	0.14273892
197	0x3c77508e	0.015094889
198	0x3db60d10	0.0888921
199	0x3d46836d	0.04846518
200	0x3e0e4a8e	0.13895628
201	0xbcb38e72	-0.02191851
202	0xbdc9a322	-0.09845568
203	0x3e065cb8	0.13121307
204	0xbe1e11aa	-0.15436426
205	0xbe313cd6	-0.17308363
206	0x3cda26b8	0.02662979
207	0x3d1d66cf	0.038428124
208	0x3da65217	0.08121126
209	0x3d869819	0.06571979
210	0xbd23575d	-0.039878238
211	0xbd6ec4dc	-0.05829321
212	0x3bcdc878	0.0062800013
213	0x3e1fc6f9	0.15603246
214	0x3d9237c1	0.071395405
215	0xbde368db	-0.11103984
216	0xbcb1dd2a	-0.021711905
217	0xbe04f84c	-0.12985343
218	0x3deb66f5	0.11494247
219	0x3d991868	0.07475358
220	0x3c11338e	0.008862389
221	0x3d8175ff	0.06321334
222	0x3d0baf23	0.03410257
223	0xbd0e47d9	-0.034736488
224	0x3e21c6ec	0.15798539
225	0xbd9aa506	-0.07551007
226	0x3d969f40	0.07354593
227	0x3d237cae	0.039913826
228	0x3dbe46b7	0.092908315
229	0x3ddc291a	0.10750027
230	0x3e2a1495	0.16609414
231	0x3d6b3ff4	0.057434037
232	0x3e0d409a	0.13794175
233	0x3d50cf92	0.050979204
234	0x3d22fa27	0.039789345
235	0xbd9bb8b9	-0.076035924
236	0xbe190d82	-0.14946559
237	0xbd2bcf1a	-0.041945554
238	0xbba25c8d	-0.0049548806
239	0x3ddce578	0.10785955
240	0xbd942d95	-0.072352566
241	0x3dd621b1	0.10455645
242	0xbe18c57a	-0.14919081
243	0xba180485	-0.00057990133
244	0x3dcfbe1c	0.10143682
245	0x3ccaf03d	0.024772758
246	0x3e064d42	0.13115409
247	0xbdfd67da	-0.12373324
248	0xbb9832e5	-0.004644739
249	0x3dc72872	0.09724511
250	0x3e05ea7f	0.13077734
251	0x3c40ba62	0.011763187
252	0xbe070e68	-0.1318909
253	0xbe1f1630	-0.15535808
254	0x3d1a2bb5	0.03763934
255	0xbdb173bc	-0.08664653

bias_ih_l0 f4 [128]
0	0x3d886e3c	0.066616505
1	0x3cb7356d	0.022364343
2	0xbe20750d	-0.15669651
3	0x3a364203	0.00069525855
4	0x3aae2bfb	0.0013288254
5	0x3e24ff5a	0.16113034
6	0xbe03adbb	-0.12859242
7	0x3d9b6d12	0.07589163
8	0xbe26a7b5	-0.16274913
9	0xbdaf4d3a	-0.08559652
10	0x3e1e2234	0.15442735
11	0xbcab16f6	-0.020884972
12	0x3dc17e2d	0.09447894
13	0x3d564e63	0.05232085
14	0xba9eb41a	-0.0012108118
15	0x3cc2751f	0.023737488
16	0xbd4531c5	-0.048143167
17	0x3d759f5c	0.05996643
18	0x3e127b1f	0.1430478
19	0x3d0eefac	0.034896538
20	0x3db12648	0.0864988
21	0xbe109362	-0.14118722
22	0xbb84cfec	-0.0040531065
23	0x3caa3c79	0.020780789
24	0xbde6c030	-0.112671256
25	0xbd834b41	-0.06410838
26	0x3d7dcf81	0.06196547
27	0x3cebf496	0.028803151
28	0x3d9abee6	0.07555942
29	0x3e0ca142	0.1373339
30	0xbd7900f8	-0.06079194
31	0x3d6cb5e9	0.05779067
32	0xbdca8447	-0.09888511
33	0x3df1b62d	0.118023254
34	0xbc4520e5	-0.012031768
35	0x3da8d23d	0.08243225
36	0xbe1a2f98	-0.15057218
37	0xbdfe7dd8	-0.124263465
38	0x3d99c5ee	0.07508455
39	0xbdc67b4e	-0.09691487
40	0xbdbf7923	-0.09349277
41	0xbe1c87c1	-0.15286161
42	0x3d072783	0.032996666
43	0xbddf3c1e	-0.10900138
44	0x3bd46a4b	0.0064823977
45	0x3dfb50aa	0.12271245
46	0xbdfaea40	-0.12251711
47	0xbdee5b7c	-0.11638543
48	0xbde082ef	-0.109624736
49	0x3e0ddb22	0.13853124
50	0x3cdc7e31	0.026915642
51	0x3de4de3b	0.111751996
52	0xbdc9e84e	-0.09858762
53	0x3e32ba15	0.17453797
54	0xbd626e47	-0.05528095
55	0x3e44b198	0.19208372
56	0xbc1d6692	-0.009606974
57	0xbd929de6	-0.07159023
58	0xbde03851	-0.109482415
59	0xbd9e6ea9	-0.077359505
60	0xbd8b20b9	-0.06793351
61	0x3e0924bd	0.13392921
62	0x3e2e1ad5	0.17002423
63	0x3df77e9c	0.12084696
64	0xbd21882f	-0.039436515
65	0xbe1b2c9b	-0.15153734
66	0x3c6e4214	0.014542121
67	0xbe13b111	-0.14423014
68	0x3dedf9fa	0.11619945
69	0x3df520ba	0.11969133
70	0x3ca7acaf	0.020468084
71	0x3cd46bb5	0.025930265
72	0xbd261af2	-0.04055304
73	0xbda37b9a	-0.079825595
74	0xbd6ccdd6	-0.057813488
75	0xbe19377d	-0.14962573
76	0xbdd36c1c	-0.103233546
77	0xbd2437d4	-0.040092304
78	0xbdf18a75	-0.11793987
79	0xbe08c669	-0.13356937
80	0x3d984f67	0.0743702
81	0x3d3e71ec	0.046495363
82	0x3e397154	0.18109637
83	0x3e095161	0.1340995
84	0x3dcdb2ed	0.10043893
85	0x3d3e09ca	0.046396054
86	0xbcf14b28	-0.029454783
87	0x3c393b96	0.01130571
88	0xbdb11b5d	-0.08647797
89	0x3d83ec9e	0.064416155
90	0xbd4e9181	-0.050431732
91	0x3dadc71d	0.084852435
92	0x3e25b258	0.16181314
93	0xbda03320	-0.07822251
94	0xbd61e6ae	-0.055151634
95	0xbe1aacce	-0.15104982
96	0xbc988f66	-0.018623065
97	0x3e149085	0.14508255
98	0x3e048490	0.12941194
99	0xbd1b1832	-0.03786487
100	0xbe1085a0	-0.14113474
101	0x3e29c76d	0.16579981
102	0xbdeac794	-0.11463848
103	0x3dee9b80	0.11650753
104	0xbc00928b	-0.007847439
105	0xbdbe1848	-0.09281975
106	0x3e4581b1	0.19287755
107	0x3db56088	0.088563025
108	0xbe27bd6d	-0.16380854
109	0x3e26b780	0.16280937
110	0x3d3e94b8	0.046528548
111	0xbe085d83	-0.13316922
112	0xbda5e607	-0.08100515
113	0xbd03162a	-0.03200356
114	0xbc8e299b	-0.017353823
115	0x3ca5b820	0.0202294
116	0x3c66adcd	0.014079523
117	0xbd2b0ce8	-0.041760355
118	0xbd825c3d	-0.06365249
119	0x3e4245a1	0.18971874
120	0x3caf716c	0.021416388
121	0xbd4aed0a	-0.049542464
122	0x3d0d2f73	0.03446908
123	0xbe1cd1a5	-0.15314348
124	0x3e249305	0.16071709
125	0x3da8e3e7	0.08246594
126	0xbdec2c0b	-0.11531838
127	0x3d8d36a8	0.068951905

bias_hh_l0 f4 [128]
0	0xbdabc337	-0.08386844
1	0xbe03361f	-0.12813614
2	0x3cc60efd	0.024177069
3	0x3dc4b0ad	0.09604011
4	0x3d2c0bf2	0.04200358
5	0x3e3c0b1a	0.1836361
6	0x3e0794b3	0.13240318
7	0xbe01063e	-0.12600037
8	0x3d915d8c	0.07097921
9	0x3e1c2a7a	0.15250579
10	0xbc3241d9	-0.010879957
11	0xbdbb3ae9	-0.091420956
12	0xbcf500f7	-0.029907687
13	0xbdc2ed0d	-0.0951787
14	0xbd2333a2	-0.039844163
15	0x3d86e18f	0.06585991
16	0xbde56fd5	-0.11202971
17	0xbd9bab32	-0.07601012
18	0x3cf29dba	0.029616226
19	0xbd98448d	-0.0743495
20	0xbd299f2f	-0.041411575
21	0xbd9ee69e	-0.077588305
22	0x3b23754e	0.0024941745
23	0x3e460979	0.19339551
24	0x3d1782b4	0.036989883
25	0xbd583b03	-0.052790653
26	0xbd98b36b	-0.07456096
27	0x3e3d3fd8	0.18481386
28	0xbdcdf3e5	-0.10056285
29	0xbd714dc8	-0.05891207
30	0xbe1c03e8	-0.15235865
31	0xbdf8a48f	-0.12140762
32	0xbe0b7e05	-0.13622291
33	0xbd50cb6c	-0.05097525
34	0xbe3e5f7b	-0.1859111
35	0x3d9b13cb	0.075721346
36	0xbdaa262d	-0.08308063
37	0x3c7aff35	0.015319635
38	0x3d90ca45	0.0706983
39	0x3c049592	0.008092301
40	0x3d28f9a1	0.04125369
41	0x3d8715ce	0.06595956
42	0x3e442a02	0.1915665
43	0xbdd9205a	-0.10601874
44	0x3da2e064	0.07952955
45	0xba3a6e74	-0.0007111796
46	0x3c007e0b	0.007842551
47	0x3daa2cc4	0.083093196
48	0xbd849fc0	-0.064757824
49	0xbdf19258	-0.11795491
50	0xbe073fec	-0.13207978
51	0x3df7914f	0.12088262
52	0xbde12c46	-0.109947726
53	0x3d9263f7	0.07147973
54	0x3d99d994	0.07512203
55	0xbdff9adb	-0.12480708
56	0x3d62340f	0.05522543
57	0x3df72ca5	0.12069062
58	0xbe114430	-0.14186168
59	0xbc45af11	-0.012065665
60	0x3be64993	0.0070278137
61	0xbd7475bd	-0.059682596
62	0x3e1b1843	0.15145974
63	0x3c8143aa	0.015779335
64	0x3e08b19c	0.13349003
65	0xbd9ceb0b	-0.076620184
66	0xbdc2c9a2	-0.09511115
67	0xbce81c1f	-0.028333722
68	0x3dd594f8	0.10428804
69	0xbe3d4451	-0.18483092
70	0x3dc0659d	0.09394381
71	0xbd5de0d9	-0.05416951
72	0x3e1b5e98	0.15172803
73	0xbdc80a9e	-0.0976765
74	0xbdbff918	-0.09373683
75	0xbe1ddabe	-0.15415475
76	0xbd5855e0	-0.05281627
77	0xbe12cc5e	-0.14335772
78	0x3d8a6d6c	0.06759152
79	0x3d94306b	0.072357975
80	0x3e41e0cc	0.1893341
81	0x3d42b81d	0.047538865
82	0x3d9efb95	0.07762829
83	0x3e21e3f3	0.15809612
84	0x3e23d365	0.1599861
85	0x3e139de8	0.14415705
86	0x3e0fedbb	0.1405553
87	0x3d4a2a3d	0.049356688
88	0x3e04029c	0.1289162
89	0xbe08a16b	-0.13342826
90	0x3e00b30d	0.12568302
91	0xbd8598e9	-0.06523306
92	0x3bb33659	0.005469125
93	0x3d9e3c20	0.07726312
94	0xbd05f5d7	-0.032705154
95	0xbd62f35c	-0.055407867
96	0x3e172ef0	0.14763999
97	0x3d1c0bcb	0.038097184
98	0x3e24fe42	0.16112617
99	0x3e23225d	0.15931077
100	0x3dcf69be	0.101275906
101	0x3e3573a8	0.177199
102	0xbdc4d646	-0.09611182
103	0xba884a23	-0.0010398071
104	0xbe08ac98	-0.1334709
105	0x3cae120e	0.021248844
106	0xbcc28ed5	-0.023749748
107	0x3dac1a85	0.08403496
108	0xbdde3827	-0.10850554
109	0xbadf2dcd	-0.00170272
110	0xbde1c0e6	-0.110231206
111	0x3e383658	0.1798948
112	0x3c899301	0.01679373
113	0x3e058c96	0.1304191
114	0x3e2b1bd7	0.16709839
115	0x3e2b52a0	0.16730738
116	0xbd213e8a	-0.039366283
117	0x3e27269d	0.16323324
118	0x3e044960	0.12918615
119	0x3e33b71d	0.17550321
120	0x3e02eb8c	0.12785167
121	0xbde394ec	-0.11112389
122	0xbd942262	-0.072331205
123	0x3dbdf65a	0.092755035
124	0xbde96566	-0.11396293
125	0x3bbf3dbe	0.0058362177
126	0xbd2bca6c	-0.04194109
127	0x3d378796	0.04480704

weight f4 [1, 32]
0	0x3cc02b3b	0.023458114
1	0xbe07a901	-0.13248064
2	0x3d060c92	0.03272683
3	0xbde912cc	-0.11380538
4	0xbe07a7e0	-0.13247633
5	0xbc4e9d51	-0.012610749
6	0x3d3b1d05	0.045681972
7	0x3dff7dda	0.12475176
8	0xbd9c4e6c	-0.07632145
9	0xbdc44b79	-0.09584708
10	0x3b7e4d60	0.0038803443
11	0x3e024b8f	0.12724136
12	0x3e07e91d	0.1327252
13	0xbc48e6a2	-0.012262018
14	0xbd437eeb	-0.04772846
15	0xbda377e6	-0.07981853
16	0x3e16deab	0.14733379
17	0xbd077376	-0.033069097
18	0x3bc274d1	0.0059343358
19	0x3e2475bc	0.16060537
20	0x3e3545b7	0.17702375
21	0x3e17bcf1	0.14818169
22	0xbdfa58c2	-0.122239605
23	0x3d4f6ca8	0.050640732
24	0xbd8ff41d	-0.07028983
25	0xbcfcb575	-0.030848244
26	0xbdfc9a31	-0.12334097
27	0x3e1d041d	0.153336
28	0xbd13658e	-0.035985522
29	0x3daa6fc2	0.08322097
30	0xbd9be951	-0.07612861
31	0xbe26941f	-0.16267441

weight f4 [1, 32]
0	0x3e129509	0.14314665
1	0xbde3f48d	-0.11130629
2	0xbc604070	-0.013687238
3	0x3dbcc472	0.092171565
4	0xbda4e129	-0.080507584
5	0x3e24173d	0.1602449
6	0x3e1d20b1	0.15344502
7	0xbde05991	-0.109545834
8	0xbd84d124	-0.06485203
9	0xbd879812	-0.06620802
10	0xbe19b7c3	-0.15011506
11	0x3dcfa7fe	0.10139464
12	0xbdfa91d5	-0.122348465
13	0x3e08ee31	0.13372113
14	0xbd3cbe38	-0.046079844
15	0x3db02f16	0.08602731
16	0xbab6f300	-0.0013957918
17	0x3c3da720	0.01157549
18	0xbe0d7868	-0.13815463
19	0xbd63e55e	-0.055638663
20	0x3d6fac88	0.058514148
21	0xbd0a228c	-0.033724353
22	0xbda0b31e	-0.07846664
23	0xbe19e0a0	-0.15027094
24	0x3dbd3522	0.0923865
25	0x3cf87c58	0.03033273
26	0x3d2199f8	0.039453477
27	0x3e2b2653	0.16713838
28	0x3e0612ed	0.13093157
29	0x3db25fd6	0.087096855
30	0x3c7c2960	0.015390724
31	0x3c708d40	0.014682114
