competition/result/EIIE/trained_model/all_model/actor_num_epoch_8.pth (torch, 3795 bytes, 3 tensors)

weight f4 [2, 11, 1]
000000 cc f2 46 3e a7 14 7b 3e 95 dd ab 3d 14 2a 9c 3d
       0.19428557 0.24519597 0.08391873 0.07625213
000010 09 cb 37 be a8 11 37 3e 44 63 1d 3e c1 37 41 be
       -0.17948546 0.17877829 0.15369898 -0.18868925
000020 b8 f2 7c 3d 14 bc 5a be e4 29 8d 3e 80 95 94 3e
       0.061754912 -0.21360809 0.27571023 0.2902031
000030 0a 40 fb bd a0 70 8e bc 18 28 19 bd 80 54 08 3e
       -0.12268074 -0.017387688 -0.037391752 0.13313484
000040 20 51 19 3c 78 fd ec bd f0 63 65 3d a4 34 55 be
       0.009357721 -0.11571783 0.05600351 -0.20820862
000050 a0 a9 2d 3e 98 bd 4e 3e
       0.16959238 0.20189512

bias f4 [2]
000000 37 a2 b4 3d 04 9f 4f be
       0.088200025 -0.20275503

weight f4 [1, 2, 1]
000000 a6 26 2d 3f d2 61 f6 3e
       0.676371 0.48121506
