competition/result/EIIE/trained_model/all_model/actor_num_epoch_3.pth (torch, 3795 bytes, 3 tensors)

weight f4 [2, 11, 1]
0	0x3e4532a7	0.19257604
1	0x3e7a1163	0.24420695
2	0x3d9ef26d	0.07761083
3	0x3d8d72ab	0.06906637
4	0xbe3423c3	-0.17591767
5	0x3e353d9d	0.17699285
6	0x3e20291e	0.15640685
7	0xbe3b1483	-0.18269543
8	0x3d87c646	0.066296145
9	0xbe561ebd	-0.20910163
10	0x3e90d8e4	0.28290474
11	0x3e949580	0.2902031
12	0xbdfb400a	-0.12268074
13	0xbc8e70a0	-0.017387688
14	0xbd192818	-0.037391752
15	0x3e085480	0.13313484
16	0x3c195120	0.009357721
17	0xbdecfd78	-0.11571783
18	0x3d6563f0	0.05600351
19	0xbe5534a4	-0.20820862
20	0x3e2da9a0	0.16959238
21	0x3e4ebd98	0.20189512

bias f4 [2]
0	0x3dc2fde7	0.09521084
1	0xbe4f9f04	-0.20275503

weight f4 [1, 2, 1]
0	0x3f2ee9b8	0.68325377
1	0x3ef661d2	0.48121506
