competition/result/EIIE/trained_model/all_model/critic_num_epoch_1.pth (torch, 28164 bytes, 6 tensors)

weight_ih_l0 f4 [128, 11]
0	0x3be50760	0.0069894046
1	0x3d0d49cc	0.034494206
2	0xbe190242	-0.14942268
3	0x3e226027	0.15856992
4	0xbda70eca	-0.08157118
5	0x3cf48878	0.02985023
6	0x3d8d5034	0.06900063
7	0x3dc746aa	0.09730275
8	0xbc94b710	-0.018153697
9	0xbdbdaaa8	-0.09261066
10	0x3dbb036a	0.091315106
11	0x3c979b40	0.018506646
12	0x3e157103	0.14593892
13	0x3db45282	0.088047996
14	0xbd875222	-0.066074625
15	0xbd861841	-0.06547595
16	0x3df20756	0.118178055
17	0xbd60ae5c	-0.054853782
18	0xbe0f9717	-0.1402248
19	0xbe2c81e8	-0.1684643
20	0x3e2e06cf	0.16994785
21	0xbda8de99	-0.08245582
22	0x3e2a7a7f	0.16648291
23	0xbdf235cc	-0.11826667
24	0x3d92f702	0.07176019
25	0xbcaefc70	-0.021360606
26	0xbdb52079	-0.08844084
27	0xbd578916	-0.05262097
28	0xbe0f6956	-0.14005026
29	0x3d443580	0.047902584
30	0x3e30bb79	0.17259015
31	0xbda732c9	-0.081639834
32	0x3e337a27	0.17527066
33	0x3e220bc1	0.15824796
34	0xbd4ca64c	-0.04996328
35	0xbdfd9edd	-0.123838164
36	0xbdf09084	-0.11746314
37	0xbe00f3d5	-0.12593015
38	0x3c370d00	0.011172533
39	0x3d54fa38	0.05199644
40	0x3c386850	0.011255339
41	0x3d527c9c	0.051388368
42	0x3d2c3438	0.042041987
43	0x3dd8c1d2	0.10583843
44	0xbe11e797	-0.14248501
45	0x3d701e28	0.05862251
46	0xbe16e003	-0.14733891
47	0x3e0c1a41	0.1368189
48	0xbd4196e0	-0.047263026
49	0x3d64b3bc	0.05583547
50	0x3d0609d8	0.03272423
51	0x3e32c165	0.17456587
52	0xbda2f227	-0.07956343
53	0xbcbf4dc8	-0.023352519
54	0x3e2868f7	0.16446291
55	0x3de07e92	0.10961641
56	0x3e2150f9	0.15753545
57	0xbe055f26	-0.13024577
58	0xbab01280	-0.0013433248
59	0x3d8dc620	0.06922555
60	0x3e2bdcf9	0.16783513
61	0x3e33f6a1	0.1757455
62	0xbdf58bb2	-0.119895354
63	0xbc53f640	-0.012937129
64	0x3e1c624d	0.15271874
65	0x3e080681	0.13283731
66	0x3da62136	0.08111803
67	0x3d9f2b12	0.07771887
68	0x3d862daa	0.065516785
69	0xbe1fcff6	-0.15606675
70	0x3dceaa66	0.10091095
71	0x3e20bf19	0.15697898
72	0x3d104374	0.03522058
73	0xbdf8f657	-0.121563606
74	0xbe05bcdf	-0.1306033
75	0xbdcc5ee5	-0.09979037
76	0x3d701124	0.058610097
77	0x3dedf60a	0.11619194
78	0xbe261693	-0.16219549
79	0xbdda2d2e	-0.106531486
80	0x3e07c1c1	0.13257505
81	0xbe06ce6f	-0.13164686
82	0xbd213c04	-0.039363876
83	0xbe31283d	-0.17300506
84	0xbd24f3b0	-0.04027146
85	0xbdc85973	-0.09782686
86	0xbe0ff5e6	-0.14058647
87	0xbe1ad243	-0.15119271
88	0xbca4fd28	-0.020140246
89	0xbde922c3	-0.113835834
90	0x3ddd1faa	0.10797055
91	0xbcecf218	-0.028924033
92	0xbe003b11	-0.12522532
93	0xbd98a20c	-0.07452783
94	0x3d43b3c0	0.047778845
95	0x3c91d950	0.017803818
96	0x3e293ae9	0.16526379
97	0x3e2dd5bd	0.16976066
98	0xbe17831f	-0.14796112
99	0xbd1cd40c	-0.03828816
100	0x3b9664e0	0.004589662
101	0x3d304ff4	0.043045
102	0x3bf82fe0	0.0075740665
103	0x3e1c8749	0.15285982
104	0x3db7fa9a	0.08983345
105	0xbddf83d5	-0.10913817
106	0xbd71c28a	-0.059023418
107	0xbd461ebc	-0.048369154
108	0x3e0f7021	0.14007618
109	0xbd540590	-0.051763117
110	0x3df661fe	0.12030409
111	0x3de8e7ca	0.11372335
112	0x3c1aa140	0.009437859
113	0x3de323da	0.110908225
114	0x3da2cb9a	0.0794899
115	0xbb4011c0	-0.0029307455
116	0x3e122a15	0.14273866
117	0x3dd13efa	0.1021709
118	0x3e097e7f	0.1342716
119	0xbdfd8e2c	-0.12380633
120	0xbe041602	-0.1289902
121	0xbceb92a8	-0.028756455
122	0xbdf46690	-0.11933625
123	0xbe012f7e	-0.12615773
124	0xbd09df48	-0.033660203
125	0xbe0107ac	-0.12600583
126	0x3e0043e9	0.12525906
127	0xbca2ed08	-0.019888416
128	0xbde50a30	-0.11183584
129	0xbdc3a2df	-0.095525496
130	0xbdb380ea	-0.08764823
131	0xbd028680	-0.03186655
132	0xbd50204c	-0.05081205
133	0xbdd6d87a	-0.104905084
134	0xbdffe1f9	-0.12494273
135	0xbd09f474	-0.033680394
136	0x3de870be	0.11349629
137	0xbd9a5855	-0.07536379
138	0x3d859718	0.065229595
139	0x3e003ffd	0.1252441
140	0x3db8718a	0.09006031
141	0x3dba84a6	0.09107332
142	0x3d333ed4	0.04376109
143	0x3d986d86	0.07442765
144	0x3de344e2	0.11097123
145	0x3b2dd580	0.002652496
146	0x3e1a5333	0.150708
147	0xbb44c7c0	-0.0030026287
148	0xbdd5553f	-0.1041665
149	0xbca9ddc8	-0.020735636
150	0x3d81e93e	0.063433155
151	0xbc0554b0	-0.008137867
152	0x3e321293	0.17389898
153	0x3dd01bc6	0.10161547
154	0x3d9f1dc6	0.07769351
155	0x3d8414c4	0.06449273
156	0x3d2d3038	0.042282313
157	0x3b604540	0.0034220964
158	0xbd733bde	-0.059383266
159	0x3d4ea5ec	0.050451204
160	0x3d91071a	0.07081433
161	0xbdf75070	-0.12075889
162	0xbcdb0ea8	-0.026740387
163	0x3c7b5320	0.015339643
164	0x3dc24462	0.09485699
165	0x3d663898	0.056206316
166	0x3d419f84	0.047271267
167	0xbdf57ce3	-0.11986711
168	0xbd7ce0e2	-0.061737902
169	0x3dbfcdaa	0.09365399
170	0xbe328cbf	-0.17436503
171	0xbe182860	-0.14859152
172	0x3ddd035e	0.10791658
173	0x3dde2166	0.10846214
174	0x3cf71bb8	0.030164585
175	0xbde07571	-0.109599
176	0x3d69bf78	0.057067364
177	0x3d4787c8	0.048713475
178	0x3d162658	0.03665766
179	0x3e20dc03	0.15708928
180	0xbdacb963	-0.08433797
181	0xbe1c7f68	-0.15282977
182	0x3e288895	0.16458352
183	0x3c9682a8	0.018372849
184	0x3d9e2b36	0.077230856
185	0xbdf1371e	-0.11778091
186	0x3de648c2	0.11244346
187	0xbde14900	-0.11000252
188	0x3dd56a36	0.10420649
189	0xbce7a218	-0.028275535
190	0xbc1ce760	-0.0095766485
191	0xbb17dcc0	-0.0023172349
192	0x3df17cb6	0.11791365
193	0xbd8b988c	-0.068162054
194	0x3c125000	0.008930206
195	0x3e147531	0.1449783
196	0x3d9d036a	0.07666667
197	0x3e108bad	0.14115782
198	0x3e01aa2f	0.12662576
199	0xbd90875a	-0.07057066
200	0x3e13c10d	0.14429112
201	0x3dfdf616	0.12400453
202	0xbe02df1c	-0.12780422
203	0xbdf3cff3	-0.119048975
204	0x3e076f45	0.1322604
205	0xbe257f75	-0.16161902
206	0xbd42efb4	-0.04759188
207	0x3e18b6ff	0.14913557
208	0x3d8baff2	0.06820668
209	0x3db6a7da	0.08918734
210	0x3e26ee89	0.16301931
211	0xbe2c9c6b	-0.16856544
212	0x3d6fc7d0	0.058540165
213	0xbc971340	-0.018441796
214	0xbd5821d8	-0.05276665
215	0xbceda290	-0.02900818
216	0x3dbf364a	0.09336527
217	0x3d8d628a	0.069035605
218	0xbdef7248	-0.11691719
219	0xbc6ca720	-0.014444143
220	0x3d310cec	0.043225214
221	0x3c0cf3c0	0.008603036
222	0x3e224953	0.15848283
223	0xbdb065fe	-0.086132035
224	0x3e0cd1ef	0.13751958
225	0x3e03de9b	0.12877886
226	0xbd110cac	-0.035412475
227	0x3e30d759	0.17269649
228	0x3e135ce5	0.14390905
229	0xbe16f4c4	-0.14741808
230	0xbd5e1a6a	-0.05422441
231	0x3d38f30c	0.045153663
232	0xbe2710fa	-0.1631507
233	0x3e30ec6b	0.17277686
234	0x3e1a225b	0.15052168
235	0x3dc8d462	0.09806134
236	0xbc950e50	-0.018195301
237	0x3c9be108	0.019028202
238	0x3df59a2e	0.11992298
239	0xbd8a1291	-0.067418225
240	0x3af44580	0.0018636435
241	0xbe016c6a	-0.12639013
242	0x3e10049b	0.14064257
243	0x3b5a5f80	0.0033321083
244	0xbaa8b380	-0.0012870878
245	0xbc51e6a0	-0.012811333
246	0xbe0baf60	-0.13641119
247	0x3dd8aa86	0.105794
248	0xbcfa1740	-0.030528665
249	0x3d9dcb4e	0.07704793
250	0x3cf00990	0.029301435
251	0xbe2efed5	-0.17089398
252	0x3e03f947	0.1288806
253	0xbd9f9bab	-0.07793363
254	0xbda8858c	-0.08228597
255	0xbce0f358	-0.027459785

weight_hh_l0 f4 [128, 32]
0	0xbe0d566d	-0.138025
1	0xbd085b10	-0.03328997
2	0xbe259f0b	-0.16173951
3	0x3cc02148	0.02345337
4	0x3d5d94e0	0.054097056
5	0xbe32fd9e	-0.1747956
6	0x3dcf6f9e	0.10128711
7	0xbd70084e	-0.05860167
8	0x3e138ba1	0.14408733
9	0xbbfe1780	-0.0077542663
10	0x3b54cd40	0.0032470971
11	0x3e32f0a7	0.17474614
12	0xbde02bc8	-0.109458506
13	0xbe2696c2	-0.16268447
14	0xbe270efd	-0.16314311
15	0x3e130b83	0.1435986
16	0x3d3a7a58	0.045526832
17	0x3ded084e	0.115738496
18	0xbc534ad0	-0.012896255
19	0xbe034085	-0.12817581
20	0x3e0cd7d5	0.13754208
21	0xbd5a3a7a	-0.053278424
22	0xbe2c9231	-0.16852643
23	0xbdda28c0	-0.10652304
24	0xbd7c48b4	-0.061592773
25	0x3cff7318	0.03118281
26	0x3df4d616	0.11954896
27	0xbde3b09a	-0.111176684
28	0xbe29f4d2	-0.16597298
29	0x3c99de70	0.018782824
30	0xbd613dd2	-0.054990597
31	0x3d23bf7c	0.039977536
32	0xbc6a3b40	-0.014296353
33	0xbc86c668	-0.01645203
34	0x3df1b042	0.11801197
35	0xbc424f30	-0.0118597
36	0x3de4cb4e	0.1117159
37	0xbc497b50	-0.012297466
38	0xbd04b408	-0.032398254
39	0xbd6dfea4	-0.058104172
40	0x3e332af1	0.1749685
41	0xbda5e294	-0.08099857
42	0x3defad92	0.11703028
43	0xbd31a978	-0.04337451
44	0xbd2f0a58	-0.042734474
45	0x3e20b3a5	0.15693529
46	0xbe2651e7	-0.16242181
47	0x3dc2f462	0.095192686
48	0x3d823e12	0.06359495
49	0x3e063dbb	0.13109486
50	0x3d9941b6	0.074832365
51	0x3da4da56	0.08049457
52	0xbdac9db0	-0.08428514
53	0x3e22a45b	0.15883009
54	0xbdec78d3	-0.11546483
55	0x3e23910f	0.15973304
56	0x3e1b50b1	0.151675
57	0x3ca2d6e8	0.019877866
58	0x3e047d57	0.12938438
59	0x3dd996f6	0.10624497
60	0xbd06dd64	-0.03292598
61	0xbdca0e30	-0.09865987
62	0xbe14e793	-0.14541464
63	0x3da0c352	0.078497544
64	0xbc9af6b8	-0.018916473
65	0xbe1eb926	-0.15500316
66	0x3d69a94c	0.05704622
67	0x3dbcf18e	0.092257604
68	0xbe1a9ffe	-0.15100095
69	0xbda5ab89	-0.08089358
70	0xbc2f96e0	-0.010717124
71	0xbe1f0c05	-0.15531929
72	0x3e10ef41	0.14153768
73	0xbd62e192	-0.055390902
74	0x3d1bb2a4	0.03801216
75	0xbe06d30e	-0.13166448
76	0x3d494394	0.049136713
77	0xbcd69ba0	-0.026197255
78	0x3de5bb3a	0.11217351
79	0x3de9fd96	0.11425321
80	0x3deef9c6	0.11668734
81	0xbe20643d	-0.15663238
82	0x3e2d68b1	0.16934468
83	0x3e1ca413	0.15296964
84	0x3e1b268d	0.15151425
85	0x3e00b617	0.12569462
86	0x3e0b919d	0.13629766
87	0x3d34b354	0.044116333
88	0xbd56dda8	-0.05245748
89	0xbe090d4c	-0.13383979
90	0xbe106df8	-0.1410445
91	0xbc9a9840	-0.018871427
92	0xbdf1b0c2	-0.11801292
93	0x3ba60280	0.005066216
94	0x3e1447cb	0.14480512
95	0x3e337697	0.17525707
96	0xbd0e48f8	-0.034737557
97	0xbe1ef414	-0.15522796
98	0x3dcd0d3a	0.100122884
99	0xbadc7480	-0.0016819388
100	0x3d060494	0.03271921
101	0xbd3f797c	-0.046746716
102	0x3d140448	0.036136895
103	0xbd28f7ac	-0.041251823
104	0xbe1474e0	-0.1449771
105	0x3ca49120	0.020088732
106	0xbcc0cb50	-0.023534447
107	0xbde589db	-0.112079345
108	0xbd4e1e48	-0.050321847
109	0xbda859a3	-0.08220222
110	0xbd66f7b8	-0.056388587
111	0xbdef74b8	-0.11692184
112	0x3e2dbc79	0.16966428
113	0xbd6b1116	-0.05738934
114	0xbddc465f	-0.1075561
115	0x3db91c4a	0.09038599
116	0xbd8ac9ce	-0.067767724
117	0xbd51537c	-0.051105008
118	0x3db5559a	0.08854218
119	0xbe24f2e7	-0.16108285
120	0x3e346f55	0.17620595
121	0xbc2169a0	-0.009851843
122	0x3df6fd16	0.12059991
123	0x3dd489de	0.103778586
124	0xbdf34514	-0.1187841
125	0xbd33df38	-0.04391405
126	0xbd86ceb3	-0.065823935
127	0xbcd895b0	-0.026438564
128	0x3dd66122	0.10467745
129	0xbd683f1c	-0.05670081
130	0x3df5ee7e	0.120083794
131	0xbe08bc85	-0.13353164
132	0x3e32e42b	0.17469852
133	0xbdf49616	-0.11942689
134	0xbbf0af20	-0.0073450953
135	0xbdfb6279	-0.122746415
136	0xbdca9c78	-0.09893125
137	0xbd6f61a6	-0.058442734
138	0xbe2321ee	-0.15930912
139	0x3da9ce4a	0.082913
140	0x3ca6e570	0.020373076
141	0xbe1eb4ef	-0.15498708
142	0xbe0e4a49	-0.13895525
143	0x3dbe888e	0.093033895
144	0x3d18e164	0.037324324
145	0x3e29f01b	0.16595499
146	0xbb380a80	-0.002808243
147	0xbe093318	-0.13398397
148	0x3e0053bb	0.1253194
149	0xbcb9c798	-0.022678182
150	0x3e1ea44b	0.1549236
151	0x3dd1df2a	0.10247643
152	0xbe0ecfcd	-0.13946457
153	0x3c172400	0.009224892
154	0x3dfecee2	0.124418035
155	0x3b147800	0.0022654533
156	0xbda2621f	-0.07928871
157	0xbdcfea53	-0.10152116
158	0x3dad4676	0.08460705
159	0xbe08d7b6	-0.13363537
160	0xbdaee6d1	-0.085401185
161	0xbd018a18	-0.031625837
162	0x3dd82f0e	0.1055585
163	0x3cc2b7d0	0.02376929
164	0xbe26489e	-0.16238639
165	0x3d0ea84c	0.03482847
166	0x3e09cf6d	0.13458033
167	0x3c5fef90	0.013667956
168	0xbdcb309e	-0.09921382
169	0xbb2bd2c0	-0.0026218146
170	0xbe2e33f5	-0.17012008
171	0xbe1904b6	-0.14943203
172	0xbdabbe0b	-0.08385857
173	0x3d3235cc	0.043508336
174	0x3c5bd5f0	0.013417706
175	0x3db5e006	0.0888062
176	0xbe345d1e	-0.17613646
177	0x3ca91698	0.020640656
178	0x3ce76e80	0.028250933
179	0xbe00c939	-0.1257676
180	0x3df8f032	0.121551886
181	0xbe28886e	-0.16458294
182	0x3c09dbe0	0.008414239
183	0xbe2fe2e5	-0.17176397
184	0x3d89392c	0.06700358
185	0x3d725358	0.059161514
186	0x3df08896	0.11744802
187	0xbda39469	-0.07987291
188	0xbd644d62	-0.05573786
189	0x3e1e2f7f	0.15447806
190	0x3d9eef0a	0.07760437
191	0x3d8cd822	0.068771616
192	0xbe0d0c94	-0.1377433
193	0xbe0615e8	-0.13094294
194	0xbb91e240	-0.00445202
195	0xbd61a22e	-0.055086307
196	0x3e26021d	0.16211744
197	0x3e08a76d	0.13345118
198	0xbd2990b0	-0.04139775
199	0x3dcf190a	0.10112198
200	0xbd991b92	-0.07475962
201	0xbccc1358	-0.024911568
202	0xbe10c0d6	-0.14136061
203	0x3de856d2	0.11344685
204	0xbdea5a7c	-0.1144304
205	0x3ccf05e8	0.025271371
206	0x3e0f8c77	0.14018427
207	0x3d98741a	0.074440196
208	0x3dec0e46	0.1152616
209	0xbe2260b0	-0.15857196
210	0xbc30a580	-0.010781646
211	0x3e2c2051	0.16809203
212	0x3d8db1ae	0.06918655
213	0x3e2ede19	0.17076911
214	0x3cae0698	0.021243379
215	0xbe138cbe	-0.14409158
216	0x3e13ae15	0.14421876
217	0x3d1ac700	0.037787437
218	0x3d22f2dc	0.03978239
219	0x3dd10d5a	0.10207625
220	0xbd38547c	-0.045002446
221	0x3da9092e	0.08253704
222	0x3e12a5b9	0.1432103
223	0xbe12629f	-0.14295433
224	0xbddb73dd	-0.107154585
225	0x3cf02ac0	0.02931726
226	0x3b90f600	0.0044238567
227	0x3d3a6d60	0.045514464
228	0x3e0719af	0.13193391
229	0x3dd9387e	0.10606478
230	0xbd06b444	-0.03288676
231	0x3d6e7fa0	0.05822718
232	0x3db0a89a	0.08625908
233	0x3e1c1063	0.15240626
234	0x3e126fb7	0.14300428
235	0x3d4884e8	0.048954874
236	0x3dae357a	0.085062936
237	0xbe2a1d8a	-0.16612831
238	0xbd19dadc	-0.037562236
239	0x3dc86e76	0.09786694
240	0xbe346163	-0.17615275
241	0x3c9bb130	0.019005388
242	0x3e2c2c05	0.16813667
243	0xbdb1ca1f	-0.0868113
244	0xbd059d90	-0.032620966
245	0xbdfe2e82	-0.124112144
246	0x3e04be7d	0.1296329
247	0x3cda85a8	0.02667506
248	0xbe2eee3d	-0.17083068
249	0xbd59b354	-0.053149536
250	0x3e16ce4b	0.14727132
251	0x3e0c8dc1	0.1372595
252	0x3dfa8cc2	0.12233879
253	0xbde71b45	-0.11284498
254	0xbc6d4600	-0.014482021
255	0x3e19dcaf	0.1502559

bias_ih_l0 f4 [128]
0	0x3db4180a	0.087936476
1	0x3da98822	0.082779184
2	0xbc3895a0	-0.011266142
3	0x3db885b2	0.09009875
4	0x3bad29a0	0.005284503
5	0x3dd5c68a	0.10438259
6	0xbd917cfb	-0.07103916
7	0xbd9911c8	-0.07474095
8	0xbe2e5efb	-0.1702842
9	0x3dbe4bb2	0.092917815
10	0xbe1f812f	-0.15576623
11	0x3da5e432	0.081001654
12	0x3d7e5e4c	0.062101647
13	0x3daa084a	0.08302362
14	0x3db56056	0.08856265
15	0x3e30182d	0.17196722
16	0xbddac029	-0.10681183
17	0x3df0e92a	0.117632225
18	0x3e2dec73	0.1698473
19	0xbdd75b72	-0.10515489
20	0x3c896730	0.016772836
21	0xbc9d5d58	-0.019209549
22	0x3d815f36	0.06316988
23	0xbda19778	-0.078902185
24	0xbcc6fed8	-0.02429144
25	0xbe1d6f62	-0.1537452
26	0x3ca63350	0.02028814
27	0xbe118c61	-0.14213707
28	0xb99de000	-0.00030112267
29	0x3df6592e	0.120287284
30	0xbdd377b8	-0.10325569
31	0xbc914c28	-0.01773651
32	0xbe1a4e82	-0.15069011
33	0xbdbf740e	-0.093483075
34	0xbd0f5754	-0.034995392
35	0x3c848790	0.016177922
36	0xbbcf25a0	-0.006321624
37	0x3d0b3114	0.03398235
38	0xbd996c5b	-0.0749137
39	0xbd827b48	-0.0637117
40	0x3e2ce0b3	0.16882591
41	0x3dc7d78e	0.09757911
42	0xbe22bc3f	-0.15892123
43	0x3dbf1b7a	0.093314126
44	0xbe00ed20	-0.12590456
45	0x3e23b611	0.15987422
46	0x3d56e8a8	0.052467972
47	0x3df920d2	0.12164463
48	0xbdb51bd2	-0.08843197
49	0x3e206091	0.15661837
50	0xbe211e27	-0.15734158
51	0x3dec7cf6	0.11547272
52	0xbe0b183f	-0.13583468
53	0x3e3110bb	0.17291538
54	0x3cef9f78	0.029250845
55	0xbc1fda60	-0.0097566545
56	0x3dc310ae	0.09524666
57	0xbd4e67c4	-0.050391927
58	0x3cc3dcd0	0.023909003
59	0xbdc020c2	-0.09381248
60	0x3daf0f16	0.08547799
61	0xbcc4f920	-0.024044573
62	0xbe167cda	-0.14696065
63	0xbe205c99	-0.15660323
64	0x3d9a1842	0.07524158
65	0xbcb25a50	-0.02177158
66	0xbc3159f0	-0.010824665
67	0xbd603dea	-0.054746546
68	0x3d3193a8	0.043353707
69	0xbcd8a0c8	-0.026443854
70	0xbdaff8b6	-0.0859236
71	0xbc3c7ed0	-0.011504844
72	0xbe1ca93f	-0.15298937
73	0xbd6a9158	-0.057267517
74	0xbd86880b	-0.06568917
75	0xbd849d1d	-0.064752795
76	0x3e08821b	0.13330881
77	0x3e0a1fed	0.13488741
78	0x3e09de17	0.13463627
79	0x3d13defc	0.036101326
80	0xbdda5cec	-0.10662255
81	0xbd37fee0	-0.044920802
82	0x3d611db0	0.054959953
83	0xbe2b5b00	-0.16733932
84	0x3cdf0030	0.02722177
85	0xbc414fc0	-0.011798799
86	0x3e1fc0cd	0.15600891
87	0xbe11811c	-0.14209408
88	0x3e0274bd	0.12739845
89	0xbe0d5510	-0.1380198
90	0xbd9f2e74	-0.07772532
91	0xbe0d4df7	-0.13799272
92	0x3dd208ea	0.102556065
93	0x3defcb62	0.11708714
94	0x3d9b5f2e	0.075865135
95	0x3d9c8986	0.07643418
96	0xbc3eff30	-0.011657521
97	0x3df079ca	0.117419794
98	0x3e32081f	0.1738591
99	0xbde3918b	-0.111117445
100	0xbe20bad3	-0.15696268
101	0x3dcfd91a	0.10148831
102	0x3df79b96	0.120902225
103	0x3e1ffeff	0.15624617
104	0x3e045699	0.1292366
105	0xbd814b07	-0.063131385
106	0x3a696500	0.0008903295
107	0xbd3cad18	-0.046063513
108	0x3df66b1a	0.12032147
109	0xbe059c3e	-0.13047883
110	0x3b643ec0	0.003482744
111	0x3d01a5e0	0.03165233
112	0x3e1537a5	0.14572008
113	0x3cf390f8	0.029732212
114	0xbd7e2b20	-0.062052846
115	0x3cbaca10	0.022801429
116	0x3d5dc210	0.05414015
117	0x3d6f6c58	0.058452934
118	0xbe1efccc	-0.15526122
119	0x3dc4c62e	0.09608112
120	0x3d79bf68	0.060973555
121	0x3d47585c	0.04866825
122	0x3dc2b28a	0.0950671
123	0xbcb1fa48	-0.021725789
124	0x3d102350	0.035189927
125	0x3e040259	0.1289152
126	0x3e2d193f	0.16904162
127	0x3cd6d928	0.026226595

bias_hh_l0 f4 [128]
0	0xbda25409	-0.07926185
1	0x3e0f5007	0.13995372
2	0xbdf94cb4	-0.12172833
3	0x3d5e7e70	0.0543198
4	0xbd63c204	-0.05560495
5	0x3e1d101f	0.15338181
6	0x3d0f0c00	0.034923553
7	0xbe2ac8d9	-0.1667818
8	0xbd45a050	-0.04824859
9	0xbddb5f3d	-0.10711525
10	0xbd6b7b86	-0.057490848
11	0x3d2b8d40	0.041882753
12	0xbc6609e0	-0.01404044
13	0x3e28a70f	0.16469978
14	0xbdf21821	-0.118210085
15	0xbe0e08ef	-0.13870595
16	0x3dfe82da	0.12427302
17	0xbd2b5b10	-0.04183489
18	0x3d56acd4	0.052410915
19	0xbe2c4f1e	-0.16827056
20	0x3daeb5ea	0.08530791
21	0x3de6a2de	0.11261533
22	0xbb8ea020	-0.0043525845
23	0x3d9721aa	0.07379468
24	0xbd51ae34	-0.051191524
25	0xbd9dbfc0	-0.07702589
26	0x3e328457	0.17433296
27	0x3e08eca3	0.1337152
28	0x3dc0e016	0.09417741
29	0x3de58a06	0.112079665
30	0x3e0ad15b	0.13556425
31	0x3c9339a0	0.017971814
32	0xbdb362a1	-0.08759046
33	0xba27e200	-0.0006404221
34	0xbd1ff65c	-0.039053306
35	0xbe1c943c	-0.15290922
36	0x3dd763ba	0.10517068
37	0x3e2f9edb	0.17150442
38	0xbdf75e81	-0.12078572
39	0x3bfca280	0.007709801
40	0xbd8eab78	-0.06966299
41	0xbdacc2bf	-0.08435582
42	0x3df5fc3a	0.12010999
43	0x3e17f877	0.14840876
44	0xbcd03388	-0.025415197
45	0xbc1cc2b0	-0.0095679015
46	0x3cc0d848	0.023540631
47	0xbdb9ae01	-0.09066392
48	0xbe1a2222	-0.15052083
49	0xbdd9c52c	-0.10633311
50	0xbd5a646a	-0.05331842
51	0xbdb87a6f	-0.09007727
52	0xbde5cd1b	-0.112207614
53	0x3dc7e742	0.09760906
54	0xbdd60842	-0.10450794
55	0x3d43940c	0.04774861
56	0xbd6cbc00	-0.05779648
57	0x3dbd9932	0.09257735
58	0x3d13200c	0.035919234
59	0x3e2190bd	0.1577787
60	0xbdfb3cc6	-0.12267451
61	0xbdfad200	-0.122470856
62	0x3e311a79	0.17295255
63	0x3da45996	0.080249
64	0x3e051345	0.12995632
65	0xbdf34865	-0.118790425
66	0x3db41b76	0.087943
67	0x3e32c9b9	0.17459764
68	0x3d2d40dc	0.042298183
69	0x3dcd0f22	0.10012652
70	0x3dbf3256	0.09335773
71	0x3d844b5a	0.06459685
72	0x3c81fb20	0.015866816
73	0x3cc33018	0.023826644
74	0xbdfcce9c	-0.12344095
75	0xbe094ac1	-0.13407423
76	0x3dab8d5a	0.0837657
77	0x3e161f09	0.14660276
78	0xbc8d0ec8	-0.017218962
79	0xbe1e0bb3	-0.1543415
80	0x3e1f9421	0.1558385
81	0xbde8cd2e	-0.1136726
82	0x3d8f1046	0.06985526
83	0x3df2fb1e	0.11864303
84	0xbc250060	-0.01007089
85	0x3e101077	0.14068781
86	0x3c6aefc0	0.014339387
87	0xbe03f89e	-0.12887809
88	0x3a9c0900	0.0011904538
89	0x3e10a927	0.14127026
90	0xbda7f299	-0.08200569
91	0x3dd1b946	0.10240416
92	0x3d870658	0.06593007
93	0x3e34ffd1	0.17675711
94	0xbd3ff764	-0.04686679
95	0xbdaffba7	-0.08592921
96	0xbd187d54	-0.037228897
97	0xbe322d88	-0.17400181
98	0x3db0d66a	0.08634646
99	0xbe232a68	-0.15934145
100	0xbd87b0eb	-0.06625541
101	0x3d6e04d4	0.058110073
102	0xbbc8bc80	-0.0061259866
103	0xbde8c7be	-0.11366223
104	0xbe2b23ea	-0.16712919
105	0xbd99b412	-0.07505049
106	0xbd9e1769	-0.07719309
107	0x3da8f25e	0.08249353
108	0x3d9a5a02	0.07536699
109	0xbe24f216	-0.16107973
110	0xbdf69626	-0.12040357
111	0x3e1b61b5	0.15173991
112	0x3d5efdb4	0.05444117
113	0xbdb733ee	-0.08945452
114	0x3d31ee94	0.043440416
115	0xbd91306a	-0.070893124
116	0x3e00a535	0.12563021
117	0x3e31603f	0.17321871
118	0xbdcf8710	-0.10133183
119	0x3db2acf2	0.08724393
120	0x3d254b80	0.040355206
121	0xbe1f5a47	-0.15561782
122	0x3dbb629a	0.09149666
123	0x3e340605	0.17580421
124	0x3e19fd1d	0.15037961
125	0xbd4852d4	-0.048907116
126	0x3e333f25	0.17504556
127	0x3dddee2e	0.10836445

weight f4 [1, 32]
0	0xbd0b8774	-0.034064725
1	0x3e273c13	0.1633151
2	0x3da0f81a	0.078598216
3	0xbdaebf27	-0.08532553
4	0x3c2d6940	0.010584176
5	0x3d60aab0	0.05485028
6	0x3d987332	0.07443847
7	0x3d5c2540	0.053746462
8	0x3d46fc38	0.04858038
9	0xbd414578	-0.04718539
10	0xbd5bdcb4	-0.053677276
11	0x3ba61980	0.005068958
12	0x3e2c06e5	0.16799505
13	0xbdde0e12	-0.108425274
14	0xbc8526b0	-0.0162538
15	0x3e10bbc3	0.14134125
16	0xbe18a7b0	-0.14907718
17	0xbdc12967	-0.09431725
18	0xbd42ec00	-0.04758835
19	0xbdfaa040	-0.122375965
20	0xbd1b5ac8	-0.037928373
21	0x3c908a68	0.017644122
22	0x3e30ee49	0.17278399
23	0x3e2fe23d	0.17176147
24	0x3b975fe0	0.0046195835
25	0xbc84dda8	-0.016218975
26	0xbb727780	-0.0036997497
27	0xbd78ae92	-0.06071336
28	0x3d1df414	0.03856285
29	0x3d46cc5c	0.048534736
30	0xbdb02a46	-0.08601813
31	0x3db9f45e	0.090798125

weight f4 [1, 32]
0	0xbc3c2030	-0.0114822835
1	0xbd82b0e1	-0.06381393
2	0xbe14dc04	-0.14537054
3	0x3e0e2ca7	0.13884221
4	0x3d8821ae	0.06647049
5	0xbddad52a	-0.10685189
6	0x3e304b73	0.17216282
7	0xbd115ff4	-0.0354919
8	0xbce26448	-0.027635708
9	0x3dcb2736	0.09919588
10	0x3d6f771c	0.0584632
11	0x3d669474	0.05629392
12	0x3e32c87b	0.1745929
13	0x3ddc306e	0.10751425
14	0xbe1a817e	-0.1508846
15	0xbcfccfa0	-0.030860722
16	0x3c594f90	0.013263598
17	0xbddeb00b	-0.10873421
18	0x3e1bcb67	0.1521431
19	0xbd7c60ca	-0.061615743
20	0x3e3256ef	0.17415975
21	0x3b2b6ac0	0.0026156157
22	0xbd9d1321	-0.07669664
23	0x3deeabbe	0.11653851
24	0x3d662034	0.056183055
25	0x3e025f6d	0.12731715
26	0x3dcc2df2	0.09969701
27	0xbd66d248	-0.056352884
28	0x3d9922a6	0.07477312
29	0xbd7ccb84	-0.061717525
30	0x3d3180fc	0.0433359
31	0x3d28ca64	0.04120864
