competition/result/lstm_win3_noStandardized_2layer_16hidden_0.98g/trained_model/all_model/actor_num_epoch_1.pth (torch, 21374 bytes, 9 tensors)

weight_ih_l0 f4 [64, 11]
000000 f7 2a fb 3d 9a 4b 07 3d a8 76 91 bd 71 0c 31 bd
       0.12264054 0.033031084 -0.0710271 -0.043224756
000010 26 e5 06 3e 65 73 46 3e 4a 67 47 3e 7f 2c b6 bd
       0.1317335 0.19379957 0.19472995 -0.08895206
000020 f9 93 ff 3c 55 0a 59 3e 66 82 25 bd 68 62 0a 3e
       0.031198489 0.21195348 -0.04040756 0.13514102
000030 da 6c e0 3d 51 54 2e 3e 5e 6d 51 3e 53 a1 a0 3c
       0.10958262 0.17024352 0.20451877 0.019608175
000040 7f 8b cc bd f0 1d be bc 44 3c 02 be fa 66 53 bd
       -0.09987544 -0.023207635 -0.12718302 -0.051611878
000050 cb 3e 26 3d 57 76 11 3e fa d4 3c be 93 01 32 3e
       0.040587228 0.142053 -0.18440619 0.17383413
000060 0a 30 52 be 3e 4e bd bd 94 31 8c bb 3b b4 91 bd
       -0.20526138 -0.09243439 -0.004278371 -0.07114454
000070 40 6d 08 be 66 8a 2b 3d 91 33 1d be 32 4e 5a 3e
       -0.13322926 0.041880034 -0.15351702 0.21318892
000080 1a 1d 60 be 83 06 03 3e cb 61 07 3e 05 ef 03 be
       -0.21886101 0.12795453 0.13220899 -0.12884147
000090 80 01 1b 3e 24 45 32 be 46 4d 27 be 18 90 f1 bc
       0.15137291 -0.17409188 -0.16338071 -0.029487655
0000a0 02 b7 33 3e 4b a8 0c be 08 c0 3a be 16 1a e9 bd
       0.1755028 -0.13736074 -0.18237317 -0.113819286
0000b0 d3 ae 3b bd 04 2d 65 3d 91 b9 01 be 8e 36 17 be
       -0.045821022 0.055951133 -0.12668444 -0.14766905
0000c0 30 3a 97 bb d2 d6 b6 3c 86 c7 62 bd 18 67 f0 3d
       -0.004615091 0.022319231 -0.05536606 0.117384136
0000d0 2e 72 5c 3d 84 0b 2b be 3c d4 5c 3e 48 dd 16 3e
       0.053819828 -0.16703612 0.21565336 0.1473285
0000e0 0c 0b 60 3c b9 2d 00 3e 0e c7 81 bd 0a d6 df bd
       0.013674509 0.12517442 -0.06336795 -0.109294966
0000f0 92 f5 0e 3e 3f 5f c5 3d 27 99 2d be 41 3c 43 3d
       0.13960865 0.096373074 -0.16952954 0.047664884
000100 79 ed 69 be ad 40 3d be 17 58 0d 3e 54 dd 84 bd
       -0.22844495 -0.18481703 0.13803135 -0.064875275
000110 4d da c9 bd 5a 63 ba bd da 8a 7e 3e 7d 4f 82 bd
       -0.09856091 -0.09100981 0.24857655 -0.063628174
000120 73 21 4b 3e c4 2f 7b bd ba a5 48 be 40 85 05 bd
       0.19836979 -0.06132485 -0.1959447 -0.03259778
000130 fa c2 6a be d0 94 e9 3d 81 f6 40 be 4d dd 44 be
       -0.2292594 0.11405337 -0.18844034 -0.19225045
000140 3f fa f5 bd 4b 0f 41 be 27 b1 32 bd 3a f9 43 3d
       -0.12010621 -0.1885349 -0.043625977 0.047845103
000150 e4 5a e5 bb e7 d4 79 be 03 34 04 bc 96 e1 26 be
       -0.0069993604 -0.24397622 -0.008069041 -0.16296992
000160 4f c2 29 3e 5a e2 c8 bd 46 2e dd 3d 32 80 54 be
       0.16578029 -0.09808798 0.107998416 -0.20752028
000170 a2 7f 4c be 73 19 b6 bd ed f9 cc 3d 2c 6e 0b 3e
       -0.19970563 -0.08891573 0.10008607 0.13616246
000180 9c 21 14 bd ad 97 2e be e2 f4 bc bc 8f 47 69 3e
       -0.036164865 -0.17050047 -0.023065988 0.22781204
000190 39 7c 0f 3e 0a 3f 5a be 2e a1 0e be 92 9d 68 3c
       0.14012231 -0.2131311 -0.13928673 0.014197724
0001a0 0a 06 52 3e de d6 23 3e 21 46 70 3c 2c 94 13 3e
       0.20510116 0.15999934 0.0146651575 0.14411992
0001b0 aa 2d 4c be 4f 9c 4f be c9 97 57 3e cc 83 ae 3c
       -0.19939294 -0.20274471 0.21053995 0.02130308
0001c0 ff 54 01 3e ec d7 18 be d0 9e 6f 3e 4e 31 46 be
       0.1263008 -0.14926118 0.23400426 -0.19354746
0001d0 e6 b9 ad 3d 2e b2 5b bc 18 6c 54 3e a9 5e 49 be
       0.08482723 -0.013409181 0.2074436 -0.19665016
0001e0 9e aa 49 3e ed b3 b8 bd f3 98 e2 bd ea 9a 20 be
       0.19693992 -0.09018693 -0.11064329 -0.15684095
0001f0 24 0c 1e be 58 14 a3 3a cc f5 9f 3b 8f 28 b4 bd
       -0.15434319 0.0012441976 0.004881596 -0.087967984
000200 51 4b f4 3d c2 6c 2a 3c 0a 78 4e 3d 14 ad f0 bd
       0.11928428 0.010401906 0.050407447 -0.11751762
000210 5f 34 57 3e 15 84 6c 3e 30 e9 dd 3d f3 aa 39 be
       0.21016072 0.2309726 0.108354926 -0.18131618
000220 72 2a 04 bd 6a 7a 41 3e c4 00 03 be 53 52 78 be
       -0.03226704 0.18894354 -0.12793261 -0.24250154
000230 d2 49 0b 3c 04 e1 20 3e 64 fa 35 3e 96 3e 40 3e
       0.008501487 0.15710837 0.17771298 0.18773875
000240 4f 3a 02 be 43 6a dc bd d0 b8 a1 3d 9c 1b 29 3e
       -0.12717555 -0.10762455 0.07896578 0.16514438
000250 cb ab e1 3b 74 88 85 3d ea 87 26 bd fe 3b d8 3d
       0.0068869344 0.06520167 -0.04065696 0.105583176
000260 30 a0 20 be 98 9f 73 bc 56 78 b4 bd 24 0f 34 bb
       -0.15686107 -0.014869593 -0.08812015 -0.0027474845
000270 d7 05 ba 3b c0 83 14 be 53 c8 e3 bd 05 78 5f be
       0.0056769657 -0.14503384 -0.11122193 -0.21823128
000280 2c 02 c1 bd 61 d4 bc bd 8e 8a 6e 3e 59 12 81 3e
       -0.094242424 -0.092201956 0.23295042 0.2520931
000290 e1 8f 5d 3d cc d4 22 be 49 e6 3c be 90 0d 74 be
       0.05409229 -0.15901488 -0.18447222 -0.23833299
0002a0 c9 31 a7 3c b3 59 4d be 58 44 3b be 7b 7a b8 bd
       0.020409482 -0.20053749 -0.1828779 -0.09007736
0002b0 07 55 4e be ca b3 63 3e 6f c2 48 be d8 93 7a 3e
       -0.20149623 0.22236553 -0.1960542 0.2447046
0002c0 1f 99 a7 bc 07 0c fd bd 0e f6 73 3d a2 52 3c bd
       -0.020458756 -0.1235581 0.059560828 -0.045977242
0002d0 7f fb 23 be cb 77 14 be 62 12 80 bd 69 b7 03 3e
       -0.16013907 -0.14498822 -0.06253506 0.12862934
0002e0 f1 69 e7 3c 75 4f 49 be b8 5e 28 3e bb 02 59 3e
       0.028248759 -0.19659217 0.16442382 0.21192448
0002f0 2c 68 0b be a4 ca 19 be 2c 93 30 3e e1 67 b6 3d
       -0.13613957 -0.15018708 0.17243642 0.08906532
000300 b6 cc 0f be 7b 93 45 be 84 37 7e 3e df 13 96 bd
       -0.14042935 -0.1929454 0.24825865 -0.07328009
000310 e8 5d 6f be da 93 59 be 76 de f2 bc ab 58 cd 3d
       -0.23375666 -0.21247807 -0.029647093 0.10026678
000320 df ae 13 be 88 64 e6 3d 07 39 94 bd 54 ab 92 bd
       -0.14422177 0.112496436 -0.072374396 -0.071615845
000330 85 0f b3 3d 3e 00 b2 bc 8b 5e 7d 3e 92 26 03 3e
       0.087431945 -0.021728631 0.24743097 0.12807682
000340 75 8a 63 3e 53 67 24 3e cd c9 47 3e 94 e1 09 3d
       0.22220786 0.1605504 0.19510575 0.033662394
000350 ed e4 49 bc 4c f2 29 bd 05 07 1e 3e c6 b0 6f bd
       -0.012322647 -0.041490838 0.15432365 -0.058518194
000360 9b 27 7a be c5 c1 4c 3e 4c 10 3a be 4b ad 3b 3e
       -0.24429171 0.19995792 -0.1817028 0.18327825
000370 ea 1c 33 3d c6 8a aa 3d ae 5c 2f be 6f 6b 09 3e
       0.043728746 0.0832725 -0.17125198 0.13419889
000380 44 ed cc 3c dd cb 4f be 84 88 2c 3e 86 f0 6e 3e
       0.02501548 -0.20292611 0.16848952 0.2333394
000390 15 79 2a 3e f9 11 78 bd 41 9e 0f 3e c3 21 9d bc
       0.16647752 -0.060564015 0.14025213 -0.019181138
0003a0 af f4 4f be 56 fe 2f 3e 6f be 95 3d 5e 0c 1b 3e
       -0.20308183 0.17186865 0.07311713 0.15141436
0003b0 a3 83 f6 3d a3 72 24 3c 76 fb 3d 3e 48 e7 06 3d
       0.120368265 0.010037097 0.18552956 0.03293541
0003c0 a6 a0 25 3d 81 4b 5f be 70 b1 36 be cd 56 6d 3e
       0.04043641 -0.21806146 -0.17841125 0.23177643
0003d0 6a c9 d8 bd 9a 8a 6b be 56 89 d0 3d 31 63 26 3e
       -0.10585292 -0.23002091 0.10182445 0.16248776
0003e0 ab 5b 35 be e2 aa 53 3e 16 fe 6e 3e 2f 27 07 3e
       -0.1771075 0.20670655 0.23339114 0.13198541
0003f0 83 ef 88 bc 95 6e 1e be e9 a7 2d be 24 18 b7 3c
       -0.01671577 -0.15471871 -0.16958584 0.022350378

weight_hh_l0 f4 [64, 16]
000000 b8 95 2a be 15 44 1a 3e 5e 42 03 bd 22 d5 0c 3d
       -0.16658676 0.15065034 -0.032045715 0.034382947
000010 7e aa 2d be c1 31 7d be 1e ec 3c be 22 36 9f 3d
       -0.16959569 -0.24726011 -0.18449447 0.07773997
000020 33 c1 40 be f0 40 a5 bc e8 8d c4 3b b2 dd 3b 3e
       -0.188237 -0.020172566 0.005998362 0.18346289
000030 84 a8 7a bd b2 40 21 be 51 85 81 3c 50 45 88 bc
       -0.061195865 -0.15747336 0.01581064 -0.016634613
000040 e9 24 8d 3b b5 84 d6 bd f2 3e 2d be cc 63 7f 3e
       0.0043073785 -0.104745306 -0.16918543 0.24940413
000050 94 e1 80 3e 1d a3 1b be cb ae 74 3e 87 02 68 3e
       0.25172102 -0.15198942 0.23894803 0.22657214
000060 87 56 6e 3e f6 e1 ac bc f0 3f 54 3c dd 09 44 3e
       0.23275195 -0.02110384 0.012954697 0.19144388
000070 1b bf 6c be 06 b7 3f 3d 90 38 be 3d 28 77 c5 3c
       -0.23119776 0.046805404 0.09288132 0.02410467
000080 d3 8f ee 3d 89 31 77 3b 80 a6 85 bd b3 97 20 bd
       0.11648526 0.0037718734 -0.06525898 -0.03920717
000090 12 99 3f 3e f7 41 13 be 87 38 4e bd a0 21 3a be
       0.18710735 -0.14380632 -0.050346877 -0.1817689
0000a0 b3 df d4 3d 37 c0 57 be 3d 2e a7 3a 4a 18 30 bd
       0.1039423 -0.21069418 0.0012754869 -0.042991914
0000b0 b3 29 64 be 9a 66 59 be 6b d4 13 be a5 6a 3e 3d
       -0.22281532 -0.21230546 -0.144365 0.046488423
0000c0 46 80 43 be 50 bb fc 3d ba 03 88 3d b2 52 8f 3d
       -0.19091901 0.123404145 0.06641336 0.06998195
0000d0 de f7 64 be 21 71 2d be 65 48 71 be f6 fd 07 3d
       -0.22360179 -0.16937687 -0.23562773 0.03320118
0000e0 f2 5f 15 be 8d 1d 16 3e 5c a4 29 3e 9e be 0a 3e
       -0.14587381 0.1465971 0.16566604 0.13549277
0000f0 ac ae 98 3d 4d 05 79 be 89 01 29 bd 04 68 2e be
       0.07455191 -0.24318428 -0.04126123 -0.17031866
000100 f2 d3 98 bd 05 31 20 be 82 b6 57 3e a1 83 a0 bd
       -0.074623 -0.156437 0.21065715 -0.07837606
000110 c8 8e 7a 3e d5 45 cb bd e8 a2 a4 bd e7 ef 5e bd
       0.24468529 -0.09925429 -0.080388844 -0.054428007
000120 b5 58 b1 3d 5a dc d8 bd 8f ba 02 3d 0b 11 3a bd
       0.08659498 -0.10588904 0.031916197 -0.04542641
000130 1a f1 80 3e 4f 04 e0 3c 63 6a 0c bc e5 87 ef 3d
       0.25183946 0.027345804 -0.008570286 0.11695842
000140 0a 27 4a 3e 77 87 2a be db 10 37 bd 66 6c f0 bd
       0.19741455 -0.16653238 -0.04469381 -0.11739425
000150 a6 c4 90 3d 7a 03 8a 3a 34 bd ff 3d 6e 99 6f 3e
       0.07068758 0.00105296 0.124872595 0.23398373
000160 ca 2a 84 bb b8 61 3c bc 0a 80 3b be 6c db 19 bd
       -0.004033421 -0.011497907 -0.18310562 -0.037562773
000170 f7 ba 3a bd b8 eb 06 bd 5a 68 35 3e 4d 08 94 bd
       -0.04558846 -0.032939643 0.17715588 -0.07228146
000180 8b 4a 1b be ec 8c fb bd 05 5d 7f 3e 8b d5 96 3c
       -0.15165155 -0.12282738 0.24937828 0.018412372
000190 a2 1e 00 3d b4 4c 34 be 7f e5 51 be 1f e9 e3 bd
       0.031279214 -0.17607385 -0.20497702 -0.11128449
0001a0 39 5c 39 3d 43 31 41 be 9e f7 0d be 8b fb ed 3d
       0.045253966 -0.18866448 -0.1386399 0.11620244
0001b0 c5 f8 b4 3d 68 97 67 be a7 92 86 3d 6e 21 59 be
       0.088365115 -0.2261635 0.065709405 -0.21204159
0001c0 2b a8 bc bd 83 eb f1 bd 43 1d 51 3e 11 98 0e 3e
       -0.09211763 -0.118124984 0.20421319 0.13925196
0001d0 49 04 f0 bd 32 7e 7b be c4 0c 3f 3e f3 66 e5 3d
       -0.11719567 -0.24559858 0.18657213 0.11201277
0001e0 12 67 04 be 97 9f c3 bd 4b 7a 7a 3e 49 af 1c bd
       -0.12929943 -0.09551924 0.24460714 -0.038253102
0001f0 8b 44 80 3e fe e2 7b be b2 ba 59 3e 95 f1 64 3d
       0.25052294 -0.2459831 0.21262625 0.055894453
000200 b5 52 74 be 1f da d9 3d fc 5d 65 3e 43 14 f7 bc
       -0.23859675 0.106373064 0.22399133 -0.030161029
000210 60 04 68 be 77 2e 58 be 11 38 2d 3e da c2 03 3e
       -0.22657919 -0.21111475 0.16915919 0.12867299
000220 b1 69 48 bd 0b c0 88 3c df 73 1c be 41 2d 3b be
       -0.04892892 0.016693136 -0.15278576 -0.18278982
000230 c8 33 42 3e 08 0d c5 3d f4 9a 00 bd ae a2 57 be
       0.18965065 0.09621626 -0.031397775 -0.21058151
000240 8e 67 6a 3e 2a a2 79 be ad 3d 21 3e 97 0c b4 3d
       0.22891065 -0.24378267 0.15746184 0.08791464
000250 8a 4c 3c 3b 91 bd b0 bb b2 16 21 be 22 30 f6 bd
       0.0028732144 -0.005393692 -0.15731314 -0.12020899
000260 74 8a 08 3c fd 0c 5d 3e 1c 33 6e 3e 9d b7 ce bd
       0.008333791 0.21586986 0.23261684 -0.10093615
000270 d2 79 36 be b6 6b 1b 3e cf 0c 09 3e 12 9f 3d be
       -0.17819908 0.15177807 0.13383792 -0.18517712
000280 49 f7 7c 3e 46 c7 42 3e e3 e2 86 3d 8a 3e 1a 3e
       0.24703707 0.1902133 0.06586244 0.1506292
000290 99 ba 2f be 76 84 5f bd ba f9 3c 3e 2d 68 4c be
       -0.17161025 -0.054569684 0.18454638 -0.19961615
0002a0 77 03 0e bd 15 11 11 be 93 aa 4c be 47 88 50 3e
       -0.034671273 -0.14166673 -0.19986944 0.20364486
0002b0 43 0b de bc 7f ad fb bc 2e 08 e6 bd 0b 35 6f be
       -0.02710498 -0.030722378 -0.11232029 -0.23360078
0002c0 8d 43 18 bd 9d 19 04 3e 97 cc 29 3e 87 85 d6 3d
       -0.037173796 0.12900396 0.16581951 0.10474687
0002d0 38 12 0a be 27 35 15 be 32 45 5e bd 3a ba 83 3d
       -0.13483512 -0.14571057 -0.05426521 0.06432004
0002e0 b7 b4 3d be 10 e8 76 3d d7 0c 6c bd 3a c8 45 3e
       -0.18525968 0.060279906 -0.057629433 0.19314662
0002f0 18 45 08 3e c0 85 02 3e 16 6d 89 3d 6a 23 b5 bd
       0.13307607 0.12746334 0.067102596 -0.08844645
000300 ad 58 1b bd bc b8 74 3e 91 d3 3c 3e 28 6e 40 3d
       -0.037926365 0.23898596 0.18440081 0.046980053
000310 6c 66 fd bc 5d d0 66 be 9f 56 a9 bd 31 76 05 bd
       -0.030932628 -0.22540422 -0.08268475 -0.03258342
000320 31 9b 88 bc f8 c1 29 be af 1e 16 3e 70 dd 40 be
       -0.016675564 -0.165779 0.14660142 -0.18834472
000330 11 06 35 3e 75 e4 84 3d 47 b7 4b be 61 74 5d 3e
       0.17678095 0.06488887 -0.19894134 0.21626426
000340 62 06 43 be e1 ee 8c bd 7d 45 b8 bd 96 1e 07 be
       -0.19045404 -0.068815 -0.08997629 -0.13195261
000350 2f 46 60 3e 42 3d 82 bc b7 0f c7 3d c6 af be bd
       0.21901773 -0.01589835 0.09719794 -0.0931087
000360 19 87 2f 3e b3 fa 21 3e 3b ec 7e bd ca d9 34 be
       0.1714138 0.1581829 -0.062237006 -0.17661205
000370 51 35 51 be fd 3e b8 3d 99 45 22 3c 15 3c 39 3e
       -0.20430495 0.08996389 0.009904289 0.18089326
000380 f1 37 12 bd bf 48 aa 3d 8d bc d7 bc 47 ad 60 3e
       -0.03569788 0.083146565 -0.026335025 0.219411
000390 68 26 61 bd 5d 5b b2 bd 56 ec e9 3d f0 dd c0 39
       -0.054968268 -0.087088324 0.11422031 0.0003678645
0003a0 49 e9 6e 3e 0b ff 04 be e6 5f d4 3c 0e c4 1e be
       0.23331179 -0.12987916 0.025924634 -0.15504476
0003b0 33 cf 4c 3e 12 97 4b 3e 5b 6b 59 be 3f 0a 9d 3d
       0.20000915 0.19881848 -0.21232359 0.0766797
0003c0 87 5c 43 3e a5 66 8d bd 56 0b be 3d 21 91 eb 3b
       0.19078265 -0.069043435 0.09279506 0.0071889316
0003d0 07 8a 3f bd 14 22 91 bc c3 2a 30 bd 61 b9 f9 3d
       -0.046762493 -0.017716445 -0.04300953 0.12193561
0003e0 dc 5a 49 be 26 62 15 bd a7 e5 63 3d 10 ed 47 3e
       -0.19663566 -0.036470555 0.055638935 0.19524026
0003f0 aa d2 55 be e0 1c 84 3d 87 4b 50 3d 8f 3d 5e 3e
       -0.20881143 0.0645082 0.05085328 0.2170317

bias_ih_l0 f4 [64]
000000 b3 6e d4 3d c0 ef 58 3e 18 8b 30 be 97 ca b5 3d
       0.10372677 0.21185207 -0.1724056 0.088765316
000010 41 29 b8 3d da 51 84 bd 98 05 57 be 69 c0 00 be
       0.089922436 -0.064609244 -0.20998228 -0.12573399
000020 93 be 07 3c 27 51 b4 bb de 3f 89 3d e1 97 bc bc
       0.0082851825 -0.005502838 0.06701635 -0.02302164
000030 00 aa 24 be 7d 0a 32 3e f3 2f 2a 3e a4 9d 41 bd
       -0.16080475 0.17386813 0.16619854 -0.04726948
000040 fd 37 4c 3e 58 4b 10 3d 34 2f 97 bd 80 fc 71 be
       0.19943233 0.035228103 -0.0738205 -0.23631477
000050 20 2b 76 3e 1e e9 03 be 1f 00 1b 3e f5 41 2c be
       0.24039888 -0.12881896 0.15136765 -0.16822036
000060 af 7e 73 be ad f8 e2 3d 8b f6 df bd 0d 93 21 be
       -0.23778795 0.110825874 -0.10935696 -0.15778752
000070 ed c3 46 3d 29 08 a0 3d 00 16 1b bd ed 82 39 be
       0.048526693 0.078140564 -0.037862778 -0.1811635
000080 88 ec 21 3d 65 06 86 3d 7a 8c 6f 3e 3e a1 aa 3d
       0.039532214 0.065441884 0.23393431 0.08331536
000090 a8 e7 90 bb 68 c8 3c be 9f ce 08 be b2 dc 49 be
       -0.004422147 -0.18435824 -0.1336007 -0.19713095
0000a0 4d a8 44 bd a4 34 25 3e c7 d2 e3 bd 51 f4 19 3e
       -0.048012067 0.16133362 -0.11124187 0.15034606
0000b0 6e eb 41 be 75 23 c0 bd c1 e4 b4 3b a0 9e 07 3e
       -0.18937466 -0.09381763 0.0055204337 0.13244104
0000c0 b6 03 89 3d 8d 50 2f 3d c3 68 bb bd a0 75 2f be
       0.06690161 0.04280143 -0.09150841 -0.17134714
0000d0 69 37 60 be eb 99 df 3d ca 7d 09 3d f7 8a 42 3e
       -0.21896137 0.109180294 0.033567227 0.18998323
0000e0 4c b1 61 3e 45 42 1d be a7 22 46 3e 8d aa 95 3d
       0.2204029 -0.15357311 0.19349156 0.073079206
0000f0 47 0c 4d be e1 ff 14 bd 20 2d 47 bd de 44 0d 3e
       -0.20024215 -0.036376838 -0.04862702 0.13795802

bias_hh_l0 f4 [64]
000000 18 02 54 3e 48 df 0c be d9 b5 98 bd 6a d0 ac bb
       0.20703924 -0.1375705 -0.0745656 -0.0052738683
000010 b2 b5 50 bc 4e 06 a1 3d 53 05 95 3c 23 07 99 3d
       -0.012738632 0.07862531 0.018191015 0.07472064
000020 ca 5c cc bd 75 d1 0d bc d6 fc 42 bd 00 e7 be 3c
       -0.099786356 -0.0086558955 -0.047604404 0.023303509
000030 f4 c9 9e bd 65 81 84 bd ac 49 be bd 88 e6 4b 3e
       -0.07753363 -0.064699925 -0.092913955 0.1991216
000040 fd df 6b 3e d3 22 02 be c4 48 27 be c7 73 d0 bd
       0.23034663 -0.12708597 -0.16336352 -0.10178333
000050 95 2d c3 3d 63 0e b4 bd 97 0b df 3d 75 e0 65 be
       0.095301785 -0.087918065 0.108908825 -0.22448905
000060 9e 14 be 3d 21 b8 81 bc 9d fd 23 3c 1e 1c c6 bb
       0.09281276 -0.01583487 0.010009197 -0.0060458323
000070 d4 8e 56 be eb 54 1f 3e 5a ad 6f 3e c5 7c 61 3e
       -0.20952922 0.15559737 0.23405972 0.22020252
000080 28 58 20 bd 8b e0 f6 bd 9e c3 5c be 15 e4 b5 3b
       -0.039146572 -0.12054547 -0.21558997 0.005550871
000090 5d 7d 1b 3e 23 f1 5a 3d 83 bc 19 bd 38 06 21 3c
       0.15184541 0.053452622 -0.037533294 0.009828143
0000a0 38 17 f6 bd 67 49 b6 bb 8c 62 0d 3e 4b 73 63 be
       -0.120161474 -0.0055629495 0.13807124 -0.2221195
0000b0 ce 16 26 bc 1a b8 19 3e 2a 4f 6a 3e 01 e6 d2 3d
       -0.010137273 0.15011635 0.22881761 0.10297776
0000c0 f5 ba 52 3e d7 27 db bc 21 0d d1 3d e8 22 4a be
       0.20579131 -0.026752396 0.10207582 -0.19739878
0000d0 44 81 ff bd 8a 00 30 be be a5 ea bc 5b d8 23 be
       -0.12475827 -0.17187706 -0.028643485 -0.16000502
0000e0 e3 91 21 3c 3b 29 5c 3e 7b 85 38 be 5d 32 2e bd
       0.009861442 0.21500103 -0.18019669 -0.0425285
0000f0 13 de 25 3c 4e dd 7e bd d9 5e 10 3e e8 14 72 3e
       0.010123747 -0.06222277 0.14098682 0.23640788

weight_ih_l1 f4 [64, 16]
000000 c7 21 11 be 93 c0 3e 3e fd 8c eb bd f5 7d 39 be
       -0.14173041 0.18628149 -0.11501501 -0.18114455
000010 24 b2 3e 3e 00 86 58 be 5f 26 15 bd ca ed 90 3d
       0.18622643 -0.21144867 -0.036413547 0.07076605
000020 ef 53 2c be 23 8f 63 be 2a 22 3f 3e 7c b1 b1 3d
       -0.16828893 -0.22222571 0.18665376 0.086764306
000030 26 40 c8 3d 60 09 2f 3e 3a 0e 7c be 43 af b3 3c
       0.0977786 0.1709342 -0.24614802 0.021934157
000040 9d af 79 3e e7 70 cb 3d 59 77 07 3e c0 8a b3 bd
       0.24383397 0.09933644 0.13229121 -0.08766699
000050 1c eb c6 3d 1d 1a bc 3d 84 86 4b be a3 75 48 b9
       0.09712812 0.09184668 -0.19875532 -0.0001911731
000060 a9 e8 ad bd ab 67 89 bd 8c 58 ec 3c 3a 3b 58 bd
       -0.08491642 -0.06709226 0.028850816 -0.052790858
000070 59 5c 1e 3e bd 67 90 3d a9 b4 60 3e 96 21 44 be
       0.15464915 0.070510365 0.21943916 -0.19153437
000080 99 c7 7b bd cb 80 13 bd 48 3c 2e 3e ed 9d 71 3e
       -0.061469648 -0.0360115 0.17015183 0.235954
000090 4c 55 9d 3c f4 d6 18 be a6 e8 b0 bc 4f 20 80 3e
       0.019205712 -0.14925748 -0.02159531 0.2502465
0000a0 1b 6e 3b be 03 cc df bd 14 10 74 3e eb 94 07 3e
       -0.1830372 -0.10927584 0.23834258 0.13240401
0000b0 9b 13 ec 3d e2 87 b6 bd 69 dd ed bc 2d 1c 7f be
       0.11527177 -0.08912636 -0.02903624 -0.24913092
0000c0 ef 57 39 3e fa 1e d5 bd 5d 2c 58 39 24 f6 03 be
       0.1809995 -0.10406299 0.00020615892 -0.12886864
0000d0 97 f5 f6 bd 39 92 67 be 83 d4 8b bc 54 e0 79 3e
       -0.12058561 -0.22614373 -0.017069107 0.2440198
0000e0 e6 d1 7b 3e c7 dc 14 be 44 28 0f bd f6 be 10 bd
       0.24591789 -0.14537345 -0.03495051 -0.035338365
0000f0 77 c0 4e be c7 ae 6e 3d ac 23 1e bc f2 e2 dd 3d
       -0.20190607 0.05827215 -0.0096520595 0.10834302
000100 c6 7e 68 be 51 b9 f2 bd 76 72 b2 bd 26 76 19 be
       -0.2270461 -0.118517525 -0.08713238 -0.14986476
000110 68 5b fd 3d 75 af 1a be 81 05 cd bc 2a 70 06 3e
       0.1237095 -0.15105994 -0.025027039 0.13128725
000120 bc 7e 43 be f6 41 67 bb d7 b2 5e 3e 7a 1e 8b 3c
       -0.19091314 -0.0035287119 0.2174791 0.016982306
000130 5a 42 5a be 5c e8 ff 3d e3 d0 43 be 89 de db bd
       -0.21314374 0.12495491 -0.19122653 -0.107358046
000140 41 1d 4a 3e 34 8f 6e bd 00 03 7e bd 66 5a e0 bd
       0.19737722 -0.058242038 -0.06201458 -0.10954742
000150 de bc 12 be b1 c3 e1 bd df ab 26 3e 8b f0 4d 3e
       -0.1432986 -0.11023653 0.16276501 0.20111291
000160 47 5f 17 be a0 84 e6 bd 62 d3 46 be d7 3c 93 3d
       -0.14782439 -0.11255765 -0.19416574 0.07189339
000170 27 00 39 3c 62 1d f1 bd 30 c1 6e be f6 49 61 3e
       0.01129154 -0.117731825 -0.23315883 0.2200087
000180 36 cf 75 3e 0b e2 00 bd 59 8c 6a 3d 3d 8b 99 bd
       0.24004826 -0.03146557 0.057262752 -0.07497261
000190 f4 32 20 3e f0 93 05 bd e1 5a a3 3d 83 f8 2a be
       0.15644437 -0.032611787 0.07976318 -0.16696362
0001a0 18 94 61 3e d4 22 0a 3d 91 3e 84 3d 28 d8 65 be
       0.2202915 0.03372462 0.06457246 -0.22445738
0001b0 69 a4 b6 3d 48 cf 9f bc f7 0a 0b 3e d3 40 41 be
       0.089180775 -0.01950802 0.13578402 -0.18872385
0001c0 5f a7 fd 3c 8b 09 c1 3c c6 44 4f be e0 f1 2c be
       0.030963598 0.02356412 -0.20241079 -0.16889143
0001d0 39 41 41 bd 5b 84 01 3b a1 f6 43 3e 27 ea 88 3c
       -0.04718134 0.0019762728 0.1913705 0.016713215
0001e0 55 ec 54 3e 99 5b 75 be c2 43 0b bd 47 6b b7 bc
       0.20793279 -0.23960723 -0.034000166 -0.022390021
0001f0 b7 b5 5b be 8f d4 83 bc 56 c5 3e 3e bc 1a 5e be
       -0.21456037 -0.016092567 0.18629965 -0.21689886
000200 07 f1 c9 bc ad ad 3b 3e 14 a2 18 be be 20 3b 3c
       -0.024651064 0.18327971 -0.14905578 0.011421381
000210 6e 28 35 3d 1a 8a 06 3d b6 09 64 3c 2d bf ae 3d
       0.04422801 0.032846548 0.013918331 0.08532558
000220 fb 27 45 be af 94 2e be ff 28 e2 3d 91 80 80 be
       -0.19253533 -0.17048906 0.11042976 -0.25098088
000230 91 e8 41 be 15 9d 67 be ec c3 0e 3e ae f4 32 be
       -0.18936373 -0.22618516 0.13941926 -0.1747615
000240 86 4a 79 bc 7a 72 6d 3e 5a ce 90 bd 06 f5 93 3d
       -0.015215522 0.231882 -0.070706084 0.07224469
000250 93 75 5d 3e 9c 2e 1b be fe 8e d6 3d d1 d9 44 be
       0.21626882 -0.15154499 0.10476492 -0.19223715
000260 40 cc 78 3d 75 9e 8c bc e7 a3 04 be 26 52 70 be
       0.060741663 -0.017165402 -0.12953149 -0.23468837
000270 12 61 77 bd 81 7d 63 be c0 89 15 bd 0b 0f 7d 3d
       -0.060395308 -0.22215845 -0.03650832 0.061781924
000280 c2 5e 3b be 6e c5 b7 3d 64 97 38 3d ec 64 4a be
       -0.18297866 0.089732036 0.045066252 -0.19765061
000290 08 c4 03 3e e7 ca 9c bd a7 c1 9c 3d 76 64 d2 3d
       0.12867749 -0.07655888 0.07654124 0.10273068
0002a0 56 8e 2c 3e 5c b3 58 3e f6 57 89 3d 00 e9 35 3e
       0.16851172 0.2116217 0.0670623 0.17764664
0002b0 1d 53 3b 3d 95 da 45 3c 81 14 66 3e d7 fd 1d be
       0.04573356 0.01207604 0.22468759 -0.15428863
0002c0 90 7c 3e be 05 17 f8 bd f1 4e e7 3d 05 25 77 3e
       -0.18602204 -0.121137656 0.11294354 0.24135216
0002d0 5a 06 1e bc 8a 38 de 3d a2 da 7e 3e 08 d0 0d be
       -0.009645069 0.10850628 0.2488809 -0.13848889
0002e0 d7 e7 20 be 9e 78 26 be 3b 54 79 3e 07 12 9a 3d
       -0.1571344 -0.1625695 0.24348538 0.0752297
0002f0 9b 7d cc 3b 47 d7 29 3c e6 53 26 3e fb e7 22 3d
       0.0062405593 0.0103662675 0.16242942 0.039772015
000300 4a 93 2d 3d 69 d5 12 be 05 3b b9 3c b5 7c 75 be
       0.042376794 -0.14339222 0.02261115 -0.23973353
000310 bf 5a 39 3d 10 df 72 3e 62 44 d3 3d 0f f4 bc bd
       0.045252558 0.23717904 0.10315777 -0.09226238
000320 40 6d 3d 3e 30 7d cf bd 27 a8 4f bd 3e 84 1b be
       0.18498707 -0.101312995 -0.050697472 -0.15187165
000330 b8 03 11 3e a2 6b f4 bd c6 19 dc bd f9 69 34 be
       0.14161575 -0.11934592 -0.107471034 -0.1761855
000340 73 ad 31 3e 6f aa 48 be 2e 80 b9 bc 72 15 e3 bd
       0.17351322 -0.19596265 -0.022644129 -0.11088075
000350 ce c0 f7 bb 69 eb 41 be 88 8c 76 3c 70 0d 09 3e
       -0.007560826 -0.18937458 0.015048154 0.13384032
000360 3c af 28 3c 0b 2b 6f be b5 4f c8 3d 10 35 6c be
       0.010295685 -0.23356263 0.09780828 -0.23067117
000370 53 f0 40 be 98 4c ad bd 28 ef 1e 3e 47 37 5b 3c
       -0.18841676 -0.08461875 0.15520918 0.013379878
000380 77 9d 4a bd 0b ec f5 3d 54 51 82 3d b7 c7 ad bd
       -0.049466576 0.12007912 0.06363168 -0.08485358
000390 5b ef 60 3e 0a 4c af bd ab 75 72 bd b2 b3 66 bd
       0.21966307 -0.08559425 -0.05919425 -0.056323715
0003a0 d3 0f 37 be a7 97 59 3d ce 61 03 be a4 84 b0 bd
       -0.1787713 0.053123143 -0.12830278 -0.08619049
0003b0 33 be d5 3d 84 47 19 3e 13 b0 c9 3d 20 38 8d bc
       0.10436668 0.14968687 0.098480366 -0.017238677
0003c0 d5 50 2a 3e b5 92 fa 3d 53 b2 7d be 54 a7 e1 3d
       0.16632397 0.122350134 -0.24775057 0.110182434
0003d0 7a 3f 0c 3e 7d f7 24 3e 23 ec 1e 3e 33 82 1b be
       0.1369609 0.16110034 0.15519767 -0.15186386
0003e0 a5 bd 1e 3e 27 db 2d 3e 7a 14 a5 3b 95 d0 41 3d
       0.15502031 0.16978131 0.0050378414 0.04731806
0003f0 3d 65 ed bb 8b f8 42 be 61 8d fd 3c d2 4f 51 be
       -0.0072447346 -0.19040124 0.030951204 -0.20440605

weight_hh_l1 f4 [64, 16]
000000 d2 53 9f 3d fa ed 32 be ad 2b d0 bd 6a a2 41 3d
       0.07779659 -0.17473593 -0.101645805 0.04727403
000010 1f 21 73 be 2a c4 29 3e e8 96 8f 3d 65 6e 49 be
       -0.23743103 0.16578737 0.07011205 -0.19671018
000020 0d 5b da 3d 7e c2 3e be 2d 3c 34 be bc a2 2e 3e
       0.10661898 -0.1862888 -0.1760108 0.17054266
000030 cf e9 ac bd 86 a2 23 be b1 08 2c 3d 69 f2 b8 3d
       -0.08443033 -0.15979967 0.042000476 0.09030611
000040 d8 58 14 3c 50 07 6d be da eb 2e be 48 79 5c be
       0.009054385 -0.23147321 -0.17082158 -0.2153064
000050 ce d3 2a be f2 7d b2 3c c4 b1 4d be aa a1 bf bd
       -0.1668236 0.021788571 -0.20087343 -0.09357007
000060 f1 ac 42 be 0b 44 1b be f9 d8 0c be e2 fe 91 3b
       -0.19011284 -0.15162675 -0.13754643 0.004455433
000070 f7 d1 32 3e 5a 3d 75 3e a9 96 b1 3d e1 92 93 3d
       0.17462908 0.23949185 0.08671314 0.07205749
000080 a0 db 85 3d f0 9e e1 3d 59 e7 c0 3d 6b ba c2 bd
       0.06536031 0.11016643 0.09419126 -0.09508213
000090 3b 6f 17 3e 15 1c 16 3d a9 09 4d 3e 6b ad 14 3e
       0.14788525 0.036647875 0.20023216 0.14519279
0000a0 3f 7d 33 3e 01 33 97 bd 68 40 0e be 4e 9e a8 3d
       0.17528246 -0.07382775 -0.13891757 0.08233319
0000b0 a6 6b 0c bd a9 96 88 3c fa 83 8c bd b2 c2 0f bd
       -0.03428235 0.016673403 -0.0686111 -0.035097785
0000c0 55 67 45 be 0f 32 07 3d 1f 7f 06 3e d0 7e 6a be
       -0.192777 0.033006724 0.1313443 -0.22899938
0000d0 87 01 6a 3e d0 32 ef 3c f2 47 4d 3e 40 7a 7b 3e
       0.22852145 0.029199034 0.20046976 0.24558353
0000e0 3a 6b 53 be 62 4b 32 3e 33 90 79 be 56 eb 5f 3e
       -0.20646372 0.17411569 -0.24371414 0.21867117
0000f0 14 95 45 bd 5d f4 60 bd 4d 65 97 3d 48 51 6f 3d
       -0.048237875 -0.054920543 0.073923685 0.058427125
000100 4d d7 28 3d 78 d4 14 be a1 e0 66 3e 89 92 54 3d
       0.04122095 -0.14534175 0.22546627 0.05189756
000110 95 98 91 bd 42 40 5f 3b c4 03 46 3e 41 25 af bd
       -0.07109181 0.00340654 0.19337374 -0.085520275
000120 e4 f6 9c bd 1c 11 1c be 9b 36 2e 3c 9f 28 ab bc
       -0.07664278 -0.15240902 0.010633136 -0.020893393
000130 06 3d 9c bd 45 54 42 3e 94 89 f2 3d d4 48 dc bb
       -0.07628827 0.18977459 0.11842647 -0.006722549
000140 75 98 95 3d 3d 82 36 be 97 84 c4 bc 00 a1 0c be
       0.073044695 -0.1782312 -0.023989005 -0.13733292
000150 90 f7 52 be 50 38 3a be a0 c5 bb 3d 35 dd bd 3c
       -0.2060225 -0.18185544 0.09168553 0.023176769
000160 8d 50 53 be 23 9d 5e bd 28 61 6d 3e 51 6e e6 bb
       -0.20636196 -0.054349076 0.23181593 -0.0070321937
000170 e2 64 cf 3d bd 5d 58 bb 2f 13 4c be 80 6f 90 bb
       0.10126664 -0.0033014857 -0.19929193 -0.004407823
000180 43 d8 5f be 70 49 50 be 41 92 ae bc b6 e4 74 3e
       -0.21859841 -0.20340514 -0.021309974 0.23915371
000190 5a 84 35 bc ae 1e 5a be dd 04 90 3d 9a 11 4c 3e
       -0.011078918 -0.21300766 0.070321776 0.1992859
0001a0 be af 15 3e 9f 61 f2 3c 96 3c 1f 3d 81 79 3f 3e
       0.14617822 0.029587565 0.03887614 0.18698694
0001b0 fa 6a 20 3c 05 eb 87 bd b2 76 c6 3d 9f d2 5a be
       0.00979113 -0.06636623 0.09690608 -0.21369408
0001c0 54 2f 27 3e 81 88 97 3d 9b ba 6d 3e 2b a8 6e be
       0.16326648 0.07399083 0.23215716 -0.23306338
0001d0 7e 61 80 bc 9d 46 89 bc 9d 0b 23 bb 71 be cf bd
       -0.015671488 -0.016757304 -0.0024878748 -0.10143746
0001e0 0c aa c8 bd 30 39 cc bd d5 a6 19 be db 03 9e 3d
       -0.09798059 -0.09971845 -0.15005048 0.07715579
0001f0 fb e9 53 3e 62 48 33 be 4d 24 b8 bc 06 24 68 3e
       0.20694725 -0.1750808 -0.022478247 0.22669992
000200 3b 69 74 3d 09 68 b4 3d 32 1f 5d be a9 b8 09 be
       0.059670668 0.08808906 -0.21593931 -0.13449349
000210 dc 33 b7 bc 7e 2b 7b be 66 69 49 3e d3 08 6b be
       -0.022363596 -0.2452831 0.19669113 -0.22952585
000220 0d eb 13 3e 4e 25 68 3d ac 59 38 be 58 d9 3d be
       0.14445134 0.0566762 -0.18002957 -0.18539941
000230 16 54 24 bd c8 12 09 be a7 d9 40 3e 91 f2 4e 3e
       -0.040119253 -0.1338607 0.18833028 0.20209719
000240 69 1a 90 bd a1 e9 3d be 51 b1 1d be 1a 0c 30 bd
       -0.07036287 -0.18546154 -0.15399672 -0.04298029
000250 dd 9d 71 3e 4f b7 4c bd 8c 46 59 3e 20 52 ff bb
       0.23595376 -0.049979504 0.21218318 -0.0077917725
000260 70 d2 22 be 5b 20 68 3d 7e f6 9c 3d 50 b2 11 be
       -0.15900588 0.05667148 0.07664202 -0.14228177
000270 f4 ed 2c be 36 c4 10 be 61 cc b8 3d 41 c6 de bc
       -0.16887647 -0.14137349 0.09023357 -0.027194144
000280 6b 1e 09 3e 2f 12 2b 3d 28 27 6a be c6 ef 17 3e
       0.1339051 0.041765388 -0.228665 0.1483756
000290 ca 95 98 3d 11 24 20 3e 1d da 18 be c3 a2 3e bd
       0.07450445 0.15638758 -0.14926954 -0.04654194
0002a0 03 d9 04 3e 16 a5 f7 3d b4 fb 3e 3d 48 d1 31 3e
       0.12973408 0.120920345 0.04662676 0.1736499
0002b0 db 1c 53 be b3 c0 3a be ac 08 0f be 83 17 f4 3c
       -0.20616476 -0.18237571 -0.13968152 0.029796368
0002c0 ef 42 2d be 6c 11 36 be 16 a2 98 bd 65 b7 c4 ba
       -0.16920064 -0.17780083 -0.074527904 -0.0015008269
0002d0 56 bc f6 3d 28 70 b2 bb db a5 35 be ea 74 d9 3d
       0.12047641 -0.005445499 -0.1773905 0.10618003
0002e0 4e 45 c2 bc 07 77 51 be c0 53 10 bd 3e f6 14 be
       -0.023714688 -0.20455562 -0.03523612 -0.14547059
0002f0 70 ae 3b be 87 42 bf 3d f2 12 73 3e 17 12 47 be
       -0.18328261 0.09338861 0.23737696 -0.19440494
000300 85 c0 6e 3e 34 a1 0a bb f7 e5 3b 3d c2 d7 5f 3d
       0.23315628 -0.0021153213 0.04587361 0.054649122
000310 c5 35 61 be a8 ca 04 bd a7 8b bd bd 76 f3 13 be
       -0.21993168 -0.03241983 -0.09255152 -0.14448342
000320 90 c7 2a be fa b8 0a 3e 10 1e 3c 3e 0c 07 b2 bd
       -0.1667769 0.13547125 0.18370843 -0.0869275
000330 7c dd 6b bd a6 ac e2 3d 70 08 05 bd 04 fb d8 bc
       -0.05758427 0.11068086 -0.03247875 -0.026486881
000340 74 7e f1 3d 8c c5 69 3a 1b f1 68 3e 27 d9 1d bd
       0.11791697 0.00089176814 0.22748224 -0.03853717
000350 b8 30 0d be b4 0f 29 3e 1f 3c 2c be 7e 1f 2e be
       -0.13788116 0.16509897 -0.1681981 -0.17004201
000360 05 51 a3 3d e2 69 71 3e 4a bb 9f 3d 34 dd 36 3d
       0.079744376 0.23575547 0.077993944 0.04464455
000370 f5 97 18 be 40 37 07 bd e1 ec 4b be c3 3e 34 be
       -0.14901717 -0.033011675 -0.19914581 -0.17602067
000380 31 86 74 3d 09 c3 2c be 24 77 4f 3d ef ba d8 3c
       0.059698287 -0.16871275 0.05065073 0.026456324
000390 97 3f 3e 3e f8 5b 15 3e a6 6d ab bc e3 6e f7 bc
       0.18578945 0.14585865 -0.020926308 -0.030204242
0003a0 03 2d 0f 3e 80 4d 46 3e 03 df 7e 3e f1 de 54 be
       0.13982014 0.19365501 0.2488976 -0.2078817
0003b0 5b 50 4e bc 0f 9f 68 be 55 bf 53 be fe 5e 76 be
       -0.0125924 -0.22716926 -0.20678456 -0.24059674
0003c0 a3 73 1a be 99 53 81 3e 4a e9 72 3e 93 5a 11 3e
       -0.15083174 0.25259092 0.23721805 0.14194708
0003d0 a0 b7 b0 3d 46 d8 8d bd e6 e2 3c 3e 0a 0d 42 be
       0.08628774 -0.069260165 0.1844593 -0.18950287
0003e0 79 76 26 3e 08 93 1c be c0 67 ac 3c c2 ac 56 be
       0.16256131 -0.15290463 0.021045566 -0.2096434
0003f0 13 e4 20 3e aa 22 d6 3d 22 28 34 be 59 57 36 3e
       0.15712003 0.104558304 -0.17593434 0.17806758

bias_ih_l1 f4 [64]
000000 82 82 cc 3d 5a a3 41 bb 7b 03 8b bd bd b6 11 bd
       0.0998583 -0.0029546828 -0.06787773 -0.035574663
000010 90 ab 9b bd a0 20 af 3d ad 3e a4 3d 63 ca 3e 3c
       -0.07601082 0.085511446 0.08019767 0.011644932
000020 40 26 d7 bc 47 64 0d 3e 91 31 9a bc cc dd 3b 3e
       -0.026263356 0.13807784 -0.018822463 0.18346328
000030 a8 c9 eb bd 3a 7a a4 bd ad 3d 6f be 25 53 1e bc
       -0.11513072 -0.08031125 -0.23363371 -0.009663378
000040 e6 25 33 3e fe 3a 48 bd e4 4a 48 3e e7 ba 40 3e
       0.17494926 -0.048884384 0.19559819 0.18821298
000050 7a 40 a5 3d 1a a1 89 bd b0 17 57 be 95 0a 27 3e
       0.080689386 -0.06720181 -0.2100513 0.1631263
000060 a6 6c 22 3e 4d 04 4a bc fc 6d fe bd aa fa 66 be
       0.15861759 -0.012330127 -0.124233216 -0.22556558
000070 1b 57 02 3e 1c b3 d3 3b 01 31 9e 3d f4 1d 66 bd
       0.1272854 0.0064605605 0.077241905 -0.05618091
000080 cd 45 8a bd 6f aa b4 bc 09 de d4 bd f3 ac bf bd
       -0.06751595 -0.022053925 -0.10393912 -0.09359159
000090 00 4f 5a 3e 52 06 54 be 4d 4d 5c be fd c1 c3 3c
       0.21319199 -0.20705536 -0.21513863 0.023896212
0000a0 f2 b3 5d 3d dd 87 6a bc 31 53 16 3e 25 d9 2a be
       0.054126687 -0.014314619 0.14680173 -0.16684397
0000b0 a6 85 8d bd 16 c4 fa bd 15 b7 1c bd a9 64 44 3e
       -0.06910257 -0.12244432 -0.038260538 0.19179024
0000c0 54 fc 90 bd b9 4c 3e 3d a6 27 79 3e 33 83 89 bd
       -0.07079378 0.046459887 0.24331531 -0.067144774
0000d0 ae 27 83 3d cc 62 d6 bd 05 e9 84 bd 7f 31 e0 3d
       0.06404053 -0.10468063 -0.064897574 0.10946941
0000e0 9b 78 0a be ad 87 30 3e fe 67 74 be 59 c2 28 be
       -0.1352257 0.17239256 -0.23867795 -0.16480388
0000f0 75 ad 4e bc 4e ae 0a be 0a 19 7c 3e 9f 50 56 be
       -0.012614598 -0.13543054 0.24618927 -0.20929192

bias_hh_l1 f4 [64]
000000 30 fc 6f 3e c6 b6 3c be 3d f4 54 3e 06 fa 7f be
       0.23436046 -0.18429098 0.20796295 -0.2499772
000010 88 46 d3 3c c4 ea 63 3d af 5c 04 bd 6c 9a b0 bd
       0.025790468 0.05564381 -0.032314952 -0.08623204
000020 e7 3a 71 be 67 a7 4f be 5b 5d 08 be 1a 6e 15 3e
       -0.23557626 -0.20278703 -0.13316862 0.14592782
000030 d0 2a a1 3d 18 8b 67 3e 7a 97 e2 3d c5 ae 7d be
       0.07869494 0.22611654 0.11064048 -0.247737
000040 8a 9c 4c 3e 08 a2 1f be f2 49 8e 3c 97 f5 77 be
       0.1998159 -0.15589154 0.017369244 -0.24214779
000050 4c c5 41 3e c3 12 28 3e 7e 3c 6f 3d a4 fc 5e be
       0.18922919 0.16413407 0.0584073 -0.21776062
000060 94 2b 8b 3d 37 ac 74 3e da d9 74 be 3e 75 34 3e
       0.06795421 0.2389382 -0.23911229 0.1762285
000070 76 76 57 3e 73 ea 66 be b7 c4 a8 bd d5 9e 00 3d
       0.21041283 -0.22550373 -0.082406454 0.031401474
000080 2b a9 27 be 18 42 ab bd e1 2f 48 be 23 5a 0a 3e
       -0.16373126 -0.08362216 -0.19549514 0.13510947
000090 72 81 6b be d4 9a 4f 3e 28 c4 7b 3d b1 4e 18 3d
       -0.22998598 0.20273906 0.061466366 0.03718442
0000a0 0c ab 0d be b5 db 41 bd 99 9f 4b be ef e8 3f 3e
       -0.1383478 -0.04732867 -0.198851 0.18741201
0000b0 69 30 e0 bc c2 49 a1 bd f0 8e e5 3d 07 36 77 be
       -0.027366834 -0.07875396 0.11208904 -0.24141704
0000c0 94 35 fe bc 44 ea 3b be 47 d5 dd 3d ad 54 a3 3d
       -0.031031407 -0.18351084 0.10831695 0.07975135
0000d0 fe 94 0b 3d fd 5f 4c 3e e8 33 7f bd c1 ed c7 bd
       0.034077637 0.19958492 -0.06230536 -0.09762145
0000e0 cb e4 a9 bd c0 fd a3 bd 88 26 cc 3b df b2 0b 3e
       -0.08295592 -0.08007383 0.006230179 0.13642453
0000f0 0a 10 28 3c 70 19 3b be bb 5c dd bd 05 c9 04 3e
       0.01025773 -0.18271422 -0.108087026 0.12967308

weight f4 [1, 16]
000000 e9 84 22 3e d0 ce c6 3c 3a 90 a6 3d 0e a7 96 bd
       0.15871014 0.024268538 0.08132978 -0.07356082
000010 bf 70 11 3c fd 92 08 be 25 a0 67 be 70 17 a6 3d
       0.008876978 -0.13337322 -0.22619684 0.08109939
000020 dc 8d 2a bd 16 86 88 bd 51 38 9f 3d c6 b1 bf 3d
       -0.041639194 -0.066662 0.077744134 0.093600795
000030 6e 52 1a bd fd 1a eb bc ca 6f 81 bd ea 0d 35 3e
       -0.037676267 -0.028699392 -0.0632015 0.17681089
