competition/result/lstm_win3_noStandardized_2layer_16hidden_0.98g/trained_model/all_model/critic_num_epoch_1.pth (torch, 22328 bytes, 10 tensors)

weight_ih_l0 f4 [64, 11]
000000 b8 98 7d 3d 43 b0 9e bd 6e 50 ed bd 93 ad 9b 3d
       0.061913222 -0.07748463 -0.11587606 0.07601466
000010 3f 7b 3d bd 0b a8 18 3e 0e 26 66 3e 67 42 43 3e
       -0.046260115 0.14907853 0.22475454 0.19068299
000020 d6 5d 0a bd 5e 62 44 be 8c 44 db bc d0 9b c8 3c
       -0.033780895 -0.19178149 -0.026766084 0.02448836
000030 ed 52 08 be 7a e4 37 bd a1 4a c2 3b 2b 8b 64 be
       -0.13312884 -0.044895627 0.0059293066 -0.22318713
000040 17 ac 92 bd 47 d6 0a 3e 46 96 64 3e 2c b5 16 3e
       -0.0716173 0.13558303 0.2232295 0.14717549
000050 53 cf f6 bd bc d2 52 be ce 66 40 3e af c3 4c 3d
       -0.12051263 -0.20588201 0.18789217 0.049991306
000060 ab d7 77 be f0 a6 37 be f6 1f 0c be 1b 60 4e be
       -0.24203365 -0.17934775 -0.13684067 -0.20153849
000070 ac 75 f6 3d b2 8f 24 3e b2 2f 8c bd 8b c0 76 3d
       0.12034163 0.1607044 -0.06845035 0.060242217
000080 80 66 0d be 01 03 ec ba e0 88 b4 bd 13 43 d3 bd
       -0.13808632 -0.0018006266 -0.08815169 -0.10315528
000090 00 04 42 3e c0 28 86 3c 74 41 1a 3e 7e cf b4 3d
       0.18946838 0.016376853 0.15064031 0.088286385
0000a0 17 99 b0 bc 00 cc 8f 3d 80 78 1d bd 83 0b 50 bc
       -0.021557374 0.07021332 -0.038444996 -0.012698057
0000b0 8c e8 cf bd e5 da 15 3e b3 de f8 bd 49 ae 4c 3e
       -0.10151777 0.14634283 -0.121518515 0.1998836
0000c0 38 2a d5 3d 22 64 fe bd 14 50 95 bd 2f 96 6f be
       0.10408443 -0.124214426 -0.07290664 -0.23397134
0000d0 b9 8a 91 3d a0 aa 37 be 03 81 2e be 41 30 2e be
       0.07106537 -0.17936182 -0.17041402 -0.17010595
0000e0 00 d6 40 be 42 20 0d 3e 0c eb 14 3d ff 54 5f be
       -0.18831635 0.13781837 0.03635697 -0.21809767
0000f0 c4 5c 5f 3e d0 e0 17 be 27 fd 84 3d e5 eb 10 3e
       0.21812731 -0.14831853 0.064935975 0.14152487
000100 99 87 2d 3e ff d2 da 3d 3b 31 18 be 0c 40 5f be
       0.16946258 0.106847756 -0.1486253 -0.21801776
000110 b5 bb fc bd 80 5c 0f be 4d a5 6b bc e1 c5 08 3e
       -0.1234049 -0.1400013 -0.0143826725 0.13356735
000120 d9 6d 2c bb c9 86 c8 3c b1 34 ed 3d 72 ea c1 bc
       -0.0026310591 0.024478333 0.11582316 -0.023671363
000130 f7 ff 80 3d 04 79 00 be ec 39 f7 bd a9 aa 97 bc
       0.062988214 -0.12546164 -0.120715946 -0.018513994
000140 1d a9 78 be a6 24 63 3e c7 5c 1c be a1 66 5c 3e
       -0.24283262 0.22181949 -0.15269767 0.21523525
000150 77 78 91 bc ef 0b a1 bd 5e 87 02 bd 13 bf 2b be
       -0.017757637 -0.07863604 -0.031867377 -0.16772108
000160 8d b5 55 be 44 c6 19 be 06 2f 0e be ba 7b 80 3d
       -0.20870037 -0.15017039 -0.13885126 0.06273599
000170 d3 fe 48 bc fa 9a e6 3d dd d9 b6 3d 5c 53 3e bd
       -0.012267786 0.11260028 0.08928273 -0.046466216
000180 06 c5 79 be 8a 4e 9c 3c 20 31 45 3e 13 b7 02 bd
       -0.24391565 0.01908042 0.19257021 -0.031912874
000190 de 19 79 be 5b ce 81 3d a7 bc 90 3c 32 a7 02 3e
       -0.24326274 0.06338187 0.017668081 0.12759092
0001a0 06 a0 32 be 42 e2 9a bd 3d c1 df bd ad 8f 5f 3e
       -0.17443857 -0.075626865 -0.10925529 0.21832152
0001b0 70 fb 76 3e df 66 0f be 4b 7f 2f be 2e 78 51 bd
       0.24119353 -0.14004086 -0.17138402 -0.051140003
0001c0 57 2d 5c be 3d 0d 04 3e 0f 27 71 be ed ba 66 3e
       -0.21501671 0.12895675 -0.23550056 0.22532244
0001d0 92 fb 0a be b6 b2 c3 bd c7 10 8d 3d 2d b5 85 bd
       -0.13572529 -0.09555571 0.06887966 -0.06528697
0001e0 95 9b 9f bd e8 86 72 bd c5 ba fc 3d 2e c2 35 3e
       -0.07793347 -0.059210688 0.12340311 0.17749855
0001f0 6d 7c d4 3d 18 06 12 3e ce aa 4a 3b 42 db 3a 3e
       0.10375295 0.14260137 0.0030924561 0.18247703
000200 00 81 fd bc 8b 85 28 3c dd 95 89 3c a2 20 41 3e
       -0.030945301 0.010285745 0.016795093 0.18860105
000210 3e 94 62 3e 35 11 07 be 0d 65 00 be 3f a1 8c 3d
       0.22126862 -0.13190158 -0.12538548 0.06866693
000220 0a ef e4 bd a4 54 6a bd 0b e1 3f bc aa 93 81 3d
       -0.111784056 -0.057209626 -0.011711369 0.06326993
000230 9c 8b f2 ba c2 f3 eb bd 17 19 04 be 86 95 0d 3e
       -0.0018504742 -0.115211025 -0.12900196 0.1382657
000240 f8 ee 6f 3e e1 78 9d bd dd 80 48 3e f2 ce 56 3d
       0.23431003 -0.076890714 0.19580407 0.052443452
000250 00 98 8c bc b9 08 45 3e c0 6b d3 3d a1 16 be bd
       -0.017162323 0.19241609 0.10323286 -0.0928166
000260 51 2f 77 be 43 4a f7 3d eb cd aa 3d ad 19 e2 bd
       -0.24139144 0.12074711 0.08340057 -0.110400535
000270 56 ed 57 3e 22 1b 1f 3e 07 9d ba bd 20 ef 21 3e
       0.2108663 0.15537694 -0.09111982 0.15813875
000280 ec e0 41 bd e8 08 6c 3e e5 fc 3b bd 2e 74 54 be
       -0.047333643 0.23050272 -0.045895476 -0.20747444
000290 38 24 e2 3c 11 49 ab 3d e5 80 6a 3e 9c c0 8c bc
       0.027605161 0.08363546 0.22900732 -0.017181687
0002a0 a2 f4 f0 bd 6f cf c6 3d cd 74 c2 bd 20 17 80 be
       -0.1176541 0.097075336 -0.09494934 -0.25017643
0002b0 b8 6d 0b be e6 4b 3d bd 4c ff 5c be 8a cc 45 be
       -0.13616073 -0.04621496 -0.21581763 -0.19316307
0002c0 b5 68 46 be 00 5b f6 3d fc 95 04 3e 4a 89 00 3e
       -0.1937588 0.120290756 0.1294784 0.12552372
0002d0 57 f0 dc 3d 1e 75 4d be dd 51 15 3e 31 35 3a be
       0.10788029 -0.20064208 0.1458201 -0.18184353
0002e0 0b 16 01 3e d4 18 19 be ec ed 68 3d 71 ea e7 3c
       0.12606065 -0.14950877 0.056867525 0.028310033
0002f0 55 62 fa bd b8 ab 3e 3d fd ae b0 bd 59 45 5b bd
       -0.122257866 0.046550483 -0.08627126 -0.053532932
000300 44 67 83 bd d0 ff 7f be 60 5e 31 3e 74 7b d4 3d
       -0.06416181 -0.24999928 0.17321157 0.10375109
000310 d0 6e eb 3d 4e a9 70 3d 92 8c bf bd 2b d0 2c be
       0.11495745 0.05875521 -0.093529835 -0.16876285
000320 c3 29 4f 3e ca 56 17 3e 72 67 33 3e a4 0f 09 3e
       0.20230775 0.14779201 0.1751993 0.13384873
000330 11 73 0b be 76 27 2d be e2 6b 5b bd 5c 27 04 3b
       -0.13618113 -0.16909584 -0.053569682 0.0020165062
000340 3a 0c ea 3d 6d 05 73 be bc 66 24 3e 49 0a 95 3b
       0.11428113 -0.23732539 0.16054815 0.004548345
000350 10 07 3a be df 3f 8f 3d 54 1f 71 3c 27 16 7b 3e
       -0.18166757 0.06994604 0.014716942 0.24520169
000360 88 98 11 be 14 50 4b be c0 7a 46 3d 79 6b 22 3e
       -0.14218342 -0.19854766 0.048456907 0.1586131
000370 64 11 2c 3e 1e bf 6d be 85 7f 73 be cb ac ef bd
       0.16803509 -0.23217437 -0.23779114 -0.117028795
000380 55 c4 1d be 83 ff a5 bc 00 d0 72 be 03 10 ce 3d
       -0.15406926 -0.020263439 -0.23712158 0.10061648
000390 c4 a5 75 be 3e a8 7e 3e cd f6 0a be 92 4a 3c 3e
       -0.23989016 0.24868867 -0.1357071 0.18387821
0003a0 20 ad 07 3d 7e 60 5c be eb bd 77 be 3f b1 63 be
       0.03312409 -0.21521184 -0.24193542 -0.22235583
0003b0 b7 b2 c9 bd 83 ea 92 3d 14 e1 78 be 76 5c 6b 3d
       -0.0984854 0.07173636 -0.2430461 0.057461224
0003c0 9d 5e 18 be 6e 28 62 3e 57 88 9e 3d ab 91 6c 3d
       -0.14879842 0.22085735 0.077408485 0.057756107
0003d0 6a c9 09 be c4 fb 57 be 03 a0 ef bd d7 ec 97 bd
       -0.1345574 -0.21092135 -0.11700442 -0.074182205
0003e0 c4 67 da bd 42 0c 6a be 31 78 50 bc 07 5c 8c bc
       -0.10664323 -0.22856238 -0.012723968 -0.017133726
0003f0 18 e2 70 3b 4d 8a 30 be 7d 74 9e 3d 57 18 f7 bd
       0.0036755856 -0.17240258 0.07737062 -0.12065189

weight_hh_l0 f4 [64, 16]
000000 dc cf 76 be ad 15 20 be 6a 75 fc 3d 1f 2e 2e be
       -0.2410273 -0.15633269 0.123270825 -0.17009781
000010 8a e5 cf bc 10 e1 6e be a3 92 89 3c 40 e7 3d 3e
       -0.025378007 -0.23328042 0.016793555 0.18545246
000020 a4 26 4c be 78 53 3b 3d 94 ee 0c 3e a6 2c 7e be
       -0.19936615 0.0457339 0.13762885 -0.2482172
000030 cb c7 e0 bd 97 a0 e0 3b de 64 01 bd c5 61 65 3e
       -0.109756075 0.0068550813 -0.031590335 0.22400577
000040 92 85 74 3e e6 12 15 3e 3d d1 70 bc 03 9b fb 3d
       0.23879078 0.1455799 -0.014698324 0.122854255
000050 01 19 7a 3e e7 85 b4 3d 1a 43 45 be 02 d2 69 3b
       0.244236 0.08814602 -0.19263878 0.0035678153
000060 7a d7 5c 3e 3a da 92 3c 51 60 69 bd 99 b5 28 be
       0.21566573 0.017926324 -0.05697662 -0.16475524
000070 3e ec 7f 3e bb f6 58 be 6f 74 00 3e d1 08 81 bd
       0.24992463 -0.2118787 0.12544416 -0.0630051
000080 94 08 4e be 06 86 df bd 5e 65 4f 3e 31 7a 48 3e
       -0.2012046 -0.10914235 0.20253512 0.19577862
000090 be 70 80 3e 5b 94 b8 3c 73 73 6d 3e 43 f6 62 be
       0.25086015 0.022531679 0.23188572 -0.22164254
0000a0 e5 65 bc 3a cc bd 05 3e ca 49 3a 3e 55 53 60 be
       0.0014373629 0.13060683 0.18192211 -0.21906789
0000b0 b6 6b 1b bd a4 9d 0e 3c 0a 02 1b 3d a3 e0 61 3e
       -0.037944518 0.008704577 0.03784374 0.22058348
0000c0 a7 55 71 3d ce 0d d3 bd c6 5b 61 be 42 14 09 3e
       0.058919575 -0.103053674 -0.22007665 0.13386634
0000d0 9d a4 67 be 23 63 b3 3c 4b 22 15 3e 49 50 59 be
       -0.22621389 0.021897858 0.14563863 -0.21222033
0000e0 8b 1d 6e be d1 8a 71 3e db e4 6e be 39 81 f6 3d
       -0.23253457 0.2358811 -0.23329489 0.12036366
0000f0 da 58 70 3e 78 f1 cb ba 07 dd 62 be 2e 8f 74 be
       0.23471394 -0.0015559634 -0.22154628 -0.23882744
000100 2b a5 72 be 43 88 a4 bd 61 c1 1a bd 75 b6 09 be
       -0.23695819 -0.08033802 -0.037782077 -0.13448508
000110 70 e4 a3 3d 47 e4 98 bd 40 8c b3 3c 34 3f ae 3d
       0.08002555 -0.074654154 0.021917462 0.08508149
000120 86 50 95 bd 65 a3 dc 3d 4c 25 56 bd 03 23 46 3e
       -0.07290749 0.107733525 -0.052281663 0.19349293
000130 4e b2 ad bd 22 ed 65 be 12 aa 11 3d 10 25 9e bd
       -0.084812745 -0.2245374 0.035562582 -0.07721913
000140 34 1d 38 3e ba c7 18 3e bd bf 68 be 54 e4 33 3e
       0.1797989 0.1491994 -0.22729392 0.17567569
000150 59 76 61 3e 23 38 28 bc 8d 00 f0 3d 50 a7 06 be
       0.22017802 -0.01026729 0.11718855 -0.13149762
000160 94 7b 6a 3e e1 9d e3 3d 99 75 60 be 73 3a c7 3d
       0.22898704 0.111140974 -0.2191986 0.09727945
000170 60 7a b4 3d 11 24 ea bc 2d d5 70 be fd 84 70 be
       0.08812404 -0.02858165 -0.2351882 -0.23488231
000180 d2 cd d7 3d 35 8d 2a be b4 0f ab bd 01 f2 45 bd
       0.10537304 -0.16655429 -0.083526045 -0.048326496
000190 22 c6 2b be 05 24 dd bd 28 58 32 be fd 88 32 be
       -0.167748 -0.10797886 -0.17416441 -0.1743507
0001a0 24 3f 74 3e 1b a4 aa 3d cd a2 59 be 0b 6a 75 bc
       0.23852211 0.08332082 -0.2125351 -0.014978896
0001b0 ce 9c 63 be 21 16 58 3e da 4d ba 3c 27 6a 8b bd
       -0.22227785 0.21102192 0.0227422 -0.06807356
0001c0 79 31 37 3e bb a0 94 3c 46 ca a1 bd 2b f5 c8 3d
       0.17889966 0.018143049 -0.07899909 0.09812387
0001d0 7d e5 92 3b 1d 63 df 3d df 19 7d bd 70 f2 57 be
       0.0044829235 0.10907576 -0.06179225 -0.21088576
0001e0 72 c9 ca bd 80 39 4c be 06 3d 63 3e 48 37 b3 bd
       -0.09901704 -0.1994381 0.22191247 -0.087507784
0001f0 a0 40 5e bd 91 a3 6e 3d 3b e8 3e be 7a b8 a4 3a
       -0.05426085 0.058261458 -0.18643276 0.0012567185
000200 f5 38 f7 bd a9 8f 73 3d 59 86 39 be 61 95 bd bd
       -0.120714106 0.059463177 -0.18117656 -0.092570074
000210 d4 48 f9 3c 0b 85 63 3e b4 95 1e be 73 fa 9e bd
       0.030430235 0.2221872 -0.15486795 -0.07762613
000220 ad 56 03 3e c9 36 51 bd 33 8b 43 be 46 ad f4 bc
       0.12826033 -0.051077638 -0.19096069 -0.02986778
000230 10 17 75 3d f1 e9 43 3b 6a 92 10 3e 2e e0 4e 3e
       0.059836447 0.0029894079 0.14118353 0.20202705
000240 2b 6e 10 be 95 35 14 bc 2e 2c 21 3c e5 93 30 3d
       -0.14104526 -0.009045978 0.009837193 0.043109793
000250 cd 26 69 3e 75 02 45 3e 31 bf 2d be a4 84 2b 3e
       0.22768708 0.19239219 -0.16967465 0.16749817
000260 09 5b 20 3e a8 7a a9 3d 8b b2 49 bc dd 16 c8 3d
       0.15659727 0.08275348 -0.012310634 0.09769986
000270 ae 81 3e 3e 68 65 36 3c c3 dc 05 3e 4f 49 3f be
       0.18604156 0.011132576 0.13072495 -0.18680309
000280 ba b6 b2 3d 28 1f 0d 3e 88 a8 20 be 32 b1 7d 3e
       0.087262586 0.13781416 -0.1568929 0.24774626
000290 a2 58 41 3e 2a ea 16 3e ce 27 87 3d bd 87 4e 3e
       0.18881467 0.14737764 0.06599389 0.20168968
0002a0 88 35 be 3d 4f 2d 4c 3d 1a b2 1c be 2d 3c 60 3e
       0.09287554 0.049847897 -0.15302315 0.21897955
0002b0 e4 2a 2b 3d 9d b3 72 3e 3a 3b af bd ec 79 de 3d
       0.04178895 0.2370133 -0.085562184 0.108630985
0002c0 7a ea 0e be bf cb fb bc e5 0e 68 be ba 94 e7 3c
       -0.13956633 -0.030736802 -0.22661932 0.02826916
0002d0 86 ff 66 be 71 f6 38 3e 77 6a 6a bd 96 0b 22 3b
       -0.22558412 0.1806276 -0.05723044 0.0024726144
0002e0 66 55 9b 3d 11 50 d4 bd dc 75 17 be 36 9c 50 3d
       0.07584648 -0.10366834 -0.14791054 0.050930224
0002f0 8e 8c 64 be b2 42 26 be 22 14 64 be 74 e9 83 3d
       -0.22319242 -0.1623638 -0.22273305 0.06441012
000300 cf 4a dc 3d 40 65 0b 3e f6 ec 0e be e9 25 41 3d
       0.10756456 0.13612843 -0.13957581 0.047155295
000310 bd 13 95 3d c9 ab 00 bd e8 0b 90 bd d2 01 8a bc
       0.072791554 -0.031413827 -0.07033521 -0.016846571
000320 39 5e 4a 3e d5 32 73 3e c1 bf 63 3e d8 db 78 3e
       0.19762506 0.2374986 0.22241117 0.24302614
000330 54 79 28 3e 3c f7 27 be 28 bd 18 3d 4a 08 28 3d
       0.16452533 -0.16402906 0.03728977 0.04102353
000340 ab 10 06 3e c0 d6 25 3e ee b7 81 be 97 b5 82 3d
       0.13092296 0.16195202 -0.2533564 0.06382292
000350 b0 1f 62 3d 97 b0 02 be d4 8e 09 be a9 8a 1a 3d
       0.055206 -0.12762676 -0.13433391 0.037729893
000360 3c b7 7c be 37 ea 1f bd c0 83 34 3e 48 e3 3a bd
       -0.24679273 -0.039041724 0.17628384 -0.04562691
000370 91 79 1f be 63 1e ec bd 97 eb 64 be cb 5a 37 bd
       -0.15573718 -0.11529233 -0.22355495 -0.04476432
000380 ee 03 1d be e2 ae df bd 0b 47 f3 bd 36 cf 06 be
       -0.1533353 -0.10922028 -0.11878785 -0.13164982
000390 88 be 93 3c aa de 7e 3e 56 d3 bd 3a f3 c8 08 3c
       0.018035188 0.24889627 0.0014482539 0.008348691
0003a0 f7 55 20 3e 53 73 32 bb 5d 44 c6 3d 86 e4 be bc
       0.15657793 -0.0027229383 0.09681008 -0.023302328
0003b0 35 42 d7 bd 34 50 46 3d e0 ec f9 bc 0c ef 2b bd
       -0.10510675 0.04841633 -0.030508459 -0.04197602
0003c0 1a 63 3d be 79 b3 1e 3e 08 68 0c be 6e 8c 00 be
       -0.18494835 0.15498151 -0.1371156 -0.1255357
0003d0 08 55 2c be 6b 0f c4 bc 25 94 9e 3d 6d 96 19 3e
       -0.16829312 -0.023933133 0.077431 0.14998789
0003e0 a2 ce 26 bd b9 b4 b9 3d 6b 33 80 be 0b 86 b8 3c
       -0.040724404 0.09067673 -0.2503923 0.022524854
0003f0 2d 42 de 3d d1 80 40 bd 55 d4 86 bd 9d 4b 98 3d
       0.10852466 -0.04699785 -0.06583468 0.07436297

bias_ih_l0 f4 [64]
000000 7a c8 f7 bd eb ff 2e be fa 0b 2e be 34 24 50 3d
       -0.12098785 -0.17089812 -0.16996756 0.050815776
000010 65 23 03 3e 0e f1 50 3e d3 b4 ac 3d 71 0c b6 bc
       0.1280647 0.20404455 0.08432927 -0.02222273
000020 22 14 4f be ce ed 84 3d 6b 4f 85 be 72 f6 de 3d
       -0.20222524 0.0649067 -0.26037154 0.108868495
000030 26 bb 7d 3e 03 fb 1e bc 19 07 fa 3d f2 57 0d bd
       0.24778423 -0.009703401 0.12208385 -0.0345077
000040 28 46 94 bc 7d 39 50 be 34 a2 ea 3d e6 e9 8b 3d
       -0.01809986 -0.2033443 0.11456719 0.06831722
000050 a2 3a 06 3e 89 82 af bd fa 31 4c 3e dd 37 e3 bd
       0.13108304 -0.085698195 0.1994094 -0.110946395
000060 93 4f 67 3d 55 3a 14 3e 82 4b 44 3c cb 46 91 bd
       0.056472372 0.14475377 0.011980893 -0.07093581
000070 d9 db 54 be ec 87 2c be e2 00 33 bd 32 c5 ac bd
       -0.2078699 -0.16848725 -0.043702014 -0.084360495
000080 1b ae 4b 3e bf c0 7e be 6a 58 b7 3c f7 05 37 be
       0.19890635 -0.24878214 0.022381026 -0.17873369
000090 c4 3b 4e 3e 24 cc 81 3e 07 4f 3e 3e bb 58 88 3e
       0.20139986 0.2535106 0.18584834 0.26630196
0000a0 5b c5 81 3e e3 13 22 3d a8 45 57 bc 13 9c 09 3e
       0.25345883 0.039569747 -0.013139166 0.13438444
0000b0 28 0b 2e 3e ab 47 44 be a0 17 6b 3d 4f f6 7f bd
       0.16996443 -0.19167964 0.057395577 -0.062490758
0000c0 e9 3a 8d 3b 43 25 49 bd 52 e9 2e 3e 65 9f 1a 3e
       0.004310001 -0.0491078 0.17081192 0.15099867
0000d0 f9 13 a9 3d 80 4d 50 3e f8 78 0e 3e 01 e8 71 3e
       0.082557626 0.20342064 0.13913333 0.23623659
0000e0 48 59 28 bc 1a 85 80 be 82 90 3b 3e 38 ca 3c 3c
       -0.010275193 -0.25101548 0.18316844 0.011522822
0000f0 b3 ab cf bd 79 90 a0 bd de 06 64 3e e9 79 45 be
       -0.10140171 -0.07840056 0.22268245 -0.19284786

bias_hh_l0 f4 [64]
000000 c6 7e f2 bd 93 0f 59 3e 3f 0c d9 3c af c0 26 be
       -0.11840586 0.21197347 0.026495097 -0.1628444
000010 39 26 b9 3d fa 0c 19 3d 5f 8b 26 be 9b ff c9 3d
       0.090404935 0.03736589 -0.16264103 0.09863206
000020 6d 9d 8f bc 37 54 6f be 4e 7e cb 3d 9a 4c d7 bd
       -0.017531121 -0.23371969 0.099362 -0.105126575
000030 3d 3c 39 be f7 8e 61 3d 27 d5 c7 bd c2 e6 2b bd
       -0.18089385 0.055067983 -0.097574525 -0.041968115
000040 44 eb 0b be da 47 fe 3a b0 17 eb bd 3e b9 61 bd
       -0.13663965 0.0019400076 -0.114791274 -0.0551083
000050 38 dc 4a 3e 72 82 36 be ba 30 50 3e 8c 7f 6c be
       0.1981057 -0.17823198 0.20331088 -0.2309553
000060 e4 89 80 3e 62 ef 08 bd 3b c2 43 be 9b aa 4c 3e
       0.25105202 -0.03343142 -0.19117062 0.19986956
000070 5f ae a3 3d 24 30 71 bd 42 f0 11 bd da 1e 69 be
       0.07992243 -0.0588838 -0.03562952 -0.22765675
000080 3a 60 e6 3d 5d b7 2f 3e be fb 08 3d d6 25 3b be
       0.112488225 0.17159791 0.033443205 -0.18276152
000090 ec 60 67 be 7d 73 24 3e 4a 06 e0 bd 6d 34 dc 3c
       -0.22595567 0.1605968 -0.109386995 0.026880467
0000a0 fa 39 27 be 69 68 1b 3c a7 e0 28 be 9e 17 45 3d
       -0.1633071 0.009485343 -0.16491948 0.048118226
0000b0 ac f9 85 3d 10 a7 0c 3e 91 f1 0b be 74 71 24 bb
       0.06541762 0.13735604 -0.13666369 -0.0025092037
0000c0 ea d0 2a 3e 23 0b c7 bd 1d 58 9c bd 1d 80 76 3e
       0.16681257 -0.09718921 -0.07633994 0.24072309
0000d0 e9 57 36 3e be 39 5c bc 42 cc 5d be c1 8b 3b 3e
       0.17806973 -0.013441501 -0.2165995 0.1831503
0000e0 75 6c 99 bd 78 cf 02 bc 91 4b f3 3d b4 c6 85 bc
       -0.0749139 -0.007984035 0.118796475 -0.0163301
0000f0 9e 0a 11 bd 9f 82 6e be 16 02 1a be 1e 7b 83 3e
       -0.035410516 -0.23292015 -0.15039858 0.25679868

weight_ih_l1 f4 [64, 16]
000000 2c df 48 bd 95 ca a8 3d 3f 5e ad bc 01 a0 53 3d
       -0.04904096 0.082417645 -0.021163104 0.051666263
000010 de 3e 30 be 98 84 25 3d af d3 27 3d ea b2 45 be
       -0.17211482 0.040409654 0.04097336 -0.19306532
000020 cf 82 9a 3d 78 22 5a be 9f 04 06 3e bc 9b b2 bd
       0.07544481 -0.21302211 0.130877 -0.0872111
000030 e4 ec 01 3e 9c f9 13 bc 03 91 18 3e c5 08 25 3e
       0.12688023 -0.0090316795 0.14899068 0.16116627
000040 49 f9 49 be 95 79 44 be c4 f1 f6 bc 28 01 1d 3e
       -0.19724001 -0.19187005 -0.03014458 0.15332472
000050 6f 51 56 bb 8f 0f 39 be df 9d ce bd 0f 56 82 bd
       -0.0032702347 -0.18072341 -0.10088705 -0.063640706
000060 19 c4 1d be 0b 8e 0d 3e ff b7 fe 3d a4 b4 88 3e
       -0.15406837 0.13823716 0.12437438 0.26700318
000070 f8 98 42 b9 8f b1 42 3e 71 72 98 bd 1d 11 61 3e
       -0.00018558267 0.19013046 -0.07443703 0.21979184
000080 c8 49 28 bd 8e 3b d8 bd dc a4 67 be 3c 99 71 3e
       -0.04108599 -0.10558234 -0.22621483 0.2359361
000090 7e 47 75 be c3 96 f0 bc 37 b2 83 be 1e b0 0d 3e
       -0.23953053 -0.029368764 -0.25721905 0.13836715
0000a0 72 05 79 3e 95 a3 b6 bd ae 11 45 be e1 a8 28 be
       0.24318483 -0.089179195 -0.19245026 -0.16470672
0000b0 72 11 d9 3d 98 a6 58 3e ac 2c c0 3d 55 18 86 3e
       0.105990306 0.211573 0.093835205 0.2619044
0000c0 cc de fd bd 14 f0 f6 3d 37 26 5f 3e 35 8a b0 3c
       -0.12396011 0.1205751 0.21791922 0.021550277
0000d0 96 3f e0 bd 24 d1 9a bd f0 35 2e 3e e8 96 68 3e
       -0.10949628 -0.07559422 0.17012763 0.22713816
0000e0 cc ce 65 be c2 9a 1e 3e 6f 2a ee bd 9b 1f 39 3d
       -0.22442168 0.15488723 -0.11629187 0.045196157
0000f0 36 da 68 3d 7e 4f f7 3d a9 4b 59 be a6 b9 62 bd
       0.056848727 0.12075709 -0.21220268 -0.05535283
000100 14 4e 5d be d6 69 57 be 89 34 70 be f0 cb 13 be
       -0.21611816 -0.21036467 -0.2345754 -0.14433265
000110 da 23 3f 3d 38 e7 35 3e 82 e4 a7 3c 50 08 30 be
       0.04666505 0.17763984 0.020494703 -0.17190671
000120 29 9a 03 3e c8 f8 aa bd 5d cd 80 bd b9 27 17 3d
       0.12851776 -0.083482325 -0.0628917 0.036903117
000130 ea bc 08 be a0 42 01 3d db 4d 45 3e 30 1b 55 3e
       -0.13353315 0.03155768 0.19267981 0.20811152
000140 0a 3c 6f 3e 3c b6 05 be 5d 19 30 3e d7 b9 76 3b
       0.23362747 -0.13057798 0.17197175 0.003764739
000150 f9 ca 40 3d 50 b2 5e 3e 88 e1 da bd bd 9c a2 3d
       0.04706857 0.21747708 -0.10687548 0.07940052
000160 64 f7 6b 3e b0 d9 04 be a5 c3 2d be 26 a5 44 3e
       0.23043591 -0.12973666 -0.16969164 0.19203624
000170 36 c2 22 be 77 04 0b 3e ee c9 ab bd 98 02 a0 bd
       -0.15894398 0.13575922 -0.083881244 -0.07812995
000180 50 4b f3 3d dd 5e 56 3d 83 57 68 be 40 b4 11 3e
       0.11879599 0.052336562 -0.22689633 0.14228916
000190 88 ad 39 3e 97 c9 97 3d 99 c4 76 be 95 d2 31 3e
       0.18132603 0.07411497 -0.24098434 0.17365487
0001a0 0f b4 8b 3c 8a d2 f4 3d ba 89 90 3d ec af e4 bd
       0.017053632 0.1195422 0.07057519 -0.11166367
0001b0 36 0e 53 be c0 ca 0d be 68 70 04 3e 20 55 66 3d
       -0.2061089 -0.13846874 0.12933505 0.056233525
0001c0 cf ff 87 bd f4 c4 21 3e f9 02 51 3e e3 1a 18 3e
       -0.066405885 0.15797788 0.2041129 0.14854006
0001d0 40 56 dd 3d e9 f7 f0 bc 41 45 e6 3c 75 ca 59 be
       0.108074665 -0.029415088 0.028109195 -0.21268637
0001e0 87 6f 1c 3e 49 d9 72 3e 29 4e 54 be 89 d1 5d be
       0.1527692 0.237157 -0.2073294 -0.21661963
0001f0 da b8 d5 bc 09 27 bf 3d 46 c5 bb bd da cb ae bd
       -0.02608912 0.09333617 -0.09168486 -0.08534975
000200 03 05 39 be 0d 64 54 3e 4b 2d 5b 3e 32 f4 48 bd
       -0.18068318 0.20741291 0.21403997 -0.049061008
000210 d9 39 fd 3d d2 2e 3c be 7b 83 a1 bd c6 7d 4a 3d
       0.12364549 -0.18377236 -0.07886406 0.049436353
000220 15 97 15 3d ff 21 39 bd e9 78 65 3e 00 0c 55 3e
       0.036521036 -0.045198437 0.22409405 0.20805359
000230 ba 8b 66 be 1e e1 06 3e ef fc 37 bd 51 b5 15 be
       -0.22514239 0.13171813 -0.04491895 -0.14619948
000240 1a ea 9c 3d 08 6b fd 3c c2 d2 79 be 84 7e 70 3e
       0.07661839 0.030934826 -0.24396804 0.23485762
000250 8b b1 f3 3c 7d 5c 09 3e 98 cf 75 bd 5a 87 ae 3d
       0.029747745 0.13414188 -0.06001243 0.0852191
000260 7d 54 52 be e6 7b 1a 3e c3 ce dc bd fe d3 4c be
       -0.20540042 0.15086326 -0.10781624 -0.20002744
000270 07 53 bf bd 04 b1 f8 3d f9 9e 2b be 8f 69 f7 bc
       -0.09342008 0.12143138 -0.16759862 -0.030201701
000280 de 82 e1 bc c7 7e 33 3e a3 07 6d bd 27 2d dc 3d
       -0.027528223 0.1752883 -0.05786861 0.107507996
000290 b0 4c fc 3d dd 82 46 3e cf 97 46 3e c8 ee 5c 3e
       0.123193145 0.19385858 0.19393848 0.21575463
0002a0 80 6e 74 3c 13 9e 47 be 48 b1 69 3e 1f 80 e9 bd
       0.014918923 -0.19493894 0.22821534 -0.1140139
0002b0 83 70 e3 bb 13 a5 62 3d 27 51 04 3e 82 cb 08 be
       -0.0069409027 0.05533321 0.12921582 -0.13358882
0002c0 b4 25 ac bd 08 06 85 3e 5c e1 35 be b9 e3 20 be
       -0.08405629 0.25981164 -0.17761749 -0.1571187
0002d0 70 e9 16 be 86 ed 1f be c5 5d 58 3e 77 f6 03 3e
       -0.14737487 -0.15617952 0.2112952 0.12886988
0002e0 ad 22 1d 3e 82 03 1e be a3 e0 70 3e bc 07 f4 bc
       0.15345259 -0.15431026 0.23523192 -0.029788844
0002f0 83 3f 07 be dd af 6a be f6 0d 4b be fa 44 6a 3e
       -0.13207822 -0.22918649 -0.19829544 0.22877875
000300 49 c0 d2 bd 7c 35 2e be 3f 15 ed 3d bf 2f b8 bd
       -0.10290582 -0.1701259 0.11576318 -0.08993482
000310 24 dd 5f be b8 7f 52 be 34 2a e6 bd 54 83 4a 3e
       -0.21861702 -0.20556533 -0.11238518 0.1977666
000320 9c d7 85 be 7d 4a 67 3e 94 b8 48 3e cc 70 1b 3e
       -0.2614106 0.22587009 0.19601661 0.15179747
000330 6c 06 57 3e 68 16 26 be c3 01 ff bc a8 ed 0c be
       0.20998544 -0.16219485 -0.03112877 -0.13762534
000340 f0 d7 1a 3d db e6 cf bd 0a 3b 9d bd 58 32 b0 3a
       0.03780359 -0.10151454 -0.076772764 0.0013442738
000350 1f 82 cf bd 86 ab 65 be ba 95 1f 3e 02 9a 2f be
       -0.101322405 -0.22428712 0.1558446 -0.17148593
000360 12 cc 31 3e 0b 1c 60 3d c2 73 f0 3d d5 30 4d be
       0.17363003 0.054714244 0.11740829 -0.20038159
000370 9d cc 9b 3d 14 05 d6 bd 4d 0a 90 bd 3c d9 7c 3e
       0.07607386 -0.10450187 -0.07033215 0.24692243
000380 7f c7 25 be 22 44 23 3e 3d 8d 22 be 0f 70 08 3e
       -0.16189383 0.1594396 -0.1587419 0.13323997
000390 90 7b de bd c9 9a 40 3c 80 49 66 3d 71 4f ec 3d
       -0.108634114 0.011755654 0.05622244 0.1153859
0003a0 95 43 5a bd e6 d2 45 bd e9 8c df bd fe 97 c2 bd
       -0.053287107 -0.04829683 -0.10915548 -0.095016465
0003b0 1c 4c 0a be f5 ad 37 be 35 2b 3b be 27 91 77 3a
       -0.13505596 -0.17937453 -0.18278201 0.00094439316
0003c0 34 99 18 3e dc 0f f2 bd 9c fd 81 3e 88 55 8d bd
       0.14902192 -0.11819431 0.253888 -0.069010794
0003d0 47 96 72 be 1f 10 1d 3e 4c 33 1c 3d b5 7f a9 3d
       -0.23690139 0.15338181 0.038134858 0.08276311
0003e0 5f d4 b5 bc f0 21 82 be f1 19 1a be 2b d2 61 3d
       -0.022195993 -0.25416517 -0.15048958 0.055132072
0003f0 a3 fd 6e be ea 7d af bd 70 d9 02 3e eb ba dd bc
       -0.23338942 -0.08568938 0.12778258 -0.027066668

weight_hh_l1 f4 [64, 16]
000000 a6 8d 18 3e ea 6d 8b 3d b0 49 14 3e bc c0 e5 3d
       0.14897785 0.06808074 0.14481235 0.11218402
000010 a6 d0 23 bd 1f b8 40 3e fd af 18 3e d6 6a 57 be
       -0.039993905 0.18820237 0.14910884 -0.21036848
000020 73 7d 54 3c b8 d8 c0 bd ef 7f 58 3d 4a 13 fe bd
       0.012969363 -0.09416336 0.052856382 -0.12406023
000030 52 9d 8f 3d 65 b4 4f 3d 21 7a 50 be 24 ae b2 3d
       0.07012428 0.050709147 -0.20359088 0.08724621
000040 71 6c 45 be d9 7e d9 3c 0a e7 ea 3c 5a 25 65 3e
       -0.19279648 0.026549743 0.028674621 0.2237753
000050 73 64 16 be 90 5d 1d 3e 3f 0c fb bd fa cc 73 be
       -0.14686756 0.15367723 -0.12258195 -0.23808661
000060 42 90 ad 3d 9e 47 92 bd 36 0c 66 bd a1 38 56 b7
       0.084747806 -0.07142566 -0.05616399 -1.2768579e-05
000070 fd cc 39 3c fa a4 a7 bd 72 bb 4b 3e 74 26 81 3e
       0.011340377 -0.08185764 0.19895723 0.2522465
000080 b3 b3 41 3d 64 1a 35 be ea c1 c2 bd 52 ad 88 3d
       0.047290515 -0.17685848 -0.095096424 0.06673683
000090 36 36 e1 bd be c0 d6 3c 9d 1e 82 be 7a 32 2f bd
       -0.10996668 0.026214954 -0.2541398 -0.042772748
0000a0 51 55 3e be 72 f5 3b bd 4d ef 29 be f6 c8 b6 bd
       -0.18587233 -0.04588837 -0.16595192 -0.08925049
0000b0 1d bc 85 be 0b 26 41 be b9 1e 31 bd e3 6d 30 bd
       -0.26120082 -0.18862168 -0.04324219 -0.043073546
0000c0 71 90 49 be bb 69 0b be 89 cc 60 3d 04 26 73 be
       -0.19684006 -0.13614552 0.05488256 -0.2374497
0000d0 10 ee 49 3e e7 a8 29 3e fe 75 84 bc f1 d9 8b 3c
       0.1971972 0.16568337 -0.016169544 0.017071696
0000e0 e8 84 1c bd 51 0e 54 3e 3d 87 55 3e c3 d5 80 3e
       -0.038212687 0.20708586 0.2085237 0.25163087
0000f0 3d e4 66 be 31 70 1f 3e 42 2b ac bb 97 7b 37 3e
       -0.22548003 0.15570141 -0.00525418 0.1791824
000100 1b 4f 6e 3e 37 9b 46 3e af 50 8d 3c cb c5 c1 bd
       0.23272364 0.19395147 0.017250387 -0.09461554
000110 7e 89 b5 3b 47 ca f2 3b 8d f1 7b 3e 5e b8 3f 3e
       0.005540072 0.0074093672 0.24603863 0.18722674
000120 d3 66 87 3d e3 95 e0 bd 78 58 87 be bd 32 43 3e
       0.06611409 -0.109660886 -0.26434684 0.19062324
000130 36 e4 83 bc 5c 11 1b be 30 bb 62 3e d2 be f1 3d
       -0.01610003 -0.15143341 0.22141719 0.11803974
000140 63 8e 23 bd d0 07 ed 3d bc 2a 02 be 73 ed 06 3e
       -0.039930712 0.11573756 -0.12711614 0.13176517
000150 1e a5 43 3d 2c 47 24 be 06 cc 1f 3c 47 fc 5a 3e
       0.04776489 -0.16042775 0.009753233 0.21385299
000160 8f 1f 43 3e 5f fd 5f 3e 55 d9 2b 3d 0d 30 38 3c
       0.19055007 0.21873997 0.04195531 0.011241925
000170 12 21 19 3e 29 b9 a6 bd 50 36 5a 3e 7b bc 6e 3e
       0.14954022 -0.08140785 0.21309781 0.23314087
000180 fa 90 9e bd 38 71 cf 3d 8b 3b 69 3e cd 67 4e 3e
       -0.07742496 0.10129017 0.2277662 0.20156784
000190 f7 41 c9 bc 85 c7 27 3e f1 a3 75 bc d1 97 6b 3e
       -0.024567587 0.16384704 -0.0149927 0.23007132
0001a0 b8 99 f6 3d 56 c7 f5 bd 1a fc 2a 3d ef 4e 96 3d
       0.12041038 -0.12000911 0.04174433 0.07339274
0001b0 02 dc 20 3e 11 f9 0c bd a0 b3 56 3e b0 ec 1a 3e
       0.15708926 -0.034417216 0.20966959 0.15129352
0001c0 b1 bd 02 3d 3d 2b 37 3e 37 4d aa 3c 86 98 f4 3c
       0.031919185 0.17887588 0.020788772 0.029857885
0001d0 37 31 bd 3d 41 4c 38 bc cd cc 88 3d 49 16 3f 3e
       0.092379026 -0.011248649 0.06679688 0.18660845
0001e0 f5 69 07 bd f8 bf 62 be bf 0c 24 3c 4b d0 ed 3d
       -0.033060033 -0.22143543 0.0100128045 0.11611994
0001f0 4a c1 34 be 8f 1c 58 bc 26 2c b6 bd 17 77 10 3d
       -0.17651859 -0.013190403 -0.088951394 0.035269823
000200 e1 22 f1 3d ad 2d fa bd e2 fa 3e 3e 33 66 2e be
       0.11774231 -0.12215743 0.18650392 -0.17031173
000210 17 f1 2c bd cd 36 71 be fb 7a 3d be 2b d4 42 3e
       -0.04222211 -0.23556061 -0.18503945 0.19026248
000220 8a 31 84 3e d1 34 17 be 6c dc 6c be a0 a0 28 be
       0.25819045 -0.14766242 -0.2313096 -0.16467524
000230 ce 7b 5e 3d 9f 93 1e be b9 f2 33 be 78 53 84 bd
       0.054317288 -0.15486 -0.1757306 -0.06461233
000240 91 69 38 be 48 e6 b3 3b be 57 50 be 06 20 1c 3e
       -0.1800902 0.005490098 -0.20345971 0.15246591
000250 87 55 2b 3e 9f 19 f5 bd d4 7a 04 be ee 6c 1e 3e
       0.16731845 -0.119677775 -0.1293748 0.15471241
000260 d7 77 11 3e 73 fd 45 bb 1e 8a 46 3e 91 62 4f 3e
       0.14205872 -0.0030210882 0.19388625 0.20252444
000270 91 b6 70 3e 81 f4 05 3e 05 c0 50 3e e6 df 75 bd
       0.23507144 0.13081552 0.2038575 -0.06002798
000280 9a 0b 23 3e 45 bb c2 bc 56 d7 50 3e 47 51 1b be
       0.15922394 -0.023770938 0.20394644 -0.15167724
000290 04 b8 1a 3e 4d 24 42 be 4e 28 31 3e 15 9c 64 bd
       0.15109259 -0.1895916 0.17300531 -0.055812914
0002a0 af d2 25 be 29 3d 35 3c e4 56 cf bd 7e 18 b5 bc
       -0.1619365 0.011061945 -0.10123995 -0.022106405
0002b0 a9 3c d2 3d c3 1e 93 bd cb 5a 69 be 90 b1 32 be
       0.10265476 -0.07183602 -0.22788541 -0.17450547
0002c0 a2 e9 2c 3e e8 a2 d7 bd dd 38 66 3e 87 04 05 be
       0.16885999 -0.10529119 0.22482629 -0.12990008
0002d0 05 fc 25 be e4 e4 0c 3e 93 b4 1e 3c 61 e3 ab 3d
       -0.16209419 0.1375919 0.009686607 0.083929785
0002e0 12 e3 61 be dc ad 41 3b 94 a3 cb 3d 4b f5 af bd
       -0.22059277 0.002955309 0.099433094 -0.08591708
0002f0 aa bd 6d 3d 4f cf e1 3c fa 1a 42 be e0 fc d2 bc
       0.058042206 0.027564673 -0.18955603 -0.025755346
000300 b0 37 9c bc 15 b0 42 3e 8e c4 6b bd 41 12 9a bc
       -0.019069523 0.19012482 -0.057560496 -0.018807532
000310 8d 4f ea 3d 9f fe 19 3e 47 ed dd bd a8 91 ac 3d
       0.11440954 0.15038536 -0.10836273 0.08426219
000320 85 bb 7b be 29 c9 4c 3e 93 e8 d9 3c ed 6d 6c be
       -0.24583252 0.19998612 0.026600158 -0.23088808
000330 85 29 47 3e 72 8c 56 be b3 cb f5 3c 86 09 e5 3c
       0.19449432 -0.20952013 0.030004358 0.027958643
000340 ee 40 f6 3d 4f 4c 60 3e 48 aa 5c 3d bd 48 56 be
       0.12024103 0.2190411 0.05387333 -0.20926185
000350 54 af 79 be 56 cb 64 3e 77 03 60 3e 97 e3 df bd
       -0.24383289 0.22343192 0.21876322 -0.10932081
000360 55 1a 2c be a9 df 67 3e 2a bd e6 bb 43 40 f8 3d
       -0.1680692 0.22643913 -0.007041593 0.12121632
000370 a6 68 0e be b0 09 3c be 3b 6e 35 3c 8d 17 4f 3e
       -0.13907108 -0.1836307 0.011073644 0.20223828
000380 bc 7f 26 3e a2 c6 21 bd 49 62 75 be 70 70 6f 3b
       0.16259664 -0.03949607 -0.23963274 0.0036535524
000390 5c 4b ba bd 58 93 04 3e 1b 8a 37 3e 13 ec f9 bc
       -0.09096405 0.12946832 0.17923777 -0.030508077
0003a0 fa b0 22 3e 00 a5 5d be bd 48 6b be 88 70 64 3e
       0.15887824 -0.21644974 -0.22976966 0.22308552
0003b0 bb aa 9f bc a8 59 f4 3c 00 de 65 3e 4d 9c 69 3e
       -0.01949059 0.029827908 0.22447968 0.2281353
0003c0 61 5a e1 3d 20 48 95 bd 66 3f 52 be d4 fe 9d 3d
       0.110035665 -0.072891474 -0.20531997 0.0771462
0003d0 28 4b 6a 3e 2b a5 0b be 77 98 47 bd 93 17 3b be
       0.22880232 -0.13637225 -0.048729386 -0.18270712
0003e0 71 85 3a 3e 4c f1 6b bd f8 10 0f be 14 56 ea bd
       0.18214966 -0.057603166 -0.13971317 -0.11442199
0003f0 08 48 db bb 5f 43 97 bd 72 80 2c 3e 88 8f 38 3d
       -0.0066919364 -0.07385897 0.16845873 0.045058757

bias_ih_l1 f4 [64]
000000 ae 2d 60 bd bd c6 fb 3c 83 1a 49 bb 72 87 7e bd
       -0.054731064 0.030734414 -0.0030685968 -0.06214089
000010 49 7f fd 3d 0e fd 46 3e ab 2c de bb a2 9d 86 bc
       0.12377793 0.1943247 -0.006780227 -0.016432587
000020 1b 39 72 3e e3 7f 60 3e e3 2d f4 bd 20 34 79 be
       0.23654597 0.21923785 -0.11922815 -0.2433629
000030 af 36 0d bd 85 a0 44 3d 88 3e d2 bc d4 94 29 be
       -0.03447598 0.048004646 -0.025664583 -0.1656068
000040 1d 5e 48 3e 19 c3 19 3e 84 e7 2b be 2c e3 67 be
       0.19567151 0.1501583 -0.16787535 -0.22645253
000050 28 41 26 3d 02 9a 9c bd c4 dc 0e 3e a2 00 77 3d
       0.04058948 -0.07646562 0.13951403 0.060303338
000060 f9 68 fb bd e2 c2 63 bd 5b 98 6d 3e 09 fd 05 be
       -0.12275881 -0.055605777 0.2320265 -0.13084807
000070 f5 ea 19 bd 63 b3 bb 3d 47 48 6c be 1a af c7 3d
       -0.037577588 0.09165075 -0.23074447 0.09750195
000080 68 75 36 3e 24 23 d4 bd 07 b4 b1 bd 5f 96 1f 3e
       0.17818224 -0.10358265 -0.086769156 0.15584706
000090 9c db 22 3e 4f 73 49 be a8 d3 55 3e 15 a5 ea 3d
       0.15904087 -0.19672893 0.20881522 0.11457268
0000a0 d7 90 51 3e 9c e2 53 3e 36 48 d1 bd c8 bf 63 3e
       0.20465408 0.20691913 -0.10218851 0.22241127
0000b0 3b b0 0b 3e 62 12 54 3e 0f bb 5c be 9d 9f 4b bd
       0.13641445 0.20710137 -0.21555732 -0.049712766
0000c0 31 a0 53 3e da e7 29 be 91 da 4c 3e b8 0d 5c 3e
       0.20666577 -0.1659235 0.20005251 0.21489608
0000d0 1f 4b 0e be 07 e9 ff bd 34 6a 49 be 38 b2 6e 3e
       -0.13895844 -0.12495618 -0.1966942 0.23310173
0000e0 a1 48 f4 bb e3 36 c3 3d c5 04 6c 3e dd 6e ad 3d
       -0.007454947 0.09531953 0.23048694 0.08468411
0000f0 da f6 52 be 6f a4 53 bd 50 de 05 3e e3 a8 16 be
       -0.20601979 -0.051670488 0.13073087 -0.14712863

bias_hh_l1 f4 [64]
000000 ca b8 30 3e bf 45 65 be ce a4 af bd 1f ca 53 3e
       0.17257991 -0.22389887 -0.08576356 0.20682572
000010 97 84 ca bd 8b 02 44 be ad a7 18 be 8a 4a ca 3d
       -0.09888571 -0.19141595 -0.14907713 0.098774984
000020 c2 f5 05 3b 9c 70 6a 3d bc d5 55 3e 96 02 36 bd
       0.0020440673 0.0572363 0.20882314 -0.04443606
000030 08 3c 2e 3e 3b 91 69 bd 26 b1 37 3e a1 be 31 3e
       0.17015088 -0.05702327 0.1793867 0.17357875
000040 c9 0a 01 bc 79 33 1a bb f6 f7 f9 3b 06 7b 75 3e
       -0.007876107 -0.0023529215 0.007628436 0.23972711
000050 1a 17 de bd 0a d9 b7 bd a0 d6 2b 3c e7 d0 56 bd
       -0.1084425 -0.08976944 0.010488182 -0.05244532
000060 26 81 84 3e 9b e6 75 be be b5 75 be 3b 05 35 be
       0.25879782 -0.2401375 -0.2399511 -0.17677777
000070 79 12 bd 3d 2d ab 6b 3d 1a d4 3d 3e d6 08 15 be
       0.09232039 0.057536293 0.18537942 -0.14554152
000080 4f 83 e3 3d 2d 41 37 3e f0 32 3e be 95 d5 1a be
       0.111090295 0.17895956 -0.18574119 -0.15120538
000090 b8 49 18 3e a2 23 d1 bd 08 44 69 be a0 0b 2a be
       0.14871871 -0.102118745 -0.22779858 -0.16605997
0000a0 c9 58 6d 3e f2 a6 2f 3e 87 8c 19 bd de 27 de 3d
       0.231784 0.17153528 -0.037487533 0.10847448
0000b0 cb c5 6c 3e a5 cc 3a 3d 17 dd 9c bd 05 2a 83 3e
       0.23122327 0.04560532 -0.07659357 0.25617996
0000c0 30 4b bd 3c aa 34 11 3e e0 00 89 3d 9a 31 74 3e
       0.023107141 0.14180246 0.0668962 0.23847046
0000d0 34 82 d8 bc eb a3 ec 3c ce ec 78 be d2 83 43 be
       -0.026429273 0.028886756 -0.24309084 -0.19093254
0000e0 aa c8 34 be a7 e1 9f 3d b6 00 06 3d 8f 55 16 3e
       -0.17654672 0.07806712 0.03271552 0.14681076
0000f0 3c 40 84 bd 3a e9 eb 3c d7 7b d8 3d 17 1e 85 bd
       -0.06457564 0.028797735 0.105704956 -0.0649988

weight f4 [1, 16]
000000 da d8 46 be 4b c5 6c 3e bd c8 2b 3d d6 fd 75 3e
       -0.1941866 0.23122136 0.041939486 0.24022612
000010 11 7d 1d 3e 90 17 0b be ec e5 4f bd e3 4d 14 be
       0.1537974 -0.13583207 -0.05075638 -0.14482836
000020 60 b6 b1 3d 2b b5 67 be 08 5e 4f 3e 22 61 f6 bd
       0.086773634 -0.22627704 0.20250714 -0.12030245
000030 6c 39 60 bd 69 a9 63 bd 6e b3 82 be 9b 6b 57 3e
       -0.05474226 -0.055581484 -0.2552752 0.21037142

weight f4 [1, 32]
000000 0b 73 2c 3e d5 6e c9 bd 20 c8 08 3d 03 f9 19 3e
       0.1684076 -0.09835593 0.03339398 0.15036397
000010 2b 92 13 be 20 32 e7 3b b9 09 12 be 8e 04 e6 3d
       -0.14411227 0.007055536 -0.14261521 0.112313375
000020 16 25 d3 3d f4 3d 1e be d3 1b b0 bd 10 ca 81 bc
       0.10309808 -0.1545332 -0.08599057 -0.015843421
000030 78 d3 10 3d 50 f9 70 3c 5f 46 2e 3e e0 23 16 bd
       0.035357922 0.014707878 0.17019032 -0.036655307
000040 4d 7e 11 3e ba fa ff 3d 98 e8 c5 bc dd 6f c4 bd
       0.14208336 0.12498994 -0.02415876 -0.09591649
000050 00 88 28 bc 70 14 0b 3d 3c 0e 1c bd 8a 39 68 bd
       -0.010286331 0.033955038 -0.038099512 -0.0566955
000060 a2 f3 f0 bd c2 8a ba 3d 32 5c f0 3d 86 a5 c7 bd
       -0.11765219 0.09108497 0.11736335 -0.09748368
000070 90 19 81 3d 38 ab 98 bc 7b d9 1f 3e 73 d5 25 be
       0.06303704 -0.018636331 0.15610306 -0.16194706
