competition/result/lstm_win3_noStandardized_2layer_16hidden_0.98g/trained_model/all_model/critic_num_epoch_0.pth (torch, 22328 bytes, 10 tensors)

weight_ih_l0 f4 [64, 11]
00000000: 5929 7b3d 9e77 9dbd a82e efbd 87d2 9c3d
00000010: 5b14 38bd dcdf 183e fb14 663e 7033 433e
00000020: fc9e 0abd 0199 44be 0495 dcbc 563f dc3c
00000030: dcaf 09be 2556 25bd a731 333c 210e 63be
00000040: 79f6 93bd 7933 0a3e 29a7 643e 765d 173e
00000050: e57b f4bd 25af 51be 13c5 3f3e 279b 4b3d
00000060: 3039 79be 7b61 3abe c7b4 0dbe 614c 4fbe
00000070: c9a1 f53d 4daf 233e 4571 8ebd 1e4a 723d
00000080: e97a 0ebe 8ed4 99ba 94ab b5bd 46c0 cebd
00000090: 6ad4 463e 4309 9c3c 42c0 193e 0ae5 b33d
000000a0: 0d67 afbc 2443 913d a321 19bd fda5 40bc
000000b0: 90db cebd 86e1 133e 1d3c f3bd fa78 4f3e
000000c0: 1c8a d23d 31e1 00be a7b5 98bd cf9a 71be
000000d0: 29bf 8c3d 85b2 39be ca4d 30be 4d20 2bbe
000000e0: 9f80 43be bc92 123e a285 2d3d cf53 60be
000000f0: c114 5e3e f981 18be c6a2 843d 219a 113e
00000100: 5607 2f3e 5b4c dd3d 6e94 17be 81a5 5fbe
00000110: 8c15 fdbd 1f37 12be 67f6 8ebc 0ed7 083e
00000120: 9e36 18bb f480 c73c dc3d ec3d 28ec c5bc
00000130: 2118 803d 9b13 00be f2e0 f6bd be57 87bc
00000140: ad8f 72be 9831 673e 7775 1cbe fc27 5c3e
00000150: eaed 8bbc ac68 9ebd 9556 f7bc a300 2abe
00000160: 8cc6 57be 2228 19be 9fbf 0ebe da42 8b3d
00000170: 3f44 1dbc 167b e23d f446 b13d 54ee 47bd
00000180: da33 7cbe edf6 8a3c 3b43 433e c3d6 06bd
00000190: e663 76be f4a2 763d b9f6 ab3c c47d 053e
000001a0: 4cb5 2fbe 17d2 96bd 6d14 dbbd 04cd 613e
000001b0: 39d8 783e ed8c 0dbe b0f7 2fbe 95ba 4ebd
000001c0: ee4f 5ebe 6f08 003e 46b3 73be 352b 673e
000001d0: 7e89 0abe cfd2 c3bd 18dc 8b3d 986f 87bd
000001e0: f81d a1bd a333 73bd d786 fa3d d6cb 373e
000001f0: 7cb9 e03d f14d 153e 45ed b73a fa86 393e
00000200: b9d5 00bd 8839 2d3c eb43 903c c2e9 413e
00000210: 1a12 643e 2b22 08be ee6d fabd f511 963d
00000220: 863d e1bd 4a3e 6dbd 1625 4abc 316d 813d
00000230: 4cb7 b1ba 521c eabd 114d 03be 4ec3 0a3e
00000240: 9539 713e d106 a3bd d515 473e 6301 643d
00000250: 0899 8fbc 1be5 443e 63b9 d33d ecf8 bdbd
00000260: 717c 77be abe7 f63d 405f ad3d 1117 e6bd
00000270: 6aa8 5b3e 6e56 243e 828c b6bd cbfb 1f3e
00000280: 7dcf 48bd ae04 6b3e 4094 3dbd be40 54be
00000290: 618e e33c ed19 b03d 0c6b 693e daf8 5abc
000002a0: ceec e5bd d20b c83d 6658 c3bd 5c15 80be
000002b0: ebd8 0abe af20 38bd fd39 5bbe d249 44be
000002c0: 4941 47be 47d1 f73d e92d 033e 7663 ff3d
000002d0: 0d2b dd3d d61e 4dbe 818e 153e 210f 3abe
000002e0: 8e0d 013e c645 19be 3664 683d 3a24 023d
000002f0: ad43 ffbd 4f1f 543d a364 a6bd 0da9 5ebd
00000300: 200e 85bd 8043 80be cb57 313e 28bd d53d
00000310: 2b1f ee3d 9595 753d 8385 bbbd bc28 2cbe
00000320: c647 4f3e 21b9 143e e434 313e 783c 093e
00000330: 674f 0bbe b097 2dbe 18aa 5ebd 105a 7d3a
00000340: 3a22 e83d e3a6 71be 0aad 223e 3f74 013c
00000350: 400d 35be 88a8 903d da9b 5d3c 7457 7a3e
00000360: 0bcd 11be 74d5 4abe f3bb 4a3d c042 233e
00000370: 41d5 303e 3877 6dbe 1ecc 70be 1176 edbd
00000380: 0438 23be 1ec3 a0bc 7d0d 73be c50a cc3d
00000390: 3960 77be d3ce 7c3e 4ca3 0cbe deef 3f3e
000003a0: 77bc fc3c 5edc 56be 8e09 72be b2e3 64be
000003b0: a46d cbbd 525a 923d 82c9 78be add3 6e3d
000003c0: a6c9 16be 8580 633e 0534 9f3d 4f5e 713d
000003d0: b84c 0bbe 6d12 5bbe 2a8f f2bd 6773 95bd
000003e0: 8165 d8bd 3478 69be 9cb3 4ebc 8614 8ebc
000003f0: a3c9 6c3b 9aaf 2fbe b94e 9b3d 8837 f0bd
0.06131873 -0.07688831 -0.11678821 0.076573424 -0.044941287 0.14929146 0.22468941 0.1906259
-0.033843026 -0.19198991 -0.026926525 0.02688567 -0.13445991 -0.040365357 0.010937131 -0.22173359
-0.07224745 0.13496198 0.22329392 0.14781746 -0.119376935 -0.20476969 0.18727522 0.04970851
-0.24338222 -0.18201248 -0.13838492 -0.2024398 0.11993749 0.1598484 -0.06955198 0.059152715
-0.13914074 -0.001173632 -0.088706166 -0.10095267 0.19416967 0.019047385 0.15014747 0.0878392
-0.021411443 0.07092884 -0.037385594 -0.011758325 -0.10100472 0.14441499 -0.118767 0.20260993
0.102802485 -0.12585904 -0.074565224 -0.23594211 0.068723984 -0.18134506 -0.17217174 -0.1671154
-0.19092034 0.14313787 0.04236377 -0.2190697 0.21687604 -0.1489333 0.06476359 0.14218952
0.17092642 0.10805579 -0.14802715 -0.21840478 -0.12357625 -0.1427884 -0.017451478 0.13363287
-0.0023225914 0.024353482 0.11535236 -0.02416046 0.06254602 -0.12507479 -0.12054624 -0.01652133
-0.2368762 0.22577512 -0.15279184 0.21499628 -0.01708122 -0.07734808 -0.030192653 -0.16601805
-0.21071833 -0.14956716 -0.13940285 0.0679986 -0.009598791 0.11058633 0.08656111 -0.04881127
-0.24629155 0.016963447 0.19068615 -0.032919656 -0.24061546 0.060213998 0.02099167 0.13036257
-0.17159003 -0.0736429 -0.10697255 0.22050864 0.24301232 -0.1382329 -0.17184329 -0.050470907
-0.21710178 0.12503217 -0.23798856 0.22575076 -0.13529012 -0.09561693 0.06829089 -0.06613082
-0.07867044 -0.059375416 0.1223275 0.17948851 0.10972878 0.14580514 0.0014032504 0.18117896
-0.03145382 0.010572799 0.01761051 0.18936828 0.2227253 -0.13294284 -0.12227999 0.07327644
-0.10998063 -0.05792073 -0.012337944 0.06319655 -0.0013558655 -0.11431183 -0.12822367 0.13551065
0.23557122 -0.079602845 0.19441922 0.055665385 -0.017529026 0.19228022 0.10338094 -0.09275994
-0.24168564 0.12055906 0.08465433 -0.11234868 0.21450964 0.16048595 -0.089135185 0.15623395
-0.049026 0.22951004 -0.04628396 -0.20727822 0.027777852 0.08598695 0.22794741 -0.013364995
-0.112268075 0.097678795 -0.09538345 -0.25016296 -0.1355931 -0.044953045 -0.2140884 -0.19168785
-0.19458498 0.12100463 0.12810482 0.124701425 0.10799227 -0.20031294 0.14605142 -0.18169834
0.12602827 -0.14968023 0.056736194 0.03177283 -0.1246408 0.05178767 -0.08124664 -0.05436044
-0.06496835 -0.25051498 0.17318647 0.10436469 0.116270386 0.059957106 -0.09156325 -0.16812414
0.20242223 0.14523746 0.17305332 0.13401973 -0.13604508 -0.16952395 -0.054361433 0.00096646044
0.11334653 -0.23598818 0.15886322 0.00790125 -0.17680836 0.07063395 0.013525927 0.24447423
-0.14238374 -0.19807988 0.04949565 0.15943432 0.1726885 -0.2319001 -0.23515365 -0.11594785
-0.15939337 -0.01962429 -0.23735614 0.099629916 -0.241578 0.24688272 -0.13734168 0.18743846
0.030851586 -0.20982501 -0.23636457 -0.22352484 -0.09933022 0.071461335 -0.24295619 0.05830734
-0.1472536 0.22216995 0.07773594 0.05892783 -0.13603485 -0.21393748 -0.11843713 -0.07297402
-0.10566235 -0.2279976 -0.012616064 -0.01734377 0.0036130927 -0.1715683 0.075833745 -0.11729342

weight_hh_l0 f4 [64, 16]
00000000: 6fcb 75be 7a60 21be 210a fe3d 8f57 2fbe
00000010: d945 d3bc 3dba 6dbe ca0c 903c c612 3f3e
00000020: 3cf7 4abe add2 3d3d 6bee 0b3e 31df 7cbe
00000030: be6c debd ac47 c73b 57de 06bd e28f 633e
00000040: 95e3 6f3e 1f37 1a3e dd89 9fbc a085 023e
00000050: 31a2 793e 0dd2 aa3d ea81 49be 6795 a4ba
00000060: a20c 583e ed25 5f3c cfae 56bd ef51 2dbe
00000070: 6a13 7b3e 9eb2 54be d064 053e 000c 6ebd
00000080: 5190 4bbe d216 e5bd e764 513e 1ada 453e
00000090: 5e5e 803e d33b ce3c dc77 6f3e 3b2b 60be
000000a0: a232 933b 8963 083e ecfe 373e 4f57 5dbe
000000b0: d0b1 10bd 3a2d da3b 013d 0f3d 8d37 5f3e
000000c0: b211 623d bcab c9bd 914b 65be 0fe9 0c3e
000000d0: 3d08 68be 7bad 923c 62e5 113e 5d90 5dbe
000000e0: 1681 72be a892 6e3e 4315 6bbe 5add ee3d
000000f0: 263b 6c3e 7e26 1c3b a948 5ebe 879e 70be
00000100: a811 74be f0dc 9ebd 2664 20bd 5e0b 08be
00000110: 668e a13d 36c5 9cbd f1f9 ae3c 891c aa3d
00000120: ad70 97bd f3e3 d83d 9778 50bd b311 453e
00000130: fb7a b1bd f9d2 64be 6fbd 193d a9c6 99bd
00000140: c4d0 333e ccf9 1d3e 7470 6dbe ef29 383e
00000150: 6cad 603e e323 71bc 4fac e83d bf5e 0bbe
00000160: efb3 653e 263b de3d 8b22 5cbe 66fa be3d
00000170: 6455 ab3d bebb c5bc 15ed 6bbe 2e2e 6cbe
00000180: ce0c db3d a8bb 2cbe bce2 a7bd 78ad 4cbd
00000190: 713a 2cbe 7f83 d9bd 8c07 31be b39b 30be
000001a0: 1a74 763e b93c ad3d b033 5bbe 9a5f 58bc
000001b0: 91c5 61be c685 563e 6918 a93c eaeb 8ebd
000001c0: 359c 323e 1118 c03c cd97 abbd 4506 d23d
000001d0: 7064 503b 48b2 d53d b08f 86bd fbf7 5cbe
000001e0: 36b3 d4bd 0501 50be d4dd 673e fd05 bcbd
000001f0: e9ab 71bd 7840 813d 96a9 39be be5e b73b
00000200: aec1 f6bd 7941 743d ebbe 3abe 790d bebd
00000210: 3eee 003d daa0 633e 0cbe 1ebe aaf3 9ebd
00000220: 393b 033e 7ee5 5dbd 8ec7 43be a5cf efbc
00000230: 7929 763d 28a5 e33a bc4e 0f3e 5f54 4e3e
00000240: 6d87 0ebe 55cb 35bc 3f63 3e3c 45a8 273d
00000250: 8472 673e 6e22 473e 2427 2cbe b59d 2d3e
00000260: 9cf6 213e 35bd ae3d 47dd 67bc 2c56 cc3d
00000270: cf9f 403e 18b4 263c 2003 043e 248b 42be
00000280: a04a b93d e10b 093e b671 1dbe a04e 7a3e
00000290: 3c37 413e 227b 1a3e fcac 8c3d 533b 523e
000002a0: 6d31 c63d d894 573d 68ec 1fbe ffba 633e
000002b0: 488d 393d a37c 6f3e ec46 b7bd 3e1d d73d
000002c0: b8a5 12be 8ae5 d5bc 5478 6cbe 479e 023d
000002d0: 3a62 67be 0df0 343e e7fe 76bd fd72 d6ba
000002e0: 5b72 933d cdbd d9bd 7ea2 13be bce7 423d
000002f0: 9c95 68be de40 22be a8c4 5fbe b864 8b3d
00000300: 948c d43d d50c 103e 64f5 12be 16e1 503d
00000310: e6a3 943d 8f39 11bd 64bc 96bd c52f acbc
00000320: f604 463e 79f2 6f3e 339f 673e 29f6 743e
00000330: dc50 243e 6426 24be b6ac 2a3d 26be 383d
00000340: 6e6b 083e cddc 223e 73a2 80be 1eb7 7a3d
00000350: abcd 613d 1a01 00be 60bd 07be 1271 253d
00000360: af5f 7abe 5b6c 14bd d329 323e 1f7c 30bd
00000370: dbc9 1cbe 3a87 efbd d9a9 67be 158a 46bd
00000380: be45 21be a7c9 d5bd afc9 fcbd 7376 02be
00000390: 0936 913c 6e58 7a3e c476 15bb 0e83 7a3b
000003a0: e107 1c3e b690 d8bb 25f5 ce3d 01af dfbc
000003b0: 2a4d e0bd 100a 563d 5936 d5bc c53e 19bd
000003c0: cf6a 41be 0da8 233e ea95 10be c230 f9bd
000003d0: 8608 2dbe a03b e6bc 33dd 973d a822 153e
000003e0: 20e3 39bd 3cfb b43d bc64 7cbe 83fc 983c
000003f0: cfa6 d53d ebfc 2dbd 3a3f 7abd 4910 a03d
-0.24003385 -0.15759459 0.12404276 -0.17123245 -0.025790142 -0.23215576 0.017584223 0.18659505
-0.19820875 0.046343494 0.13665168 -0.24694516 -0.10860585 0.006081542 -0.032926884 0.22222856
0.2342666 0.1506009 -0.019474918 0.12746286 0.24378277 0.08340845 -0.19678465 -0.0012556732
0.21098569 0.013619882 -0.052412804 -0.16925786 0.24519125 -0.20771262 0.13026738 -0.058116913
-0.19879271 -0.11185993 0.20448647 0.1932148 0.25071996 0.02517501 0.23385566 -0.21891491
0.00449212 0.1331922 0.17968339 -0.21615337 -0.035325825 0.0066582235 0.034970287 0.21798535
0.055192657 -0.09847209 -0.22392108 0.1376078 -0.22659393 0.017904988 0.14247659 -0.21637101
-0.23682055 0.23298132 -0.2295733 0.11663313 0.23069438 0.0023826654 -0.21707405 -0.23497973
-0.2383486 -0.07756984 -0.03915801 -0.13285586 0.078884885 -0.076548025 0.021359416 0.08306224
-0.07394538 0.10590353 -0.050896253 0.19245033 -0.08666035 -0.22346105 0.037534174 -0.075085945
0.17560107 0.15427321 -0.23187429 0.17984746 0.21941155 -0.014718029 0.1136099 -0.13610362
0.2243192 0.108511254 -0.21497552 0.093251035 0.08365896 -0.024137374 -0.23039658 -0.23064491
0.10695802 -0.1686846 -0.08197543 -0.04997012 -0.16819169 -0.10620784 -0.17288035 -0.17246895
0.24067727 0.084588476 -0.21406436 -0.013206387 -0.22048022 0.20949468 0.020641522 -0.06978591
0.17442401 0.023448976 -0.08378563 0.10255102 0.0031798147 0.10434395 -0.06570375 -0.21578972
-0.10385744 -0.20312889 0.22643214 -0.0918083 -0.059001837 0.063111246 -0.18131098 0.005596011
-0.1204866 0.059632752 -0.18236892 -0.092799135 0.031477205 0.22229329 -0.15502185 -0.07761319
0.1281556 -0.05417394 -0.19119093 -0.029273817 0.060098145 0.0017367946 0.13994879 0.20149373
-0.13918848 -0.011095841 0.011620342 0.04093196 0.22602278 0.19446728 -0.16811806 0.16954692
0.1581673 0.08532182 -0.014151878 0.099773735 0.18810962 0.010174774 0.12891817 -0.1899839
0.09047437 0.13383438 -0.15375409 0.24444056 0.18868726 0.15086034 0.06868932 0.20530443
0.09677396 0.052632183 -0.15617526 0.22239302 0.045300752 0.23387389 -0.08949074 0.105036244
-0.14321029 -0.02611043 -0.23092777 0.031889226 -0.22596064 0.17669697 -0.060301688 -0.0016361173
0.07199546 -0.10631905 -0.14417455 0.04758428 -0.22713321 -0.15845057 -0.21852362 0.0680632
0.10378376 0.14067395 -0.14351422 0.05099591 0.07257824 -0.035455283 -0.073601514 -0.021018872
0.1933783 0.2343234 0.22619323 0.23922028 0.1604647 -0.1603027 0.041668616 0.045103215
0.13322231 0.15904541 -0.2512394 0.06120979 0.05512778 -0.1250042 -0.13255835 0.040391035
-0.24450563 -0.03623615 0.17398767 -0.04308712 -0.15311377 -0.11695714 -0.22623385 -0.04847153
-0.15749261 -0.10438853 -0.123431556 -0.12740497 0.017725961 0.24447796 -0.0022806386 0.0038225087
0.1523738 -0.0066090478 0.10105351 -0.027305128 -0.10952218 0.05225569 -0.026026892 -0.037413377
-0.188884 0.15982075 -0.14119688 -0.12167503 -0.16897783 -0.028104603 0.07415237 0.14564002
-0.04538262 0.08836982 -0.24647802 0.018675094 0.10432207 -0.04247753 -0.061095454 0.07815606

bias_ih_l0 f4 [64]
00000000: 3040 f8bd dabc 33be 532e 2bbe e4c9 403d
00000010: 4c2f 023e 844c 4c3e 3264 b13d b297 dbbc
00000020: 33ea 52be b14b 813d a391 83be fdef d63d
00000030: 39be 793e 946b 08bc a02c f13d a4f0 1dbd
00000040: 45c6 8bbc 69f9 54be 2de8 ef3d 8922 843d
00000050: c444 063e ad53 b8bd bdc6 4e3e b2b9 ecbd
00000060: 8c06 563d 34d8 103e cca6 7b3c f261 99bd
00000070: d1dc 58be 2cf1 29be b633 45bd 5d19 b5bd
00000080: 8b71 4b3e 63aa 7abe 3f74 ce3c 372c 33be
00000090: 6fcd 4a3e 5e23 7f3e 627e 413e 0124 863e
000000a0: 469b 7f3e 58d4 133d 93a0 88bc 6d3f 053e
000000b0: 3741 2a3e 6a62 46be 7037 7b3d 5ccf 6fbd
000000c0: be05 873b 980e 5cbd 4fc7 313e 47cf 163e
000000d0: 7b4c a73d 55b2 4b3e 04d2 103e 9d2c 6d3e
000000e0: 27cd 65bc 2065 81be a505 3f3e 18b2 f93b
000000f0: efae d7bd 61c9 9dbd d1a1 5f3e 7c9a 49be
-0.12121618 -0.1755251 -0.1671689 0.047067538 0.12713355 0.19951063 0.08661689 -0.026805732
-0.20597152 0.06313265 -0.2569705 0.10494993 0.2438897 -0.00832643 0.1177609 -0.03855957
-0.017062316 -0.20798267 0.11714206 0.064518996 0.1311217 -0.09000335 0.20193 -0.11558856
0.052252337 0.14144975 0.015359592 -0.07489385 -0.21177985 -0.16595906 -0.04814502 -0.08842728
0.19867532 -0.2447906 0.025201915 -0.17497335 0.19804929 0.24915835 0.18895867 0.26199344
0.24961576 0.03609118 -0.01667813 0.13012476 0.1662644 -0.1937348 0.061332166 -0.058547363
0.0041205576 -0.053724855 0.17361186 0.14727508 0.08168884 0.19892247 0.14142615 0.2316155
-0.014025963 -0.25272465 0.18654497 0.0076201074 -0.10531413 -0.077044256 0.21839072 -0.19687837

bias_hh_l0 f4 [64]
00000000: 7cf6 f2bd a452 543e 6ff9 ef3c 4997 2abe
00000010: f63d b73d b57a 063d ac33 24be d29c c03d
00000020: 0b4e aebc 4c25 71be 7b75 d23d 0f53 dfbd
00000030: 2b39 3dbe d232 673d a0af d0bd 747f 3cbd
00000040: 3edb 0abe 65d8 30bb b8d1 e5bd e547 71bd
00000050: 5ae6 4a3e f6ea 3abe 7dc5 523e 8240 71be
00000060: 82c1 7c3e 1478 16bd 8d4c 40be 099d 483e
00000070: 8aac 9b3d 39d5 66bd 1623 24bd f648 6dbe
00000080: 32e7 e53d b9cd 333e a589 143d 154c 37be
00000090: 41cf 6abe 8afe 1f3e 7ea7 d9bd 6ee9 b83c
000000a0: 6829 2bbe 51d4 c43b 6680 2cbe c1a4 333d
000000b0: 86cb 7c3d 528c 0a3e a0e9 07be 16f9 bb3a
000000c0: 529f 2a3e cf7f d0bd 1b9c 96bd ffaf 723e
000000d0: 4e74 353e 3df6 92bc 3673 5bbe 5dd0 363e
000000e0: fe1a a1bd 13d0 1ebc e035 fa3d 5dbf a5bc
000000f0: 2611 21bd 1f1f 6dbe 2367 1ebe e56a 813e
-0.118634194 0.2073465 0.029293744 -0.16659273 0.08947365 0.032831866 -0.16035336 0.09404911
-0.021277448 -0.23549384 0.10276314 -0.10904514 -0.18478839 0.05644495 -0.10189748 -0.046019986
-0.13560197 -0.002698445 -0.11221641 -0.058906455 0.19814435 -0.18253693 0.20583148 -0.23559764
0.24683192 -0.03673561 -0.18779202 0.19591154 0.076012686 -0.05635569 -0.040072523 -0.23172364
0.11225738 0.17558946 0.03626408 -0.17900117 -0.22930624 0.15624443 -0.1062765 0.022572245
-0.16715014 0.0060067554 -0.16845855 0.043858293 0.061717533 0.1353009 -0.13272715 0.0014341201
0.16662338 -0.101806276 -0.073539935 0.2369995 0.17720148 -0.017939681 -0.21430668 0.17852922
-0.078664765 -0.009693163 0.12217307 -0.02023285 -0.039322995 -0.23156403 -0.15469031 0.25276867

weight_ih_l1 f4 [64, 16]
00000000: 4084 3bbd 6480 a03d db88 94bc 13ac 453d
00000010: 8a83 2fbe 0b29 343d 36ae 313d 4ff2 41be
00000020: a51c a23d 9de7 59be fac1 023e 4aca abbd
00000030: 6b92 053e d8a7 44bc 51ac 143e 9925 213e
00000040: 6031 4ebe 7e75 3fbe cae8 0cbd 3c3e 213e
00000050: 115a abbb 318d 3dbe 9326 d5bd cc8b 8bbd
00000060: 0f2c 22be 1583 0d3e be93 033e 7fb7 863e
00000070: 06f4 94bb e8fd 463e 8f0f 8fbd ea6f 653e
00000080: 241e 1ebd dddb debd 47bc 66be 30b0 6e3e
00000090: fe03 74be 19e9 d8bc 013d 83be 679f 103e
000000a0: 941b 763e 7fd8 bbbd e18b 47be 60ec 25be
000000b0: aaf5 de3d 30c5 563e a9d6 b93d 4143 843e
000000c0: 7660 03be 9bb3 003e 036e 5a3e 7af9 d33c
000000d0: 50ed e5bd ea37 a4bd 8fe7 2a3e e5c7 633e
000000e0: 3303 6abe d2d8 203e e53e e5bd 01fb 283d
000000f0: 783b 563d f140 003e 8e7d 54be 38b9 50bd
00000100: 422f 61be 3bbc 52be d20c 74be 4ad7 0fbe
00000110: ba1d 3a3d 0fbb 313e 3406 903c e64f 34be
00000120: ffa5 fe3d d742 acbd 2d43 72bd 9bf8 073d
00000130: 33e4 0cbe a056 103d 83b4 493e eb4c 593e
00000140: fe42 6b3e 8bf3 00be 4f24 2c3e dc9e fc3b
00000150: e3be 3a3d 2a6f 5a3e 4ff4 e0bd 58e0 993d
00000160: 7fae 673e 3b11 05be bad3 29be 12cd 403e
00000170: 16ff 26be 8de7 0e3e 67da a2bd f180 97bd
00000180: 6917 f93d c296 473d 9ef1 65be 9999 0e3e
00000190: c18c 3a3e 864b 9e3d f9e4 74be 3225 353e
000001a0: 7149 a43c f9f9 f23d 5eff 8a3d 95a0 debd
000001b0: 60d6 4fbe 233e 10be 8109 013e 9a0e 583d
000001c0: 112f 90bd d7a2 263e b802 4d3e 3b3e 1c3e
000001d0: ceb3 d93d 4cf9 09bd bfe8 cd3c 9143 5ebe
000001e0: 380b 183e 4d0e 743e 0544 50be 2dc0 61be
000001f0: d670 f8bc 4245 c73d 0fa0 b2bd 1e2f a6bd
00000200: 6102 3dbe d629 593e 9c3c 573e 79c7 38bd
00000210: 99ec f93d 6075 40be 6083 a7bd 2ef8 383d
00000220: bd08 043d d62d 37bd 8167 693e 4931 513e
00000230: edc9 6abe e6ce 0a3e 5e1a 26bd bc7a 11be
00000240: eab3 a33d 450b dc3c 54d1 76be fced 6c3e
00000250: 8dad fb3c e215 0d3e 663d 6cbd 3021 b63d
00000260: fcae 4ebe dd8f 193e 1b6a e3bd ae5d 49be
00000270: 77ec b7bd 35a4 f23d 2889 2fbe c5a2 0bbd
00000280: a4c9 c6bc 8565 2f3e 8a62 61bd fb18 d53d
00000290: c243 fe3d 9630 4a3e d2f1 483e 3dae 603e
000002a0: 578c 963c 7e67 48be 6e72 663e 3d9a e2bd
000002b0: 6403 5dbb 040c 573d 1a78 003e add0 0cbe
000002c0: 2912 a6bd 631a 833e 2792 33be 4b26 24be
000002d0: 19db 15be 5f87 1cbe 3931 5a3e cc69 073e
000002e0: 4d3b 1f3e 75e8 1fbe 0ef1 6d3e 6a02 dbbc
000002f0: ede0 03be c141 6dbe e49f 4ebe 5883 663e
00000300: dd66 ccbd 6e2b 32be e398 f23d 2aef bebd
00000310: 3a1f 5fbe 3efc 4ebe 38bc e1bd f518 4e3e
00000320: 4c28 84be 3f7e 663e afa1 453e 14bb 1e3e
00000330: ea85 5a3e e5d7 28be 575e 0ebd dbcb 10be
00000340: 5a45 273d 3eaa d7bd dbb5 97bd 0a30 f7ba
00000350: 934d cebd 993a 62be 05d5 213e 6d15 2cbe
00000360: de40 353e 23ef 603d 3468 ea3d 9eee 49be
00000370: 42a9 a23d f969 dbbd c25a 97bd 2c04 793e
00000380: 9b92 29be ded8 273e be36 26be ab53 0c3e
00000390: 3c10 e1bd 992c fe3b 52fb 5a3d 60ed e33d
000003a0: 04d6 6abd b707 44bd 9a15 d8bd cf0a cabd
000003b0: bb5d 0ebe 4d12 34be 95e0 36be 34f9 a33b
000003c0: 90b4 143e 60af e8bd 6f0d 803e 0365 85bd
000003d0: 46d1 73be f3e0 183e 171b 103d 23ea a03d
000003e0: 511c d8bc 519f 82be 2f3f 16be 6b90 523d
000003f0: 8228 73be d5ee a7bd b743 073e 8805 bcbc
-0.04578042 0.078369886 -0.018131664 0.048259806 -0.17140022 0.043984454 0.04337903 -0.1894009
0.0791562 -0.2127976 0.12769309 -0.08388193 0.13044135 -0.012002908 0.14518858 0.15736999
-0.20136023 -0.18697163 -0.034401692 0.15746397 -0.0052292426 -0.18510891 -0.10407748 -0.068137735
-0.1583712 0.13819535 0.12849328 0.2631187 -0.0045456914 0.19432795 -0.069853894 0.22405973
-0.038602963 -0.10881779 -0.2253276 0.23309398 -0.23829648 -0.026478337 -0.2563248 0.14123307
0.24033958 -0.09172153 -0.19486953 -0.16203451 0.108867005 0.20973659 0.09074146 0.2583256
-0.12829766 0.12568514 0.21331029 0.025875796 -0.112269044 -0.08018477 0.16689895 0.22244222
-0.22852783 0.1570771 -0.11193637 0.041255 0.052302808 0.12524773 -0.2075102 -0.05095789
-0.21990684 -0.20579617 -0.23833016 -0.1404697 0.045438506 0.17356513 0.017581083 -0.17608604
0.12434005 -0.08411186 -0.059146095 0.033196073 -0.13758926 0.035238862 0.19697766 0.21220748
0.22974774 -0.12592904 0.16810726 0.007709367 0.0455922 0.21331468 -0.10984098 0.07513493
0.22625159 -0.12994854 -0.16584674 0.18828228 -0.16308245 0.13955517 -0.07951813 -0.073976405
0.12162668 0.04872776 -0.22455451 0.1392578 0.18217756 0.07729249 -0.23915471 0.1768997
0.02005455 0.11864085 0.06786989 -0.10870472 -0.20296621 -0.14086203 0.12601282 0.0527483
-0.07040227 0.16273056 0.20020568 0.15258114 0.10629998 -0.033685014 0.025135396 -0.21705462
0.1484803 0.2383358 -0.20338447 -0.22045965 -0.030327242 0.09730007 -0.08721935 -0.08114456
-0.18457939 0.21207365 0.21019214 -0.045112107 0.122033305 -0.18794775 -0.08179355 0.045158558
0.032234896 -0.044721447 0.2279339 0.20428957 -0.22928591 0.13555488 -0.04055249 -0.14206976
0.079933 0.026860842 -0.2410329 0.23137659 0.030722404 0.13777879 -0.05767574 0.08893049
-0.20183939 0.14996286 -0.111042224 -0.19664642 -0.08980649 0.11847726 -0.17142165 -0.034090776
-0.024266072 0.1712857 -0.055025615 0.10405155 0.124152675 0.19745097 0.19623497 0.21941467
0.018377466 -0.19570729 0.22504589 -0.11064575 -0.0033723945 0.052501693 0.12545815 -0.13751478
-0.081089325 0.2560607 -0.17536221 -0.16030233 -0.1463436 -0.15286015 0.2130784 0.13223952
0.15549965 -0.15616019 0.23236486 -0.02673455 -0.12878771 -0.23169614 -0.20178181 0.22511041
-0.09980557 -0.1739938 0.11845567 -0.09322961 -0.21789256 -0.2021341 -0.11022228 0.20126708
-0.25811994 0.22509097 0.19299959 0.15501052 0.21340147 -0.16488607 -0.03475794 -0.14140265
0.040837623 -0.10530518 -0.07407733 -0.0018858921 -0.1007339 -0.22092666 0.15803917 -0.16805048
0.17700526 0.05491556 0.114456564 -0.19719931 0.079424396 -0.10713572 -0.073903576 0.24317998
-0.16559832 0.16391322 -0.1623182 0.13703792 -0.109894246 0.0077567813 0.053462334 0.1112926
-0.057333007 -0.04785892 -0.10550995 -0.09865343 -0.13902943 -0.17585106 -0.17859109 0.0050040726
0.14522004 -0.11361575 0.2501025 -0.06513407 -0.238103 0.14929561 0.035182085 0.07857158
-0.02638069 -0.25512174 -0.1467254 0.05140726 -0.23745921 -0.081998505 0.13209425 -0.022951856

weight_hh_l1 f4 [64, 16]
00000000: 65c4 1b3e 286c 933d bcf0 103e 23c1 ec3d
00000010: b168 15bd 8610 3d3e 5dfd 193e 7e71 5bbe
00000020: 1cd0 863c 833d babd 498a 4b3d bfa2 f7bd
00000030: ca3c 963d d4be 5c3d 6b0e 54be ea00 ba3d
00000040: 729e 49be e4f2 b43c 729e 063d 8d73 603e
00000050: 83cd 1abe 9fcd 213e 1f48 ffbd 2c29 6fbe
00000060: 99c5 a43d aeda 9abd 4ae3 54bd f163 86bb
00000070: b104 eb3b ad25 b0bd 8624 503e 2ad9 7d3e
00000080: ce5e 4d3d f830 31be 77f2 c8bd 82b5 903d
00000090: 546e dabd de18 bb3c f211 81be c6f5 3ebd
000000a0: a2f7 3abe d3f0 2fbd 37e6 2cbe 050a b1bd
000000b0: 9839 84be ec35 3ebe d5a4 3ebd 926a 22bd
000000c0: 1df1 4dbe 8c10 10be 47a8 723d f503 78be
000000d0: 0161 453e 263b 2e3e 9aaa 99bc 36a8 b13c
000000e0: caad 2ebd 6b95 4f3e 8104 5a3e 384e 7d3e
000000f0: b155 6bbe c200 1b3e 7bc3 53ba a8e5 323e
00000100: 8d86 6a3e cf40 423e 117f ac3c d908 cabd
00000110: f723 cb3a 9167 3b3c 6776 7a3e b51e 443e
00000120: 138e 7e3d 7955 e8bd 4c6d 85be 4369 3f3e
00000130: b0da a2bc 79e7 1ebe dfcd 663e 007b e93d
00000140: cd1d 33bd 7830 e43d 1f54 fcbd ca88 023e
00000150: 75ef 323d 4e10 20be 8bb5 023c 5274 5f3e
00000160: d8f7 3e3e 2402 5c3e 42a8 3b3d e9ea f33b
00000170: bc27 153e 9e9b aebd d360 5e3e 6b83 6a3e
00000180: 9b3e 99bd b1af d63d 2f6a 663e 1af4 513e
00000190: 2c46 b0bc 3896 243e cd20 5dbc 27fe 673e
000001a0: acc7 fc3d 8347 f0bd 4845 203d d09a 9b3d
000001b0: b19f 233e 9c34 02bd d99b 533e 0920 1e3e
000001c0: fe76 e53c 0aad 323e 492f cb3c 55c4 cf3c
000001d0: b6a5 b43d 27b2 e6bb a286 843d 839c 433e
000001e0: b16a 18bd 1dd8 66be a934 653c 75cf e53d
000001f0: 21d7 38be ef83 8cbc 08a6 adbd 1f6e fe3c
00000200: 5172 e93d c07b 01be 0cf0 423e f8e5 32be
00000210: 3f83 3dbd 9d07 6dbe 996c 3fbe f53c 473e
00000220: 8222 823e f924 1bbe f0f5 68be 287a 2cbe
00000230: 0cc1 4e3d df79 22be bfd2 2fbe 16b0 8cbd
00000240: 4b1f 35be d178 1b3c bac5 53be 1804 203e
00000250: 7106 2f3e 6697 fcbd 5cd7 02be 8e51 1a3e
00000260: b620 153e fc71 9239 7739 433e 2dad 523e
00000270: 1e1a 743e af49 093e 9e15 4d3e 80dd 66bd
00000280: e945 263e b9f4 a1bc eb77 4d3e 4a85 17be
00000290: 435f 1e3e 1cda 45be 1ab9 323e d00d 75bd
000002a0: f933 22be 5e49 6a3c 3dd2 d5bd 2144 9bbc
000002b0: 67e4 d83d 9096 8cbd bbfa 6cbe 66f9 2ebe
000002c0: a2ee 2f3e add3 cfbd 770c 633e 3b16 01be
000002d0: 3c88 22be 0961 093e e7f1 3b3c ad16 a43d
000002e0: 2177 5ebe f45b c43b ee88 c53d 34f2 a9bd
000002f0: 243a 7a3d fd40 fa3c 9a88 45be b9c2 b6bc
00000300: 3f4b 83bc 1fa6 463e 67cc 78bd dbe6 7cbc
00000310: 625e f13d 0369 163e 9d1e dbbd 5191 a43d
00000320: c53b 78be 3efd 4f3e 5cd1 c03c 9950 69be
00000330: 4660 4a3e c964 53be c0bc d93c cfea 003d
00000340: 9147 fc3d 0333 643e e009 503d 160a 53be
00000350: 913e 76be 164c 613e 8749 613e d8c6 e7bd
00000360: c4b1 28be 1df9 6a3e 34ca 23bc 5547 fe3d
00000370: e94b 0bbe 9cfc 38be 3c88 fd3b f79a 523e
00000380: abd2 223e 95f9 32bd 3696 71be f303 efb9
00000390: 4f4d c2bd 789f 083e 19cf 353e 104e d7bc
000003a0: c8b6 1e3e 7c69 61be e18f 67be 85c2 603e
000003b0: 5bcc bdbc 4f89 d63c 5ada 693e 238f 653e
000003c0: 75be d93d 2604 9ebd 9a54 4ebe 46f0 953d
000003d0: e030 663e 3081 07be 85b5 4cbd 31ab 36be
000003e0: 2571 363e 0b85 7bbd 4235 0bbe 12f4 f1bd
000003f0: 98e2 2bbc 63fa 9ebd bf97 303e 1cf6 273d
0.15211637 0.071983635 0.14154333 0.115602754 -0.036476795 0.18463334 0.15038057 -0.21430013
0.016456656 -0.09093764 0.049692426 -0.12091588 0.07335813 0.053892925 -0.20708625 0.090822056
-0.19689348 0.022088476 0.03286595 0.21919079 -0.15117459 0.15801094 -0.12464928 -0.2335555
0.08045501 -0.07561241 -0.051974572 -0.0041012694 0.00717219 -0.08600936 0.20326433 0.24789873
0.05013924 -0.17303836 -0.098118715 0.0706587 -0.10665575 0.022839006 -0.25209004 -0.046621107
-0.18258527 -0.042954277 -0.16884695 -0.08644489 -0.2582519 -0.18575257 -0.046543915 -0.039652415
-0.20111509 -0.14068812 0.059242513 -0.2422026 0.19275285 0.17014751 -0.018758107 0.021686655
-0.042646207 0.20271842 0.2129078 0.2473687 -0.22981907 0.15137008 -0.000807814 0.1747042
0.2290289 0.18970035 0.021056684 -0.09864969 0.0015498389 0.011438266 0.2445923 0.19152339
0.06214721 -0.113444276 -0.2605995 0.18692498 -0.019879669 -0.15517987 0.22539471 0.114004135
-0.043729592 0.11142057 -0.12320732 0.12747493 0.043685395 -0.1563122 0.0079778535 0.21821716
0.18649232 0.21485192 0.04581476 0.007443775 0.14565939 -0.085257754 0.21716623 0.22901694
-0.07482644 0.10482729 0.22501443 0.20503274 -0.021517836 0.16072929 -0.01349659 0.22655545
0.12342772 -0.1173239 0.03912857 0.075978875 0.15978886 -0.031788453 0.2066492 0.15441908
0.028010841 0.17448822 0.02480282 0.025362173 0.08820669 -0.0070402804 0.06470992 0.19102673
-0.037211124 -0.22543378 0.013989606 0.1122121 -0.18050815 -0.017152755 -0.084789336 0.03105837
0.11398757 -0.12644863 0.19036883 -0.17470539 -0.046267744 -0.23147435 -0.1869377 0.19456847
0.25416952 -0.15150823 -0.22750068 -0.16843474 0.050477073 -0.15866803 -0.17170237 -0.06869523
-0.17687719 0.009489254 -0.20680895 0.15626562 0.17092301 -0.123335645 -0.12777466 0.15070173
0.1456326 0.00027932215 0.1906489 0.20573874 0.23838088 0.13407014 0.20027778 -0.056363583
0.16237606 -0.019770013 0.20065276 -0.1479694 0.15466027 -0.19321483 0.17453423 -0.059827626
-0.15840138 0.014299719 -0.104404904 -0.018953385 0.10590439 -0.06864655 -0.23142521 -0.17087325
0.17180875 -0.10147796 0.22172724 -0.12606137 -0.15872282 0.13415922 0.011471248 0.080121376
-0.21725132 0.005992407 0.09645258 -0.0829815 0.061090603 0.030548567 -0.1929039 -0.022309648
-0.016027091 0.19399308 -0.06074181 -0.0154359 0.1178558 0.14688496 -0.106991984 0.080355294
-0.2424155 0.20311448 0.02353733 -0.22784652 0.19763288 -0.20643915 0.02657926 0.03147393
0.12318338 0.22285084 0.050790668 -0.20609316 -0.24047305 0.2200168 0.22000705 -0.11317223
-0.16474062 0.22946592 -0.009996939 0.12415949 -0.13603176 -0.18065113 0.0077371877 0.20566927
0.15900676 -0.04369505 -0.23592457 -0.00045588575 -0.09487402 0.13342083 0.17754783 -0.02628234
0.15499413 -0.22012895 -0.22613479 0.21949203 -0.023168733 0.02618852 0.22837201 0.22417884
0.1063203 -0.07715635 -0.2014946 0.07321219 0.22479582 -0.13232875 -0.049977798 -0.17838742
0.17816599 -0.061406177 -0.13594535 -0.11814131 -0.010491036 -0.07762601 0.17245387 0.041006193

bias_ih_l1 f4 [64]
00000000: 4a6c 52bd e745 d93c 3513 79ba 095f 88bd
00000010: 4987 f53d efe9 423e 2256 79bb 4d35 a8bc
00000020: ae1b 6e3e 12fa 633e 5856 edbd 6c25 76be
00000030: 0646 00bd 415e 513d 7770 f1bc 7793 2dbe
00000040: 75d6 4b3e 2585 153e 3fc4 28be 71cc 6bbe
00000050: a772 163d 5b9e a4bd 2ce7 103e 14d2 653d
00000060: 93b5 01be 088e 55bd 0f11 713e 32ac 02be
00000070: 3162 0cbd 3656 c23d 812e 70be 90bd bf3d
00000080: f519 3a3e 3de7 dbbd e848 b4bd f7c5 1b3e
00000090: 5c02 1f3e a492 45be 34be 583e 536f f23d
000000a0: a490 4d3e 0587 573e 3f72 d8bd ea25 673e
000000b0: ac15 0f3e be72 573e e0ec 58be b6e2 5abd
000000c0: ce0f 573e 8a35 2ebe c21c 4f3e 0485 573e
000000d0: b147 12be 9b0a 04be c758 46be c57f 6a3e
000000e0: 123e 3cbc 8326 ca3d 6573 6f3e b589 b33d
000000f0: 2abc 4fbe 60f5 46bd c0f6 013e 07ac 1abe
-0.051372804 0.02652259 -0.0009501458 -0.066587515 0.11988694 0.19034551 -0.0038045724 -0.020533228
0.23252746 0.22263363 -0.115887344 -0.24037713 -0.03131678 0.05111528 -0.029472573 -0.16950785
0.19906028 0.14601572 -0.16481112 -0.23027207 0.036730435 -0.080380164 0.14150685 0.05610855
-0.12666921 -0.052137405 0.23541664 -0.12761 -0.03427333 0.094891 -0.2345524 0.09362328
0.18173964 -0.107374646 -0.08802968 0.15212236 0.15528244 -0.1929422 0.21166307 0.1183764
0.20074707 0.210476 -0.10568666 0.22573057 0.13973111 0.21039864 -0.2118411 -0.053438865
0.21002123 -0.17012611 0.20225814 0.21046835 -0.1428516 -0.1289467 -0.19369803 0.22900303
-0.011489408 0.09870627 0.23383863 0.087665 -0.20286623 -0.04857385 0.12691784 -0.15104686

bias_hh_l1 f4 [64]
00000000: 1e29 343e cf95 69be 1f4e abbd 7f3c 4f3e
00000010: 977c d2bd aa15 48be a79b 15be a7e4 c13d
00000020: d265 01bb 4159 783d 9041 593e b3c7 29bd
00000030: 2278 313e 7fd3 5cbd eeca 333e ffbf 2d3e
00000040: 6d09 93bb 62da d4bb 1f30 2f3c c191 713e
00000050: 55fe e5bd 63dd bfbd 2a7d 4c3c 76ff 67bd
00000060: 9380 823e 5559 72be 0b3d 72be 64b4 31be
00000070: dbd6 c33d e3f0 783d e0ed 393e 9301 19be
00000080: 58cc ea3d 265f 333e 577d 3fbe fda5 1ebe
00000090: 7770 143e 1c62 c9bd 7c59 66be 8a26 26be
000000a0: 9658 693e 5b4b 333e bfe0 27bd 31f4 e43d
000000b0: 3c2b 703e 534e 483d b440 95bd a941 813e
000000c0: 37c8 d83c fae6 0c3e 3685 8d3d e6a8 6f3e
000000d0: f466 f8bc 54f3 cb3c 61db 75be 45b6 47be
000000e0: 4aea 38be 47d1 a63d 36bb 133d fc62 193e
000000f0: cb95 7bbd b9a3 023d bbac d03d 4d24 8dbd
0.1759381 -0.22811054 -0.0836451 0.20237921 -0.1027767 -0.19539514 -0.14610158 0.0946744
-0.0019744528 0.060631994 0.21216416 -0.041450214 0.17330983 -0.053912636 0.1755788 0.16967772
-0.0044872076 -0.00649576 0.010692625 0.23590757 -0.112301506 -0.09368398 0.012481013 -0.05664011
0.2548872 -0.2366689 -0.23656099 -0.1735397 0.09562465 0.060776602 0.18157148 -0.14942007
0.11464757 0.17516765 -0.18700157 -0.15493007 0.14496027 -0.09833166 -0.22495073 -0.16225639
0.22787699 0.17509215 -0.04098582 0.11179388 0.23453993 0.04890282 -0.07287732 0.25245407
0.026462657 0.13759986 0.069101736 0.23404273 -0.03032253 0.024896301 -0.24009468 -0.19503124
-0.18058124 0.08145385 0.03606721 0.14979166 -0.06142215 0.03189442 0.10189196 -0.068916894

weight f4 [1, 16]
00000000: 7051 4abe 447c 683e f35c 3a3d 9b74 713e
00000010: 8094 193e 5419 07be 2fcd 5bbd 152b 10be
00000020: 0ef9 a93d 4946 6bbe b2e4 523e ba3c fdbd
00000030: 3786 6ebd 75a2 71bd 21c6 80be 1776 533e
-0.19757628 0.22703654 0.0454988 0.23579638 0.14998055 -0.13193256 -0.053662475 -0.14078934
0.082994565 -0.2297603 0.20595053 -0.12365098 -0.058233466 -0.05899282 -0.2515116 0.20650516

weight f4 [1, 32]
00000000: 744e 9abd 97f2 08be e080 4abd bae7 d53d
00000010: e039 9bbd 8445 98bd 082a fa3c dc32 93bd
00000020: 8445 943d 240c fbbd 0fba 203e d89e 7b3d
00000030: d0b0 17be af75 2e3e 2825 543d 285a 93bd
00000040: 1ffb 173e f034 bfbd b041 c3bd fc57 14be
00000050: 30a9 7c3c 8bd2 2d3e bb78 043e f816 013d
00000060: fe29 f3bd a0e9 a8bc e582 e3bd 94eb 27be
00000070: a5b5 bcbd 5adf 71bd 13fe 28be 02df ebbd
-0.07534495 -0.1337379 -0.04943931 0.10444589 -0.07579398 -0.07435134 0.03053762 -0.07187435
0.072398216 -0.12258175 0.15695976 0.061430782 -0.14813542 0.1703708 0.051793247 -0.0719493
0.14841889 -0.09336269 -0.09534013 -0.14486688 0.015421197 0.16974847 0.1293668 0.031516045
-0.11873244 -0.020619214 -0.111089505 -0.1639846 -0.092143334 -0.059050895 -0.16503172 -0.11517145
