competition/result/test/trained_model/best_model/actor.pth (torch, 21438 bytes, 9 tensors)

weight_ih_l0 f4 [64, 11]
0	0xbde13ccc	-0.10997924
1	0x3e3eaea0	0.18621302
2	0xbda947e6	-0.08265667
3	0x3e5e7225	0.2172323
4	0x3e479b95	0.19492944
5	0xbc28238d	-0.010262382
6	0x3db9538a	0.09049137
7	0x3e29f5ef	0.16597722
8	0x3e0b13cf	0.13581775
9	0x3e1af8f7	0.15134035
10	0x3dbf4c6b	0.093407474
11	0xbdafb33d	-0.08579109
12	0x3d818e47	0.063259654
13	0x3db7b333	0.089697264
14	0xbe0b29f4	-0.13590223
15	0x3e5025b8	0.20326889
16	0x3d8529f9	0.06502146
17	0x3ccb65fc	0.024828903
18	0x3e382ea0	0.17986536
19	0x3e629d9c	0.22130436
20	0x3e4b5a2f	0.19858621
21	0x3e1e6bd3	0.15470819
22	0xbdad3d9b	-0.08459016
23	0xbe3df3eb	-0.18550079
24	0x3dd0af97	0.10189741
25	0x3d968937	0.073503904
26	0xbb84ed8d	-0.0040566386
27	0x3e222be0	0.1583705
28	0xbe3f6939	-0.18692483
29	0xbcd4f847	-0.025997294
30	0xbe37792b	-0.17917316
31	0xbdd392ab	-0.10330709
32	0xbe4b3ad8	-0.19846666
33	0x3e6a69f3	0.22891979
34	0xbe36d621	-0.17855121
35	0x3e17d218	0.14826238
36	0xbdc6c998	-0.0970642
37	0x3e0105d1	0.12599875
38	0x3dd522bc	0.10407016
39	0x3d5f178d	0.05446582
40	0xbd988d92	-0.074488774
41	0x3e1197c1	0.14218046
42	0xbd8707bc	-0.06593272
43	0x3e8010e4	0.25012887
44	0x3c8f6adf	0.017507015
45	0x3cd3c712	0.02585176
46	0x3dc19b83	0.0945349
47	0xbdb17560	-0.08664966
48	0xbe710fee	-0.23541233
49	0x3dd13bb2	0.10216464
50	0x3e40f62a	0.18843904
51	0x3d425183	0.047441017
52	0x3e156b9a	0.14591828
53	0xbe0222a4	-0.12708527
54	0x3df510ac	0.119660705
55	0x3e78144c	0.24226493
56	0xbc4693b6	-0.012120178
57	0x3e47b288	0.19501698
58	0x3e72780b	0.23678605
59	0xbb0a2e73	-0.0021084815
60	0x3c6460d2	0.013939099
61	0xbdc257c5	-0.09489397
62	0x3e5f6e2d	0.21819372
63	0xbe010a5b	-0.12601607
64	0x3d9ad124	0.07559422
65	0x3d194b1d	0.03742515
66	0x3e2dd0ab	0.16974132
67	0xbe1e38b0	-0.15451312
68	0x3e48d235	0.19611438
69	0xbe5960ce	-0.21228334
70	0xbdd4ec62	-0.10396649
71	0xbe5bc772	-0.21462801
72	0xbe66bc15	-0.22532685
73	0x3debe9ef	0.11519229
74	0xbd611798	-0.05495414
75	0xbe3476b0	-0.176234
76	0xbe013423	-0.12617545
77	0x3db6421b	0.08899327
78	0xbe17a75d	-0.14809938
79	0xbdcb4c48	-0.09926659
80	0x3e1316fc	0.14364237
81	0x3e40a795	0.18813927
82	0xbda93b55	-0.0826327
83	0x3d80a53f	0.06281518
84	0x3d96ba51	0.07359756
85	0x3c29dc98	0.010367535
86	0xbe66d739	-0.22543038
87	0x3e627ffe	0.22119138
88	0x3d898f65	0.067168035
89	0x3e606309	0.21912779
90	0x3e54d86d	0.20785685
91	0x3da2438e	0.07923041
92	0x3e278359	0.16358699
93	0xbe320dff	-0.17388152
94	0xbe641b19	-0.22275962
95	0xbe3b9e29	-0.18322052
96	0x3e139eee	0.14416096
97	0x3e7b0fd4	0.24517757
98	0xbe458bb9	-0.19291581
99	0x3d6624ab	0.056187313
100	0xbe520e29	-0.20513214
101	0x3e3fac86	0.18718156
102	0x3e0fd9d9	0.14047946
103	0xbe2066a4	-0.15664154
104	0x3d54b993	0.05193479
105	0x3e01e0db	0.12683432
106	0x3e35a2e5	0.1773792
107	0x3c066397	0.008202455
108	0xbdf85d1f	-0.121271364
109	0xbe060865	-0.1308914
110	0xbdf575c3	-0.11985352
111	0x3b91ab6f	0.0044454853
112	0xbde9b289	-0.11411006
113	0x3d625866	0.055260085
114	0x3e0e04a4	0.13868958
115	0xbd8639c1	-0.065539844
116	0x3c02e4ea	0.007989148
117	0xbc79f606	-0.01525641
118	0x3e039d19	0.12852897
119	0xbd21c58c	-0.039495036
120	0xbde8cbe4	-0.11367014
121	0x3de2c9c8	0.11073643
122	0x3e6abc6e	0.22923443
123	0xbdca2e83	-0.09872153
124	0x3d153d34	0.03643532
125	0x3e53c114	0.20679122
126	0x3bab7f8c	0.0052337106
127	0xbe076280	-0.13221169
128	0xbe462f1e	-0.19353911
129	0x3dc69369	0.09696085
130	0x3e2705cd	0.16310807
131	0x3db4e59c	0.08832857
132	0xbd965c13	-0.073417805
133	0x3dd3d81f	0.10343956
134	0x3e553b45	0.20823391
135	0x3e3cf0b0	0.1845119
136	0x3e002485	0.12513931
137	0x3cbccb29	0.023046093
138	0x3da7a782	0.081862465
139	0x3c98d04d	0.018654013
140	0xbe40a825	-0.18814142
141	0xbdae044a	-0.08496912
142	0xbe6a84ca	-0.22902218
143	0x3dfd9d71	0.12383545
144	0xbda90ca5	-0.08254365
145	0xbe261dbc	-0.1622228
146	0x3dbadc4f	0.09124052
147	0x3b5a2860	0.0033288226
148	0x3e251016	0.16119418
149	0xbce2f603	-0.027705198
150	0xbe031298	-0.12800062
151	0x3e44e8aa	0.1922938
152	0x3e328969	0.1743523
153	0x3e6303da	0.22169438
154	0xbe2a2689	-0.16616262
155	0x3df88a64	0.12135771
156	0x3ddd1164	0.107943326
157	0x3e7e7b6f	0.24851774
158	0x3e01454d	0.12624092
159	0xbe4ff8fc	-0.20309824
160	0xbb91da0e	-0.004451043
161	0xbe20f6bc	-0.15719122
162	0x3e13c73e	0.14431474
163	0xbe7f5dd5	-0.24938138
164	0x3d68dbfe	0.056850426
165	0xbd19e613	-0.03757293
166	0x3e380dbf	0.17973994
167	0x3cbed5f1	0.023295375
168	0x3e062613	0.13100462
169	0xbe2984ca	-0.16554561
170	0x3db49e70	0.08819282
171	0xbdff0bfb	-0.12453457
172	0x3d2e7922	0.04259599
173	0xbe154d9f	-0.14580391
174	0x3c9ae54a	0.018908162
175	0xbd8b63d0	-0.06806147
176	0x3e4a6871	0.19766404
177	0xbe1949c0	-0.1496954
178	0xbdd7197b	-0.10502907
179	0xbe255ddb	-0.16149084
180	0x3e468803	0.19387822
181	0xbcbd4fcd	-0.023109341
182	0x3c340431	0.010987327
183	0xbda9a082	-0.082825676
184	0x3d787050	0.060653985
185	0xbdf2f77b	-0.118636094
186	0xbe73a10e	-0.23791906
187	0xbe1265f1	-0.142967
188	0xbe752b80	-0.23942375
189	0xbd9af7f4	-0.075668246
190	0xbe04bb06	-0.12961969
191	0x3d7d258f	0.061803397
192	0xbd691d7d	-0.056912888
193	0x3d19c3fa	0.037540413
194	0x3d6eb5c0	0.0582788
195	0x3e78ea90	0.24308228
196	0x3c89a72c	0.016803347
197	0xbe0c3df9	-0.13695516
198	0x3e306e76	0.17229638
199	0xbe1e612c	-0.15466756
200	0xbd49bb1f	-0.04925072
201	0xbdea33b0	-0.1143564
202	0x3e7e6dea	0.24846616
203	0x3dc8348e	0.09775649
204	0xbe1f2cab	-0.15544383
205	0xbe798595	-0.24367364
206	0x3e7216e4	0.23641545
207	0xbdc7c519	-0.0975439
208	0x3e2c47a0	0.16824198
209	0xbe4dc2b3	-0.20093803
210	0x3e1e309c	0.1544823
211	0xbd1d90b4	-0.038468078
212	0x3e78e3de	0.24305674
213	0x3e273179	0.16327466
214	0x3e0e1466	0.13874969
215	0xbdcdf90c	-0.100572675
216	0xbd5351cf	-0.05159169
217	0x3e060e1b	0.13091318
218	0x3d0134b7	0.031544413
219	0xbe084f94	-0.13311607
220	0xbe4a8991	-0.1977904
221	0x3e761c85	0.24034317
222	0xbdf601b8	-0.120120466
223	0xbd987c35	-0.074455656
224	0x3dd919b4	0.106006056
225	0xbd0124da	-0.031529285
226	0x3db99cc0	0.09063101
227	0xbe637f8a	-0.22216621
228	0x3e7d7ab6	0.24753842
229	0xbe303fe7	-0.17211877
230	0x3e4c0e70	0.19927382
231	0xbe2c86d5	-0.1684831
232	0xbe23b109	-0.15985502
233	0x3e6ffe9c	0.2343697
234	0xbe59f7e4	-0.21285969
235	0x3ca4471e	0.020053443
236	0xbdb051ce	-0.08609353
237	0x3db7b56f	0.089701526
238	0xbdcdec5a	-0.10054846
239	0x3e64b5fd	0.22335048
240	0x3e4184c6	0.18898305
241	0xbc99d89a	-0.018780041
242	0xbe36634b	-0.17811315
243	0x3e2f28fb	0.17105477
244	0x3e4031ea	0.1876904
245	0x3d4cdd29	0.050015602
246	0xbe53dda0	-0.20690012
247	0x3e7466f0	0.23867393
248	0x3e3b1b6b	0.18272178
249	0x3d367c91	0.04455239
250	0x3d78f104	0.060776725
251	0xbe132110	-0.14368081
252	0xbe79d2e3	-0.24396853
253	0x3e0ac8d9	0.1355318
254	0x3e0ac84c	0.1355297
255	0xbe1cb573	-0.15303592

weight_hh_l0 f4 [64, 16]
0	0xbdf252d7	-0.11832207
1	0x3c8e0260	0.017335117
2	0x3dade1d6	0.084903404
3	0x3b919a2f	0.004443429
4	0xbe66cb05	-0.22538383
5	0x3da6d3df	0.0814588
6	0xbddfa9f0	-0.10921085
7	0xbc38bbcb	-0.011275242
8	0x3cb77ef0	0.022399396
9	0x3da59113	0.08084311
10	0xbde04e99	-0.10952491
11	0xbe60e03f	-0.21960543
12	0x3de9b1b9	0.11410851
13	0xbcbe13a1	-0.02320272
14	0xbdcc2805	-0.099685706
15	0xbe5036be	-0.20333382
16	0x3e54679b	0.20742647
17	0xbc7dc89f	-0.015489726
18	0x3d6729a8	0.05643621
19	0xbd118137	-0.03552362
20	0x3c48bd85	0.012252216
21	0x3e17666d	0.14785166
22	0xbde4ad25	-0.11165837
23	0x3d5d06eb	0.053961676
24	0xbe737bc7	-0.23777686
25	0x3cd935c8	0.026514903
26	0x3df1a5e3	0.117992185
27	0xbe07b5f9	-0.13253011
28	0xbc94b122	-0.01815087
29	0xbb92129b	-0.0044577844
30	0x3e1d2350	0.15345502
31	0x3cbfa279	0.023392903
32	0xbd09212f	-0.033478912
33	0xbdc2fc40	-0.09520769
34	0xbe0d9cf0	-0.13829398
35	0x3e46396e	0.19357845
36	0xbe7a6bea	-0.24455228
37	0x3e272522	0.16322759
38	0x3db42803	0.08796694
39	0x3d600d77	0.05470034
40	0x3d92eb98	0.07173842
41	0x3b2bf1c4	0.0026236633
42	0x3e0bb5e6	0.13643607
43	0xbdfaff9b	-0.12255784
44	0x3e2df409	0.16987623
45	0xbd2215f9	-0.039571736
46	0xbe806996	-0.25080556
47	0x3e1f825a	0.15577069
48	0x3e19b6ac	0.1501109
49	0x3db2ce8d	0.08730803
50	0x3d851753	0.06498589
51	0x3e112354	0.14173633
52	0x3c95dff9	0.018295275
53	0xbe0c7f3a	-0.13720408
54	0x3e62e199	0.22156371
55	0x3e796365	0.24354322
56	0xbddaaa9e	-0.10677074
57	0x3e42a0f3	0.1900671
58	0xbe2fb925	-0.17160471
59	0xbe736cb9	-0.23771943
60	0xbd209019	-0.039199922
61	0x3db86891	0.090043195
62	0x3dfec0b1	0.12439097
63	0xbda38838	-0.07984966
64	0xbbfe2929	-0.0077563715
65	0x3e6c1715	0.2305568
66	0x3db56291	0.08856691
67	0x3e597a47	0.21238051
68	0x3e5ca48b	0.21547143
69	0xbd8cc03a	-0.06872602
70	0x3e11ec2e	0.14250252
71	0xbe65b853	-0.22433595
72	0x3de14ae3	0.11000612
73	0x3e06e7d5	0.13174374
74	0xbe00cb28	-0.12577498
75	0x3d8d26be	0.06892155
76	0x3c2452ab	0.010029475
77	0xbd50c65a	-0.050970413
78	0xbe42fbb1	-0.19041325
79	0xbe1d499f	-0.15360115
80	0x3e45c48c	0.19313258
81	0xbd636455	-0.055515606
82	0x3e73e38f	0.23817275
83	0xbd2c407c	-0.042053685
84	0xbe2496a7	-0.16073094
85	0x3db71ac3	0.08940651
86	0x3e3d69e9	0.18497433
87	0x3d7c2a5e	0.061563842
88	0x3cdfdecf	0.027327923
89	0x3c96b08b	0.01839473
90	0x3e78627d	0.2425632
91	0x3e295f6c	0.16540307
92	0x3e770735	0.24123843
93	0xbd48b682	-0.049002178
94	0xbe585e06	-0.21129617
95	0xbe4929db	-0.19644873
96	0xbe1e743f	-0.15474032
97	0xbde6075b	-0.11231872
98	0xbe5e87df	-0.21731518
99	0xbe0569f3	-0.13028698
100	0x3d426963	0.047463786
101	0x3e4f9154	0.20270282
102	0x3d8367f9	0.064163156
103	0xbd502f25	-0.05082621
104	0xbe2a25bb	-0.16615956
105	0x3e353366	0.17695388
106	0xbdc88b94	-0.097922474
107	0xbddd0d29	-0.10793526
108	0x3e6221cd	0.22083206
109	0xbda0742d	-0.07834659
110	0xbdfa3edf	-0.12219023
111	0xbe4aa6d0	-0.19790196
112	0x3dba4747	0.09095626
113	0xbd95cbfe	-0.07314299
114	0xbd5ac185	-0.05340721
115	0xbe7327e6	-0.23745689
116	0xbe5f27f4	-0.21792585
117	0x3e2897d1	0.16464163
118	0xbe79f3eb	-0.24409454
119	0xbe3af95c	-0.18259186
120	0x3e333c62	0.17503503
121	0xbe6b3cd1	-0.22972418
122	0x3e279563	0.1636558
123	0xbd1d9ef5	-0.03848167
124	0xbdc46880	-0.09590244
125	0x3dd43779	0.10362143
126	0xbdb9410c	-0.0904561
127	0x3e689829	0.22714294
128	0x3d3cec0e	0.046123557
129	0x3e47ba76	0.19504723
130	0x3d1bfc3c	0.038082346
131	0xbd8d61d6	-0.06903426
132	0x3e6e3a3e	0.23264405
133	0x3e19b674	0.15011007
134	0x3e313111	0.17303874
135	0xbe1942b7	-0.14966856
136	0xbde05310	-0.10953343
137	0xbe45e01d	-0.19323774
138	0x3e3abf7d	0.1823711
139	0xbe77847b	-0.24171631
140	0x3e70c3f4	0.2351225
141	0x3dd0c7bd	0.10194347
142	0x3dec698b	0.11543568
143	0xbd80958f	-0.06278526
144	0x3ca2e687	0.019885315
145	0xbe52d215	-0.20587952
146	0x3e15fbea	0.14646879
147	0x3dded5bd	0.10880611
148	0xbdc90f0d	-0.09817324
149	0xbe07a650	-0.13247037
150	0xbba977ab	-0.0051717362
151	0x3e0315d5	0.12801297
152	0xbe54e606	-0.20790872
153	0x3e1839bb	0.14865772
154	0xbd585c6a	-0.052822508
155	0x3d0d9a92	0.034571238
156	0x3e008199	0.12549438
157	0x3d5e639b	0.05429421
158	0x3e5f94ba	0.21834078
159	0x3e0a88ca	0.13528743
160	0x3df5fef8	0.12011522
161	0x3d66504c	0.05622892
162	0xbcf5e2d6	-0.03001539
163	0x3e702672	0.23452166
164	0x3d92e951	0.07173408
165	0xbdad1b45	-0.08452467
166	0x3e620275	0.2207125
167	0x3e572b4b	0.21012609
168	0xbddf299c	-0.10896608
169	0xbe444eb6	-0.19170651
170	0xbc9a3516	-0.018824141
171	0xbd37b74a	-0.044852532
172	0x3d8c14c7	0.068399005
173	0x3e0c1367	0.13679276
174	0x3e046217	0.12928043
175	0xbe56f097	-0.20990215
176	0xbdb2ac64	-0.08724287
177	0x3e684d26	0.2268568
178	0x3e752965	0.23941572
179	0x3e58b410	0.21162438
180	0x3de8631d	0.11347029
181	0x3e4e8832	0.20169142
182	0x3dcbd328	0.09952384
183	0xbd1e5b5f	-0.038661357
184	0x3db58d89	0.08864886
185	0xbe4f51de	-0.20246074
186	0xbda16847	-0.078812174
187	0x3e38e42b	0.18055789
188	0xbd78bed9	-0.06072888
189	0xbe37cef7	-0.17950045
190	0x3e749829	0.2388617
191	0xbe1a69e2	-0.15079454
192	0x3d9fc45d	0.07801125
193	0xbb036760	-0.002005063
194	0xbb3d0b6a	-0.0028845915
195	0x3e433306	0.19062433
196	0xbc9053cd	-0.017618084
197	0xbdf0679c	-0.11738512
198	0xbc8a4852	-0.016880188
199	0x3e6cf205	0.23139198
200	0x3e6267ef	0.2210996
201	0x3d89dbe8	0.06731397
202	0xbe1a6f5a	-0.1508154
203	0x3e5503b1	0.2080219
204	0x3daea83f	0.08528184
205	0x3e5f2a67	0.21793519
206	0xbe405aa6	-0.1878458
207	0x3d9d625d	0.07684777
208	0xbcca21dd	-0.02467435
209	0xbe12153e	-0.14265916
210	0xbd015ea8	-0.03158441
211	0x3d95427c	0.072880715
212	0x3d69c201	0.057069782
213	0xbe255444	-0.16145426
214	0xbdeee9b2	-0.116656676
215	0xbe20ec8b	-0.15715234
216	0x3b931299	0.004488301
217	0xbe0531b0	-0.13007236
218	0x3e53e50b	0.20692842
219	0x3c3b13ba	0.011418277
220	0xbdab2fba	-0.083587125
221	0xbe7ccf25	-0.24688394
222	0xbe0654b0	-0.13118243
223	0x3d0727e2	0.03299702
224	0x3d1ebe1e	0.03875553
225	0xbe520e3f	-0.20513247
226	0x3d602e64	0.05473174
227	0x3dd6ec7e	0.10494326
228	0xbe105568	-0.1409508
229	0xbcb1a6de	-0.021686014
230	0xbe1fbc42	-0.15599158
231	0x3d4c9fde	0.04995715
232	0xbe660bd2	-0.22465447
233	0x3d9d524f	0.07681715
234	0x3d4610ab	0.04835574
235	0x3e02cc07	0.12773143
236	0x3dc10b52	0.09425987
237	0xbcfbb60e	-0.030726459
238	0xbe5d9e40	-0.21642399
239	0xbe474c9c	-0.19462818
240	0x3e6ef774	0.23336583
241	0x3e70f72e	0.23531792
242	0xbe057808	-0.1303407
243	0xbe186af5	-0.14884551
244	0xbe4becde	-0.19914576
245	0x3e70e366	0.23524246
246	0x3e165685	0.14681442
247	0x3cf1f04f	0.029533533
248	0xbdad1f69	-0.08453257
249	0xbe2620ac	-0.16223401
250	0x3e674a06	0.22586831
251	0x3db83320	0.08994126
252	0x3e5be15f	0.21472691
253	0xbd5f4fd6	-0.054519497
254	0x3e58166e	0.21102306
255	0xbe348815	-0.17630036

bias_ih_l0 f4 [64]
0	0xbddebac3	-0.10875466
1	0x3e509a66	0.20371398
2	0xbe0062a6	-0.12537631
3	0xbe60c6e0	-0.21950865
4	0x3e3dce91	0.1853583
5	0x3dabcccb	0.083886705
6	0xbe35cff1	-0.17755105
7	0x3bc2a800	0.0059404373
8	0x3e71bc27	0.2360693
9	0x3e489071	0.1958635
10	0xbdc38fea	-0.09548934
11	0x3e0eaad8	0.13932359
12	0x3dc98b0d	0.09840975
13	0x3e5c36aa	0.21505228
14	0xbca6f9e5	-0.02038283
15	0x3b861512	0.0040918672
16	0x3d708a4a	0.058725633
17	0xbd89adb0	-0.067225814
18	0xbe613f91	-0.21996905
19	0x3ca506ca	0.020144839
20	0xbe3d637b	-0.1849498
21	0xbd80a179	-0.062807985
22	0x3db77013	0.08956923
23	0x3df0acd1	0.11751712
24	0xbe1e7893	-0.15475683
25	0xbe75e3b8	-0.24012649
26	0xbe20a548	-0.1568805
27	0xbe51ba8a	-0.20481315
28	0x3d0bad03	0.034100544
29	0xbdfd975d	-0.12382386
30	0xbe751e0c	-0.23937243
31	0xbd651e43	-0.055937063
32	0x3e1266d1	0.14297034
33	0xbd1112d4	-0.035418347
34	0xbe723837	-0.23654257
35	0xbe737c83	-0.23777966
36	0xbd95ef76	-0.07321064
37	0xbd45d95f	-0.048303004
38	0x3e0feb25	0.14054544
39	0x3e7bc003	0.24584965
40	0x3e5a02bf	0.2129011
41	0x3e78fe00	0.24315643
42	0xbbcf86a4	-0.006333189
43	0x3d875b8c	0.06609258
44	0xbe5e9195	-0.21735223
45	0xbdb113d3	-0.08646359
46	0x3d98f1e4	0.07468012
47	0x3de43347	0.11142593
48	0xbe6791e8	-0.22614253
49	0xbe1b50d1	-0.15167548
50	0xbceaacbb	-0.028646817
51	0xbe1b1398	-0.15144193
52	0xbdbc4099	-0.091920085
53	0x3e3ef7d8	0.18649232
54	0x3d0668c8	0.03281477
55	0x3e35c21b	0.17749827
56	0xbe2b1f40	-0.1671114
57	0x3daffb15	0.08592812
58	0x3e1e7ce1	0.15477325
59	0xbe394fe9	-0.1809689
60	0x3e47e4fd	0.19520946
61	0xbe652031	-0.22375561
62	0xbe0dcef6	-0.1384848
63	0x39f54318	0.0004678003

bias_hh_l0 f4 [64]
0	0x3e6796d8	0.22616136
1	0xbcf218a6	-0.029552769
2	0xbe0dd481	-0.13850595
3	0xbe0c661a	-0.13710824
4	0xbd1a95dd	-0.037740577
5	0x3caca6e1	0.021075668
6	0xbe0faa1d	-0.14029737
7	0x3e5df6e5	0.21676214
8	0xbe225a37	-0.15854727
9	0x3e58eccd	0.21184082
10	0xbc2ec81f	-0.01066783
11	0xbcd5a8ff	-0.02608156
12	0xbd3d1db1	-0.046170894
13	0x3e58e4fc	0.211811
14	0xbde48249	-0.111576624
15	0xbd3932a9	-0.04521433
16	0xbe51cb8a	-0.204878
17	0x3de867dc	0.113479346
18	0xbd12011e	-0.035645597
19	0x3d6bc0f9	0.05755708
20	0x3e25fc6f	0.16209577
21	0xbe0970fb	-0.13422005
22	0x3de634cf	0.11240541
23	0xbe2656c4	-0.16244036
24	0x3dcdbb76	0.10045521
25	0xbe42bf3a	-0.1901826
26	0x3d47eb68	0.048808485
27	0x3ddf2221	0.108951814
28	0xbe1dddef	-0.15416692
29	0xbc857e44	-0.01629556
30	0x3d9eb8bc	0.07750079
31	0xbe73af21	-0.23797275
32	0x3dd915ba	0.10599847
33	0x3dd3b4a6	0.1033719
34	0x3dcadd47	0.099054866
35	0xbe22d567	-0.15901719
36	0xbe373d2d	-0.1789443
37	0x3e774461	0.24147178
38	0xbe02e63d	-0.12783141
39	0x3cf891e6	0.030343007
40	0xbe6d2675	-0.23159201
41	0xbe5cdf1a	-0.21569481
42	0xbe592830	-0.21206737
43	0xbe236cbf	-0.15959452
44	0xbd82fd19	-0.06395931
45	0xbb9f3ec8	-0.004859779
46	0xbcd95ecc	-0.02653446
47	0x3bc7c6ec	0.0060967114
48	0x3e0b310c	0.13592929
49	0x3c8717a8	0.016490772
50	0x3b9235fd	0.0044620023
51	0xbe5014b8	-0.20320404
52	0xbc828e04	-0.015936859
53	0x3e667eaa	0.22509256
54	0xbe308c89	-0.1724111
55	0xbda20e1b	-0.07912847
56	0x3e557620	0.20845842
57	0x3d7e43ea	0.062076487
58	0x3d9ad4a2	0.07560088
59	0xbe3580e7	-0.17724954
60	0xbdc22bbf	-0.09481
61	0x3ccae103	0.024765497
62	0xbe7f5565	-0.24934919
63	0x3e0c6cc6	0.13713369

weight_ih_l1 f4 [64, 16]
0	0x3dba0aaa	0.09084065
1	0xbc67a5c6	-0.014138645
2	0xbe11a021	-0.1422124
3	0x3e18dfb8	0.14929092
4	0xbd095da5	-0.033536572
5	0xbdfb8e93	-0.12283053
6	0x3df06142	0.117373005
7	0x3e17f8b6	0.1484097
8	0xbe6deeee	-0.23235676
9	0xbddfc80c	-0.10926828
10	0xbd2d4173	-0.042298745
11	0x3d6fd586	0.05855324
12	0x3dcd407d	0.10022066
13	0xbe34c1f8	-0.17652118
14	0x3e2b772c	0.16744679
15	0x3da6c677	0.08143323
16	0xbd5a602c	-0.053314373
17	0xbe2f1a64	-0.17099911
18	0xbe5afa6c	-0.21384591
19	0xbc1817cc	-0.009283017
20	0xbe450b61	-0.19242622
21	0x3dc98855	0.098404564
22	0xbe376b06	-0.1791192
23	0xbe6555cb	-0.22396009
24	0x3d5efee2	0.054442294
25	0x3d8375ad	0.06418929
26	0xbe76cd8a	-0.24101844
27	0x3e20968b	0.15682428
28	0xbd87d308	-0.06632048
29	0x3d90fa31	0.0707897
30	0xbe686955	-0.22696431
31	0xbd045db2	-0.032315917
32	0xbe05099f	-0.12991951
33	0x3e4224ce	0.18959352
34	0xbe540376	-0.20704445
35	0xbc2f8621	-0.010713131
36	0xbe288053	-0.16455202
37	0xbdfb3b57	-0.122671776
38	0xbe629d98	-0.2213043
39	0x3e09f9f3	0.13474254
40	0xbe2a69a9	-0.16641869
41	0xbe2f55ea	-0.17122617
42	0x3e4e090a	0.20120636
43	0xbe553471	-0.20820786
44	0x3e387cfd	0.18016429
45	0xbb9d8fe5	-0.0048084133
46	0xbd7d64a3	-0.061863553
47	0xbe0fe00e	-0.14050314
48	0xbd63c847	-0.05561092
49	0xbdbd077d	-0.09229944
50	0xbe56bf44	-0.209714
51	0x3e123448	0.14277756
52	0xbbed2f1c	-0.007238282
53	0x3c971422	0.018442217
54	0xbe5668e3	-0.20938449
55	0x3d8b1670	0.06791389
56	0x3e7a179f	0.24423073
57	0xbd525c01	-0.051357273
58	0xbd4bc06f	-0.049744066
59	0xbe6f2871	-0.23355271
60	0xbe3ab7a5	-0.18234117
61	0xbd0ca8a3	-0.034340512
62	0x3e6199ba	0.22031298
63	0xbe722c9a	-0.23649827
64	0xbdd946e0	-0.106092215
65	0xbd5c3d32	-0.053769298
66	0x3d6cb607	0.057790782
67	0xbe4b5547	-0.1985675
68	0x3d974084	0.07385352
69	0x3e7fd5ec	0.24983948
70	0x3cf30d95	0.029669562
71	0xbe209f42	-0.15685752
72	0x3e67a713	0.22622328
73	0xbde3485f	-0.11097788
74	0xbd6b2db1	-0.05741662
75	0x3e447db8	0.19188583
76	0xbe37ac56	-0.17936835
77	0xbe539bdc	-0.20664924
78	0xbe77927f	-0.24176978
79	0xbdd80c07	-0.10549169
80	0x3e3510ab	0.1768214
81	0x3e68a1d0	0.22717977
82	0xbe3cf641	-0.18453313
83	0xbe1fab67	-0.15592729
84	0x3e2ac8e7	0.166782
85	0x3e394dc8	0.18096077
86	0xbe53bc46	-0.2067729
87	0x3dbde52b	0.09272226
88	0xbe437863	-0.19088893
89	0xbd7b0eb7	-0.06129333
90	0xbe2bda23	-0.16782431
91	0x3d9f27c5	0.07771257
92	0x3e76ed86	0.24114046
93	0x3d48393b	0.048882704
94	0xbe2a9178	-0.16657054
95	0x3e371ede	0.17882869
96	0x3e255cfb	0.1614875
97	0xbdabe635	-0.08393518
98	0xbdf2bd14	-0.1185247
99	0xbe6c4b7b	-0.23075669
100	0x3e3f7e90	0.18700624
101	0xbddfe3cd	-0.109321214
102	0x3cf9eb98	0.030507848
103	0xbe662c4b	-0.22477834
104	0xbd7ce368	-0.06174031
105	0xbe60efb4	-0.2196644
106	0xbe2ae5de	-0.1668925
107	0x3e7c3d06	0.24632654
108	0x3da3c4bc	0.079965085
109	0xbe0d1cbc	-0.13780493
110	0x3c308307	0.010773427
111	0xbe338560	-0.17531347
112	0xbc927855	-0.017879644
113	0x3e547496	0.20747599
114	0xbc1fce63	-0.009753796
115	0xbe006b90	-0.12541032
116	0xbe68a1f0	-0.22718024
117	0xbe06bd67	-0.13158189
118	0x3df0d389	0.11759097
119	0x3e6485a8	0.22316611
120	0x3bb489b8	0.0055095814
121	0xbe7a4b8a	-0.24442878
122	0xbe39828b	-0.18116204
123	0x3e25a275	0.16175254
124	0x3e46834a	0.1938602
125	0xbd54362a	-0.051809467
126	0xbdcc404a	-0.099732
127	0x3de9f80f	0.114242665
128	0x3e044230	0.12915874
129	0x3dee849a	0.116463855
130	0xbcbf0166	-0.023316097
131	0x3d79c309	0.060977016
132	0x3e4853d1	0.19563223
133	0xbd64626b	-0.05575792
134	0x3e4bb3e5	0.19892843
135	0x3d5e388f	0.054253157
136	0xbdfdd253	-0.12393632
137	0x3e2f9f2c	0.17150563
138	0x3bef85df	0.00730966
139	0x3e629c10	0.22129846
140	0xbd389692	-0.04506547
141	0x3e7d775a	0.2475256
142	0x3d85d145	0.065340556
143	0xbe402891	-0.18765475
144	0x3e55031b	0.20801966
145	0xbe6d90f7	-0.23199831
146	0xbe2f6fbf	-0.17132472
147	0x3de568b3	0.112016104
148	0xbce61e29	-0.028090553
149	0xbe227468	-0.15864718
150	0xbdb73a27	-0.089466386
151	0x3e20dfc8	0.15710366
152	0x3e019aa3	0.12656645
153	0x3e28ef8d	0.16497631
154	0xbc923d12	-0.017851386
155	0xbe1bdbd8	-0.15220582
156	0xbe238d89	-0.1597196
157	0xbc7cb561	-0.0154241035
158	0xbe584102	-0.21118549
159	0xbe50fe83	-0.20409589
160	0xbcba2953	-0.022724783
161	0xbcb6be07	-0.022307409
162	0xbd81bb6c	-0.06334576
163	0xbdbb6290	-0.09149659
164	0x3e6c34d2	0.23067024
165	0xbe67e90e	-0.22647497
166	0xbdacccf6	-0.08437531
167	0x3d9773f4	0.07395163
168	0xbde88f34	-0.11355439
169	0x3de8d470	0.11368644
170	0xbe1ea11e	-0.15491149
171	0xbe5ff6f8	-0.21871555
172	0xbe52d91c	-0.20590633
173	0xbd9b3740	-0.075788975
174	0xbd5dff25	-0.054198403
175	0x3caeca1f	0.021336613
176	0xbe2bd44d	-0.16780205
177	0xbe6a84b5	-0.22902186
178	0x3e3c620b	0.18396775
179	0x3e4ae063	0.19812159
180	0x3dce21b9	0.10065026
181	0xbcded776	-0.02720235
182	0xbd51efaf	-0.05125397
183	0xbe436609	-0.19081892
184	0xbdacdeb6	-0.08440916
185	0xbe1f6526	-0.15565929
186	0x3e800013	0.25000057
187	0x3df7e9e3	0.12105157
188	0x3decc855	0.11561648
189	0x3da92b0f	0.08260166
190	0x3df6b501	0.120462425
191	0xbe288d6d	-0.164602
192	0x3de1b48a	0.11020763
193	0xbd92a9c3	-0.07161286
194	0xbdc8dbe5	-0.098075666
195	0xbc8c57f8	-0.01713179
196	0x3d84d0c3	0.06485131
197	0xbd44daac	-0.048060104
198	0xbdee229a	-0.116276935
199	0x3e26dd39	0.16295327
200	0xbe5e0462	-0.2168136
201	0xbd7d0191	-0.061769072
202	0xbe11b2bf	-0.14228342
203	0xbe07a422	-0.13246205
204	0xbe72af84	-0.23699766
205	0x3e57caff	0.2107353
206	0x3d67c82a	0.056587376
207	0xbe751211	-0.23932673
208	0xbd0ab988	-0.033868343
209	0x3e14b002	0.14520267
210	0xbd007eb4	-0.031370834
211	0xbe57b84b	-0.21066396
212	0x3d12848c	0.035770938
213	0x3e14cf18	0.14532125
214	0x3e00a46b	0.1256272
215	0xbd0dd0ee	-0.03462308
216	0x3e1b8a0d	0.15189381
217	0xbe1ba370	-0.15199065
218	0xbc22070c	-0.009889375
219	0xbe3058d4	-0.17221385
220	0xbdccdb32	-0.10002746
221	0x3e4b9edd	0.1988482
222	0x3d078904	0.033089653
223	0xbe68f4b3	-0.22749595
224	0xbe21e818	-0.15811193
225	0x3d4f0491	0.050541464
226	0x3deb6563	0.11493947
227	0xbe101d98	-0.14073789
228	0xbdb78b2d	-0.089620925
229	0xbdd26ba4	-0.10274437
230	0xbdedaefa	-0.1160564
231	0xbe5ea962	-0.21744302
232	0xbdb73113	-0.08944907
233	0xbe5cd510	-0.21565652
234	0x3c0d636c	0.008629661
235	0x3e70fcfb	0.23534004
236	0xbe4bb4e9	-0.1989323
237	0xbd3c1837	-0.04592153
238	0x3e1d9fbb	0.15392964
239	0xbdee6f83	-0.11642363
240	0xbc8f29b3	-0.017475938
241	0xbe5ac993	-0.21365957
242	0xbe578313	-0.21046095
243	0xbddcbf75	-0.10778705
244	0x3aa9587a	0.0012920045
245	0x3d945d6f	0.072443835
246	0xbd8aff9d	-0.067870356
247	0x3e5d808f	0.21631072
248	0x3e4f2ce2	0.20231965
249	0xbe656242	-0.22400764
250	0xbe38c57a	-0.18044081
251	0x3c9e5638	0.019328222
252	0xbdc98274	-0.09839335
253	0x3d9f2062	0.077698484
254	0x3e061967	0.13095628
255	0x3e413742	0.18868735

weight_hh_l1 f4 [64, 16]
0	0x3e46989c	0.19394153
1	0x3e7ff1e5	0.24994619
2	0xbe67e803	-0.22647099
3	0x3ce9f595	0.028559485
4	0xbe269c29	-0.16270508
5	0x3e6bf895	0.23044045
6	0x3e72870b	0.23684327
7	0xbd80e637	-0.0629391
8	0x3dcf3b64	0.1011875
9	0x3d931a06	0.07182698
10	0x3dab3d12	0.083612576
11	0xbde26f2a	-0.11056359
12	0x3e1b821b	0.1518635
13	0xbe6a1075	-0.2285784
14	0xbd406a4a	-0.046976365
15	0xbde5f2af	-0.11227929
16	0x3e435db8	0.1907872
17	0xbd31450f	-0.04327875
18	0x3e38112b	0.17975299
19	0xbb91c2bd	-0.0044482634
20	0x3e119096	0.14215311
21	0x3e56b3bd	0.20967002
22	0x3e78c928	0.24295485
23	0x3d0df82c	0.034660503
24	0x3df09720	0.11747575
25	0x3dfdeb66	0.12398414
26	0xbe710ae9	-0.23539318
27	0x3e4f13fe	0.2022247
28	0x3e53b36e	0.20673916
29	0x3e6456a5	0.22298677
30	0xbdcd246c	-0.100167125
31	0x3dd5b63d	0.1043515
32	0x3d95161a	0.07279606
33	0xbdd295b8	-0.10282463
34	0xbe1b9ade	-0.15195796
35	0xbb79819d	-0.003807164
36	0x3d40474a	0.046942987
37	0xbe3f4123	-0.18677191
38	0xbcc5499a	-0.024082948
39	0x3e4d63d0	0.20057607
40	0xbca2eaf7	-0.01988743
41	0xbe180925	-0.14847238
42	0xbe0bc84e	-0.13650629
43	0x3e5eb729	0.21749558
44	0xbcee31c5	-0.029076466
45	0xbe6eb759	-0.23312129
46	0x3e350580	0.1767788
47	0x3de9235e	0.11383699
48	0xbd4744bb	-0.04864953
49	0xbe39c5a7	-0.18141805
50	0x3e528b5b	0.20560972
51	0xbd114919	-0.035470102
52	0xbe2ca104	-0.16858298
53	0xbe117d50	-0.14207959
54	0x3e21d083	0.15802197
55	0x3dc54ad2	0.096334115
56	0x3d190767	0.037360575
57	0x3e686311	0.22694041
58	0x3d9d3b39	0.076773115
59	0xbdc09fa3	-0.09405448
60	0xbe6ee325	-0.23328836
61	0x3e3a7fa8	0.1821276
62	0x3e40314d	0.18768807
63	0x3d347e81	0.044065956
64	0x3d8e6f4b	0.06954821
65	0xbdb4602b	-0.08807405
66	0xbe07934b	-0.13239782
67	0xbc01bb9d	-0.007918266
68	0xbdc4073b	-0.095716916
69	0xbdd7cc1c	-0.10536978
70	0xbdb367da	-0.087600425
71	0x3c4bf1e8	0.012447812
72	0xbe48e4d5	-0.19618542
73	0x3da6fc4f	0.08153593
74	0xbdb1b8de	-0.08677839
75	0xbce70c8c	-0.028204225
76	0xbcc96049	-0.024582045
77	0x3cdd9663	0.027049249
78	0x3e3a0c84	0.18168837
79	0xbe3138fa	-0.17306891
80	0x3e613bf1	0.21995522
81	0x3e0e280f	0.13882469
82	0x3dbbc3a2	0.091681734
83	0xbd85a401	-0.06525422
84	0xbe0d6ec5	-0.13811786
85	0xbe1d6e38	-0.15374076
86	0x3d112f23	0.035445344
87	0x3e5df658	0.21676004
88	0x3e02c004	0.1276856
89	0xbd84728d	-0.06467161
90	0x3ce14b15	0.027501622
91	0xbe22494a	-0.1584827
92	0x3d90e5a6	0.07075052
93	0x3e233326	0.1593748
94	0x3e6f1abd	0.23350044
95	0xbe7b2443	-0.24525551
96	0xbe3829bf	-0.17984675
97	0xbd73e6b1	-0.059546176
98	0xbe584c87	-0.21122943
99	0xbd57c53e	-0.05267834
100	0x3e6678b9	0.2250699
101	0x3e2aaab6	0.16666684
102	0xbdf276e6	-0.11839084
103	0x3e7870e7	0.24261819
104	0x3cf4c2a4	0.029877968
105	0x3c028f24	0.007968698
106	0x3e75361c	0.23946422
107	0xbe11e703	-0.1424828
108	0xbc1fe71b	-0.00975969
109	0x3dd289d1	0.10280193
110	0x3cecb4ba	0.02889477
111	0xbe109a16	-0.14121279
112	0xbd0ffc3c	-0.03515266
113	0xbc8536d7	-0.016261501
114	0xbe1ce100	-0.15320206
115	0xbe6bd125	-0.23029001
116	0xbe79adac	-0.24382657
117	0x3e2d5698	0.16927564
118	0x3e55a65d	0.20864244
119	0x3da242d4	0.07922903
120	0x3df2b60e	0.118511304
121	0x3e3ab577	0.18233286
122	0x3e1ba3a5	0.15199144
123	0xbe325e99	-0.17418899
124	0xbdaa4d89	-0.0831557
125	0x3e414268	0.18872988
126	0x3e534c05	0.20634468
127	0xbd486899	-0.048927877
128	0x3ddbb5b8	0.107280195
129	0x3e2d9b41	0.16953756
130	0xbe14f40e	-0.14546224
131	0xbe0c8345	-0.1372195
132	0xbd5e2979	-0.05423877
133	0x3cbd7ac2	0.023129825
134	0xbe4cc229	-0.19995941
135	0x3d232f5e	0.039840095
136	0xbcd9c23d	-0.026581878
137	0xbc3e10c6	-0.011600679
138	0xbe581e20	-0.21105242
139	0x3e25d615	0.16194947
140	0x3e180e0a	0.14849105
141	0xbdd57267	-0.10422211
142	0x3e10f35b	0.14155333
143	0x3e268206	0.16260538
144	0x3dd61af3	0.10454359
145	0x3c91ea79	0.017812
146	0xbbaf2e72	-0.005346113
147	0x3e144b28	0.14481795
148	0x3e6dbd2e	0.23216698
149	0xbd7a5de5	-0.0611247
150	0x3e2a052d	0.16603537
151	0xbbf92560	-0.0076033324
152	0xbe1a79fe	-0.15085599
153	0x3de47577	0.11155217
154	0xbd447a92	-0.047968455
155	0xbe3c4c78	-0.18388546
156	0xbdde8bb7	-0.10866492
157	0xbe60ffec	-0.21972626
158	0x3e3a1354	0.18171436
159	0x3e4311c4	0.19049746
160	0x3df235ef	0.11826693
161	0xbe0b662a	-0.13613191
162	0x3c24f21c	0.010067489
163	0xbd04cfb4	-0.032424644
164	0xbe66fec7	-0.22558127
165	0xbdc869ee	-0.097858295
166	0xbd934bde	-0.07192205
167	0xbde68390	-0.11255562
168	0xbd06cb15	-0.032908518
169	0xbe22aa99	-0.1588539
170	0xbe4f8a0f	-0.20267509
171	0x3dbbeb78	0.091757715
172	0x3a08e775	0.0005222478
173	0xbd8575ba	-0.06516595
174	0x3e31d737	0.17367254
175	0xbe1fb94e	-0.15598032
176	0x3e2b314a	0.16718021
177	0x3e71481f	0.23562668
178	0xbe202756	-0.15640005
179	0x3e632f63	0.22186045
180	0xbe032cff	-0.12810133
181	0xbe0fdd45	-0.14049251
182	0x3e1ac516	0.15114245
183	0xbdadd03a	-0.08486982
184	0x3e22bd43	0.1589251
185	0x3da25726	0.079267785
186	0xbdbdaff1	-0.09262074
187	0xbe30323a	-0.1720666
188	0xbe050841	-0.1299143
189	0xbd36f752	-0.044669457
190	0xbc3fd3a1	-0.011708171
191	0x3e1eb931	0.15500332
192	0x3e022b32	0.1271179
193	0x3e3442e1	0.17603637
194	0xbe24d4f4	-0.1609686
195	0x3d706366	0.058688544
196	0x3e6b36a1	0.22970058
197	0x3e703d38	0.23460853
198	0x3d6a48f0	0.057198465
199	0xbd921d94	-0.07134548
200	0x3e2a7387	0.16645633
201	0xbe6d12ad	-0.23151655
202	0xbcec905e	-0.028877433
203	0xbc57cf16	-0.013171932
204	0xbe04adb7	-0.12956892
205	0xbd553595	-0.052053053
206	0x3e675c97	0.22593914
207	0xbe08c146	-0.13354978
208	0x3df64c08	0.120262206
209	0xbe494c8b	-0.19658105
210	0x3e17e9fb	0.1483535
211	0x3dd31e85	0.103085555
212	0xbc7157f8	-0.014730446
213	0x3dcee961	0.10103107
214	0x3dc79f18	0.097471416
215	0x3db9c6bb	0.09071108
216	0x3dd0bb27	0.101919465
217	0xbd143e6f	-0.036192354
218	0x3e158643	0.14601998
219	0x3dedb191	0.11606134
220	0x3e642c76	0.22282586
221	0xbe293300	-0.16523361
222	0xbdbccd96	-0.092189
223	0x3daf5876	0.085617945
224	0x391e3000	0.00015085936
225	0xbe733a74	-0.23752767
226	0xbdc72ff9	-0.09725947
227	0xbd9bc20b	-0.0760537
228	0x3de2027e	0.110356316
229	0x3cacccb5	0.021093706
230	0x3d9f0ffe	0.07766722
231	0x3e4b4884	0.19851881
232	0x3aa16591	0.0012313594
233	0xbd850f61	-0.06497074
234	0x3e12bca6	0.14329776
235	0x3e0a6eda	0.13518849
236	0xbde46dc6	-0.1115375
237	0x3e731641	0.23738958
238	0xbe4f54eb	-0.20247237
239	0xbd26f805	-0.040763874
240	0x3e6c24a5	0.23060854
241	0x3e3e7a4c	0.1860134
242	0x3daeafff	0.08529662
243	0x3e435bd6	0.19078001
244	0xbe3848a6	-0.17996463
245	0x3d2a68cd	0.041603852
246	0xbe6433b4	-0.22285348
247	0xbe24125b	-0.16022627
248	0xbd1aeffb	-0.03782652
249	0xbd878124	-0.066164285
250	0xbe780b22	-0.24222997
251	0x3e402c50	0.18766904
252	0xbe5b88cc	-0.21438903
253	0x3d68c3b0	0.056827247
254	0x3e48733c	0.19575208
255	0x3d0987e6	0.03357687

bias_ih_l1 f4 [64]
0	0xbe32de5e	-0.17467639
1	0xbe0fe2e0	-0.1405139
2	0x3d587559	0.052846286
3	0x3d9c314c	0.0762659
4	0x3e136841	0.14395238
5	0xbd82672d	-0.063673355
6	0xbe172873	-0.14761524
7	0xbd17d01b	-0.0370637
8	0xbe75b6e4	-0.23995548
9	0x3e242cb2	0.16032675
10	0x3e014d55	0.12627156
11	0xbe07e6b5	-0.13271601
12	0x3cd53a3f	0.02602875
13	0xbb6ea72a	-0.0036415556
14	0xbe60bd1a	-0.21947137
15	0x3d205cf5	0.03915115
16	0x3c05eb09	0.0081737125
17	0x3e5d2253	0.21595125
18	0x3bc9c567	0.0061575654
19	0x3e2006df	0.15627621
20	0xbe69a958	-0.22818506
21	0x39e9355c	0.0004448098
22	0xbd2554e8	-0.040364176
23	0x3c153528	0.009106912
24	0xbd225797	-0.039634313
25	0x3d85e8a6	0.06538515
26	0xbe619da8	-0.22032797
27	0x3da49d31	0.080377944
28	0x3e737b15	0.23777421
29	0x3d0167a8	0.031592995
30	0xbd4d0edb	-0.050062995
31	0xbde927f5	-0.11384574
32	0x3e559228	0.20856535
33	0x3e3dfe17	0.18553959
34	0x3bbf5bdf	0.0058398093
35	0xbd7229c8	-0.059121877
36	0x3e2be2b3	0.16785698
37	0xbe6314fd	-0.22175975
38	0xbe0b5619	-0.13607062
39	0x3e79bb23	0.24387793
40	0xbcf3473c	-0.029697053
41	0x3e7a8ca6	0.24467716
42	0xbe3b3dc5	-0.18285282
43	0x3e427347	0.18989287
44	0xbc8ba94d	-0.017048502
45	0xbe806330	-0.25075674
46	0x3e1aecda	0.15129414
47	0x3e292985	0.16519745
48	0xbe327645	-0.17427929
49	0x3da5beea	0.080930546
50	0xbe7d9938	-0.2476548
51	0xbe070295	-0.13184579
52	0x3e356137	0.17712866
53	0xbe665bca	-0.22495952
54	0xbe806c79	-0.25082758
55	0x3de37d80	0.111079216
56	0xbb3ac971	-0.0028501416
57	0x3e2094f2	0.15681818
58	0xbd6f9eb1	-0.05850095
59	0xbe211295	-0.15729745
60	0xbe53bf14	-0.2067836
61	0x3e1c4c73	0.15263538
62	0x3e5d6b44	0.2162295
63	0xbda6b4ee	-0.08139978

bias_hh_l1 f4 [64]
0	0xbe22fd7c	-0.15917009
1	0xbe55459c	-0.20827335
2	0x3dcce070	0.100037456
3	0xbe6dcd51	-0.23222853
4	0x3e3f6225	0.18689783
5	0xbe80eb0f	-0.25179335
6	0x3dfece71	0.12441719
7	0xbdfb5f64	-0.12274054
8	0x3e212e5a	0.15740338
9	0x3e042196	0.12903437
10	0xbe0991ab	-0.13434474
11	0x3dc1faf7	0.09471696
12	0x3db50834	0.08839455
13	0xbe2c5b84	-0.16831785
14	0x3dd77636	0.10520594
15	0x3d2554a4	0.040363923
16	0xbe634c21	-0.2219701
17	0xbe0ede7f	-0.13952063
18	0x3c00ed8a	0.007869134
19	0x3d200724	0.03906931
20	0x3e4927ea	0.19644132
21	0x3e1aa12b	0.15100543
22	0x3dd559d7	0.10417526
23	0x3daca324	0.08429554
24	0x3e30ada1	0.17253734
25	0xbb04d47b	-0.002026825
26	0x3dc238b9	0.09483475
27	0xbe4879ff	-0.19577788
28	0x3e3591f9	0.17731465
29	0x3e0eff89	0.13964666
30	0xbe4f3c80	-0.20237923
31	0x3e615dba	0.2200841
32	0xbd9a30d1	-0.07528842
33	0x3da55539	0.080728956
34	0xbb8938a3	-0.00418766
35	0xbe0ca1f8	-0.13733661
36	0xbd8ed461	-0.06974102
37	0xbdde60bc	-0.10858294
38	0xbe5abe6f	-0.21361707
39	0x3e050b4f	0.12992595
40	0x3e14badb	0.14524405
41	0xbe73800e	-0.23779318
42	0x3dd167fe	0.10224913
43	0xbe59c819	-0.21267737
44	0x3e2949e3	0.16532092
45	0x3db570ae	0.088593826
46	0xbddda678	-0.10822767
47	0x3d951da5	0.07281045
48	0x3e6963dc	0.22792
49	0x3db38986	0.08766465
50	0x3e35a74c	0.177396
51	0x3d0ce184	0.034394756
52	0xbcdd59f0	-0.027020425
53	0xbe153482	-0.14570811
54	0xbc76be18	-0.01505997
55	0xbe6abcc1	-0.22923566
56	0xbde4903a	-0.111603215
57	0x3e02238d	0.12708874
58	0x3e3d141b	0.18464701
59	0x3c53ceda	0.012927735
60	0xbd1cbe1f	-0.03826725
61	0xbd0dd334	-0.034625247
62	0x3d487b21	0.04894555
63	0xbe212332	-0.15736082

weight f4 [1, 16]
0	0x3cc90918	0.024540469
1	0xbdd4934d	-0.10379658
2	0xbe3ecec7	-0.18633567
3	0xbe7b7260	-0.2455535
4	0x3e3f4497	0.18678509
5	0x3d8d1310	0.068884015
6	0x3e1b1a91	0.15146853
7	0xbd9d97e3	-0.07694986
8	0xbe037978	-0.12839305
9	0x3d15efb2	0.036605544
10	0xbdde8f62	-0.10867192
11	0x3c87cb8b	0.016576549
12	0x3e0f022d	0.13965674
13	0x3c7e3903	0.015516522
14	0x3dc28e41	0.09499789
15	0x3d4b5e2b	0.049650352
