competition/result/lstm_win3_noStandardized_2layer_16hidden_0.99g_recent1000/trained_model/all_model/critic_num_epoch_3.pth (torch, 22328 bytes, 10 tensors)

weight_ih_l0 f4 [64, 11]
0	0x3d99c7b8	0.075087965
1	0xbdfe3454	-0.124123245
2	0xbdf02b40	-0.11726999
3	0xbe73e288	-0.23816884
4	0x3e7d604a	0.24743763
5	0xbc407020	-0.011745483
6	0xbda307b4	-0.07960454
7	0xbb92b540	-0.004477173
8	0x3e62ba84	0.22141463
9	0xbe639eda	-0.22228566
10	0x3d3e05d8	0.04639229
11	0xbd90ed74	-0.070765406
12	0xbe5eeba4	-0.21769577
13	0x3e581880	0.21103096
14	0x3e02311e	0.12714049
15	0xbe5feee0	-0.21868467
16	0x3db71e10	0.08941281
17	0xbe51d2a4	-0.2049051
18	0x3e703e40	0.23461246
19	0x3dc27184	0.09494308
20	0xbe4e3466	-0.20137176
21	0x3e3aecca	0.1825439
22	0xbdaab498	-0.08335227
23	0xbe14f9e2	-0.14548448
24	0x3dfcfe60	0.12353206
25	0xbe2f444a	-0.17115894
26	0x3e3e0db8	0.18559921
27	0x3d94c3bc	0.07263896
28	0xbe445f58	-0.19176996
29	0xbc5a5b40	-0.01332742
30	0x3cacef50	0.021110207
31	0x3dbd3680	0.09238911
32	0x39899c00	0.00026246905
33	0xbc7bab20	-0.015360624
34	0x3cf33d30	0.029692262
35	0x3e449e5e	0.19201037
36	0xbdd33430	-0.10312688
37	0x3d391d70	0.04519409
38	0x3ddcd90c	0.10783586
39	0xbe7a2e0a	-0.24431625
40	0x3d84f1d4	0.064914376
41	0x3e085258	0.13312662
42	0xbc7d4760	-0.015458912
43	0xbe607b38	-0.21922004
44	0x3d5a7550	0.053334534
45	0xbe748394	-0.23878318
46	0xbe22a188	-0.15881932
47	0xbda67188	-0.08127123
48	0x3cba59a0	0.022747815
49	0xbdd54e24	-0.10415295
50	0x3d56c340	0.0524323
51	0xbc521ee0	-0.012824744
52	0xbc82e500	-0.015978336
53	0x3e0b36c6	0.13595113
54	0x3e29fb96	0.16599879
55	0x3e48b9e4	0.19602162
56	0x3e2c1ef8	0.16808689
57	0x3cbf25c0	0.02333343
58	0xbdc7b66c	-0.09751591
59	0xbca8c470	-0.020601481
60	0xbe57bd00	-0.21068192
61	0x3e4ce32a	0.20008531
62	0xbd807aa4	-0.06273392
63	0xbc3170c0	-0.010830104
64	0x3d0facf8	0.035077065
65	0xbe146272	-0.14490679
66	0x3d3a9518	0.045552343
67	0x3d840ef4	0.064481646
68	0xbce05080	-0.027382135
69	0xbdc0fafc	-0.094228715
70	0x3d6268b0	0.05527562
71	0x3e7e35da	0.2482523
72	0xbe106678	-0.14101589
73	0xbe7f7e1c	-0.2495045
74	0x3e0c97b0	0.13729739
75	0xbdf15ebc	-0.11785647
76	0x3e38d9d6	0.18051848
77	0x3e7375da	0.23775426
78	0x3e6d3bfa	0.2316741
79	0x3e12109a	0.14264145
80	0xbe482314	-0.19544631
81	0x3d142bf0	0.036174715
82	0xbcc75e20	-0.024336874
83	0xbd1b7cf0	-0.037960947
84	0x3d659980	0.056054592
85	0x3df95674	0.12174693
86	0xbe27c5f8	-0.16384113
87	0x3dc12718	0.09431285
88	0x3e5a70ac	0.21332043
89	0x3da3c7ec	0.079971164
90	0xbde52704	-0.11189082
91	0x3e00a17c	0.12561601
92	0xbe0cacca	-0.13737789
93	0x3e7c73f8	0.24653614
94	0xbdbe66f4	-0.092969805
95	0xbe5c3e42	-0.21508124
96	0xbe1ad9b6	-0.15122113
97	0xbe5373f0	-0.20649695
98	0x3e19722c	0.1498496
99	0xbd3e9e98	-0.046537966
100	0xbda1fae4	-0.07909182
101	0x3e610136	0.21973118
102	0xbe3af71e	-0.1825833
103	0x3e128a88	0.14310658
104	0x3e012122	0.12610295
105	0x3bfccc00	0.0077147484
106	0xbe26cbf6	-0.16288742
107	0xbe252cd0	-0.16130376
108	0x3d821710	0.06352055
109	0xbdd6c108	-0.104860365
110	0x3e486952	0.19571427
111	0x3e79e570	0.2440393
112	0x3e4f62f0	0.20252585
113	0xbd2bb0f8	-0.041916817
114	0x3d215e20	0.039396405
115	0x3b06f280	0.0020591319
116	0xbc03bc20	-0.008040458
117	0x3e21c248	0.15796769
118	0xbe1f7a38	-0.15573967
119	0xbda70a84	-0.081563026
120	0x3dea379c	0.11436388
121	0xbe235a86	-0.159525
122	0xbdbb0580	-0.091319084
123	0xbc965c00	-0.018354416
124	0xbe48a720	-0.19595003
125	0x3bc1c8c0	0.005913824
126	0xbe13e766	-0.1444374
127	0xbc5963c0	-0.013268411
128	0x3e5e9daa	0.21739832
129	0x3d3cd568	0.046101958
130	0xbe35cd3c	-0.17754072
131	0x3deefd40	0.11669397
132	0x3e1d10ea	0.15338483
133	0x3d9eaf2c	0.07748255
134	0xbe32161c	-0.17391247
135	0xbd842214	-0.064518124
136	0x3ca34100	0.019928455
137	0xbe289d40	-0.16466236
138	0xbd7b1268	-0.06129685
139	0x3e5201b8	0.20508468
140	0x3e56673c	0.20937818
141	0xbd8b5514	-0.06803337
142	0x3d396880	0.045265675
143	0x3a45e200	0.000754863
144	0x3e740a06	0.23831949
145	0xbe64e2f8	-0.22352207
146	0xbe6eb64c	-0.23311728
147	0xbcf720e0	-0.030167043
148	0x3d4be8c8	0.049782544
149	0x3dca75f8	0.09885782
150	0xbe12d6a6	-0.14339694
151	0x3df42584	0.11921218
152	0x3d1311d8	0.03590569
153	0x3e7e6f2c	0.24847096
154	0xbe37d14a	-0.17950931
155	0xbe501f26	-0.20324382
156	0x3e157188	0.1459409
157	0x3e30701e	0.1723027
158	0x3e6de134	0.2323044
159	0xbe15d6fc	-0.14632791
160	0x3d8e3cb0	0.06945169
161	0x3e00de72	0.12584856
162	0xbdb71f34	-0.089414984
163	0xbe679952	-0.22617081
164	0x3d19a758	0.037513107
165	0x3e7ae57c	0.24501604
166	0xbd89b7fc	-0.06724545
167	0x3db02eac	0.08602652
168	0x3e36df04	0.17858511
169	0x3cdde8b0	0.027088493
170	0x3e56ac46	0.20964155
171	0xbe3f0a14	-0.18656188
172	0xbdaad2bc	-0.08340976
173	0x3a883a00	0.0010393262
174	0xbe76e172	-0.24109438
175	0x3e0b5b48	0.1360904
176	0xbe1a38a0	-0.15060663
177	0x3e18c920	0.14920473
178	0x3e533a2a	0.20627657
179	0xbd9a24b8	-0.07526535
180	0xba9cc200	-0.0011959672
181	0x3e0b15ce	0.13582537
182	0xbdcac884	-0.099015266
183	0xbd9b3478	-0.07578367
184	0x3e5c64dc	0.2152285
185	0x3e358f3c	0.17730421
186	0xbbbd45c0	-0.005776137
187	0x3dc317b4	0.095260054
188	0xbe316afc	-0.17325968
189	0x3da86bb0	0.08223665
190	0xbe226a6a	-0.15860906
191	0x3dab1e08	0.083553374
192	0x3da3e698	0.08002967
193	0xbe4708ca	-0.19436947
194	0xbd09f228	-0.033678204
195	0xbda3ed5c	-0.08004257
196	0x3e5d36c0	0.21602917
197	0x3dbb6860	0.09150767
198	0xbdd33f08	-0.10314757
199	0xbe10252a	-0.14076677
200	0x3e1d1368	0.15339434
201	0x3c91b900	0.01778841
202	0x3e401864	0.18759304
203	0xbb575a00	-0.003286004
204	0x3e1a7b80	0.15086174
205	0x3e338978	0.17532909
206	0x3e4bae74	0.19890767
207	0xbd2f0980	-0.04273367
208	0xbda66c28	-0.08126098
209	0x3dea98a4	0.11454895
210	0x3d12c740	0.03583455
211	0x3dbe03d4	0.09278074
212	0xbe3236a8	-0.17403662
213	0xbe4a86f6	-0.19778046
214	0x3dc8e278	0.098088205
215	0xbc5c3f60	-0.013442844
216	0xbe7117d6	-0.23544249
217	0x3c9bea00	0.019032478
218	0xbc95b7b0	-0.018276066
219	0x3ddb7fcc	0.10717735
220	0xbe40aa22	-0.188149
221	0x3e7926fc	0.24331278
222	0x3e5f9284	0.21833235
223	0x3e65a4d2	0.22426155
224	0xbc85ede0	-0.01634878
225	0xbe752d80	-0.23943138
226	0x3e497a82	0.1967564
227	0xbd87fde4	-0.06640223
228	0x3d9ef1c0	0.07760954
229	0x3e33834a	0.17530552
230	0xbe096080	-0.13415718
231	0x3dc05e0c	0.09392938
232	0xbbd61e80	-0.0065343976
233	0xbdcc0d00	-0.09963417
234	0x3b1f5480	0.002431184
235	0x3dd86808	0.105667174
236	0xbc939790	-0.018016607
237	0x3c52cf80	0.012866855
238	0x3db49c90	0.088189244
239	0xb9c7a400	-0.00038078427
240	0xbc31d500	-0.010854006
241	0xbe1cf41c	-0.15327495
242	0x3e6bd240	0.23029423
243	0xbde26094	-0.11053577
244	0x3e0bebce	0.13664171
245	0x3e18354a	0.14864078
246	0x3e47638a	0.19471565
247	0xbdacbf3c	-0.084349126
248	0x3e2752a4	0.16340119
249	0x3e266122	0.1624799
250	0x3e6ee1ee	0.23328373
251	0x3b1a6180	0.002355665
252	0xbdf19e0c	-0.11797723
253	0xbe4e5d78	-0.20152843
254	0xbe2fba32	-0.17160872
255	0xbe647efe	-0.22314069

weight_hh_l0 f4 [64, 16]
0	0x3e18cda4	0.14922196
1	0xbd47b8a8	-0.048760086
2	0xbd97dfc4	-0.07415727
3	0xbd4728a0	-0.048622727
4	0x3da21884	0.07914832
5	0xbe52116e	-0.20514461
6	0x3d99fff8	0.07519525
7	0xbe682006	-0.22668466
8	0xbe3b1cf4	-0.18272763
9	0xbd643bf0	-0.055721223
10	0xbcf3a110	-0.029739887
11	0x3e3a7884	0.18210036
12	0xbd83e11c	-0.064394206
13	0x3e485b88	0.19566166
14	0xbe77947c	-0.24177736
15	0x3cf91d60	0.030409515
16	0x3e236b60	0.15958929
17	0xbdc7ab44	-0.09749463
18	0x3cf54fa0	0.029945195
19	0xbe4aed78	-0.1981715
20	0x3d7c9440	0.06166482
21	0x3e6ac3f2	0.2292631
22	0x3c235de0	0.009971112
23	0x3da62f14	0.08114448
24	0xbe384248	-0.17994034
25	0xbb8bdfc0	-0.0042686164
26	0x3c19a780	0.009378314
27	0xbcc49960	-0.023998916
28	0xbe191668	-0.14949954
29	0x3d18bff0	0.03729242
30	0xbe558a6c	-0.20853585
31	0x3babd600	0.0052440166
32	0xbe7bb288	-0.24579823
33	0x3e284234	0.16431504
34	0xba7ccc00	-0.00096434355
35	0x3e1c8a82	0.15287212
36	0x3db8a094	0.09015003
37	0x3e295f64	0.16540295
38	0x3e6b6dcc	0.22991103
39	0xbdfdf744	-0.12400678
40	0xbe52d27e	-0.20588109
41	0x3e50dbd4	0.20396358
42	0xbe0924f8	-0.13393009
43	0xbe320f00	-0.17388535
44	0x3e38b79c	0.18038791
45	0xbe10e3fa	-0.14149466
46	0x3e0e4892	0.13894871
47	0x3d49c5e0	0.049260974
48	0xbb9e06c0	-0.004822582
49	0xbe3c064a	-0.18361774
50	0x3e4f257c	0.20229143
51	0x3e61fe0c	0.22069567
52	0x3e493f9a	0.19653168
53	0xbcc385a0	-0.023867428
54	0x3e308f76	0.17242226
55	0x3e28598e	0.16440412
56	0xbe0b1340	-0.13581562
57	0x3d84b158	0.06479138
58	0xbe4a5ffa	-0.19763175
59	0x3d8ff8b0	0.07029855
60	0x3c3d91c0	0.011570394
61	0x3e2806c2	0.16408828
62	0x3e3f501c	0.18682903
63	0xbe039718	-0.12850606
64	0xbdcb0488	-0.09912974
65	0x3dcef3b0	0.101050735
66	0x3e76821c	0.2407307
67	0xbe2ea866	-0.17056426
68	0x3d074388	0.033023387
69	0x3d5a6c40	0.05332589
70	0x3d9a55b0	0.07535875
71	0x3d1959e0	0.037439227
72	0xbe4917ac	-0.19637936
73	0xbe58b6bc	-0.21163458
74	0xbc1ffd80	-0.009765029
75	0xbe3bb5a2	-0.18331006
76	0x3d8f8f30	0.07009733
77	0xbdf48678	-0.119397104
78	0x3dbb3798	0.09141463
79	0xbdecfccc	-0.11571655
80	0x3e657052	0.22406128
81	0xbd1abae8	-0.037775904
82	0x3dfdd260	0.123936415
83	0xbe6a1b22	-0.22861913
84	0x3e135c18	0.143906
85	0x3e25257a	0.16127577
86	0x3db1f108	0.08688551
87	0x3daedd00	0.08538246
88	0x3e469a3e	0.19394776
89	0x3e6e0f5a	0.23248044
90	0x3e4b395c	0.198461
91	0x3d9e515c	0.07730362
92	0xbbd57600	-0.006514311
93	0xbe3dad54	-0.1852315
94	0x3e223b12	0.15842846
95	0x3d4fe390	0.05075413
96	0xbd23be50	-0.039976418
97	0xbe34424c	-0.17603415
98	0x3cbc9590	0.023020536
99	0x3e1fe8ec	0.15616196
100	0xbc3b9fc0	-0.011451662
101	0xbd605c20	-0.054775357
102	0xbe1d9c0a	-0.15391555
103	0x3c13b540	0.009015381
104	0xbdd6fa6c	-0.10496983
105	0x3e12237e	0.14271352
106	0xbe0f9d0e	-0.14024755
107	0xbe79d8a0	-0.24399042
108	0x3e452012	0.19250515
109	0x3d939dbc	0.0720782
110	0xbd925fdc	-0.0714719
111	0xbdeff60c	-0.117168516
112	0xbd308e98	-0.043104738
113	0x3bf30100	0.0074158907
114	0x3dd4d1e8	0.10391599
115	0xbe565866	-0.20932159
116	0x3c90acb0	0.017660469
117	0xbe628416	-0.221207
118	0x3e31ca54	0.17362338
119	0x3e73f66e	0.23824474
120	0x3ded81d0	0.115970254
121	0xbd3d4e30	-0.046217144
122	0xbe7442a6	-0.2385355
123	0xbd56d878	-0.052452534
124	0xbe094ed8	-0.13408983
125	0x3e07350e	0.13203833
126	0xbe123e02	-0.14281467
127	0x3e254f44	0.16143519
128	0x3d81ae50	0.063320756
129	0x3e510648	0.20412552
130	0x3e56f380	0.20991325
131	0xbcc639c0	-0.02419746
132	0xbe6689dc	-0.22513527
133	0xbe673dc8	-0.22582161
134	0xbe0d97a6	-0.1382738
135	0x3e7a417e	0.24439046
136	0x3e1d41aa	0.1535708
137	0x3e50e29e	0.20398948
138	0x3d413ed0	0.047179043
139	0x3e2d4d7a	0.16924086
140	0x3e606094	0.21911842
141	0xbe0e4106	-0.13891992
142	0xbe3737c6	-0.1789237
143	0xbe6a9846	-0.2290965
144	0xbd1afc58	-0.03783831
145	0x3d4596a0	0.04823935
146	0xbe165f26	-0.14684734
147	0x3e1950cc	0.14972228
148	0x3db2f634	0.08738366
149	0x3dd53ba4	0.10411766
150	0x3e4327da	0.19058171
151	0xbd96840c	-0.07349405
152	0xbdeabb30	-0.114614844
153	0x3da899a0	0.08232427
154	0x3e6ea7f2	0.23306254
155	0x3e061356	0.13093314
156	0xbe7aa8f2	-0.2447851
157	0xbe29f17c	-0.16596025
158	0x3df11ed0	0.11773455
159	0x3e6344b0	0.22194171
160	0xbe5bb6a0	-0.21456385
161	0xbce2c400	-0.02768135
162	0xbe688cc8	-0.22709954
163	0x3e757354	0.23969775
164	0x3e4dd19a	0.20099488
165	0x3e177482	0.14790538
166	0xbd321750	-0.043479264
167	0x3e3cd694	0.1844123
168	0xbe21661c	-0.15761608
169	0x3db78df8	0.08962625
170	0xbd6a2a80	-0.057169437
171	0x3df74a08	0.12074667
172	0xbe0778fe	-0.13229749
173	0x3e7a42b4	0.24439508
174	0x3dc22348	0.094793856
175	0x3c2124e0	0.009835452
176	0xbd0f3218	-0.034959882
177	0x3dd14370	0.10217941
178	0xbe201d30	-0.15636134
179	0x3cd958b0	0.026531547
180	0xbdd4faa0	-0.103993654
181	0xbdea8094	-0.114503056
182	0x3e474416	0.19459566
183	0x3e68c99c	0.22733158
184	0x3e4aa920	0.19791079
185	0x3d9e2f74	0.07723895
186	0xbdcc5594	-0.0997726
187	0xbdebe578	-0.11518377
188	0x3e0c97ae	0.13729736
189	0x3e5f3e26	0.21801051
190	0xbdcd3f9c	-0.10021898
191	0xb8be0000	-9.059906e-05
192	0x3e76ee0e	0.24114248
193	0xbd10cbd0	-0.03535062
194	0x3d8b3fc8	0.06799275
195	0xbe533858	-0.20626962
196	0x3e2d0230	0.16895366
197	0xbd9509bc	-0.07277247
198	0xbdb87290	-0.09006226
199	0x3d9abe74	0.07555857
200	0x3db5087c	0.08839509
201	0x3da8abe0	0.082359076
202	0x3bf45f00	0.007457614
203	0x3e331fb6	0.17492566
204	0xbe3c26d8	-0.18374193
205	0xbe6d820e	-0.23194143
206	0xbe729160	-0.23688269
207	0xbd8a3740	-0.06748819
208	0x3cfcaa10	0.03084281
209	0x3cd739d0	0.026272684
210	0xbe562264	-0.20911556
211	0x3e6b5d12	0.22984722
212	0x3ce5f720	0.02807194
213	0x3e659e9e	0.22423789
214	0x3e6a0110	0.22851968
215	0x3d98f2bc	0.07468173
216	0xbd86cd50	-0.06582129
217	0x3e2b1b8e	0.1670973
218	0xbd2d21b0	-0.042268455
219	0xbdb38fac	-0.087676376
220	0xbb8fac80	-0.0043845773
221	0x3e0c70ec	0.13714951
222	0x3dbb2374	0.091376215
223	0x3cd477d0	0.025936037
224	0xbd3cfee8	-0.046141535
225	0xbe61284e	-0.21988031
226	0x3e2d0b08	0.1689874
227	0xbdc160d0	-0.09442294
228	0x3e68bcb0	0.22728229
229	0x3d101b28	0.03518215
230	0xbc408600	-0.011750698
231	0x3dcd377c	0.100203484
232	0x3e7cbbfc	0.24681085
233	0xbd9d7918	-0.076891124
234	0xbdd93df8	-0.10607523
235	0x3d2b9140	0.041886568
236	0xba83be00	-0.0010051131
237	0xbd7a3bb0	-0.06109208
238	0xbc092c00	-0.008372307
239	0x3dcd5d30	0.1002754
240	0xbdc66038	-0.09686321
241	0x3c4ced80	0.012507796
242	0xbe3707f0	-0.17874122
243	0xbd9b44c8	-0.07581478
244	0x3e56ba66	0.20969543
245	0x3e379c6c	0.17930764
246	0x3e1d4aca	0.15360561
247	0xbdf6ec38	-0.12056774
248	0x3e7ab84e	0.24484369
249	0xbe34c204	-0.17652136
250	0x3e5244f2	0.20534113
251	0xbde81ba8	-0.113334
252	0xbe091f78	-0.1339091
253	0x3dac63e0	0.08417487
254	0x3e04eaec	0.1298024
255	0x3e1354e6	0.14387855

bias_ih_l0 f4 [64]
0	0x3dc5d434	0.09659615
1	0xbd8ad3f4	-0.06778708
2	0xbe490984	-0.19632536
3	0xbd37f618	-0.044912428
4	0x3d8714d0	0.065957665
5	0xbe2778e0	-0.16354704
6	0xbdc6b9e8	-0.097034276
7	0xbe72e292	-0.23719242
8	0x3e2413da	0.16023198
9	0xbe59be40	-0.21263981
10	0xbcbc1080	-0.022957087
11	0xbe50c732	-0.20388487
12	0xbe79b93e	-0.2438707
13	0xbe585cd0	-0.21129155
14	0xbd8193d0	-0.06327021
15	0xbe3bdb04	-0.18345267
16	0x3e7a47fc	0.24441522
17	0xbe63c810	-0.22244287
18	0x3cce4e30	0.025183767
19	0x3c227d20	0.009917527
20	0x3df96f44	0.12179425
21	0x3dcbc938	0.09950489
22	0xbe618ff2	-0.22027567
23	0xbdad3c7c	-0.08458802
24	0xbe755820	-0.23959398
25	0x3ccb3650	0.024806172
26	0xbe30044e	-0.17189142
27	0xbe567efc	-0.20946878
28	0xbd2d7ac0	-0.04235339
29	0x3d2b23a0	0.04178202
30	0xbd9196b4	-0.071088225
31	0x3e529154	0.20563251
32	0xbd970874	-0.07374659
33	0xbd9794fc	-0.074014634
34	0xbe76e8b6	-0.2411221
35	0x3e09c4f0	0.13454032
36	0xbdd26fc4	-0.10275224
37	0xbd9569d4	-0.07295576
38	0xbdd36400	-0.10321808
39	0xbe14ab40	-0.14518452
40	0xbe38969a	-0.180262
41	0xbd8c64b4	-0.06855145
42	0xbdb7d0d4	-0.08975378
43	0x3b1a3b00	0.0023533702
44	0xbda03494	-0.078225285
45	0x3a6bd600	0.0008996427
46	0x3dffa758	0.1248309
47	0x3db2dd88	0.0873366
48	0x3e7c493e	0.24637315
49	0xb984a000	-0.0002529621
50	0xbddffa94	-0.10936466
51	0x3ce075e0	0.027399957
52	0xbd3a3210	-0.0454579
53	0xbe0a70fe	-0.13519666
54	0x3c3b16a0	0.011418968
55	0xbe739e44	-0.23790842
56	0x3e137a68	0.14402163
57	0xbd4b6358	-0.04965529
58	0x3e6fd2f2	0.23420313
59	0xbd736db0	-0.059430778
60	0xbd5bfb28	-0.05370632
61	0x3dc7280c	0.09724435
62	0x3e0d9bac	0.13828915
63	0x3c47a280	0.012184739

bias_hh_l0 f4 [64]
0	0xbcdf68a0	-0.027271569
1	0x3e7fd99c	0.24985355
2	0xbe663e2e	-0.22484657
3	0x39cee000	0.00039458275
4	0x3db952f8	0.09049028
5	0x3e762b18	0.24039876
6	0x3df34394	0.11878124
7	0x3da02bc4	0.07820848
8	0xbe229510	-0.15877175
9	0x3dd2d454	0.102944046
10	0xbdcd6b6c	-0.10030255
11	0xbb96d640	-0.0046031773
12	0x3ab5f200	0.0013881326
13	0xbe484538	-0.19557655
14	0xbd9e9cdc	-0.07744762
15	0xbe246516	-0.16054186
16	0xbcd332b0	-0.025781006
17	0x3e6df3c8	0.23237526
18	0x3e44d206	0.19220743
19	0x3e5deaa6	0.21671543
20	0x3e1408cc	0.1445648
21	0x3dd755e4	0.10514429
22	0x3e3dbf80	0.18530083
23	0x3e407ed4	0.18798381
24	0xbe7dc7c6	-0.24783239
25	0x3d0df7c0	0.0346601
26	0xbe7e06cc	-0.2480728
27	0xbce7a5f0	-0.028277367
28	0xbd2a3ec0	-0.04156375
29	0x3e6dd52a	0.23225847
30	0xbc23f040	-0.0100060105
31	0xbde5ac20	-0.11214471
32	0xbe7e14f4	-0.2481268
33	0x3e19a456	0.15004095
34	0x3d75ae78	0.05998084
35	0xbdaa7118	-0.08322352
36	0x3e0efa6a	0.13962713
37	0xbe0901b6	-0.13379559
38	0xbd95f6a4	-0.073224336
39	0x3e4c3efc	0.19945902
40	0xbe796940	-0.24356556
41	0xbe15a4c6	-0.14613637
42	0x3e2ae21e	0.1668782
43	0xbdfe0c80	-0.12404728
44	0xbe383358	-0.17988336
45	0x3e5d5112	0.21612957
46	0xbd9fb26c	-0.07797703
47	0xbe792a54	-0.24332553
48	0x3df917ac	0.12162718
49	0xbe2be716	-0.16787371
50	0x3cb3af10	0.021934062
51	0xbe4bdc22	-0.19908193
52	0x3e37f00a	0.17962661
53	0xbdd1d9b8	-0.10246605
54	0x3e2196b0	0.15780139
55	0x3db8c97c	0.09022805
56	0x3e1b1ccc	0.15147704
57	0x3e4d4ac8	0.20048058
58	0xbdc05d04	-0.09392741
59	0xbdf808a0	-0.1211102
60	0x3c492ce0	0.012278765
61	0x3dc2a834	0.095047385
62	0x3d1f8478	0.03894469
63	0xbc8d63e0	-0.017259538

weight_ih_l1 f4 [64, 16]
0	0xbe49aa46	-0.1969386
1	0xbe59107a	-0.21197692
2	0x3e553732	0.20821837
3	0xbe67bfbc	-0.22631735
4	0x3d1b7328	0.03795162
5	0xbd5a4f50	-0.053298295
6	0x3e71b0dc	0.23602623
7	0x3e2c1a84	0.1680699
8	0x3bd84400	0.006599903
9	0xbd283208	-0.04106334
10	0xbdb234c8	-0.087014735
11	0x3e503d3a	0.20335856
12	0xba5cc800	-0.00084221363
13	0x3e285c16	0.16441378
14	0x3e0f9fe8	0.14025843
15	0x3e75b506	0.23994836
16	0xbe01d2ac	-0.12678021
17	0xbe02abfe	-0.12760922
18	0x3b3e9900	0.0029082894
19	0xbe1f1764	-0.15536267
20	0x3ddaad90	0.10677636
21	0x3e5af422	0.21382192
22	0x3d1478c0	0.03624797
23	0xbe08f12a	-0.13373247
24	0xbe7c4cca	-0.24638668
25	0xbe2a8cf0	-0.16655326
26	0xb99db000	-0.00030076504
27	0xbe69f3d8	-0.22846925
28	0x3de02fd4	0.109466225
29	0x3dd31c2c	0.10308108
30	0x3db6bc20	0.08922601
31	0x3df0007c	0.117188424
32	0xbd372488	-0.044712573
33	0xbd69c340	-0.05707097
34	0x3d2c5938	0.042077273
35	0x3dc21c00	0.09477997
36	0x3e0a500e	0.13507101
37	0xbd310988	-0.04322198
38	0xbe62d3fc	-0.22151178
39	0xbd2a3ba0	-0.04156077
40	0x3dfc1a14	0.123096615
41	0x3c0fe120	0.008781701
42	0xbd551868	-0.05202523
43	0x3e79c8f8	0.2439307
44	0xbe668638	-0.22512138
45	0x3ddd2628	0.10798293
46	0xbdfc3a58	-0.12315816
47	0xbe0d74aa	-0.13814035
48	0xbe5a67ca	-0.21328655
49	0x3d656740	0.05600667
50	0xbdfdb84c	-0.123886675
51	0x3df0f340	0.11765146
52	0x3e1f07f8	0.15530384
53	0x3e2a88d4	0.16653758
54	0xbcdc4cd0	-0.026892096
55	0x3e3a35ac	0.18184537
56	0xbda6a884	-0.081376106
57	0x3e22dee4	0.15905339
58	0xbdcb694c	-0.09932193
59	0x3e6f0b5e	0.2334418
60	0x3e0e9762	0.13924935
61	0xbe6e466c	-0.23269051
62	0xbc780660	-0.015138239
63	0x3e51667c	0.20449251
64	0x3e502356	0.2032598
65	0x3e3c87c8	0.18411171
66	0xbe04814a	-0.12939945
67	0x3e365cf2	0.17808893
68	0x3e4f78dc	0.20260948
69	0xbe7d71b4	-0.24750406
70	0xbd2bcff0	-0.04194635
71	0x3e1e4516	0.15456042
72	0x3dc2e7b0	0.09516847
73	0x3e7d92ee	0.2476308
74	0xbd87bef4	-0.06628218
75	0xbca37a60	-0.019955814
76	0xbd272198	-0.040803522
77	0x3d0f8340	0.03503728
78	0xbdc1fe08	-0.09472281
79	0xbe32a238	-0.17444694
80	0xbe070670	-0.1318605
81	0x3d7232c0	0.05913043
82	0x3e1703e6	0.14747581
83	0x3e65051a	0.22365227
84	0x3da106a8	0.07862598
85	0x3e6fc25e	0.23413989
86	0xbe1c6538	-0.15272987
87	0xbd637d10	-0.05553919
88	0xbd80d438	-0.062904775
89	0xbe0cb73a	-0.1374177
90	0x3e53a806	0.20669565
91	0x3d3eccd0	0.046582043
92	0x3dc7facc	0.097646326
93	0xbe353d4e	-0.17699167
94	0xbd18d4c0	-0.03731227
95	0x3d83024c	0.063969225
96	0xbab81a00	-0.0014045835
97	0xbe275796	-0.16342005
98	0xbdd806d4	-0.10548177
99	0x3d85bbe4	0.06529978
100	0x3e6c85fc	0.23097986
101	0xbdd05698	-0.101727664
102	0x3d6110d0	0.054947674
103	0xbdc40bc4	-0.095725566
104	0xbd6b7868	-0.057487875
105	0xbe058a44	-0.13041025
106	0xbcd0a6e0	-0.025470197
107	0xbe131e10	-0.14366937
108	0xbe7f9ec8	-0.24962914
109	0xbe767a76	-0.24070153
110	0xbd610770	-0.054938734
111	0x3e35beec	0.17748612
112	0x3de0d860	0.1097877
113	0x3d9a2798	0.07527083
114	0x3e4e51ae	0.20148346
115	0xbe00c586	-0.12575349
116	0x3c204cc0	0.009783924
117	0xbe7248c8	-0.23660576
118	0x3d3efea8	0.046629578
119	0xbe13e5ea	-0.14443174
120	0x3d078cd0	0.033093274
121	0xbe7bebae	-0.24601623
122	0x3d19f270	0.037584722
123	0xbbdf6b00	-0.0068181753
124	0xbd224198	-0.039613336
125	0xbd2395c0	-0.039937735
126	0xbe7d4882	-0.24734691
127	0xbdb3d70c	-0.08781251
128	0xbe1f010a	-0.1552774
129	0xbdc560fc	-0.09637639
130	0xbe44ab56	-0.19205984
131	0xbdf56ac8	-0.119832575
132	0xbded2794	-0.115798146
133	0x3e535470	0.20637679
134	0xbd89ef28	-0.067350686
135	0xbbad1600	-0.0052821636
136	0x3d394368	0.0452303
137	0x3de44b94	0.11147228
138	0x3de6b25c	0.11264488
139	0x3e049b26	0.1294981
140	0x3e7d20b4	0.24719507
141	0x3e7c2a9c	0.24625629
142	0xbe5bdc0c	-0.2147066
143	0x3e503452	0.20332459
144	0x3c640da0	0.013919264
145	0xbe71fc32	-0.23631361
146	0x3d65df68	0.05612126
147	0x3d0f97f8	0.035057038
148	0x3d95a1ac	0.07306227
149	0xbe5892e8	-0.2114979
150	0xbda55e2c	-0.080746025
151	0xbde66c34	-0.11251107
152	0x3cc2f7a0	0.023799717
153	0xbc6e1a80	-0.014532685
154	0x3e590cce	0.21196291
155	0xbdf18a30	-0.11793935
156	0x3e1acb08	0.15116513
157	0x3e193ea0	0.14965296
158	0x3e57f086	0.21087846
159	0x3e3f8c5e	0.1870589
160	0xbd7c4030	-0.06158465
161	0xbe23c250	-0.15992093
162	0xbdd51d6c	-0.104060024
163	0x3c563ae0	0.01307556
164	0x3d9aca2c	0.075580925
165	0x3e0a0f50	0.13482404
166	0x3c8a7a30	0.016903967
167	0x3e5a0a10	0.21292901
168	0x3e4f917a	0.20270339
169	0xbe4b7e5a	-0.19872418
170	0xbe381eea	-0.17980543
171	0x3e0e2ad2	0.13883522
172	0xbe553394	-0.20820457
173	0xbdb58078	-0.08862394
174	0xbe4a2152	-0.19739273
175	0xbe14df3a	-0.14538279
176	0xbc0b26e0	-0.008493155
177	0x3e41969e	0.18905112
178	0xbdeb9584	-0.11503127
179	0xbdc13770	-0.09434402
180	0xbe53691a	-0.20645562
181	0xbe4ba62a	-0.19887605
182	0x3d8a449c	0.067513674
183	0x3e70a892	0.23501804
184	0xbccb32f0	-0.024804562
185	0x3d8498a4	0.064744264
186	0x3e27032c	0.16309804
187	0xbe7f209a	-0.2491478
188	0xbdd7a140	-0.10528803
189	0xbe7b2472	-0.24525622
190	0x3e201514	0.1563304
191	0x3e4dba1c	0.20090526
192	0xbde1fc78	-0.11034483
193	0xbdfc768c	-0.123272985
194	0x3e404cf6	0.18779358
195	0x3d5b1020	0.053482175
196	0x3dc541c4	0.096316844
197	0x3dc26cd8	0.094934165
198	0xbe63cb98	-0.22245634
199	0xbd6eef98	-0.058333963
200	0xbc833460	-0.016016185
201	0x3c966ec0	0.018363357
202	0xbe0b2d78	-0.13591564
203	0x3e18c0d6	0.14917311
204	0x3e73d5c6	0.23812017
205	0x3e1e83b4	0.15479928
206	0x3c12f340	0.008969128
207	0xbe65fe8e	-0.22460386
208	0x3df8e568	0.12153131
209	0xbd30dcf8	-0.043179482
210	0x3e6189ea	0.22025266
211	0x3d89c6dc	0.067273825
212	0xbe4468d6	-0.19180617
213	0xbe7f1648	-0.24910843
214	0xbe3edffc	-0.18640131
215	0xbe2cf752	-0.1689122
216	0xbd1e2ee0	-0.038618922
217	0x3e7bd494	0.24592811
218	0xbe51dbaa	-0.20493951
219	0x3e2fa1bc	0.1715154
220	0x3b067100	0.002051413
221	0xbce02730	-0.027362436
222	0xbe64e358	-0.2235235
223	0xbe5c456e	-0.2151086
224	0xbe4fe8a0	-0.20303583
225	0xbe0f10e4	-0.13971287
226	0x3c756c40	0.014979422
227	0xbe03fd62	-0.12889627
228	0x3cb6ebd0	0.022329241
229	0x3d010a78	0.031504124
230	0xbd8f96f4	-0.07011214
231	0x3d038540	0.0321095
232	0xbca13490	-0.019678384
233	0x3e70ebfe	0.23527524
234	0x3c58d1e0	0.013233632
235	0x3e7e9806	0.2486268
236	0xbe5fa102	-0.21838763
237	0x3e747a64	0.23874813
238	0xbe715096	-0.23565897
239	0xbe53ea64	-0.20694882
240	0xbe3a6bda	-0.18205205
241	0x3e787b68	0.24265826
242	0x3df67778	0.120345056
243	0x3dafe520	0.08588624
244	0xbdeb2760	-0.114821196
245	0x3d0b17e8	0.033958346
246	0xbd3c2b18	-0.045939535
247	0x3e1991fc	0.14997095
248	0x3e78dd6e	0.24303219
249	0x3e5eac2e	0.21745369
250	0x3e1dc4ba	0.15407076
251	0x3e46efb4	0.19427377
252	0xbccc59d0	-0.02494517
253	0xbe45054a	-0.19240299
254	0x3d44add0	0.048017323
255	0xbdb1b548	-0.08677155

weight_hh_l1 f4 [64, 16]
0	0x3c862750	0.016376168
1	0x3e726e78	0.23674953
2	0xbe239d0a	-0.15977874
3	0xbe1d3d16	-0.15355334
4	0x3dd9e980	0.1064024
5	0xbd973f3c	-0.07385108
6	0x3e0a1ba6	0.1348711
7	0xbdfffbe0	-0.12499213
8	0xbdf242f4	-0.118291765
9	0xbdc82f10	-0.097746015
10	0x3d193f38	0.037413806
11	0x3dce0e5c	0.100613326
12	0xbd6d7068	-0.057968527
13	0xbdb5b8f0	-0.08873165
14	0x3e417c34	0.18895036
15	0x3e5049f8	0.20340717
16	0xbe0ca9de	-0.13736674
17	0xbe648b5e	-0.2231879
18	0xbdf141e8	-0.11780149
19	0x3d38cb28	0.04511562
20	0x3d2e0be8	0.042491823
21	0x3dccc9c4	0.09999421
22	0xbe086c0c	-0.13322467
23	0x3e594a16	0.21219668
24	0x3e20b974	0.15695745
25	0xbc53e260	-0.01293239
26	0xbe6a8b24	-0.2290464
27	0x3e06e8d6	0.13174757
28	0xbe0df2ce	-0.13862154
29	0x3e74b48e	0.23897001
30	0x3e2271c0	0.15863705
31	0x3dfa4274	0.12219706
32	0xbdbd4eb4	-0.09243527
33	0xbd8756b8	-0.06608337
34	0xbdb758a4	-0.08952454
35	0x3d2d79f0	0.042352617
36	0x3c3e5860	0.01161775
37	0xbb514c80	-0.0031936467
38	0xbe55751a	-0.20845452
39	0xbd759480	-0.059956074
40	0x3e59a902	0.21255878
41	0x3e566eb8	0.20940673
42	0x3c11c220	0.008896381
43	0xbe3e5c26	-0.1858984
44	0xbda0c7ec	-0.07850632
45	0x3e0e57e6	0.13900718
46	0x3d32abf8	0.043621033
47	0xbe4a7a66	-0.19773254
48	0x3b042d80	0.0020168722
49	0xbddcd06c	-0.10781941
50	0x3e5264fc	0.20546335
51	0x3e5f2a9e	0.21793601
52	0x3e2f3d2a	0.17113176
53	0x3dbc1008	0.09182745
54	0xbd52f9a8	-0.051507622
55	0xbe177a40	-0.14792728
56	0xbdb55208	-0.08853537
57	0x3dd68fe4	0.10476664
58	0x3e6b3f20	0.22973299
59	0xbdc696a4	-0.09696701
60	0xbde04c14	-0.10952011
61	0x3c515740	0.01277715
62	0x3da97fc4	0.082763225
63	0x3cf26260	0.029587924
64	0xbd061ae8	-0.032740504
65	0x3d4a8f50	0.04945308
66	0x3dc7d714	0.0975782
67	0xbda65530	-0.08121717
68	0xbb073100	-0.0020628572
69	0xbe55ac7a	-0.20866576
70	0xbdd3cd88	-0.10341936
71	0x3e05bfac	0.13061398
72	0xbd6e9c80	-0.05825472
73	0x3ddcd38c	0.10782537
74	0xbe032856	-0.12808356
75	0xbe18f7c6	-0.14938268
76	0xbd8f9a80	-0.070118904
77	0xbd5a53c0	-0.053302526
78	0x3e438884	0.19095045
79	0xbe48e0ae	-0.19616958
80	0x3dba4348	0.09094864
81	0x3e4bff72	0.19921663
82	0x3df2953c	0.118448704
83	0xbdb82de8	-0.08993131
84	0xbe646468	-0.22303927
85	0x3e521a7a	0.20517913
86	0xbd362710	-0.044470847
87	0x3e040fd4	0.12896663
88	0x3e735324	0.23762184
89	0x3e1e0ba2	0.15434125
90	0x3e20e0fc	0.15710825
91	0x3e64a732	0.22329405
92	0xbe28c45c	-0.16481155
93	0x3d6729c8	0.05643633
94	0x3daec2b8	0.085332334
95	0x3c865060	0.016395748
96	0x3e03e94e	0.12881967
97	0x3dd0e320	0.10199571
98	0xbd8d1dc4	-0.06890443
99	0xbe34b65e	-0.17647693
100	0xbe7a7be0	-0.24461317
101	0xbdc280ec	-0.09497246
102	0x3e52bda8	0.2058016
103	0x3d2e8cc0	0.0426147
104	0x3cae3210	0.021264106
105	0xbd31f3d0	-0.04344541
106	0x3e7d97fe	0.24765012
107	0x3c327a20	0.010893375
108	0xbe487222	-0.19574788
109	0x3dc4d4b0	0.096108794
110	0xbdc912f8	-0.09818071
111	0x3e45c1c0	0.19312191
112	0xbe47d684	-0.19515425
113	0xbda08de8	-0.078395665
114	0x3db88ee0	0.09011626
115	0xbe43fb06	-0.19138727
116	0x3e48fb0e	0.1962702
117	0xbd8775e8	-0.06614286
118	0xbe273b80	-0.16331291
119	0x3e3dbe6c	0.18529671
120	0x3e4dbe7e	0.20092198
121	0xbe587fb0	-0.21142459
122	0xbd35d5c0	-0.0443933
123	0x3df57de0	0.119868994
124	0xbdc54ad8	-0.09633416
125	0x3d739ec8	0.059477597
126	0xbe6d364c	-0.23165244
127	0x3e74f8fc	0.23923105
128	0x3e2f4d40	0.17119312
129	0x3e169e08	0.14708722
130	0x3da99344	0.08280042
131	0xbae28c00	-0.0017284155
132	0xbcb94d50	-0.022619873
133	0xbe2dd0e8	-0.16974223
134	0x3e5a0d60	0.21294165
135	0x3e35f53c	0.1776933
136	0x3e590e20	0.21196795
137	0xbe165a0c	-0.14682788
138	0xbe5f3c16	-0.21800265
139	0x3e5c8024	0.21533257
140	0xbcc91270	-0.024544924
141	0xbc0758c0	-0.008260906
142	0xbdcc1128	-0.0996421
143	0xbdaa6644	-0.08320287
144	0xbdb9c350	-0.09070456
145	0x3be91380	0.0071129203
146	0x3e436af8	0.19083774
147	0x3dd58b90	0.1042701
148	0xbe12e6e6	-0.14345893
149	0xbe25c93e	-0.16190049
150	0xbdeeb148	-0.116549075
151	0x3d91cdb0	0.0711931
152	0xbd076768	-0.0330576
153	0x3e1890a6	0.14898929
154	0xbe60186c	-0.21884316
155	0xbe6d0266	-0.23145446
156	0x3e5d61dc	0.21619362
157	0xbe2e8fc4	-0.1704703
158	0x3e01da5a	0.12680951
159	0xbd453ae0	-0.04815185
160	0xbd788998	-0.060678095
161	0xbe35dd9a	-0.17760316
162	0x3e055ce0	0.1302371
163	0xbbac1300	-0.0052512884
164	0x3d9f21d0	0.07770121
165	0xbe4fc4c8	-0.2028991
166	0xbd9badc4	-0.076015025
167	0xbdf3d5d0	-0.11906016
168	0xbe68876c	-0.2270791
169	0xbd8e1b38	-0.06938785
170	0x3deb40b8	0.114869535
171	0x3e430a44	0.19046885
172	0xbdc4dda8	-0.0961259
173	0xbc9e3600	-0.019312859
174	0xbd113730	-0.03545302
175	0xbd373130	-0.044724643
176	0xbe6acf3e	-0.22930619
177	0xbd1d5fb8	-0.038421363
178	0x3d69aee0	0.05705154
179	0xbce54380	-0.027986288
180	0xbcda0e90	-0.026618272
181	0xb8fe0000	-0.00012111664
182	0xbd565178	-0.05232379
183	0xbc8bb8f0	-0.017055959
184	0xbda78660	-0.08179927
185	0xbce90d00	-0.028448582
186	0xbe00566c	-0.12532967
187	0xbd89ad00	-0.0672245
188	0x3dd1ea80	0.102498055
189	0x3e57127a	0.21003142
190	0xbe50272a	-0.2032744
191	0xbe07cfc6	-0.13262853
192	0x3ba36900	0.004986882
193	0x3c734ce0	0.014849871
194	0x3d5fdf08	0.05465606
195	0xbd976b78	-0.07393545
196	0xbe75b2ba	-0.2399396
197	0xbe3eba52	-0.18625763
198	0xbe106ce4	-0.14104038
199	0x3e707af8	0.23484409
200	0xbe5f3acc	-0.21799773
201	0xbde89dc8	-0.113582194
202	0x3e20cb54	0.15702564
203	0x3da3f424	0.080055505
204	0x3dd45e54	0.10369554
205	0x3ddb487c	0.10707185
206	0xbd125340	-0.035723925
207	0xbd53d668	-0.051718146
208	0xbd76e270	-0.06027454
209	0x3e18b426	0.14912471
210	0x3e76ff88	0.24120915
211	0xbbe0e600	-0.0068633556
212	0x3ddddd5c	0.108332366
213	0x3b751300	0.0037395358
214	0xbda038ac	-0.07823309
215	0xbd44e700	-0.04807186
216	0x3de3b9e0	0.11119437
217	0xbe1ff566	-0.15620956
218	0x3e44ba78	0.19211757
219	0xbdf4c018	-0.119507015
220	0xbe58e53e	-0.21181199
221	0x3e321034	0.17388994
222	0xbe135a12	-0.14389828
223	0xbd8f5e44	-0.070004016
224	0xbd8ffa0c	-0.070301145
225	0xbe69e9e8	-0.22843134
226	0x3e206f34	0.1566742
227	0x3e1fc964	0.15604168
228	0x3d9e8ba8	0.07741481
229	0x3d6a6168	0.0572218
230	0x3e36a13e	0.17834947
231	0x3e60c5cc	0.21950454
232	0x3e4f9eb8	0.2027539
233	0x3dd5caa8	0.10439044
234	0x3e6d0804	0.23147589
235	0xbe40e4f2	-0.18837336
236	0xbd92b600	-0.0716362
237	0xbdeb6d74	-0.11495486
238	0xbd8d670c	-0.0690442
239	0x3dad8524	0.0847266
240	0xbe5b5ca0	-0.21422052
241	0xbe5421ac	-0.2071597
242	0xbdd48e18	-0.10378665
243	0x3e17ab84	0.14811522
244	0xbd32b810	-0.043632567
245	0x3e2557c6	0.16146764
246	0x3e72918e	0.23688337
247	0x3e35372e	0.1769683
248	0x3e5f5ba0	0.21812296
249	0x3bc829c0	0.0061084926
250	0xbe0f8ef4	-0.14019376
251	0xbe2695ee	-0.16268131
252	0xbd6d0fd8	-0.057876438
253	0xbe25e644	-0.1620112
254	0x3e18fb8e	0.1493971
255	0xbe5a30a4	-0.21307617

bias_ih_l1 f4 [64]
0	0xbe5ed9ea	-0.21762815
1	0x3e47d90c	0.1951639
2	0xbdc422c8	-0.095769465
3	0xbe05fdb0	-0.13085055
4	0x3b081f80	0.0020770729
5	0xbdf19a50	-0.11797011
6	0x3d189098	0.03724727
7	0xbde5d4fc	-0.11222264
8	0xbbd59e40	-0.006519109
9	0x3c0b6de0	0.008510083
10	0x3d9cf058	0.076630294
11	0xbce3af00	-0.027793407
12	0xbe194874	-0.14969045
13	0x3ceb4be0	0.028722703
14	0xbda8c710	-0.08241093
15	0xbe017914	-0.12643844
16	0xbe1c7682	-0.15279582
17	0x3da34dd0	0.07973826
18	0x3e10fcd8	0.14158952
19	0xbe2b67c8	-0.16738808
20	0x3e2d3a66	0.16916808
21	0xbe148e3a	-0.1450738
22	0x3e585e0c	0.21129626
23	0xbde1c990	-0.11024773
24	0xbe64a990	-0.22330308
25	0xbd820790	-0.06349099
26	0xbe53a3a6	-0.20667896
27	0x3e5487cc	0.20754927
28	0xbd804734	-0.06263581
29	0x3e2f1cc6	0.1710082
30	0xbe569820	-0.20956469
31	0xbe7f1ee8	-0.24914134
32	0x3e30bcc0	0.17259502
33	0xbafd6200	-0.0019331574
34	0x3e025bfa	0.12730399
35	0xbbd689c0	-0.006547183
36	0xbe7ea296	-0.24866709
37	0xbe358dd2	-0.17729881
38	0x3e2671fe	0.16254422
39	0x3d4c5ca8	0.04989305
40	0x3e4da00e	0.20080587
41	0xbe31cb2c	-0.1736266
42	0xbc9409e0	-0.018071115
43	0x3df01654	0.11723009
44	0xbe48e536	-0.19618687
45	0x3dc642f8	0.09680742
46	0xbe36b1f6	-0.17841324
47	0xbd5c49c0	-0.05378127
48	0x3dab22d0	0.08356249
49	0xbda097ac	-0.07841429
50	0x3d9db094	0.07699695
51	0xbae68200	-0.001758635
52	0x3e1e1096	0.15436015
53	0xbda71030	-0.081573844
54	0xbcac4100	-0.021027088
55	0x3d7c82c0	0.06164813
56	0x3e03cb52	0.1287053
57	0xbda5c634	-0.08094445
58	0xbe5a379a	-0.21310273
59	0xbdac7b34	-0.08421937
60	0xbe7e0f46	-0.24810514
61	0xbe5cc8e2	-0.21561006
62	0x3d674d10	0.056469977
63	0x3d975a3c	0.07390258

bias_hh_l1 f4 [64]
0	0xbe6c0ff2	-0.23052958
1	0xbd000778	-0.031257123
2	0xbc95d010	-0.018287688
3	0xbda6c3c0	-0.08142805
4	0x3e69459c	0.2278046
5	0xbd0d42f8	-0.034487695
6	0x3e4de730	0.20107722
7	0x3c866ff0	0.016410798
8	0xbe441f04	-0.19152457
9	0x3e0963e2	0.13417009
10	0x3d9b5d3c	0.075861424
11	0xbe3a3ec4	-0.18188006
12	0xbbb7e900	-0.0056124926
13	0xbd85b1ac	-0.06528029
14	0x3e6386aa	0.22219339
15	0x3dba291c	0.09089872
16	0x3dd3268c	0.103100866
17	0x3e78b4ea	0.24287763
18	0x3e7560e8	0.23962748
19	0x3d00ff20	0.031493306
20	0x3c935a70	0.01798746
21	0xbe5cc4d0	-0.21559453
22	0xbd734068	-0.059387594
23	0x3e516eea	0.20452467
24	0x3e4db928	0.20090163
25	0x3e5d39b4	0.21604043
26	0x3dcc9718	0.09989756
27	0x3e260632	0.16213301
28	0x3e2ac8d2	0.1667817
29	0xbe509152	-0.20367935
30	0xbd6b9a78	-0.05752036
31	0x3e2188be	0.15774819
32	0xbd94c5e0	-0.07264304
33	0x3d216808	0.039405853
34	0xbdc46498	-0.09589499
35	0x3e4b69c4	0.19864565
36	0x3de1a010	0.110168576
37	0xbe4b78de	-0.19870326
38	0xbe7e8efa	-0.24859229
39	0xbd5cf100	-0.053940773
40	0xbdb9a18c	-0.09064016
41	0x3e1e556e	0.15462276
42	0xbe146a94	-0.14493781
43	0xbe72d282	-0.23713115
44	0x3e46f6fa	0.19430152
45	0xbe531c36	-0.2061623
46	0x3d00d310	0.031451285
47	0x3e4afdf6	0.19823441
48	0xbe2b9ba4	-0.16758591
49	0xbd28f290	-0.04124695
50	0x3e11e2a4	0.14246613
51	0xbe75343c	-0.23945707
52	0x3dd4a8cc	0.10383758
53	0x3e34d524	0.17659432
54	0xbe0f85aa	-0.14015833
55	0xbe1b6fe4	-0.15179402
56	0x3dd08730	0.10182035
57	0x3d92f300	0.07175255
58	0xbe3eff7e	-0.1865215
59	0x3bebe900	0.0071994066
60	0xbe62349a	-0.22090378
61	0xbc335040	-0.010944426
62	0xbe582d6c	-0.21111077
63	0x3e41f36a	0.18940511

weight f4 [1, 16]
0	0xbe7faab6	-0.24967465
1	0x3e4fda1c	0.20298046
2	0x3d0dc048	0.0346072
3	0xbd3c3db0	-0.045957267
4	0x3e686e44	0.22698313
5	0xbdd9f890	-0.10643113
6	0xbd443370	-0.047900617
7	0xbdaa0590	-0.08301842
8	0xbd411230	-0.047136486
9	0xbc44c480	-0.01200974
10	0x3e1ca7f6	0.15298447
11	0xbe04894e	-0.12943003
12	0x3db72218	0.0894205
13	0x3e74bfa2	0.23901227
14	0x3d9c3c40	0.07628679
15	0xbd841fb0	-0.064513564

weight f4 [1, 32]
0	0x3e2336fd	0.15938945
1	0x3e268fcf	0.16265796
2	0x3e224901	0.15848161
3	0x3d5285cc	0.05139713
4	0xbdb03093	-0.08603015
5	0xbd9e48d5	-0.07728735
6	0xbdea5be6	-0.114433095
7	0xbe269ce5	-0.16270788
8	0xbe0a1e6a	-0.13488165
9	0x3e2d94e3	0.16951327
10	0x3e16713d	0.14691634
11	0xbe34fb92	-0.17674091
12	0x3e0167d1	0.12637259
13	0x3e2dd15b	0.16974394
14	0xbe04b996	-0.1296142
15	0x3e288c3b	0.16459744
16	0xbd21cbc4	-0.039500967
17	0xbdd6a1d5	-0.10480086
18	0x3e037f6d	0.12841578
19	0x3db6863a	0.089123204
20	0xbe011071	-0.12603928
21	0x3dd7fb4a	0.105459765
22	0xbe236740	-0.15957355
23	0x3e3205dd	0.17385049
24	0x3e240869	0.16018833
25	0x3e12b5dd	0.14327188
26	0xbe20a83e	-0.1568918
27	0x3df108c6	0.117692515
28	0xbde4b7c4	-0.11167863
29	0x3dc5e552	0.0966288
30	0x3e1153cd	0.14192124
31	0xbd82fac5	-0.06395487
