competition/result/lstm_win3_noStandardized_1layer_16hidden_0.99g/trained_model/best_model/critic.pth (torch, 12484 bytes, 6 tensors)

weight_ih_l0 f4 [64, 11]
0.14805128 0.032744426 -0.07955818 0.009354904 0.15905625 -0.25152466 -0.06457099 0.005705094
-0.1589702 -0.26919127 -0.21969537 -0.08172839 0.026392959 0.20936675 -0.23381855 0.14471622
-0.04670688 -0.14080894 0.15369152 0.11156112 -0.02741146 0.13384402 0.20949566 -0.07764221
-0.13613947 0.036749654 -0.1921913 0.2178403 0.1566591 -0.08964334 -0.06612921 0.12280615
-0.103472814 0.08195788 0.09696078 0.2082191 -0.25752184 0.005534715 0.1664343 -0.20540547
-0.01359762 0.10640452 0.077114046 0.102370776 0.13605016 0.097186364 -0.32285863 -0.057451077
0.15241057 0.23547414 0.16446862 -0.22675489 0.030227665 -0.17876025 -0.15411486 -0.2189482
0.35452726 -0.321136 0.09704046 0.07627861 -0.06355756 -0.22968425 0.17240973 -0.0023254708
0.17161982 -0.16436887 0.18313779 0.18358059 0.08180604 0.038236745 -0.0867672 -0.077097684
-0.023644602 0.036152452 -0.11088997 0.1863495 -0.2080535 -0.19785134 0.23448712 0.005065447
-0.11477546 -0.0028272101 0.16903971 0.2049444 -0.2623754 0.0071497243 0.015900798 -0.12470987
0.16297446 0.24370506 0.1027209 -0.11100995 0.043947767 -0.14772691 0.14871638 -0.020848759
-0.18430379 0.036730077 0.21082896 -0.16472967 0.1949038 0.050290845 0.029258957 -0.21517065
-0.17381498 -0.20379654 0.09120401 -0.2158675 -0.0753462 -0.10894974 -0.20898771 -0.009515331
-0.25356025 0.022993488 0.088115826 0.017117666 0.17837362 -0.25375724 0.19419636 0.17887768
0.15179925 0.14482857 0.009635366 0.039530706 -0.11530911 -0.098278485 -0.20090726 -0.004829575
0.09548851 -0.21022591 -0.022563128 -0.21287785 -0.12761553 -0.11116266 0.094262324 -0.07965485
-0.18370196 -0.07735129 0.20207135 -0.19795334 0.11138785 -0.23228975 0.09680068 -0.0456032
-0.12586263 0.08228253 0.116264895 -0.1109151 0.098194 0.056663062 -0.17287573 0.22849278
0.0067880834 0.12004673 0.17559314 -0.06580622 0.09813114 -0.21433327 0.15084895 -0.114811845
0.074827075 -0.16880774 0.032776028 0.057094295 -0.18177356 -0.19865806 0.33355787 0.102192566
-0.018596532 -0.024184102 0.22836347 -0.18123053 -0.19973315 0.07387529 -0.25963417 -0.03121461
0.13275085 0.29016057 -0.23001148 -0.18163285 -0.18945459 0.0031304983 -0.042970046 -0.13567738
0.21828657 0.21501891 0.08509819 0.1295404 -0.1389192 0.19904594 -0.012958575 0.185271
-0.010510751 -0.15478396 -0.123814695 0.007860661 0.1731908 -0.033295058 0.011772021 -0.05780758
-0.22520642 -0.33800107 0.17809542 0.0117644975 0.0037661365 -0.06418676 0.2179284 -0.054554515
-0.24640085 0.17554455 0.22157359 -0.035260893 -0.1973089 0.22720367 -0.083301514 0.027237915
0.07245278 0.06623212 -0.21236843 -0.15755795 0.006290242 0.10007103 0.09092768 -0.22508946
-0.060098916 0.08973629 -0.1815419 -0.016429089 0.10362699 0.030044751 -0.22968526 0.20051573
0.098063424 -0.24648695 -0.34881654 0.059718434 0.0102868285 -0.030492576 0.2013538 0.1316768
0.118256085 0.17919473 -0.20364244 -0.047185242 0.09482953 -0.043103807 -0.16787426 0.13587902
0.09755375 -0.24653625 -0.15855916 -0.11357792 0.084860906 -0.083827116 0.31407312 -0.3136662
00000000: c19a 173e 051f 063d 66ef a2bd 5045 193c
00000010: a4df 223e d7c7 80be cc3d 84bd ccf1 ba3b
00000020: 16c9 22be 70d3 89be d3f7 60be 3761 a7bd
00000030: 0c36 d83c 3d64 563e 216e 6fbe 7d30 143e
00000040: b74f 3fbd 3830 10be 4f61 1d3e 287a e43d
00000050: 008e e0bc 680e 093e 0886 563e e102 9fbd
00000060: 2568 0bbe ce86 163d cccd 44be 8711 5f3e
00000070: 3e6b 203e ed96 b7bd c06e 87bd ca81 fb3d
00000080: 8ee9 d3bd 88d9 a73d 6093 c63d 6337 553e
00000090: e7d9 83be 8e5c b53b c16d 2a3e d055 52be
000000a0: 8dc8 5ebc 9dea d93d f8ed 9d3d c5a7 d13d
000000b0: bc50 0b3e a509 c73d ba4d a5be d251 6bbd
000000c0: 8411 1c3e 2220 713e 766a 283e 6f32 68be
000000d0: 02a0 f73c ed0c 37be 49d0 1dbe f533 60be
000000e0: 9984 b53e f06b a4be 26bd c63d f637 9c3d
000000f0: 772a 82bd 5932 6bbe 2d8c 303e ed66 18bb
00000100: 1bbd 2f3e 5050 28be 7988 3b3e 8dfc 3b3e
00000110: ed89 a73d 229e 1c3d 00b3 b1bd 64e5 9dbd
00000120: 53b2 c1bc 9814 143d 481a e3bd 67d2 3e3e
00000130: fa0b 55be 8b99 4abe 641d 703e 0dfc a53b
00000140: 650f ebbd b748 39bb bf18 2d3e f2dc 513e
00000150: 1256 86be 3c48 ea3b 6442 823c e367 ffbd
00000160: c7e2 263e d28d 793e 565f d23d 2f59 e3bd
00000170: 9302 343d b945 17be 1b49 183e 04cb aabc
00000180: 22ba 3cbe 4772 163d 8ce3 573e e5ae 28be
00000190: dd94 473e c6fd 4d3d 7bb0 ef3c b255 5cbe
000001a0: 8efc 31be 0ab0 50be 2bc9 ba3d 5f0c 5dbe
000001b0: 1c4f 9abd 0b21 dfbd e000 56be 31e6 1bbc
000001c0: a6d2 81be d75c bc3c 1276 b43d 593a 8c3c
000001d0: 93a7 363e 78ec 81be 69db 463e b62b 373e
000001e0: 4371 1b3e f14d 143e a7dd 1d3c f3ea 213d
000001f0: 2f27 ecbd 3b46 c9bd a2ba 4dbe 6941 9ebb
00000200: 7b8f c33d 7645 57be 4fd6 b8bc a7fc 59be
00000210: a5ad 02be 40a9 e3bd 9b0c c13d 1522 a3bd
00000220: 5e1c 3cbe 5a6a 9ebd cbeb 4e3e 48b4 4abe
00000230: 501f e43d 5ddd 6dbe 6f3f c63d 6cca 3abd
00000240: 22e2 00be be83 a83d 4a1c ee3d 7527 e3bd
00000250: f019 c93d 8717 683d 5606 31be 03fa 693e
00000260: 926e de3b 0fdb f53d b0ce 333e 69c5 86bd
00000270: fbf8 c83d 2e7a 5bbe 2678 1a3e 7922 ebbd
00000280: f03e 993d f0db 2cbe 2840 063d b5db 693d
00000290: d922 3abe 056d 4bbe 19c8 aa3e 564a d13d
000002a0: c157 98bc bd1d c6bc 1dd8 693e 7f94 39be
000002b0: d986 4cbe ee4b 973d c5ee 84be c8b5 ffbc
000002c0: d7ef 073e ed8f 943e 2188 6bbe f6fd 39be
000002d0: 6200 42be 0c29 4d3b 5c01 30bd 03ef 0abe
000002e0: 8486 5f3e eb2d 5c3e f647 ae3d 3da6 043e
000002f0: d640 0ebe b3d2 4b3e 3450 54bc aeb7 3d3e
00000300: 4935 2cbc b07f 1ebe 8f92 fdbd 00ca 003c
00000310: ee58 313e 6660 08bd 6fdf 403c a4c7 6cbd
00000320: 839c 66be 7a0e adbe a55e 363e e1bf 403c
00000330: 49d1 763b 5974 83bd 9f28 5f3e 8e74 5fbd
00000340: 8150 7cbe f3c1 333e 30e4 623e ba6d 10bd
00000350: 580b 4abe 14a8 683e fc99 aabd 0c22 df3c
00000360: 2062 943d b5a4 873d 1c77 59be df56 21be
00000370: 601e ce3b 0af2 cc3d 4b38 ba3d da7d 66be
00000380: 482a 76bd a9c7 b73d 1fe6 39be 4c96 86bc
00000390: 633a d43d 6920 f63c 9d32 6bbe ff53 4d3e
000003a0: 7ad5 c83d 1367 7cbe 1598 b2be 519b 743d
000003b0: 168a 283c 91cb f9bc b12f 4e3e 48d6 063e
000003c0: 3f30 f23d d37e 373e a587 50be 5045 41bd
000003d0: fc35 c23d 9e8d 30bd 3be7 2bbe df23 0b3e
000003e0: 43ca c73d 0074 7cbe 555d 22be 8a9b e8bd
000003f0: 8ecb ad3d 8dad abbd 31ce a03e db98 a0be

weight_hh_l0 f4 [64, 16]
-0.051780943 0.29557505 -0.029968418 0.23418981 0.2571477 0.092017226 -0.07667476 0.28205675
0.0056676115 -0.37647942 0.09853207 0.0025920097 -0.041571308 0.11060113 -0.12331866 0.4024741
0.035826445 -0.1446992 -0.072617814 -0.14761794 -0.1733332 0.21219176 -0.069638886 0.1575621
-0.2144663 -0.16700792 -0.02179912 -0.0009208394 0.12953264 -0.090540536 -0.11138287 0.03012701
0.32255283 0.27636388 -0.084756784 -0.0017364128 0.22990908 0.11529194 0.15366583 0.33857065
-0.3499898 -0.32268158 -0.100325696 0.12836759 0.009388187 0.2764402 0.049296036 0.091332234
0.19197285 0.03173354 -0.12189077 -0.1488084 0.18922049 0.05627182 0.21724665 0.24794322
-0.065077215 0.2066338 -0.051069226 -0.2671385 -0.01847581 -0.13212107 -0.11523363 0.23166448
0.31747577 -0.11058349 0.20261788 0.20771582 0.31836975 0.2902795 0.13024886 0.36864877
-0.021495594 -0.21325614 0.244366 -0.026153645 0.3116609 0.33637592 -0.40363133 0.3041899
0.3915593 0.034522116 -8.505411e-05 0.18639757 0.041036014 0.22177081 -0.026114391 0.26375222
0.061771773 0.026942087 -0.06584707 -0.18036379 0.111975566 0.31392524 -0.11691745 -0.09526112
0.38414374 0.14424177 0.14278525 0.27382958 0.06111019 0.35424048 0.27329898 -0.040653966
-0.36941564 -0.013156534 0.066589825 -0.002492793 -0.11512398 0.04060593 -0.35618088 -0.06456157
0.090281606 0.32505885 0.028561197 0.35688087 -0.024246989 0.010607189 -0.014161982 0.28288385
-0.3303258 -0.22429298 0.1830694 0.10200719 0.2737228 0.19132659 0.043219212 -0.048330925
0.30201894 -0.09479098 0.35853368 0.28807214 0.18330108 -0.009200872 0.048132733 -0.006545714
-0.36055025 -0.0075482433 0.13512327 0.04940645 0.13920066 0.010658414 -0.20116279 0.070627354
-0.10163601 -0.12571028 -0.15871647 -0.011529712 -0.18480535 -0.19430254 0.03341593 -0.10110762
0.10392339 0.17474444 0.15960564 0.0769965 0.07683093 -0.13222933 -0.19876489 -0.101017065
0.25794408 0.33289403 -0.05088784 -0.023861717 0.35701317 0.17212467 0.046606053 0.13448136
-0.10979322 -0.2865786 0.35936472 0.11686711 0.19593677 0.013941301 -0.20612161 0.18942264
-0.19344161 0.22879496 -0.074058406 0.018976174 0.1867956 0.16223532 0.13780127 0.0760178
0.102151595 0.08968307 0.15747924 -0.0528978 0.28713843 0.004957475 -0.04967415 -0.08199479
-0.020370767 -0.024204992 0.104542345 0.06846322 -0.023947721 0.03312188 0.09230187 0.2904834
-0.23810782 -0.3326731 0.16595376 -0.09309058 -0.0072154184 -0.1003397 -0.25522003 -0.06147029
0.3658068 0.16347635 0.07597187 0.08605686 0.38022643 0.25410566 -0.07765618 0.24259785
0.025774788 -0.29231584 0.2710145 0.095661476 0.37165755 0.3261965 -0.31781912 0.2509026
0.28830868 0.3499225 0.26736683 0.015301351 0.10874969 -0.0012286375 0.20511627 0.05648361
-0.39618385 0.0058006835 0.11520055 0.076363645 0.37760034 0.3995172 -0.25964978 0.22003606
0.08681757 0.23140118 0.40376365 -0.07776214 0.266215 0.30888486 -0.06943181 0.38067597
-0.31258652 -0.17155978 0.3039367 -0.050017927 -0.01435394 0.19771083 -0.25803837 0.36747947
00000000: 4118 54bd 9d55 973e 5480 f5bc 74cf 6f3e
00000010: dda8 833e 8773 bc3d a807 9dbd be69 903e
00000020: 5fb7 b93b e9c1 c0be 2fcb c93d b5de 293b
00000030: ad46 2abd d882 e23d 7e8e fcbd 1611 ce3e
00000040: c0be 123d 072c 14be a6b8 94bd 2829 17be
00000050: 427e 31be cc48 593e d59e 8ebd f657 213e
00000060: 0e9d 5bbe 2004 2bbe 1194 b2bc 7c64 71ba
00000070: 34a4 043e 516d b9bd b41c e4bd ebcc f63c
00000080: a525 a53e 917f 8d3e f794 adbd 5898 e3ba
00000090: 496d 6b3e 2e1e ec3d 935a 1d3e 2259 ad3e
000000a0: dd31 b3be 8536 a5be 8f77 cdbd cb72 033e
000000b0: e9d0 193c 9289 8d3e a4ea 493d 650c bb3d
000000c0: 8894 443e 07fb 013d dea1 f9bd 3b61 18be
000000d0: 04c3 413e 487d 663d e875 5e3e d4e4 7d3e
000000e0: 3447 85bd d097 533e f72d 51bd 61c6 88be
000000f0: 955a 97bc bf4a 07be 9cff ebbd 7439 6d3e
00000100: 2f8c a23e 9979 e2bd 107b 4f3e 75b3 543e
00000110: 5c01 a33e 849f 943e f55f 053e 88bf bc3e
00000120: 8717 b0bc d15f 5abe 153b 7a3e 2b40 d6bc
00000130: 0492 9f3e 7739 ac3e c4a8 cebe c7be 9b3e
00000140: 767a c83e 1067 0d3d 145f b2b8 01df 3e3e
00000150: 6115 283d e317 633e d9ed d5bc 880a 873e
00000160: 6604 7d3d a7b5 dc3c d4da 86bd 49b1 38be
00000170: 7253 e53d cfba a03e 6b72 efbd 4318 c3bd
00000180: 7dae c43e 1db4 133e 4c36 123e 6433 8c3e
00000190: ae4e 7a3d 025f b53e d8ed 8b3e c684 26bd
000001a0: 0c24 bdbe 818e 57bc 3f60 883d 205e 23bb
000001b0: 1fc6 ebbd 6752 263d 575d b6be db38 84bd
000001c0: 90e5 b83d 1d6e a63e 2cf9 e93c 17b9 b63e
000001d0: 9fa1 c6bc c6c9 2d3c a807 68bc 27d6 903e
000001e0: 7720 a9be 0fad 65be 8b76 3b3e 25e9 d03d
000001f0: 6525 8c3e 1eeb 433e a106 313d a6f6 45bd
00000200: 3aa2 9a3e c621 c2bd ba91 b73e 317e 933e
00000210: 47b3 3b3e 41bf 16bc d426 453d 6e7d d6bb
00000220: 0b9a b8be 4157 f7bb c15d 0a3e 6b5e 4a3d
00000230: 9e8a 0e3e a1a0 2e3c 9efd 4dbe 13a5 903d
00000240: 8a26 d0bd 32ba 00be 9286 22be 1ee7 3cbc
00000250: 9d3d 3dbe 3ff7 46be 24df 083d 8311 cfbd
00000260: c9d5 d43d 35f0 323e a96f 233e 57b0 9d3d
00000270: 8959 9d3d 2067 07be 0689 4bbe 09e2 cebd
00000280: 3f11 843e 1671 aa3e c56f 50bd a679 c3bc
00000290: 6eca b63e 7341 303e fde5 3e3d 7bb5 093e
000002a0: 45db e0bd 6eba 92be a7fe b73e 0658 ef3d
000002b0: a6a3 483e 0e6a 643c 8b11 53be 02f8 413e
000002c0: 8f15 46be 3a49 6a3e efab 97bd ec73 9b3c
000002d0: 5947 3f3e 0421 263e c71b 0d3e 38af 9b3d
000002e0: db34 d13d c2ab b73d 3d42 213e 5dab 58bd
000002f0: cf03 933e 5072 a23b 1f77 4bbd e2ec a7bd
00000300: 98e0 a6bc 8c49 c6bc 4c1a d63d 7236 8c3d
00000310: 032e c4bc cfaa 073d c308 bd3d 3dba 943e
00000320: 89d2 73be 2154 aabe c8ef 293e 46a6 bebd
00000330: 516f ecbb e77e cdbd 33ac 82be 45c8 7bbd
00000340: 074b bb3e 5866 273e 2497 9b3d 943e b03d
00000350: 0aad c23e 231a 823e 340a 9fbd 926b 783e
00000360: a625 d33c 6caa 95be 6ac2 8a3e 2aea c33d
00000370: e649 be3e 3a03 a73e 30b9 a2be 4e76 803e
00000380: 329d 933e 0b29 b33e 4ee4 883e 85b2 7a3c
00000390: 28b8 de3d 3c0a a1ba 000a 523e 5c5b 673d
000003a0: 9cd8 cabe a913 be3b 44ee eb3d 8b64 9c3d
000003b0: d554 c13e 858d cc3e d1f0 84be 2251 613e
000003c0: 69cd b13d 6ef4 6c3e 1cba ce3e c241 9fbd
000003d0: 554d 883e 2826 9e3e 4432 8ebd f6e7 c23e
000003e0: 570b a0be 5ead 2fbe 979d 9b3e 99df 4cbd
000003f0: ca2c 6bbc b574 4a3e 9b1d 84be 4526 bc3e

bias_ih_l0 f4 [64]
0.14381708 -0.1641076 0.32927355 0.114261724 0.007728846 0.121547386 0.33719015 -0.03258061
0.14796714 0.04282371 0.049860608 0.22508697 0.20060244 0.26635605 0.3849741 0.065577924
0.36506853 -0.06318277 -0.044187542 -0.05408939 0.34753677 0.2759838 0.34981397 0.0030549173
0.123143606 -0.086643435 0.18710889 -0.077523425 0.049516 0.08146708 0.07098442 0.112697326
-0.00225662 0.056105934 0.17343445 0.2690063 0.15610825 0.35346088 0.16320814 -0.049667023
-0.33864442 -0.10413763 0.18491943 -0.053394184 0.34468645 0.18994837 -0.16464238 0.36646917
0.24365804 0.07083582 0.29602844 0.25369212 0.09893595 0.20603524 0.0035257156 0.39511773
0.092143565 -0.18557666 0.32734373 0.17841882 -0.07765045 0.10854847 0.20337708 -0.06414437
00000000: c944 133e d30b 28be 8b96 a83e 0d02 ea3d
00000010: 4242 fd3b d6ed f83d 30a4 ac3e 3f73 05bd
00000020: b384 173e ea67 2f3d a33a 4c3d 337d 663e
00000030: ba6a 4d3e d25f 883e 531b c53e b84d 863d
00000040: 43ea ba3e f865 81bd fffd 34bd d68c 5dbd
00000050: 57f0 b13e c04d 8d3e d11a b33e 0235 483b
00000060: b732 fc3d 1d72 b1bd 7999 3f3e 9ac4 9ebd
00000070: 4ad1 4a3d 36d8 a63d 4860 913d dbcd e63d
00000080: cde3 13bb 56cf 653d cd98 313e 32bb 893e
00000090: d7da 1f3e d3f8 b43e 0920 273e a66f 4bbd
000000a0: cd62 adbe 1c46 d5bd 855b 3d3e dcb3 5abd
000000b0: be7a b03e d381 423e 0398 28be d9a1 bb3e
000000c0: 7e81 793e 5f12 913d 0a91 973e efe3 813e
000000d0: ee9e ca3d e7fa 523e b10f 673b df4c ca3e
000000e0: c4b5 bc3d cf07 3ebe 9999 a73e 6cb3 363e
000000f0: 3307 9fbd a94e de3d 1542 503e 205e 83bd

bias_hh_l0 f4 [64]
0.24396215 -0.16034883 0.37294635 -0.1780329 -0.0539236 0.23687926 0.3596612 0.03890689
0.02311691 0.1899308 -0.13732748 -0.12776972 0.03179451 0.20497166 0.2943372 0.034963746
0.032361183 -0.15724055 -0.12596136 0.21424727 0.058852255 -0.114036925 -0.10981518 -0.0012289818
0.097738996 -0.2158782 0.06416075 0.15992521 0.0014332426 0.15678127 0.25332704 -0.09553418
0.3374572 0.113247566 0.1057325 0.11236119 0.2898364 0.21279398 0.039404966 0.28669953
-0.10272814 -0.23119086 -0.035953026 0.0022354608 0.23351575 0.28319955 -0.15834226 0.13581967
-0.09271412 0.021642292 -0.04878573 -0.10782699 0.31715763 0.020556219 0.03840675 0.34487873
-0.09137179 0.2302453 0.107690245 -0.050629813 -0.025970638 -0.009756446 0.054368064 0.36058912
00000000: 37d1 793e 7c32 24be d3f2 be3e 424e 36be
00000010: fede 5cbd 7a90 723e 8325 b83e d55c 1f3d
00000020: ad5f bd3c 387d 423e 939f 0cbe 11d6 02be
00000030: f63a 023d 17e4 513e 5eb3 963e 2536 0f3d
00000040: 298d 043d ab03 21be 04fc 00be a363 5b3e
00000050: 100f 713d 318c e9bd c8e6 e0bd c915 a1ba
00000060: 622b c83d 2d0f 5dbe b666 833d 6fc3 233e
00000070: a4db bb3a 458b 203e 15b4 813e 6da7 c3bd
00000080: 31c7 ac3e 57ee e73d 488a d83d a01d e63d
00000090: 7065 943e aae6 593e 1a67 213d 48ca 923e
000000a0: 2263 d2bd 4cbd 6cbe 7b43 13bd cf80 123b
000000b0: c11e 6f3e 88ff 903e 7924 22be 5014 0b3e
000000c0: e7e0 bdbd 2d4b b13c 8cd3 47bd 66d4 dcbd
000000d0: 7c62 a23e 8465 a83c 6550 1d3d f293 b03e
000000e0: 2221 bbbd 6dc5 6b3e b48c dc3d 3561 4fbd
000000f0: 60c0 d4bc 80d9 1fbc 0cb1 5e3d 239f b83e

weight f4 [1, 16]
-0.37253246 0.019282084 -0.09538738 0.04657711 -0.16618156 -0.2587168 -0.34532294 -0.2838438
0.2637103 -0.033720322 -0.25349218 0.15902887 -0.10513531 -0.20593232 0.18620817 -0.15354334
00000000: 93bc bebe 76f5 9d3c 755a c3bd a4c7 3e3d
00000010: 802b 2abe 8776 84be 2bce b0be f953 91be
00000020: 0905 873e 521e 0abd bac9 81be 77d8 223e
00000030: 2e51 d7bd ecdf 52be 5bad 3e3e 773a 1dbe

weight f4 [1, 32]
0.11938511 0.09493478 -0.10507376 -0.069901325 0.040288463 -0.02819921 -0.107850224 0.13175957
0.10126726 0.13735996 0.15808861 -0.14510913 -0.09013908 0.061574057 0.06630261 -0.16609104
0.16418816 -0.066155545 -0.124064595 -0.055318415 0.03356944 -0.08020094 0.002543673 0.13272883
-0.13240097 0.0052598417 0.017037377 -0.12124805 0.049230024 -0.082329296 0.07968636 0.08968489
00000000: 2e80 f43d 2a6d c23d e930 d7bd 6d28 8fbd
00000010: 8405 253d 0802 e7bc 94e0 dcbd fbeb 063e
00000020: 3665 cf3d 17a8 0c3e fbe1 213e 7d97 14be
00000030: d79a b8bd 1435 7c3d aac9 873d c513 2abe
00000040: f120 283e 8f7c 87bd 9415 febd 9095 62bd
00000050: 1c80 093d 6440 a4bd c0b3 263b 11ea 073e
00000060: 1f94 07be c05a ac3b f891 8b3c e650 f8bd
00000070: 6ca5 493d 439c a8bd 9a32 a33d b6ac b73d
