competition/result/lstm_win3_noStandardized_2layer_8hidden_0.99g/trained_model/all_model/critic_num_epoch_6.pth (torch, 11128 bytes, 10 tensors)

weight_ih_l0 f4 [32, 11]
0	0x3e2069cb	0.15665357
1	0x3e6e007c	0.23242372
2	0xbed060fa	-0.40698987
3	0xbf037783	-0.51354235
4	0x3e508738	0.20364082
5	0x3e3472fb	0.17621987
6	0xbe3c0ed9	-0.18365039
7	0x3e539c8a	0.20665184
8	0xbec10528	-0.37699246
9	0x3ccfe8ef	0.025379626
10	0x3dd30eb8	0.10305542
11	0x3de9e08b	0.11419781
12	0xbd591f8c	-0.0530086
13	0x3dbde0f8	0.09271425
14	0xbcf4f003	-0.029899603
15	0xbe8f2e51	-0.27965024
16	0xbdc0b822	-0.094101205
17	0xbe9c629b	-0.3054398
18	0x3d5210e0	0.051285625
19	0x3e18a834	0.14907914
20	0x3e57267e	0.21010777
21	0xbe11e31a	-0.14246789
22	0x3e87de1b	0.2653664
23	0x3efa7d9d	0.4892396
24	0xbee1b812	-0.44085747
25	0xbe37a225	-0.17932947
26	0x3e4f2a47	0.20230971
27	0x3d203398	0.039111704
28	0x3d141ad9	0.036158416
29	0x3e816172	0.25269657
30	0xbdca9f1d	-0.0989363
31	0xbe5c38a5	-0.21505983
32	0xbbe66242	-0.007030756
33	0xbebe1443	-0.37124833
34	0x3ec8d141	0.39222148
35	0xbd54431e	-0.05182182
36	0x3c42144f	0.011845662
37	0x3d9d0a08	0.07667929
38	0xbe85f991	-0.26166967
39	0xbdaa3c56	-0.083122894
40	0x3e92c9bc	0.28669536
41	0xbe17d569	-0.14827503
42	0xbdeb3ae8	-0.11485845
43	0xbd97fb01	-0.07420922
44	0x3e32659b	0.17421572
45	0x3e961335	0.2931153
46	0x3d7868cc	0.060646817
47	0xbd8b7643	-0.06809666
48	0xbe8a4b0a	-0.27010375
49	0x3d754c7b	0.05988739
50	0x3c2ac1a4	0.010422144
51	0x3c4b6353	0.012413817
52	0x3d232ea2	0.039839394
53	0x3e967e6d	0.2939333
54	0x3c1e6e65	0.009669875
55	0xbe424fd1	-0.1897576
56	0x3d4fdab2	0.050745673
57	0xbe3cfe53	-0.18456392
58	0xbea2cd4b	-0.3179725
59	0xbd9c89cd	-0.07643471
60	0xbe1f6492	-0.15565708
61	0xbe808657	-0.25102493
62	0xbdf42f6e	-0.11923109
63	0xbe11d36e	-0.1424081
64	0x3d8f3227	0.06991988
65	0xbe58a228	-0.21155608
66	0x3e7d737e	0.24751088
67	0x3c678a6e	0.014132125
68	0xbcbc03a7	-0.02295096
69	0xbd9d6786	-0.07685761
70	0x3e295821	0.16537525
71	0x3e348899	0.17630233
72	0xbc6d5f8d	-0.014488113
73	0xbe19e991	-0.15030505
74	0x3e48fb23	0.19627051
75	0x3e6dc418	0.23219335
76	0x3dacf472	0.08445062
77	0xbcff5add	-0.031171257
78	0xbe089dc4	-0.13341433
79	0xbebe47ed	-0.3716425
80	0xbeb5388a	-0.35394698
81	0xbd15f3e9	-0.036609564
82	0x3e2ad61d	0.1668324
83	0xbd79c6b3	-0.06098051
84	0xbe9f8527	-0.31156275
85	0xbc4db66f	-0.012555703
86	0x3e8896fa	0.26677686
87	0xbe6e4875	-0.23269828
88	0x3cc08593	0.023501193
89	0x3ed50060	0.4160185
90	0xbe176e5a	-0.1478819
91	0xbe72f45f	-0.23726033
92	0xbe871daa	-0.2638982
93	0xbeac277a	-0.33623868
94	0x3e49e4ad	0.19716139
95	0xbeac7dac	-0.3368963
96	0xbe19165d	-0.14949937
97	0x3e1d8b04	0.15385062
98	0x3ea00b4d	0.31258622
99	0xbe138fc5	-0.14410312
100	0x3efcbf4f	0.49364707
101	0xbe54095b	-0.20706694
102	0xbd44dc9d	-0.048061956
103	0xbe885714	-0.26628935
104	0x3e7a4e86	0.24444017
105	0xbeb001e2	-0.34376436
106	0xbe4ca68a	-0.19985405
107	0xbdcd7a0f	-0.100330465
108	0x3e843b0d	0.25826302
109	0xbdbcde54	-0.09222093
110	0xba14d925	-0.0005678109
111	0x3e35427b	0.17701142
112	0xbe281bef	-0.16416906
113	0xbea7fcba	-0.32810003
114	0x3e166edc	0.14690727
115	0xbe65c8fd	-0.22439952
116	0x3e151199	0.14557494
117	0x3e62ca35	0.22147448
118	0xbdef168f	-0.116742246
119	0x3dcf12e1	0.10111023
120	0xbec04a80	-0.3755684
121	0xbdd4b2df	-0.103856795
122	0x3e363b11	0.1779597
123	0xbe1fe56a	-0.15614858
124	0xbe8ddfcf	-0.27709815
125	0xbcf6e60e	-0.030138995
126	0x3e3b7cea	0.1830937
127	0x3e6b90b2	0.23004416
128	0x3e8b38a4	0.2719165
129	0x3e7a7e17	0.24462162
130	0x3d8384a5	0.06421784
131	0xbd8d9bf9	-0.06914515
132	0x3d9a5b70	0.075369716
133	0xbd938e2d	-0.07204852
134	0x3cd427c5	0.02589787
135	0xbe3317f5	-0.17489608
136	0x3ce2eeee	0.027701821
137	0xbea0e172	-0.31422
138	0x3e8d3630	0.27580404
139	0x3e865b3e	0.26241487
140	0xbca8e915	-0.020618955
141	0xbe8302f4	-0.2558819
142	0x3e2f9a49	0.17148699
143	0xbe898427	-0.26858637
144	0x3ded8b4b	0.11598834
145	0xbed74939	-0.42048052
146	0xbeb827da	-0.35967904
147	0x3af02e37	0.001832432
148	0x3d83cd04	0.06435588
149	0xbeb8d8cc	-0.36102903
150	0x3e9cdf40	0.30639076
151	0x3dbfa495	0.093575634
152	0x3e2e882f	0.17044137
153	0x3e566dee	0.20940372
154	0xbea1a9f1	-0.31574968
155	0x3ebbd38b	0.36684832
156	0xbe5e51c9	-0.21710886
157	0xbcb5e00f	-0.022201566
158	0x3dad79fe	0.08470534
159	0x3db8decf	0.09026872
160	0x3d8fa7d0	0.070144296
161	0x3c79ad23	0.015239033
162	0xbd9bc5a0	-0.07606053
163	0x3d6a4d19	0.057202432
164	0xbc733698	-0.014844559
165	0xbe2953fb	-0.16535942
166	0x3e3c1707	0.18368159
167	0xbeb59b17	-0.35469887
168	0xbf05010f	-0.5195474
169	0xbeae5446	-0.3404867
170	0xbe2c1063	-0.16803126
171	0xbea30842	-0.31842238
172	0xbda2894c	-0.079363436
173	0x3e9e7e76	0.30955857
174	0x3d6fe849	0.058571134
175	0x3e451fdb	0.19250433
176	0xbe039712	-0.12850598
177	0x3ed27f7b	0.41112885
178	0xbec734c3	-0.38907441
179	0xbc5c772c	-0.013456147
180	0xbd47de0b	-0.04879574
181	0xbdac804e	-0.0842291
182	0xbe1c287d	-0.1524982
183	0x3e1e9cef	0.15489553
184	0xbe80a044	-0.25122273
185	0x3e8de920	0.27716923
186	0xbe17f0d7	-0.14837967
187	0x3e1c1eb0	0.15246081
188	0xbde67c4d	-0.11254177
189	0xbd21d557	-0.039510097
190	0x3e71b282	0.23603252
191	0x3e470319	0.19434775
192	0x3e4f9ffa	0.2027587
193	0x3bd6686d	0.0065432102
194	0x3d81dae1	0.06340576
195	0x3e3a6078	0.18200862
196	0xbdb468d7	-0.08809059
197	0xbe24653b	-0.16054241
198	0x3e61fc7a	0.22068968
199	0xbe030b9b	-0.12797396
200	0xbd2fc4ee	-0.042912416
201	0xbd8dd678	-0.06925672
202	0xbe069896	-0.13144144
203	0xbea93bd1	-0.3305345
204	0x3e923d9e	0.28562635
205	0x3e8ec834	0.27887118
206	0xbeabb4db	-0.3353642
207	0x395f7860	0.0002131178
208	0xbeb91268	-0.36146855
209	0x3e825248	0.254534
210	0xbd9285c1	-0.07154418
211	0x3ecd72d6	0.40126675
212	0x3e7e673f	0.24844073
213	0xbd9cb68b	-0.07652005
214	0xbe48cd5b	-0.19609587
215	0x3dfde564	0.123972684
216	0x3de1ded5	0.1102883
217	0xbe9d56f4	-0.30730402
218	0x3eb0d8bd	0.34540358
219	0x3e9d57f5	0.30731168
220	0xbe44cd96	-0.1921905
221	0xbeddbf01	-0.43309787
222	0x3ee8f8f2	0.4550243
223	0x3de3e544	0.11127713
224	0x3e922001	0.28540042
225	0xbe382685	-0.17983444
226	0x3e9ef62b	0.31047186
227	0xbc03063c	-0.007997092
228	0x3e9b82a6	0.30373114
229	0x3ea08d3a	0.31357747
230	0x3e3870c0	0.1801176
231	0x3e5b1ade	0.21396968
232	0xbd0810ed	-0.033219267
233	0xbe3b172d	-0.1827056
234	0x3ec7db08	0.39034295
235	0xbeac222f	-0.3361983
236	0xbd45eb7a	-0.04832027
237	0xbea166d6	-0.3152377
238	0x3e586a45	0.21134289
239	0x3e9e1daf	0.30882022
240	0x3e74b2f9	0.23896398
241	0xbe571147	-0.21002685
242	0xbe730da4	-0.23735672
243	0xbd5f23df	-0.05447757
244	0x3e09e4a7	0.1346613
245	0xbe8a04cc	-0.26956785
246	0xbc346450	-0.0110102445
247	0xbe97e3f9	-0.29666117
248	0x3d367c66	0.04455223
249	0xbe44ec6c	-0.19230813
250	0x3dd647d4	0.10462919
251	0xbe7a0cb9	-0.24418916
252	0x3e7c1509	0.246174
253	0xbe91bde5	-0.2846519
254	0x3dd37ccb	0.10326537
255	0x3dc94992	0.098284855

weight_hh_l0 f4 [32, 8]
0	0x3e63bc72	0.22239855
1	0xbe1fbf97	-0.1560043
2	0x3e78c1a5	0.2429262
3	0xbec8ee92	-0.39244515
4	0xbed9558b	-0.42448077
5	0x3d78958d	0.060689498
6	0xbe0f3c29	-0.13987793
7	0x3c59587c	0.013265725
8	0xbd4b68da	-0.04966054
9	0xbda72016	-0.08160417
10	0x3ebb6d12	0.36606652
11	0xbe423657	-0.18966042
12	0xbe6cc8f0	-0.23123527
13	0xbed7041b	-0.4199532
14	0x3e82048e	0.253941
15	0xbcfd6a79	-0.03093456
16	0x3ef171cd	0.47157136
17	0xbead15f6	-0.33805817
18	0xbd593a0b	-0.05303387
19	0xbe671ff0	-0.22570777
20	0xbe3d65f5	-0.18495925
21	0xbeef3ba8	-0.46725202
22	0x3ecf1101	0.4044266
23	0xbdce1e93	-0.10064425
24	0xbe8e41d5	-0.277846
25	0xbe8cadb5	-0.27476278
26	0x3e02552e	0.12727806
27	0xbeb99061	-0.36242965
28	0xbec7c930	-0.3902068
29	0x3da1c9d2	0.07899822
30	0x3e071a91	0.13193728
31	0x3ebcb280	0.36854935
32	0x3d2d3cf8	0.042294472
33	0xbe8a32be	-0.26991838
34	0xbe09136f	-0.1338632
35	0x3ddb4637	0.10706752
36	0xbe56ffa2	-0.20995954
37	0xbf081411	-0.5315562
38	0x3dba364a	0.09092386
39	0x3e9fd88a	0.31219894
40	0xbadf2ef2	-0.0017027541
41	0xbc760322	-0.015015395
42	0x3b56604b	0.0032711204
43	0xbd94d91b	-0.07267972
44	0x3e07a177	0.13245188
45	0x3c96a49c	0.018389039
46	0x3ea530f1	0.32263902
47	0x3ee24388	0.44192147
48	0xbc9dd5a9	-0.01926692
49	0xbed5ee7f	-0.4178352
50	0x3e44fa06	0.19236001
51	0xbe5c68c1	-0.21524335
52	0x3b837007	0.0040111574
53	0xbe510714	-0.20412856
54	0xbe30e650	-0.17275357
55	0xbe223354	-0.15839893
56	0xbd2634ad	-0.04057758
57	0xbe6d4586	-0.23171052
58	0x3da60ca5	0.081078805
59	0xbdf4e2a4	-0.11957291
60	0x3cce5b2d	0.02518996
61	0xbeeaa7b7	-0.4583108
62	0xbd692adf	-0.05692565
63	0x3e727480	0.23677254
64	0x3ed2ebe5	0.41195598
65	0xbead0949	-0.33796147
66	0x3e7fc2a4	0.24976593
67	0xbd1a755d	-0.037709583
68	0xbef604a2	-0.4805041
69	0xbe9f3323	-0.31093702
70	0x3ed01bfa	0.40646344
71	0x3c62e6a9	0.013848939
72	0x3e901a45	0.28145042
73	0xbe8bd965	-0.27314296
74	0x3f066b3b	0.5250737
75	0x3e5d4185	0.21607025
76	0xbe34648a	-0.17616478
77	0xbeeafc51	-0.45895627
78	0x3e3bc3f5	0.1833647
79	0x3eb1bbb8	0.3471353
80	0x3e85f099	0.26160124
81	0xbe1becef	-0.15227102
82	0x3d8ee567	0.06977349
83	0x3d85c7d8	0.06532258
84	0x3dbe8c8f	0.09304153
85	0x3e127203	0.14301305
86	0xbdfa99f6	-0.12236397
87	0xbdd044a5	-0.10169343
88	0xbe80a745	-0.25127617
89	0x3d6b796a	0.057488836
90	0x3da95f5a	0.0827014
91	0xbe9ef6d6	-0.31047696
92	0xbedd0279	-0.4316595
93	0xbe6ac7f0	-0.22927833
94	0x3e4c9d3e	0.19981858
95	0x3df88018	0.12133807
96	0x3ec19311	0.37807515
97	0xbda435f0	-0.080181
98	0x3e0b77bc	0.13619894
99	0xbeb0471a	-0.34429246
100	0xbe15e780	-0.14639091
101	0xbdd38615	-0.103283085
102	0xbdaa078b	-0.0830222
103	0xbd934a48	-0.071919024
104	0xbe001fd1	-0.12512137
105	0xbd41fb0d	-0.04735856
106	0x3ed070fc	0.407112
107	0xbcf64ee5	-0.030066917
108	0x3c8ef357	0.017450018
109	0xbe7cb7a9	-0.24679436
110	0x3edc78d8	0.43060946
111	0x3e5f4121	0.21802188
112	0x3dbccc1a	0.09218617
113	0xbd37808e	-0.044800334
114	0xbdf07ec4	-0.117429286
115	0xbe637c8e	-0.22215483
116	0xbde2b458	-0.11069554
117	0x3dc9e55a	0.098581985
118	0x3baf2b2f	0.005345724
119	0x3eacff3f	0.33788487
120	0x3f0cb53b	0.54964036
121	0xbcd1e216	-0.025620501
122	0x3e9a4764	0.30132592
123	0x3e2a6636	0.16640553
124	0xbedd536c	-0.43227708
125	0xbe34a19e	-0.17639777
126	0x3ecf17d3	0.40447864
127	0x3e3bbfed	0.18334933
128	0x3dacd068	0.08438188
129	0xbf024150	-0.5088091
130	0x3d0098c9	0.031395707
131	0x3e3e7858	0.18600595
132	0x3de0709d	0.10958979
133	0xbf0ae03c	-0.54248405
134	0x3ed57c12	0.4169622
135	0x3e93909d	0.2882127
136	0xbe643b4b	-0.22288243
137	0x3e0f265a	0.13979474
138	0xbe0775d3	-0.1322854
139	0x3ca7cf8d	0.02048471
140	0xbd6c0b69	-0.05762807
141	0x3e52c090	0.2058127
142	0xbec4437a	-0.3833273
143	0xbe9af023	-0.30261335
144	0x3eb41422	0.3517161
145	0xbe84d4f4	-0.2594372
146	0x3ee2a6f5	0.44268003
147	0xbe37fdcd	-0.17967911
148	0xbe8c5dd9	-0.2741535
149	0xbe9abbf5	-0.30221525
150	0x3e8fb5d0	0.280684
151	0x3e172292	0.14759281
152	0xbd9c48bb	-0.0763106
153	0x3e53f1e6	0.20697746
154	0xbd38b071	-0.045090143
155	0xbd6737c9	-0.056449685
156	0xbe045a10	-0.12924981
157	0x3ddf017b	0.10888954
158	0xbec805c5	-0.39066902
159	0x3ce59148	0.028023377
160	0xbee16f60	-0.44030285
161	0x3f071a74	0.5277474
162	0xbe5cd707	-0.21566401
163	0xbe38fba6	-0.18064746
164	0x3c7f9566	0.015599584
165	0xbd0cc6e4	-0.034369364
166	0xbe8b9709	-0.27263668
167	0x3ce1730d	0.02752068
168	0x3de5f3bf	0.112281315
169	0xbd9eef7f	-0.07760524
170	0xbe9e58bb	-0.3092707
171	0x3dc6a033	0.09698524
172	0xbe429c81	-0.19005014
173	0x3ea466db	0.32109722
174	0xbeff27bd	-0.49835005
175	0xbe9f71b7	-0.31141445
176	0x3cec0295	0.028809825
177	0x3d6d63f1	0.05795664
178	0x3c22a2e6	0.009926533
179	0x3dce1df3	0.10064306
180	0xbeda0968	-0.425853
181	0xbe13e83a	-0.14444056
182	0x3cc37e11	0.023863824
183	0xbe447ae7	-0.19187509
184	0x3e0d2fe0	0.13787794
185	0x3dea32f3	0.11435499
186	0x3e7b7f81	0.24560358
187	0xbdc8a643	-0.09797337
188	0xbedac5e4	-0.42729104
189	0xbdf4e33a	-0.119574025
190	0x3e90e5ca	0.28300315
191	0xbdd38bb0	-0.10329378
192	0x3de759e8	0.11296445
193	0xbecd36a5	-0.40080753
194	0xbc28581f	-0.010274916
195	0xbc90961c	-0.017649703
196	0xbed136c0	-0.40862083
197	0xbd1433ea	-0.03618232
198	0x3f0858f7	0.5326075
199	0xbceb6984	-0.028736837
200	0x3e7e2104	0.24817282
201	0xbd0af6c3	-0.033926737
202	0x3ec22996	0.37922353
203	0xbe8f5f61	-0.28002456
204	0xbeaf4fc1	-0.34240535
205	0xbc3ffbbc	-0.011717733
206	0x3e323a22	0.17404988
207	0xbd86c28e	-0.06580077
208	0x3ec81cc4	0.39084446
209	0xbe264218	-0.1623615
210	0xbc03fa33	-0.008055258
211	0x3c03f255	0.008053382
212	0xbe881efd	-0.26586142
213	0xbd62d808	-0.055381805
214	0x3e6886ee	0.22707722
215	0xbdc40122	-0.095705286
216	0x3e53a270	0.20667434
217	0xbe71f645	-0.236291
218	0xbe4c8b73	-0.1997507
219	0xbe845d01	-0.25852206
220	0x3cc1983d	0.023632163
221	0xbe987fc3	-0.29784974
222	0x3e48c1b2	0.19605139
223	0x3e076c85	0.1322499
224	0x3d96130e	0.07327853
225	0xbee7bd52	-0.45261627
226	0x3e123143	0.14276604
227	0xbe4e3261	-0.20136406
228	0xbec895b9	-0.3917673
229	0x3dadcca4	0.08486298
230	0x3ebbd9c0	0.36689568
231	0x3e5489d5	0.20755704
232	0x3db6299e	0.088946566
233	0x3d425e8f	0.04745346
234	0x3e837a45	0.25679222
235	0x3e0b8a3e	0.13626954
236	0x3d98cbf1	0.07460774
237	0xbe009914	-0.12558395
238	0x3e894405	0.26809707
239	0x3ea2591b	0.31708607
240	0x3eb3885b	0.35064968
241	0x3d9eedb3	0.07760181
242	0x3e98a636	0.2981431
243	0xbd9efdc3	-0.07763245
244	0xbe10ede9	-0.14153256
245	0xbefdb8d8	-0.49555087
246	0x3e3fcd54	0.1873067
247	0x3d5fedf9	0.054670308
248	0x3eaba0cd	0.3352112
249	0xbed0850e	-0.40726513
250	0x3dbe604b	0.0929571
251	0xbe347e97	-0.17626415
252	0x3bcc6007	0.0062370333
253	0xbd565122	-0.052323468
254	0x3c50736c	0.012722831
255	0x3deca6ea	0.11555274

bias_ih_l0 f4 [32]
0	0x3ea92a17	0.33039925
1	0x3ebd8861	0.3701811
2	0x3ef2bcac	0.4740957
3	0x3e9f79c7	0.31147596
4	0x3e829d3a	0.2551058
5	0xbcdfd9c1	-0.027325513
6	0x3e7e68ff	0.2484474
7	0x3ecf7b05	0.40523544
8	0xbd5b25ba	-0.053502776
9	0x3ecae297	0.39626
10	0xbdd52002	-0.10406496
11	0xbe95d3b1	-0.2926307
12	0xbe112b65	-0.1417671
13	0x3e654c5c	0.2239241
14	0xbe5af6fe	-0.21383283
15	0x3ed3376f	0.4125323
16	0x3f0578ab	0.5213725
17	0xbedf99a2	-0.436719
18	0x3ef23597	0.4730651
19	0xbe818779	-0.2529867
20	0x3e26f7a1	0.163054
21	0x3d57b4cd	0.05266266
22	0x3e77b048	0.2418834
23	0x3ef2e25c	0.47438323
24	0x3ecd678b	0.4011806
25	0x3e9b7d5a	0.30369073
26	0x3eb97efa	0.36229688
27	0xbe15815b	-0.14600126
28	0x3e8dd8f7	0.27704594
29	0x3ee668b0	0.45001745
30	0x3c97c376	0.01852582
31	0x3eae7e5f	0.34080788

bias_hh_l0 f4 [32]
0	0xbcc623c0	-0.024186969
1	0x3e9c0161	0.30469802
2	0x3d72efb1	0.05931062
3	0xbe8a0778	-0.26958823
4	0x3e87a5b6	0.26493615
5	0xbd7ba961	-0.06144083
6	0xbe37ade8	-0.17937434
7	0x3f0db6f6	0.553573
8	0xbce605d9	-0.02807896
9	0x3ef7c25f	0.4839048
10	0x3ec8f719	0.3925102
11	0xbe610e2f	-0.21978067
12	0xbe40c57b	-0.18825333
13	0x3eb8e572	0.36112553
14	0x3ebddaba	0.37080938
15	0xbe1a6cfa	-0.15080634
16	0x3e9d02a5	0.3066608
17	0x3ddd5100	0.10806465
18	0x3e79ee2f	0.24407266
19	0x3de51aeb	0.11186775
20	0xbecd5dfa	-0.4011076
21	0xbeeb2639	-0.459276
22	0x3ee5f68c	0.44914663
23	0xbd458b6d	-0.04822867
24	0x3eadc659	0.3394039
25	0x3ecdb9a8	0.40180707
26	0xbd101ff0	-0.035186708
27	0x3e201cc1	0.15635969
28	0xbdbd8fdc	-0.092559546
29	0x3ed5efbd	0.41784468
30	0x3ddad851	0.1068579
31	0xbd98645c	-0.07441017

weight_ih_l1 f4 [32, 8]
0	0xbd9c6a1a	-0.07637425
1	0xbedabf80	-0.42724228
2	0x3edb1c44	0.42795002
3	0x3e7c6a4e	0.24649927
4	0xbe36edf8	-0.17864215
5	0x3d4e302c	0.05033891
6	0xbdcd752e	-0.10032116
7	0x3e7dba9e	0.2477822
8	0x3de49c20	0.11162591
9	0xbee3540c	-0.4440006
10	0x3ef4bec0	0.4780178
11	0xbeb45adf	-0.3522558
12	0xbe89d29d	-0.26918498
13	0xbe79c1ac	-0.24390286
14	0xbda7bc28	-0.08190185
15	0x3e999cb2	0.30002362
16	0x3db619d7	0.08891647
17	0xbda30661	-0.07960201
18	0xbbb28bcb	-0.0054487935
19	0xbe3ca884	-0.18423659
20	0xbeb3bae6	-0.3510353
21	0xbd822c9d	-0.063561656
22	0x3d27acaa	0.04093615
23	0x3aa75bcf	0.001276845
24	0xbe771953	-0.24130754
25	0xbdba4a63	-0.090962194
26	0x3e87e9b1	0.2654548
27	0xbe46a823	-0.19400077
28	0x3d644506	0.05572989
29	0xbda27faa	-0.07934506
30	0x3ec36906	0.38166064
31	0x3e625820	0.2210393
32	0x3e27db9d	0.1639237
33	0xbeda186d	-0.4259676
34	0x3e3f5ea0	0.1868844
35	0xbec36ecf	-0.38170478
36	0xbec1a56c	-0.3782152
37	0x3e3b1fc8	0.18273842
38	0x3e805457	0.25064346
39	0x3e3faa2c	0.18717259
40	0x3da71049	0.08157403
41	0x3cfca270	0.030839175
42	0x3f09cd6a	0.5382906
43	0x3e6aa27a	0.22913542
44	0x3db64650	0.0890013
45	0xbea840bd	-0.3286189
46	0x3cf00d8a	0.02930333
47	0x3e178339	0.14796151
48	0x3ea19c52	0.31564575
49	0xbe61c5ab	-0.2204806
50	0xbe48a0f0	-0.19592643
51	0xbe615c5f	-0.22007893
52	0xbe83ae7d	-0.25719061
53	0x3d364ab3	0.044504832
54	0x3da46d9b	0.08028718
55	0x3e2377a2	0.15963605
56	0x3f0baadb	0.5455758
57	0xbed10299	-0.40822294
58	0x3e1df1bc	0.15424246
59	0xbd70b667	-0.058767702
60	0xbe86e358	-0.26345325
61	0xbec7c2f1	-0.39015916
62	0x3d3b423f	0.045717474
63	0x3f090907	0.535294
64	0x3bd2c18e	0.006431765
65	0xbe8f2075	-0.2795445
66	0x3eef6770	0.46758604
67	0xbe74b188	-0.23895848
68	0xbe7c0d03	-0.24614339
69	0x3cc23eb7	0.023711545
70	0xbd8b0126	-0.067873284
71	0xbd639ff1	-0.055572454
72	0xbe0a5ff2	-0.13513163
73	0xbe3e22d2	-0.1856797
74	0x3d5ea03a	0.054352023
75	0x3bafff88	0.005371038
76	0xbdb8c224	-0.090214044
77	0xbefb59d0	-0.4909196
78	0x3e8dbfce	0.27685398
79	0x3ee24e23	0.4420024
80	0x3f0165a0	0.5054569
81	0xbeac8ef0	-0.33702803
82	0x3da7f557	0.08201092
83	0xbd1a3b17	-0.03765401
84	0xbb4c738e	-0.0031196806
85	0xbe17700f	-0.1478884
86	0x3daceb8c	0.084433645
87	0x3e3dc489	0.18532003
88	0xbe905c32	-0.2819534
89	0x3e418e23	0.18901877
90	0x3e5ddade	0.21665522
91	0x3e10e883	0.14151196
92	0xbe16f497	-0.14741741
93	0x3e731c93	0.23741369
94	0x3e6f2f81	0.23357965
95	0x3e871de4	0.26389992
96	0x3e82133b	0.25405297
97	0xbe8419c0	-0.25800896
98	0xbe6fd360	-0.23420477
99	0xbea7138f	-0.3263211
100	0x3cb009ee	0.02148911
101	0xbe8f6ae1	-0.2801123
102	0x3e7fb4a0	0.24971247
103	0xbe0716fc	-0.13192362
104	0x3eb443e4	0.35208046
105	0xbc97d98f	-0.018536357
106	0x3f031349	0.512013
107	0x3e8b1079	0.27161005
108	0xbd068b52	-0.03284771
109	0xbf0619b3	-0.52382964
110	0x3e820d93	0.2540098
111	0x3ed51169	0.41614845
112	0xbe178845	-0.14798076
113	0xbe6ddc23	-0.23228507
114	0xbe5f9e0e	-0.21837637
115	0x3e4b3709	0.19845213
116	0x3db870fe	0.090059265
117	0xbc94a8df	-0.01814693
118	0x3e4f0920	0.20218325
119	0x3ea00985	0.31257263
120	0xbc76da27	-0.01506666
121	0xbe203735	-0.1564606
122	0xbd8e4d90	-0.069483876
123	0xbe47927b	-0.19489472
124	0xbecbbae1	-0.39791015
125	0xbeb3b768	-0.35100865
126	0x3f09f9d3	0.53896827
127	0x3ea7e385	0.3279077
128	0x3e2c1c87	0.16807757
129	0xbd173974	-0.036920026
130	0x3ed3bcf5	0.413551
131	0xbc1f40a7	-0.009720004
132	0x3ddfe333	0.10932007
133	0xbeab0138	-0.33399367
134	0xbdaac4fa	-0.083383515
135	0x3ef8a13d	0.48560515
136	0x3c86ba9e	0.016446408
137	0x3bd33992	0.006446072
138	0x3c149265	0.009068106
139	0x3e80e842	0.251772
140	0x3e8d645b	0.27615628
141	0x3e06e10e	0.13171789
142	0x3c48662f	0.012231394
143	0x3d1dae45	0.038496275
144	0x3e5ef20f	0.21772026
145	0xbe822e06	-0.25425738
146	0x3ed1d448	0.4098227
147	0xbec6fb50	-0.3886361
148	0xbed4ffc1	-0.41601375
149	0xbec13c41	-0.37741283
150	0xbe4ff4a8	-0.20308173
151	0x3eec5770	0.4616046
152	0x3e6b1641	0.22957708
153	0xbe6168fa	-0.22012702
154	0xbe140f68	-0.14459002
155	0xbeb26fbe	-0.34850878
156	0xbd96fb1c	-0.07372114
157	0xbe8edc1e	-0.2790231
158	0x3e2ab6a9	0.16671242
159	0x3ec993da	0.39370614
160	0x3efb90ed	0.49134007
161	0xbeb09832	-0.34491116
162	0x3d3c9141	0.046036962
163	0xbd4281e8	-0.04748717
164	0xbe1ed175	-0.15509589
165	0xbe746a2a	-0.23868623
166	0x3eb8b294	0.36073744
167	0x3de02b82	0.109457985
168	0x3e93f0a7	0.2889454
169	0xbda5a17d	-0.08087442
170	0x3eb2b9c5	0.34907356
171	0x3e2832e1	0.16425659
172	0xbe84b2f2	-0.25917774
173	0x3bbc4fd5	0.0057468214
174	0x3ef73bc6	0.4828779
175	0xbe004396	-0.12525782
176	0x3e135f73	0.1439188
177	0x3e2c959d	0.16853948
178	0xbdb42c06	-0.08797459
179	0xbe9b0d93	-0.30283794
180	0x3e2c7452	0.16841248
181	0xbeb97080	-0.36218643
182	0x3ea3d211	0.31996205
183	0x3e9c1d95	0.3049132
184	0xbdee889c	-0.1164715
185	0xbe58b17c	-0.21161455
186	0x3efe07c6	0.49615306
187	0xbeca2dac	-0.3948797
188	0xbeda41e7	-0.42628404
189	0xbe8f0af2	-0.27938038
190	0xbd4fff6e	-0.050780706
191	0x3eb3ea2e	0.35139602
192	0x3f15c797	0.58507675
193	0xbe853dd5	-0.26023737
194	0x3ef5e8c3	0.48029146
195	0x3dd1ba18	0.10240573
196	0x3de2f0b6	0.11081068
197	0xbebcd40f	-0.36880538
198	0x3dfcba50	0.12340224
199	0x3e837bd1	0.25680402
200	0x3eaa2fa2	0.33239466
201	0xbf0b65fb	-0.54452485
202	0x3e032ef6	0.12810883
203	0xbecf6653	-0.40507755
204	0xbe54e2fa	-0.2078971
205	0xbf06754a	-0.5252272
206	0x3edf6327	0.43630335
207	0x3cf72d7a	0.030173052
208	0x3e5e5cea	0.21715131
209	0xbeb01023	-0.3438731
210	0xbd7377a6	-0.059440278
211	0x3e2289c9	0.15872873
212	0xbe3318c1	-0.17489912
213	0xbebb6f61	-0.36608413
214	0x3eb347b8	0.35015655
215	0x3d67d43b	0.056598883
216	0x3e95b0f7	0.29236576
217	0x3e2f8a12	0.17142513
218	0x3e38f45c	0.18061966
219	0x3d6a901f	0.05726635
220	0xbdf1aed4	-0.11800924
221	0xbec9d40f	-0.394196
222	0x3e99eebe	0.30064958
223	0xbdbea8d7	-0.093095474
224	0x3dc0b0cd	0.09408722
225	0xbdcc6fe7	-0.09982281
226	0xbd8bda47	-0.068287425
227	0xbe011f89	-0.12609686
228	0xbeb3b19f	-0.35096452
229	0xbe89df36	-0.2692811
230	0xbe0ad144	-0.13556391
231	0x3cdf6310	0.027268916
232	0x3ea94270	0.330585
233	0xbcc30741	-0.02380717
234	0x3e195964	0.14975506
235	0xbd3b6551	-0.04575092
236	0x3b33647b	0.0027373123
237	0xbe2e0c29	-0.16996826
238	0x3df2a0f7	0.11847108
239	0x3e882ad6	0.2659518
240	0xbdb5d63d	-0.08878753
241	0xbd9a5971	-0.07536591
242	0x3ed1a32a	0.40944797
243	0xbe9cf2fc	-0.30654132
244	0xbe947ec1	-0.29002956
245	0xbedff106	-0.43738574
246	0x3eecde14	0.46263182
247	0x3ea582a6	0.3232624
248	0x3f0d7cfd	0.5526884
249	0x3c86ad95	0.016440192
250	0x3e5ff235	0.21869738
251	0x3e7aa3b4	0.2447651
252	0xbe0c45a7	-0.13698445
253	0xbd065b28	-0.032801777
254	0x3efbe833	0.4920059
255	0x3ef4a0f2	0.47779042

weight_hh_l1 f4 [32, 8]
0	0xbda92fbe	-0.08261059
1	0xbe6be9b4	-0.2303837
2	0x3f01af2b	0.5065791
3	0x3e36d305	0.17853935
4	0x3d836638	0.06415981
5	0xbccd6137	-0.02507077
6	0x3ee984fe	0.45609277
7	0x3db9ac12	0.09066023
8	0x3cce91b8	0.025215968
9	0xbe0448fd	-0.12918468
10	0x3ef438b5	0.47699514
11	0x3d3b5c66	0.045742415
12	0x3e944787	0.2896082
13	0x3e38feb1	0.18065907
14	0x3e9d7da8	0.3075993
15	0x3ee449cd	0.44587556
16	0x3e9a6789	0.30157116
17	0xbea46db1	-0.32114938
18	0xbd822e88	-0.063565314
19	0x3e97562a	0.29557925
20	0xbe5ca7fe	-0.21548459
21	0xbd174836	-0.0369341
22	0x3dfa8f38	0.12234348
23	0x3e2e11d3	0.16998987
24	0x3eab0843	0.3340474
25	0x3bfc8caa	0.007707198
26	0x3e1ceee6	0.15325508
27	0x3e52d94b	0.20590703
28	0xbd34c69b	-0.044134717
29	0x3e945afb	0.28975663
30	0x3ec1845c	0.37796295
31	0xbe0960bd	-0.13415809
32	0x3ee8b364	0.45449364
33	0xbe959a1b	-0.29219136
34	0x3e747c0f	0.2387545
35	0x3d8390af	0.064240806
36	0x3ed59cdf	0.41721246
37	0x3e3da26b	0.18518989
38	0xbe1da09f	-0.15393303
39	0x3e7e8319	0.24854697
40	0x3d2c87c1	0.042121653
41	0xbeb2c232	-0.34913784
42	0x3dd7782b	0.10520967
43	0xbc14526c	-0.009052854
44	0x3e7c59b2	0.24643591
45	0x3dd5df1a	0.10442944
46	0xbd84dfbd	-0.06487987
47	0x3e002174	0.12512761
48	0x3e755ab6	0.23960385
49	0x3e0044bf	0.12526225
50	0xbe1b7791	-0.1518233
51	0x3dca8ca1	0.09890104
52	0x3eb2ab1d	0.34896174
53	0x3e9c350e	0.30509228
54	0x3e96e1dc	0.29469192
55	0x3d8ae2f1	0.06781567
56	0x3da8e85d	0.08247445
57	0xbe995d5c	-0.2995404
58	0xbdda31f7	-0.10654061
59	0xbea1229c	-0.31471717
60	0xbd33b829	-0.0438768
61	0x3d1a1c36	0.03762456
62	0xbdf10c7e	-0.11769961
63	0x3e822d27	0.25425074
64	0x3d72a003	0.05923463
65	0xbd9c53e0	-0.076331854
66	0x3efbe730	0.4919982
67	0x3e38e231	0.18055035
68	0x3dbf0d92	0.0932876
69	0x3d7168ef	0.058937963
70	0x3dcc30f4	0.099702746
71	0x3d80879a	0.06275864
72	0x3ede7a5a	0.43452722
73	0x3de55e39	0.11199612
74	0xbd7963bb	-0.060886126
75	0xbea47967	-0.32123873
76	0x3e84a3b0	0.25906134
77	0x3ee32b44	0.44368947
78	0xbe14c617	-0.1452869
79	0x3cf13e89	0.029448764
80	0x3e52388a	0.2052938
81	0xbe018a41	-0.12650396
82	0x3eaa4252	0.33253723
83	0xbe2d8b49	-0.16947664
84	0xbe171a77	-0.1475619
85	0x3ec6b48e	0.38809627
86	0x3d1b667d	0.037939537
87	0xbc3c1bdb	-0.011481251
88	0x3e1a80e5	0.15088232
89	0x3e755704	0.23958975
90	0xbe91db95	-0.2848784
91	0xbdb3ed62	-0.087855116
92	0x3efc23b5	0.49245992
93	0x3ec5655b	0.3855389
94	0x3ae37341	0.0017353074
95	0xbcb6d162	-0.022316638
96	0xbe80fc87	-0.25192663
97	0xbd919c28	-0.071098626
98	0xbe890ffa	-0.26770002
99	0x3e8e9213	0.2784582
100	0xbcb88597	-0.022524638
101	0xbe287bf3	-0.16453533
102	0xbe74daf8	-0.23911655
103	0x3d8d3d10	0.068964124
104	0xbde06d86	-0.1095839
105	0xbcb0633b	-0.021531692
106	0xbddc60f2	-0.10760678
107	0x3e0c9d19	0.13731803
108	0xbe288af9	-0.16459264
109	0x3ebc8882	0.36822897
110	0x3f0738c0	0.5282097
111	0x3ee949e1	0.45564178
112	0x3e6234e7	0.22090493
113	0x3e207e03	0.1567307
114	0xbe0997af	-0.13436769
115	0x3ea86ef0	0.3289714
116	0x3ea97b51	0.33101895
117	0xbd433ed1	-0.04766733
118	0x3c0edf9f	0.008720308
119	0xbda911ae	-0.08255325
120	0xbdcfcdf7	-0.101467066
121	0x3ddb3a36	0.10704462
122	0x3dc6cbf6	0.09706871
123	0x3c930d7b	0.017950764
124	0xbdc6dd9d	-0.09710238
125	0xbcabf245	-0.020989547
126	0x3ea12c67	0.3147919
127	0x3e61c438	0.22047508
128	0xbbe25420	-0.006907001
129	0xbee63624	-0.4496318
130	0xbdf32e1e	-0.118740305
131	0x3e847731	0.25872186
132	0xbe7b897d	-0.24564166
133	0xbd778930	-0.060433567
134	0x3f0af4ad	0.54279596
135	0x3ef8e95b	0.48615536
136	0xbea57768	-0.32317662
137	0x3e8df167	0.27723238
138	0x3deff0c1	0.11715842
139	0xbe955a21	-0.29170325
140	0x3db9c459	0.090706535
141	0xbe320c6f	-0.17387556
142	0xbebf20da	-0.3732975
143	0xbc8c2fc7	-0.017112626
144	0x3ef2f9dc	0.47456253
145	0xbe546c6e	-0.20744488
146	0xbd44a32e	-0.048007183
147	0xbd943332	-0.07236327
148	0x3e15fa64	0.14646298
149	0x3eca3faa	0.39501697
150	0xbdb06ec1	-0.08614875
151	0x3ead04fe	0.3379287
152	0x3e3c967c	0.1841678
153	0xbe6532f1	-0.22382714
154	0x3ebf6fc8	0.3738997
155	0xbe3a0126	-0.181645
156	0x3e32e81a	0.17471352
157	0x3c3c3359	0.011486852
158	0x3eebcc2e	0.46054214
159	0x3dcd4e6c	0.100247234
160	0x3ef96291	0.48708013
161	0xbd268c2b	-0.04066102
162	0x3ee491fb	0.44642624
163	0x3da64829	0.08119232
164	0x3dd91584	0.10599807
165	0x3ed1e6d6	0.40996426
166	0x3ea88bb2	0.3291908
167	0x3ef99869	0.48749092
168	0xbda316aa	-0.07963307
169	0xbe80d05a	-0.2515896
170	0x3e98d050	0.2984643
171	0x3ce39cfd	0.027784819
172	0x3e1f3f71	0.15551545
173	0x3edc5f09	0.43041256
174	0x3e3f9d56	0.18712363
175	0x3d9c0b5a	0.07619353
176	0x3e9fd415	0.31216493
177	0xbec72759	-0.38897207
178	0xbe5cbd14	-0.21556503
179	0x3dcf5731	0.10124052
180	0x3e8adc1c	0.27121055
181	0x3d43e38b	0.047824424
182	0x3cefbcf7	0.02926491
183	0x3e3929e5	0.18082388
184	0xbd3b0e58	-0.045667976
185	0x3e353d54	0.17699176
186	0x3e3a0102	0.18164447
187	0x3eaa482a	0.33258182
188	0xbe23d116	-0.15997729
189	0x3e9ea362	0.30984026
190	0x3ee6dc45	0.45089927
191	0x3e317719	0.17330588
192	0x3e0dcc17	0.13847385
193	0xbe8c2c6c	-0.2737764
194	0x3e858f90	0.26086092
195	0x3e64bbe6	0.22337303
196	0xbea11ad3	-0.31465778
197	0x3f15b718	0.58482504
198	0x3f0142ef	0.5049276
199	0x3f04bb6e	0.51848495
200	0xbe085d1a	-0.13316765
201	0xbef44735	-0.47710577
202	0x3e40d794	0.18832237
203	0xbd91f586	-0.07126908
204	0x3ebc41ab	0.3676885
205	0x3ebb1c05	0.36544815
206	0x3e8e25d9	0.2776325
207	0x3f04b2d6	0.5183538
208	0x3d9a9b86	0.07549195
209	0xbe16872b	-0.147
210	0x3e9a7939	0.3017061
211	0xbe7af5c2	-0.24507812
212	0xbe1ca573	-0.15297489
213	0x3ed77513	0.42081508
214	0x3efa684a	0.4890769
215	0xbd574370	-0.052554548
216	0xbd5288a4	-0.051399842
217	0xbe3c7031	-0.18402173
218	0x3e663d8d	0.22484417
219	0x3e12ac7d	0.14323612
220	0x3e38024b	0.17969625
221	0x3e3ba0f9	0.18323125
222	0x3edc128f	0.4298291
223	0xbe4433dd	-0.1916041
224	0x3eeda546	0.46415156
225	0x3dc9ab52	0.0984713
226	0x3e4d140d	0.2002718
227	0x3eabbc86	0.3354227
228	0x3e0d2120	0.13782167
229	0x3e36b693	0.17843084
230	0x3d67c07c	0.05658005
231	0xbe4090af	-0.18805192
232	0x3f03e844	0.51526284
233	0x3d15a14f	0.03653079
234	0x3e9186b7	0.28423092
235	0x3ebf3ccf	0.3735108
236	0x3de786dc	0.11305019
237	0x3e8ae9c5	0.27131477
238	0x3d7a5f92	0.0611263
239	0xbd8fcc38	-0.070213735
240	0x3ec80c04	0.39071667
241	0xbec3b680	-0.38225174
242	0x3d3dd33c	0.046344027
243	0x3d9d8256	0.07690875
244	0xbd24c72b	-0.040229004
245	0x3e0af3a6	0.13569507
246	0x3c852bcb	0.016256234
247	0x3e68ff1e	0.2275357
248	0x3ebbbeac	0.3666891
249	0xbdfabbae	-0.12242828
250	0x3e7ac4f7	0.24489199
251	0x3ed44756	0.41460675
252	0xbccc9b3a	-0.024976362
253	0xbdc90bb0	-0.09816682
254	0xbe09b588	-0.13448155
255	0x3f0a957a	0.54134333

bias_ih_l1 f4 [32]
0	0x3e9d3d51	0.30710843
1	0x3e9382fa	0.28810865
2	0x3e69f80d	0.2284853
3	0x3e7a6324	0.24451882
4	0x3ea18cdb	0.31552777
5	0x3e2271e9	0.15863766
6	0x3e790abf	0.24320506
7	0x3e15e4b5	0.14638026
8	0x3f035aff	0.51310724
9	0x3e7dafcc	0.24774092
10	0xbdf94265	-0.12170867
11	0xbd4b097f	-0.049569603
12	0x3de0967d	0.10966203
13	0x3e6c2455	0.23060735
14	0xbc2729aa	-0.010202805
15	0x3e99325b	0.2992123
16	0xbd60c13e	-0.05487179
17	0xbed67671	-0.4188724
18	0x3df4f15d	0.11960099
19	0xbbefc792	-0.007317492
20	0xbe4749b1	-0.19461705
21	0xbe2546f7	-0.16140352
22	0x3e9b71f1	0.30360368
23	0x3e77c253	0.24195223
24	0x3dfa4f80	0.12222195
25	0x3ee3a925	0.44464985
26	0x3ece450f	0.40287063
27	0x3ca093f1	0.019601794
28	0x3e8e8604	0.2783662
29	0x3d9764c4	0.073922664
30	0x3c5e7455	0.01357754
31	0x3cff6deb	0.031180343

bias_hh_l1 f4 [32]
0	0x3c62c3af	0.0138406
1	0x3ebd526b	0.36976942
2	0x3e5ff8ca	0.21872249
3	0xbe40f5fc	-0.18843836
4	0x3d98bb73	0.07457628
5	0x3ed1f304	0.4100572
6	0x3ee1e88b	0.4412273
7	0xbd937a3b	-0.07201048
8	0xbda96fd0	-0.0827328
9	0x3ef48498	0.4775741
10	0xbb963118	-0.004583489
11	0x3e481575	0.19539435
12	0x3e0df710	0.13863778
13	0x3ecb6c55	0.39731088
14	0x3e36633d	0.17811294
15	0x3ed6230b	0.4182361
16	0x3ecc5d98	0.39915156
17	0xbeea0ebe	-0.45714372
18	0x3eb71a9d	0.35762492
19	0xbc79ebb0	-0.015253946
20	0x3d7f7c5c	0.062374458
21	0x3edc5b9e	0.43038648
22	0x3ead64f1	0.33866075
23	0x3d7e0671	0.06201786
24	0x3eb0c339	0.34523943
25	0x3ed08a4b	0.4073051
26	0x3ef7b549	0.48380497
27	0x3e11b023	0.14227347
28	0x3ee00370	0.43752623
29	0x3f0652db	0.5247018
30	0x3f02398a	0.5086905
31	0x3ec49a1a	0.3839882

weight f4 [1, 8]
0	0xbe4b44a4	-0.19850403
1	0x3ed260ea	0.41089565
2	0xbee86de1	-0.4539633
3	0xbeb1c3a5	-0.34719577
4	0xbea376c3	-0.31926546
5	0xbe8dcd01	-0.27695468
6	0xbda9e08b	-0.08294781
7	0xbf03c3f1	-0.5147086

weight f4 [1, 32]
0	0x3dd79f0a	0.10528381
1	0x3d7268c0	0.05918193
2	0x3e12676d	0.14297266
3	0x3d3a21d8	0.045442432
4	0xbd92699c	-0.0714905
5	0xbd82cfa3	-0.0638726
6	0xbe035ce8	-0.1282841
7	0x3d570f2c	0.052504703
8	0xbe186c32	-0.14885023
9	0x3d051d6c	0.032498762
10	0x3cf1a3c8	0.029497042
11	0x3c87a850	0.01655975
12	0x3c334e40	0.010943949
13	0x3e2e429b	0.17017595
14	0xbe1c3e8b	-0.15258233
15	0x3d1bfcbc	0.038082823
16	0x3e1d5f29	0.15368332
17	0x3e038dbd	0.12847038
18	0xbe02e2b8	-0.12781799
19	0x3e0214e5	0.12703283
20	0xbde2ed21	-0.11080385
21	0x3dc002b2	0.09375514
22	0xbdc30f2f	-0.095243804
23	0xbd89cafb	-0.067281686
24	0xbe1d8c33	-0.15385513
25	0xbc3fccd0	-0.011706546
26	0x3d99f886	0.07518105
27	0xbdc1cb3e	-0.094625935
28	0x3e286767	0.16445695
29	0x3e0a0b2f	0.13480829
30	0xbca0b810	-0.019619018
31	0x3a01d300	0.0004952401
