competition/result/lstm_win2_noStandardized_2layer_16hidden_0.99g/trained_model/all_model/critic_num_epoch_2.pth (torch, 22328 bytes, 10 tensors)

weight_ih_l0 f4 [64, 11]
-0.07199299 -0.1921834 0.10000026 0.1828039 0.17294315 -0.23212498 0.006108105 -0.055753678
0.0071440637 0.16851303 -0.08255598 0.12059653 0.025820553 -0.080396116 0.23602322 0.13082257
-0.066143304 -0.07746822 0.22221413 0.011944532 0.12638268 0.01111564 0.20324674 0.120379865
0.11945003 0.010018647 0.120399505 -0.21220472 -0.115046054 -0.054258555 -0.16973105 -0.1771729
-0.059856027 0.17914864 0.13775644 0.14289722 0.039366335 -0.2336933 0.1523644 0.21733564
-0.09564403 -0.19534615 0.24267697 -0.06979531 0.1500993 0.10365391 0.19689405 -0.030120194
0.026028126 -0.059261978 0.21320012 0.0733639 0.06453502 -0.14333895 0.070138544 0.14971098
0.18989882 0.24657774 -0.15361825 0.03478664 -0.17492849 -0.061627567 -0.18949687 0.22028986
0.16992077 0.22678521 0.0671809 -0.12331724 -0.03974566 0.118601084 0.089770526 -0.17092955
0.17123035 -0.23164803 0.07103911 -0.015483975 0.09703997 -0.0738841 0.13154584 0.16537935
-0.045266718 0.21227369 -0.037106186 0.18339539 0.18770489 -0.014384955 -0.12896681 -0.15565282
0.0050522983 0.14515328 -0.023679793 -0.054780275 0.039028972 0.19275224 0.11984858 0.23232299
-0.16874939 0.19795561 -0.108855456 -0.066136956 0.00035399199 -0.09542161 -0.198621 -0.017516881
-0.01797828 0.22821596 0.034493774 0.007790178 -0.036530465 -0.15905192 -0.17722365 -0.24546006
0.14397153 -0.04126358 0.08502698 -0.19850051 0.0077010393 0.043724656 0.23936921 0.13433784
-0.05126357 0.21197027 0.1541532 -0.0418863 0.19479585 -0.09879416 -0.23625574 -0.08932486
0.019240111 0.15549952 -0.12444207 0.23553625 -0.1143114 0.065610886 0.07035306 -0.110254824
-0.17268014 -0.14123821 -0.2178086 0.01375708 0.036168605 0.24219647 0.047465175 0.21943608
-0.16441214 -0.07738939 -0.15882832 -0.125902 -0.1673187 -0.010904431 -0.035766542 -0.19645426
-0.10830015 -0.03281474 -0.0042816103 0.08784011 -0.11613059 0.10926622 0.068656564 0.22364506
-0.1141215 0.12873822 -0.06403157 -0.0458906 -0.032546997 -0.16986126 0.00033447146 -0.20524448
0.05349177 0.13247713 -0.11674413 -0.23220539 -0.23042312 -0.13554478 0.10454452 0.15795174
0.17205691 -0.24303651 0.22585091 0.19871819 0.054690093 -0.22634935 -0.22329223 -0.093099505
0.15615177 -0.039670676 -0.1972022 -0.21032 -0.12643018 -0.20766774 0.16072085 0.03078261
-0.24328572 -0.044775486 0.08005041 -0.1348995 0.18385509 -0.21310014 -0.22858724 0.042101264
-0.053743184 -0.11917761 -0.075258344 -0.07957724 -0.07627255 -0.12497872 0.23311737 -0.057048827
0.2031205 0.05547288 0.19456998 -0.22488767 -0.16723058 -0.05521825 -0.020451784 0.08001307
-0.08522642 -0.14053231 -0.14284745 -0.13593239 0.030202389 0.015872747 -0.12225011 0.10768169
-0.17290524 0.0691179 -0.08867714 0.1087617 0.022062361 -0.032762468 0.07391119 -0.19039202
0.21209136 0.23030555 0.015746683 0.20356947 0.13421455 -0.079722404 -0.01720801 0.2436114
-0.15474597 -0.11265239 -0.087025166 0.0044739246 0.23196432 -0.15297821 -0.17251512 -0.087988526
-0.17861646 0.10454881 0.1896523 -0.21583948 0.13001087 -0.19645005 0.18749553 -0.09968129
00000000: 1071 93bd bacb 44be f0cc cc3d f230 3b3e
00000010: 0218 313e 2cb2 6dbe 8026 c83b f85d 64bd
00000020: c018 ea3b ae8e 2c3e 1c13 a9bd 50fb f63d
00000030: a085 d33c b8a6 a4bd 12b0 713e 5af6 053e
00000040: 2476 87bd a8a7 9ebd 1a8c 633e 00b3 433c
00000050: 766a 013e 601e 363c ea1f 503e b889 f63d
00000060: 38a2 f43d 4025 243c 0494 f63d 324c 59be
00000070: 449d ebbd 383e 5ebd facd 2dbe d06c 35be
00000080: 982b 75bd be72 373e 0610 0d3e a653 123e
00000090: 983e 213d 4c4d 6fbe 6a05 1c3e 3c8d 5e3e
000000a0: 04e1 c3bd d208 48be 5080 783e d8f0 8ebd
000000b0: a2b3 193e 8048 d43d 989e 493e a0be f6bc
000000c0: f038 d53c b0bc 72bd 2251 5a3e d03f 963d
000000d0: f02a 843d 72c7 12be cca4 8f3d d64d 193e
000000e0: d674 423e e07e 7c3e 1a4e 1dbe 707c 0e3d
000000f0: 7420 33be 306d 7cbd 780b 42be aa93 613e
00000100: b6ff 2d3e 623a 683e 2496 893d c08d fcbd
00000110: 58cc 22bd 20e5 f23d 9cd9 b73d 2808 2fbe
00000120: 0257 2f3e 2435 6dbe f47c 913d 80b0 7dbc
00000130: e4bc c63d 8c50 97bd f4b3 063e 3459 293e
00000140: 9869 39bd 465e 593e a8fc 17bd 00cc 3b3e
00000150: b635 403e e0ae 6bbc e00f 04be 7463 1fbe
00000160: c08d a53b 10a3 143e 20fc c1bc 4861 60bd
00000170: d8dc 1f3d d860 453e 2c73 f53d 14e6 6d3e
00000180: a4cc 2cbe e0b4 4a3e 9cef debd d072 87bd
00000190: 0098 b939 686c c3bd 4e63 4bbe 907f 8fbc
000001a0: 3047 93bc 72b1 693e 5849 0d3d c044 ff3b
000001b0: f8a0 15bd 82de 22be 1e7a 35be e259 7bbe
000001c0: 466d 133e 0004 29bd a022 ae3d b843 4bbe
000001d0: 0059 fc3b a018 333d 341d 753e dc8f 093e
000001e0: c0f9 51bd bc0e 593e 56da 1d3e f890 2bbd
000001f0: 9078 473e 9854 cabd 06ed 71be f4ef b6bd
00000200: 709d 9d3c 443b 1f3e 7cdb febd 6a30 713e
00000210: 181c eabd 005f 863d 4415 903d 48cd e1bd
00000220: 10d3 30be c0a0 10be 3809 5fbe 6065 613c
00000230: 8825 143d 5a02 783e d86a 423d dab3 603e
00000240: a85b 28be 547e 9ebd e4a3 22be 74ec 00be
00000250: 9855 2bbe 80a8 32bc f07f 12bd 4e2b 49be
00000260: 78cc ddbd c068 06bd c04c 8cbb 84e5 b33d
00000270: e0d5 edbd f8c6 df3d d09b 8c3d 3603 653e
00000280: 88b8 e9bd f4d3 033e fc22 83bd c8f7 3bbd
00000290: 0050 05bd 1cf0 2dbe 005c af39 9c2b 52be
000002a0: 301a 5b3d 16a8 073e 8c17 efbd 40c7 6dbe
000002b0: 0af4 6bbe 40cc 0abe 701b d63d 1abe 213e
000002c0: b02f 303e 90de 78be 7645 673e c87c 4b3e
000002d0: b802 603d 20c8 67be b8a6 64be f4aa bebd
000002e0: 40e6 1f3e b87d 22bd 60ef 49be 205e 57be
000002f0: ea76 01be daa6 54be 0294 243e d02b fc3c
00000300: e41f 79be 8066 37bd 78f1 a33d 1823 0abe
00000310: 8244 3c3e ec36 5abe c612 6abe 6072 2c3d
00000320: d021 5cbd 6413 f4bd 0c21 9abd 64f9 a2bd
00000330: c834 9cbd d8f4 ffbd 52b6 6e3e 08ac 69bd
00000340: d2fe 4f3e 8837 633d 5a3d 473e f448 66be
00000350: 7e3e 2bbe 882c 62bd 808a a7bc e4dd a33d
00000360: 308b aebd b4e7 0fbe 9a46 12be dc31 0bbe
00000370: 006b f73c 9007 823c 445e fabd 3888 dc3d
00000380: 120e 31be b08d 8d3d 5c9c b5bd 74be de3d
00000390: 20bc b43c f031 06bd c05e 973d 20f6 42be
000003a0: 7a2e 593e 38d5 6b3e 30ff 803c 8474 503e
000003b0: 8a6f 093e 8045 a3bd d0f7 8cbc 4475 793e
000003c0: ba75 1ebe 4cb6 e6bd 403a b2bd 009a 923b
000003d0: 0e88 6d3e 52a6 1cbe cea7 30be 5433 b4bd
000003e0: 3ce7 36be b01d d63d 3634 423e 0605 5dbe
000003f0: 9221 053e 342a 49be d4fe 3f3e b425 ccbd

weight_hh_l0 f4 [64, 16]
-0.05894679 0.06393805 -0.19835776 -0.08068177 0.022812575 0.15166625 0.20542061 -0.14311305
0.03704381 -0.0380466 -0.10722777 -0.15822741 0.17915109 0.060171336 0.10700014 -0.23980403
-0.047708184 -0.02113548 0.1016404 -0.057869256 -0.0542987 -0.013207942 -0.06502342 -0.11542991
0.06690222 -0.14834648 0.011220932 0.05703962 0.083298266 0.058124125 -0.12345734 -0.056263864
0.136428 0.11637783 0.15098074 -0.20069334 0.1962257 0.034832537 -0.04898715 -0.032308728
0.049164385 -0.19355842 -0.029919893 -0.24416462 0.22162914 -0.17886901 0.24511024 0.024019152
-0.104094505 0.24278903 -0.049565703 -0.14421478 -0.18949252 0.21324915 -0.2376998 0.18222424
0.16371092 -0.101962686 -0.056737185 0.21660551 -0.017556667 0.063622504 -0.01914984 -0.12044278
0.026137412 -0.14581987 -0.2336843 0.24569458 0.0063503683 0.11342996 0.24531814 0.031041056
0.044650912 -0.2139205 -0.21851161 -0.21966287 -0.004646182 0.18272883 -0.08679861 0.22564226
0.21286726 0.02960813 0.19680071 0.087332785 -0.12895983 0.029869705 -0.20996019 0.13464436
-0.19431138 -0.18413544 -0.096377134 0.16247424 -0.19398609 0.09564561 -0.1340287 0.09257379
-0.097053885 -0.21193686 -0.17317975 0.13740265 0.18826196 0.1060262 0.23553449 0.20335278
0.003034085 -0.13951162 0.21275929 0.078131855 0.009951055 -0.19960916 0.022459894 0.20896915
-0.071719706 -0.10078019 0.17127639 -0.044116348 0.18935096 -0.18172246 -0.24056357 -0.23534298
-0.055761695 0.039569825 -0.07722825 0.11494434 0.019286543 0.04313165 0.19875145 -0.058296293
-0.22551945 0.08582103 0.08597976 0.11748567 -0.1829525 -0.050423145 -0.22289696 -0.056897044
0.23996007 -0.18268147 0.2017011 0.118220955 -0.16230926 -0.043760628 0.17037714 -0.1046457
0.1977531 0.19084442 -0.1534732 0.23786494 -0.009903371 -0.24680114 0.040301025 -0.13067508
0.118742496 -0.116680026 0.13695335 0.02705124 0.035425007 -0.07633665 0.004920244 -0.18886125
0.033571154 -0.0062170923 0.098665684 -0.024164468 0.05689037 -0.035815388 -0.089841455 0.21137139
-0.15832365 0.21123695 0.20187566 0.041633904 0.14258441 0.23066264 -0.038560778 -0.064358026
-0.21237263 0.22260782 0.04932654 0.01980275 0.03582281 0.1690776 -0.07437521 -0.24414206
0.23010603 0.074845344 -0.006795585 0.16620529 -0.16960552 -0.12175289 -0.21483818 0.0963366
0.1758737 -0.100815326 0.020281017 -0.119078696 0.033374667 -0.122534454 0.12932822 0.22945762
-0.109656334 0.11643663 -0.1315512 0.015696675 -0.22153774 0.19300005 0.22011143 -0.20689854
0.24061641 -0.059476614 0.13124427 0.031045914 0.18194306 -0.004226655 -0.16874963 -0.022768289
-0.09538332 -0.14055827 0.17867231 0.0543859 -0.09370506 0.13011762 0.0923751 0.19130516
-0.044528484 0.055084467 0.10713741 -0.061799854 -0.18571764 0.17046532 0.011663854 -0.12808737
-0.15128702 -0.2404255 -0.11398202 0.012793124 -0.23354632 -0.014128268 -0.09777698 -0.19060335
-0.04758671 0.061982483 0.18525994 0.112966776 0.12518477 0.24677968 -0.07151711 0.045021087
-0.048056513 0.013466865 0.1646558 -0.012979358 -0.05177301 -0.2330907 -0.18146685 0.1450525
00000000: 3072 71bd f4f1 823d 4c1e 4bbe 7c3c a5bd
00000010: 70e1 ba3c 664e 1b3e c859 523e 3a8c 12be
00000020: 40bb 173d c0d6 1bbd 3c9a dbbd 5e06 22be
00000030: 6273 373e 3876 763d e422 db3d 308f 75be
00000040: a869 43bd 5024 adbc d828 d03d 5008 6dbd
00000050: 5068 5ebd 2066 58bc 002b 85bd 8466 ecbd
00000060: 0804 893d 24e8 17be 00d8 373c 60a2 693d
00000070: 4898 aa3d 9013 6e3d 34d7 fcbd f074 66bd
00000080: c8b3 0b3e 8057 ee3d b29a 1a3e 8e82 4dbe
00000090: 64ef 483e 90ac 0e3d c0a6 48bd 2856 04bd
000000a0: 9860 493d 2e34 46be 901a f5bc 4a06 7abe
000000b0: c0f2 623e 7029 37be 2efe 7a3e d0c3 c43c
000000c0: 802f d5bd b09d 783e 6805 4bbd 0aad 13be
000000d0: 540a 42be fc5d 5a3e 9467 73be fe98 3a3e
000000e0: d6a3 273e d0d1 d0bd 4065 68bd d6cd 5d3e
000000f0: 00d3 8fbc 844c 823d 20e0 9cbc b4aa f6bd
00000100: 201e d63c ce51 15be f04a 6fbe 5c97 7b3e
00000110: c016 d03b f84d e83d ae34 7b3e d049 fe3c
00000120: e0e3 363d fa0d 5bbe 82c1 5fbe 4eef 60be
00000130: 003f 98bb 441d 3b3e 78c3 b1bd c40e 673e
00000140: e0f9 593e c08c f23c 2086 493e 88db b23d
00000150: 0c0e 04be 50b1 f43c ceff 56be 36e0 093e
00000160: 90f9 46be 008e 3cbe 6061 c5bd a65f 263e
00000170: 4aa4 46be d8e1 c33d d23e 09be 5497 bd3d
00000180: 30c4 c6bd fa05 59be 0856 31be 48b3 0c3e
00000190: bec7 403e 4424 d93d f42f 713e b63b 503e
000001a0: 80d7 463b 22dc 0ebe 92dd 593e 9803 a03d
000001b0: c009 233c 5866 4cbe d0fd b73c 02fc 553e
000001c0: c8e1 92bd d865 cebd 1463 2f3e 58b3 34bd
000001d0: 38e5 413e 7415 3abe 4c56 76be c0fd 70be
000001e0: 6066 64bd f813 223d d829 9ebd f067 eb3d
000001f0: d0fe 9d3c d0aa 303d 8085 4b3e 18c8 6ebd
00000200: 92ee 66be f0c2 af3d 2816 b03d 549c f03d
00000210: e657 3bbe 8088 4ebd 1a3f 64be e00c 69bd
00000220: 18b8 753e da10 3bbe bc8a 4e3e d41d f23d
00000230: 6634 26be 583e 33bd 5877 2e3e 7c50 d6bd
00000240: ca7f 4a3e b86c 433e 1428 1dbe de92 733e
00000250: c041 22bc 70b9 7cbe b012 253d b0cf 05be
00000260: 442f f33d f0f5 eebd 803d 0c3e 909a dd3c
00000270: d019 113d 6456 9cbd 003a a13b d864 41be
00000280: e881 093d c0b8 cbbb 3c11 ca3d 90f4 c5bc
00000290: e005 693d 28b3 12bd ccfe b7bd be71 583e
000002a0: 981f 22be 804e 583e 7eb8 4e3e 5088 2a3d
000002b0: a601 123e d432 6c3e e8f1 1dbd 24ce 83bd
000002c0: 3678 59be 4ef3 633e a00a 4a3d 6039 a23c
000002d0: f0ba 123d ae22 2d3e 0852 98bd 6000 7abe
000002e0: eaa0 6b3e 8448 993d 80ad debb b831 2a3e
000002f0: 12ad 2dbe 9459 f9bd 8afe 5bbe 204c c53d
00000300: 3c18 343e 4478 cebd 6024 a63c 88df f3bd
00000310: e0b3 083d 58f3 fabd 9e6e 043e f0f6 6a3e
00000320: 8093 e0bd 5476 ee3d 5cb5 06be 5096 803c
00000330: cada 62be cea1 453e e464 613e 36dd 53be
00000340: 2664 763e c09d 73bd e664 063e 0054 fe3c
00000350: 484f 3a3e c07f 8abb b4cc 2cbe 9084 babc
00000360: 5458 c3bd 82ee 0fbe e0f5 363e c0c3 5e3d
00000370: 70e8 bfbd 8e3d 053e 282f bd3d 80e5 433e
00000380: 8063 36bd 40a0 613d dc6a db3d d821 7dbd
00000390: c42c 3ebe 768e 2e3e c019 3f3c 5629 03be
000003a0: fcea 1abe 1a32 76be 686f e9bd 409a 513c
000003b0: c426 6fbe 407a 67bc 4c3f c8bd 862d 43be
000003c0: 48ea 42bd 58e1 7d3d c8b4 3d3e 205b e73d
000003d0: 7030 003e d0b3 7c3e 9077 92bd 0868 383d
000003e0: e8d6 44bd 20a4 5c3c 889b 283e 60a7 54bc
000003f0: f00f 54bd 54af 6ebe 72d2 39be a488 143e

bias_ih_l0 f4 [64]
0.02489543 -0.19576725 0.023232311 -0.12015256 0.104578584 -0.060409546 -0.08019173 0.13759717
-0.03512582 0.12637123 -0.01965335 0.16490403 -0.067249805 0.19975856 0.17078432 -0.21672913
0.20173943 0.078786224 0.19713348 0.10280329 -0.105674 0.24611458 -0.21608293 -0.09718707
0.09599316 -0.100465626 0.05661553 -0.14246383 -0.102834225 -0.15308869 0.17799798 -0.06572512
-0.09612507 -0.23638135 0.08571339 0.040629208 -0.24730319 -0.078525364 0.028557211 0.15702501
0.05817479 0.046855807 -0.07170862 -0.18438864 0.058776617 -0.15987298 0.08555752 0.03426835
-0.24436349 -0.18487015 -0.23049682 0.064107 0.13675955 -0.16689727 0.15767539 -0.24855328
-0.19498616 0.081925154 -0.093354344 0.0789904 -0.13113445 -0.14617786 -0.12103912 0.17836612
00000000: 80f1 cb3c 3677 48be b051 be3c 8c12 f6bd
00000010: 4c2d d63d 0070 77bd 903b a4bd 46e6 0c3e
00000020: 18e0 0fbd 7667 013e 1000 a1bc 9adc 283e
00000030: 44ba 89bd 828d 4c3e 16e2 2e3e 3eee 5dbe
00000040: c894 4e3e ac5a a13d 5cdd 493e 888a d23d
00000050: 9c6b d8bd 7605 7c3e d844 5dbe 040a c7bd
00000060: 1098 c43d ecc0 cdbd b0e5 673d 0ae2 11be
00000070: c09a d2bd 48c3 1cbe 1a45 363e e49a 86bd
00000080: 38dd c4bd f40d 72be 808a af3d d06a 263d
00000090: 0c3d 7dbe e8d1 a0bd d0f0 e93c 2acb 203e
000000a0: b048 6e3d e0eb 3f3d f8db 92bd 60d0 3cbe
000000b0: c0bf 703d beb5 23be c838 af3d f85c 0c3d
000000c0: 6c3a 7abe 9a4e 3dbe 5c07 6cbe 884a 833d
000000d0: b20a 0c3e 1ee7 2abe a875 213e c084 7ebe
000000e0: 74aa 47be 60c8 a73d 9030 bfbd b8c5 a13d
000000f0: 1c48 06be a6af 15be 5ce3 f7bd 9ca5 363e

bias_hh_l0 f4 [64]
-0.062839955 -0.19921085 0.0646016 0.19816044 -0.2220816 -0.07942504 -0.13282531 0.15986922
0.094659775 -0.06063217 -0.16327006 -0.13912484 0.19250876 0.04596907 0.10894719 0.1488693
-0.043334484 0.07575849 0.19528875 -0.14052156 -0.15197816 0.10630587 0.22949696 -0.11651218
0.028038383 -0.00045585632 0.24935067 0.22490358 -0.08813611 0.08147848 0.16034818 -0.17348802
0.20133063 0.24555933 -0.022960693 -0.20687255 -0.09986487 -0.20739952 -0.035633117 0.23329914
-0.20629314 0.098663 -0.061424345 0.23676923 -0.19335607 -0.22597274 -0.24196336 -0.23371893
0.24473909 -0.030174315 -0.16606757 0.009776473 -0.021302402 0.22959271 0.112659395 -0.16045964
-0.10350564 -0.06599784 0.14536723 0.054189205 0.14275032 0.22444737 -0.10422057 -0.03652087
00000000: 3cb2 80bd eefd 4bbe d84d 843d 92ea 4a3e
00000010: 5c69 63be 98a9 a2bd 5c03 08be c2b4 233e
00000020: fcdc c13d 7059 78bd 4430 27be be76 0ebe
00000030: 0421 453e 104a 3c3d b41f df3d 3271 183e
00000040: 807f 31bd 4427 9b3d c6f9 473e e2e4 0fbe
00000050: 2aa0 1bbe e4b6 d93d 4001 6b3e f09d eebd
00000060: c0b0 e53c 0000 efb9 c855 7f3e 204d 663e
00000070: b480 b4bd 30de a63d 5032 243e d8a6 31be
00000080: 9e29 4e3e e873 7b3e 1018 bcbc 66d6 53be
00000090: f485 ccbd 8a60 54be 08f4 11bd f8e5 6e3e
000000a0: 823e 53be d40f ca3d 1898 7bbd a273 723e
000000b0: 22ff 45be 6665 67be 3ec5 77be 0454 6fbe
000000c0: e29c 7a3e 2030 f7bc 9e0d 2abe 802d 203c
000000d0: 6082 aebc 5a1a 6b3e f8b9 e63d 884f 24be
000000e0: c4fa d3bd e029 87bd 26db 143e 80f5 5d3d
000000f0: 242d 123e 88d5 653e 9871 d5bd e896 15bd

weight_ih_l1 f4 [64, 16]
0.14137787 -0.0062327087 0.03666973 0.03532082 -0.22093809 -0.24155462 0.24458656 -0.11468619
-0.03937 -0.038458586 0.099336326 0.07223305 -0.03243527 -0.1309534 0.029406667 -0.056192786
0.09823042 0.07292795 -0.19763863 0.07272264 0.12944686 0.2451958 -0.24618775 0.14658377
0.05105841 -0.03897205 0.0062000155 -0.07118347 -0.012861609 0.016215026 -0.21803132 0.14168152
0.01827228 0.11084464 0.17582881 -0.088306874 0.089157045 0.21808898 0.012447864 0.11931613
0.18255314 -0.11944404 -0.12465203 0.12607837 -0.039170474 -0.06346002 0.15049285 -0.0539819
0.16307062 -0.1739735 -0.18951228 0.039967626 -0.13059199 -0.09974986 0.11318985 0.0064504743
-0.24386632 -0.10759926 0.04991889 0.2018466 0.17449674 0.13746479 -0.04443884 -0.0028943121
-0.073441 0.21118876 0.11839765 0.15071675 0.07436958 -0.008743286 -0.24606529 -0.013252109
-0.21116334 -0.051764697 0.10150933 -0.24119797 -0.13632882 -0.2085171 0.049206078 0.2480211
-0.08784333 0.11437547 -0.09662759 0.08449274 0.23083597 -0.06685695 -0.024309546 0.083156705
-0.08692807 -0.08457291 -0.17200977 0.01740855 0.19212538 -0.09104133 -0.13211474 -0.12650716
0.21030429 0.16622368 0.01254189 0.24084342 0.0647769 0.031508148 -0.04594943 -0.21649536
-0.02511996 0.16834873 0.24326673 0.21911189 -0.21199799 -0.24493164 -0.09380096 0.0013272762
0.208801 -0.18864885 -0.10531744 -0.23146427 -0.24835813 0.23068231 0.24145746 0.09091842
0.058248013 0.102787346 0.094504416 0.2188505 -0.22146976 0.08166975 -0.20794213 0.08630237
-0.012624264 -0.08603603 -0.007287115 0.16570485 0.21729475 0.1604903 0.049558252 -0.16636491
-0.16868082 -0.08277279 -0.089455545 -0.17423275 -0.16598082 0.06643167 -0.15936255 0.16561848
0.18259948 -0.006958127 -0.15902811 0.2101728 0.2190679 -0.12837702 0.12874562 -0.033334285
0.09147096 -0.111162186 -0.060031325 0.07064727 -0.22782025 -0.17149156 -0.14624372 0.20072347
0.040449113 0.00043165684 -0.019750714 0.20465755 -0.052200794 0.016698688 -0.14826524 -0.12629238
0.03138286 0.17501375 0.2304506 -0.03170842 0.24965245 -0.20310125 0.07819694 -0.21923459
0.11118165 -0.12784868 -0.14385962 0.20388505 -0.20438874 -0.060222745 0.23427495 0.014090925
-0.23861843 0.031755656 0.0654785 0.18487024 0.1818898 -0.09363204 -0.24644065 0.14145812
0.0035127401 -0.16978356 0.020066082 0.21642274 -0.033292323 -0.068054795 0.020189047 -0.051108062
-0.24616104 0.10289323 0.016169667 -0.10490224 -0.1043967 -0.046758264 -0.061783075 -0.10868025
-0.08706677 0.062723994 -0.21577194 -0.15361428 0.10971388 0.12941784 -0.18050668 0.20151961
-0.1366944 -0.023223221 -0.06385079 -0.022913903 -0.06760606 -0.19649121 -0.03270653 0.24151638
-0.14626664 -0.09424424 0.24591696 -0.19258434 0.21285361 0.12858051 0.2114541 -0.2487936
-0.010121912 0.18679735 0.058954 0.037644804 -0.086603165 0.047744095 -0.09052995 0.00044697523
-0.19445506 -0.2455706 -0.11392516 0.16897973 -0.013351917 -0.17748508 -0.0025596619 0.064759046
-0.04494092 0.11055052 0.102403045 0.111502916 -0.167216 0.2183449 0.13942385 0.18823627
00000000: 5cc5 103e c03b ccbb 0033 163d 90ac 103d
00000010: 983d 62be 185a 77be e674 7a3e 98e0 eabd
00000020: 7042 21bd c086 1dbd d870 cb3d ecee 933d
00000030: d8da 04bd a618 06be 40e6 f03c 682a 66bd
00000040: 082d c93d 405b 953d c861 4abe 9cef 943d
00000050: b88d 043e 9c14 7b3e a418 7cbe 0e1a 163e
00000060: a022 513d 28a1 1fbd 8029 cb3b a4c8 91bd
00000070: 80b9 52bc 60d5 843c 9a43 5fbe f614 113e
00000080: c0af 953c 8402 e33d 780c 343e 3cda b4bd
00000090: f897 b63d b852 5f3e 20f2 4b3c 045c f43d
000000a0: 36ef 3a3e 149f f4bd 9049 ffbd b01a 013e
000000b0: 3871 20bd 54f7 81bd cc1a 1a3e 201c 5dbd
000000c0: fcfb 263e 1c26 32be 820f 42be 18b5 233d
000000d0: e8b9 05be a849 ccbd 14d0 e73d 805e d33b
000000e0: 18b8 79be 005d dcbd c077 4c3d e0b0 4e3e
000000f0: 46af 323e 92c3 0c3e 8005 36bd 80ae 3dbb
00000100: 3c68 96bd de41 583e 787a f23d 7e55 1a3e
00000110: 144f 983d 0040 0fbc 8af8 7bbe 601f 59bc
00000120: 343b 58be 3807 54bd 20e4 cf3d 9afc 76be
00000130: c899 0bbe 8285 55be 508c 493d 3ef9 7d3e
00000140: 34e7 b3bd b03d ea3d b0e4 c5bd 880a ad3d
00000150: 4460 6c3e 4cec 88bd d024 c7bc 104e aa3d
00000160: 5807 b2bd 9034 adbd 5423 30be 609c 8e3c
00000170: 84bc 443e e073 babd 1649 07be 188b 01be
00000180: 025a 573e 8a36 2a3e 807c 4d3c a89f 763e
00000190: c0a9 843d b00e 013d 7835 3cbd f6b0 5dbe
000001a0: 60c8 cdbc 9c63 2c3e ea1a 793e de5e 603e
000001b0: 0016 59be 5ccf 7abe b81a c0bd 00f8 ad3a
000001c0: eecf 553e 2a2d 41be acb0 d7bd f804 6dbe
000001d0: 9851 7ebe fc37 6c3e a040 773e 7033 ba3d
000001e0: 7895 6e3d 2c82 d23d 888b c13d 581a 603e
000001f0: f8c8 62be 7842 a73d c8ee 54be 4cbf b03d
00000200: 00d6 4ebc a833 b0bd c0c8 eebb 88ae 293e
00000210: 8482 5e3e 9257 243e 98fd 4a3d 905b 2abe
00000220: aaba 2cbe c884 a9bd 7834 b7bd 126a 32be
00000230: e0f6 29be 540d 883d f02f 23be e497 293e
00000240: 5cfb 3a3e 0001 e4bb 44d8 22be 8a37 573e
00000250: 5653 603e 4475 03be e4d5 033e 8889 08bd
00000260: 2055 bb3d 00a9 e3bd 68e3 75bd 84af 903d
00000270: b649 69be 7c9b 2fbe eac0 15be 748a 4d3e
00000280: f8ad 253d 0050 e239 40cc a1bc c091 513e
00000290: 80d0 55bd b0cb 883c d8d2 17be ca52 01be
000002a0: 508b 003d ce36 333e 3efb 6b3e b0e0 01bd
000002b0: e4a4 7f3e c6f9 4fbe b825 a03d 087f 60be
000002c0: 34b3 e33d c4ea 02be f04f 13be 3ec7 503e
000002d0: 484b 51be 20ac 76bd c6e5 6f3e a0dd 663c
000002e0: 6458 74be 3812 023d 9819 863d a04e 3d3e
000002f0: 5241 3a3e 28c2 bfbd f05a 7cbe 66da 103e
00000300: 0036 663b bedb 2dbe a061 a43c ec9d 5d3e
00000310: 885d 08bd 5060 8bbd 8063 a53c b056 51bd
00000320: a411 7cbe b0b9 d23d 4076 843c fcd6 d6bd
00000330: f0cd d5bd 9885 3fbd 4010 7dbd c093 debd
00000340: 1050 b2bd 7075 803d 52f3 5cbe 104d 1dbe
00000350: acb1 e03d 1c86 043e bed6 38be 285b 4e3e
00000360: 9ef9 0bbe a03e bebc 34c4 82bd f0b5 bbbc
00000370: 0c75 8abd fe34 49be 48f7 05bd 1250 773e
00000380: ecc6 15be 2003 c1bd a8d1 7b3e d434 45be
00000390: 4cf6 593e 9caa 033e 6c87 583e c0c3 7ebe
000003a0: 60d6 25bc ce47 3f3e c079 713d 7031 1a3d
000003b0: 005d b1bd 508f 433d c467 b9bd 0058 ea39
000003c0: 3a1f 47be dc76 7bbe 9851 e9bd 0609 2d3e
000003d0: 00c2 5abc a6be 35be 00c0 27bb 64a0 843d
000003e0: f813 38bd 5068 e23d b0b8 d13d a45b e43d
000003f0: ac3a 2bbe ce95 5f3e 20c5 0e3e 02c1 403e

weight_hh_l1 f4 [64, 16]
-0.035238147 -0.081499904 -0.19053298 -0.18174404 -0.22425202 0.21139506 0.09283295 -0.086603224
0.19874915 -0.20964503 -0.22480375 -0.2248675 0.06979099 -0.1429201 0.09301409 -0.17219433
0.049585015 -0.22739601 -0.22846249 -0.11333647 0.17253599 0.056028545 -0.12888867 -0.14556605
0.102626175 -0.03970903 -0.0035529733 0.1497857 -0.014133394 0.15501732 -0.22287482 -0.06349993
0.020969123 -0.026356608 0.047210902 -0.0015266538 0.064504325 -0.18599588 0.24276125 -0.00021773577
0.18778661 0.23219177 0.1080848 -0.10746983 -0.1526171 -0.018511564 0.07151118 0.057058364
-0.015581667 0.1367684 0.08681622 0.14695412 0.15881303 -0.090286314 -0.13616821 0.16844523
0.07182187 0.1806002 0.00036090612 0.17157614 0.096066445 -0.089781284 0.18477854 -0.1331631
-0.1823287 0.11375651 0.2275824 -0.24387917 0.0970819 0.06725505 -0.23304555 -0.21860966
0.14271685 0.16508979 -0.10948819 0.22968298 0.035120547 0.21648642 -0.24160022 0.17964664
-0.2257188 -0.21061024 0.21496043 -0.15709251 -0.10718036 -0.23687273 0.026287526 -0.10797113
0.009505153 -0.2461682 0.04359293 -0.083738625 -0.19570032 -0.110263854 0.11503345 0.1828326
0.12636563 0.22929475 0.20647705 0.16725287 -0.20418808 -0.17676485 -0.13464648 -0.026776463
-0.16026735 -0.05062732 -0.18161535 -0.12405628 -0.108523786 -0.0926967 -0.0012215078 -0.03982681
-0.11420578 -0.0007779598 -0.11695129 0.057038337 -0.112330556 0.0014229417 -0.09597567 0.1833533
0.08975437 -0.06549859 -0.21622938 -0.032700837 0.055192083 0.11414772 -0.04725203 0.042330652
0.0704065 0.21374264 -0.21732694 -0.14262846 0.23060858 0.23481265 0.058099657 0.0023673177
-0.23728278 0.146977 0.13753632 0.18466917 0.055815548 0.043512464 -0.14222085 -0.12520272
0.07828069 -0.06186062 -0.055809796 0.08072361 -0.093838155 0.042456716 -0.032062292 0.017980665
0.02197066 0.23887339 0.06891742 -0.24944562 -0.101727664 -0.070271224 0.15235978 0.058430612
-0.0416753 -0.011232734 0.19874892 0.19691941 0.14323771 0.06486142 -0.046817094 0.2455785
0.18126425 0.20145947 0.124593675 0.003233552 -0.13333738 -0.062100053 0.14886242 0.23145565
0.04450175 0.022850126 0.1929327 0.15703636 0.24165407 -0.08114201 -0.1663292 -0.118753165
-0.09349376 0.019588709 0.11281571 0.22767791 0.014540255 -0.061745733 0.1318346 0.21144724
0.08350757 0.021031737 0.12326148 0.16658175 -0.058264732 -0.14338654 -0.22118375 -0.07842848
-0.09028879 0.15337703 0.070398 0.17686716 -0.018274724 -0.07783416 0.24542922 -0.02691865
0.23168474 0.17224151 0.028707117 0.21734002 -0.20255029 -0.066725075 0.20314509 0.18020263
-0.21254289 0.051273227 -0.16428435 0.22788626 0.18164733 -0.14947644 0.037972897 0.14284
-0.14729771 -0.2431497 0.13220814 -0.1481516 0.20803165 0.09357962 0.12459135 0.108659
0.11836508 -0.23254028 0.14675674 -0.0050952435 0.2101633 0.1011768 0.23114869 0.23260143
-0.03277254 -0.16006327 0.09392944 -0.18890458 -0.0024440587 0.050615907 -0.24602982 -0.1989514
-0.19798812 -0.06729066 0.0072232783 0.11610225 0.1650661 -0.18857518 0.14437252 0.21235242
00000000: e055 10bd 6ce9 a6bd 141b 43be 1c1b 3abe
00000010: 52a2 65be f277 583e 341f be3d 085d b1bd
00000020: e684 4b3e 30ad 56be f432 66be aa43 66be
00000030: 94ee 8e3d a659 12be 2c7e be3d b653 30be
00000040: a819 4b3d 80da 68be 12f2 69be f41c e8bd
00000050: 46ad 303e 307e 653d 64fb 03be 440f 15be
00000060: ac2d d23d f0a5 22bd 00d9 68bb 6c61 193e
00000070: c08f 67bc dcbc 1e3e 4c39 64be 400c 82bd
00000080: 70c7 ab3c d0e9 d7bc 3860 413d 001a c8ba
00000090: d81a 843d b475 3ebe 6896 783e 0050 64b9
000000a0: 224b 403e aec3 6d3e 905b dd3d 2419 dcbd
000000b0: a847 1cbe 90a5 97bc 7474 923d 08b6 693d
000000c0: 404a 7fbc 040d 0c3e b4cc b13d 247b 163e
000000d0: e29f 223e 08e8 b8bd ae6f 0bbe e87c 2c3e
000000e0: 5817 933d 42ef 383e 0038 bd39 a8b1 2f3e
000000f0: 7cbe c43d 40df b7bd 9636 3d3e e85b 08be
00000100: 60b4 3abe 2cf9 e83d 5c0b 693e 76bb 79be
00000110: e0d2 c63d 04bd 893d 7ea3 6ebe 36db 5fbe
00000120: 5e24 123e 4c0d 293e 583b e0bd 0432 6b3e
00000130: 90da 0f3d 9eae 5d3e 0c66 77be 4af5 373e
00000140: d422 67be 36aa 57be 961e 5c3e dcdc 20be
00000150: 6081 dbbd c48e 72be f058 d73c f81f ddbd
00000160: 80bb 1b3c 8413 7cbe 808e 323d 287f abbd
00000170: aa65 48be 04d2 e1bd a896 eb3d 7838 3b3e
00000180: fe65 013e 3ecc 6a3e b86e 533e 5644 2b3e
00000190: ae16 51be d801 35be c4e0 09be 505a dbbc
000001a0: 201d 24be 985e 4fbd 60f9 39be 3811 febd
000001b0: b841 debd c4d7 bdbd 001b a0ba 7021 23bd
000001c0: b8e4 e9bd 00f0 4bba 2884 efbd 08a1 693d
000001d0: 900d e6bd 0082 ba3a e48e c4bd f8c0 3b3e
000001e0: 24d1 b73d 2024 86bd 3c6b 5dbe 50f1 05bd
000001f0: 1811 623d 48c6 e93d 588b 41bd e862 2d3d
00000200: 4831 903d 5adf 5a3e f48a 5ebe 320d 12be
00000210: a824 6c3e ba72 703e e8f9 6d3d 0025 1b3b
00000220: 42fa 72be 2481 163e 52d6 0c3e ea19 3d3e
00000230: d89e 643d 203a 323d 58a2 11be 2435 00be
00000240: a051 a03d 9061 7dbd d098 64bd 6c52 a53d
00000250: 382e c0bd 18e7 2d3d c053 03bd 304c 933c
00000260: d0fb b33c 3a9b 743e 9424 8d3d ac6e 7fbe
00000270: 9856 d0bd 5cea 8fbd 3404 1c3e f054 6f3d
00000280: b8b3 2abd 8009 38bc d684 4b3e 3ea5 493e
00000290: e8ac 123e 10d6 843d 48c3 3fbd ee78 7b3e
000002a0: 569d 393e 644b 4e3e f82a ff3d 00ea 533b
000002b0: 9889 08be a05c 7ebd 646f 183e b602 6d3e
000002c0: 7847 363d 3030 bb3c 2690 453e 24ce 203e
000002d0: 2a74 773e c82d a6bd 3452 2abe dc34 f3bd
000002e0: a879 bfbd 8078 a03c ec0b e73d 6624 693e
000002f0: 403a 6e3c 18e9 7cbd a6ff 063e a085 583e
00000300: 0406 ab3d c04a ac3c 8470 fc3d 6894 2a3e
00000310: 00a7 6ebd ecd3 12be fe7d 62be 1c9f a0bd
00000320: 54e9 b8bd de0e 1d3e d42c 903d aa1c 353e
00000330: e0b4 95bc 8467 9fbd cc51 7b3e 8084 dcbc
00000340: c43e 6d3e 1460 303e 302b eb3c 628e 5e3e
00000350: 5869 4fbe 28a7 88bd 4405 503e 0a87 383e
00000360: d8a4 59be e003 523d 283a 28be 045b 693e
00000370: c201 3a3e 5a10 19be 7889 1b3d a644 123e
00000380: 36d5 16be 3cfc 78be 9261 073e 0eb5 17be
00000390: 4006 553e aca6 bf3d c029 ff3d 9c88 de3d
000003a0: 6469 f23d 0a1f 6ebe 6647 163e 00f6 a6bb
000003b0: 0c35 573e c835 cf3d 3eb2 6c3e 122f 6e3e
000003c0: 803c 06bd a0e7 23be 145e c03d 3470 41be
000003d0: 802c 20bb a052 4f3d 3eef 7bbe eab9 4bbe
000003e0: 66bd 4abe b0cf 89bd 40b1 ec3b 04c7 ed3d
000003f0: 1607 293e da19 41be 64d6 133e ea72 593e

bias_ih_l1 f4 [64]
0.21819422 -0.1986447 0.104213834 -0.14886841 0.091629654 -0.19984406 0.17090139 -0.21406063
0.11984351 0.14686808 -0.18804929 0.1742892 -0.074061215 0.24402454 -0.08693519 -0.040020496
0.040714353 0.14123175 0.19259566 -0.15010038 -0.11416265 0.24052545 0.15605706 0.14538401
-0.1774545 -0.057382047 0.21887112 0.122507095 -0.033899844 -0.09648976 -0.06769952 -0.10457012
-0.13340965 -0.19887105 0.24427155 -0.24889532 -0.17316899 0.15554094 0.20213693 -0.090640485
-0.21573853 -0.107298285 -0.046081632 0.1946306 0.019972682 0.03217897 0.15000951 -0.17112443
0.14522535 0.20926663 0.23772615 -0.13892272 0.14310673 0.12703937 -0.2078897 -0.07633203
-0.1270768 0.24218255 -0.11425409 0.15630767 -0.038208693 0.10371041 0.09919265 0.087691754
00000000: 4e6e 5f3e 8469 4bbe 106e d53d f670 18be
00000010: 54a8 bb3d eca3 4cbe c600 2f3e b632 5bbe
00000020: 8470 f53d 9664 163e fe8f 40be de78 323e
00000030: 68ad 97bd 92e1 793e 140b b2bd 88ec 23bd
00000040: 18c4 263d 0e9f 103e cc37 453e eab3 19be
00000050: 1cce e9bd 4e4c 763e 6ccd 1f3e 8cdf 143e
00000060: a2b6 35be 7009 6bbd c01f 603e 00e5 fa3d
00000070: 90da 0abd 6c9c c5bd 0ca6 8abd dc28 d6bd
00000080: 8a9c 08be daa4 4bbe 5222 7a3e 6ade 7ebe
00000090: 3653 31be 2046 1f3e fcfc 4e3e b8a1 b9bd
000000a0: 90ea 5cbe 34bf dbbd 18c0 3cbd 3e4d 473e
000000b0: c09d a33c 18ce 033d 189c 193e 3e3b 2fbe
000000c0: f4b5 143e fe49 563e 7c6e 733e c241 0ebe
000000d0: 928a 123e 9c16 023e 0ae1 54be f853 9cbd
000000e0: 6c20 02be b4fe 773e 0cfe e9bd 1e0f 203e
000000f0: b880 1cbd 2066 d43d 8425 cb3d bc97 b33d

bias_hh_l1 f4 [64]
-0.09583083 0.011315137 0.15593037 0.2055729 -0.10737017 0.17911705 0.16081113 -0.03694269
0.13071948 0.11053944 0.047496855 0.16301873 0.108101994 0.20406416 0.22735071 0.02241534
-0.15796599 -0.17966485 0.18845272 -0.17080313 -0.030734152 0.16931778 0.0695205 0.080982715
0.116093874 0.026626319 -0.17294666 0.03773856 -0.17837554 -0.092876405 0.20608923 0.18058571
-0.2050733 -0.16254172 -0.07782233 0.1288727 0.040360093 0.16168344 0.002668351 0.008029044
0.05914098 0.12941757 -0.06346905 0.11896548 0.015789539 0.14363262 -0.11612889 -0.15870693
0.17729956 -0.2272428 -0.23754957 0.23380631 0.16968563 0.011527181 0.22093502 0.08314228
-0.11176777 0.19116148 -0.13111445 -0.18381393 0.17855346 -0.16852984 0.081362605 -0.11479139
00000000: f442 c4bd 2063 393c 36ac 1f3e b481 523e
00000010: e4e4 dbbd 766a 373e acab 243e 3851 17bd
00000020: 54db 053e 8062 e23d 108c 423d 62ee 263e
00000030: 9464 dd3d 32f6 503e a0ce 683e 60a0 b73c
00000040: d6c1 21be 10fa 37be c0f9 403e 04e7 2ebe
00000050: 30c6 fbbc a461 2d3e c460 8e3d 44da a53d
00000060: a0c2 ed3d 701f da3c ee18 31be c093 1a3d
00000070: 14a8 36be fc35 bebd 0e09 533e 76eb 383e
00000080: bcfe 51be 5671 26be 5061 9fbd 34f7 033e
00000090: a050 253d 5890 253e 80df 2e3b 408c 033c
000000a0: d03d 723d 0a86 043e 10fc 81bd 2ca4 f33d
000000b0: 1059 813c 6e14 133e fcd4 edbd 1284 22be
000000c0: 048e 353e 56b2 68be 3240 73be ec6a 6f3e
000000d0: 12c2 2d3e 80dc 3c3c ca3c 623e 8046 aa3d
000000e0: 80e6 e4bd d6bf 433e de42 06be b839 3cbe
000000f0: b8d6 363e 1693 2cbe 70a1 a63d c017 ebbd

weight f4 [1, 16]
-0.023021817 0.031570733 -0.017596126 -0.24255532 0.122614235 0.22082373 0.1572235 0.008169055
-0.10336751 -0.19803154 -0.11480874 -0.0894137 -0.2439332 0.16397634 0.003636539 -0.18167487
00000000: 4098 bcbc 5050 013d c025 90bc 6c60 78be
00000010: 2c1d fb3d 9e1f 623e 32ff 203e 80d7 053c
00000020: 58b2 d3bd c8c8 4abe d820 ebbd 881e b7bd
00000030: a0c9 79be 6ae9 273e 0053 6e3b fa08 3abe

weight f4 [1, 32]
0.11123164 -0.028652146 -0.0053410977 -0.06075401 -0.14303996 -0.028414726 0.13711368 -0.08121746
-0.029555202 -0.0649865 -0.10924417 -0.0056209713 -0.09740874 0.120652124 0.047114447 -0.079556875
0.13850941 -0.11074512 0.033096746 0.05301486 -0.13803089 0.14942081 0.0051299483 -0.15015422
-0.15472694 0.07838525 -0.16381349 -0.04076016 -0.1021616 -0.16509236 0.10258059 -0.03297907
00000000: 6acd e33d e8b7 eabc 6004 afbb 32d9 78bd
00000010: 1179 12be 00c6 e8bc 8767 0c3e 5755 a6bd
00000020: c01d f2bc a417 85bd 68bb dfbd 2030 b8bb
00000030: 3c7e c7bd 7618 f73d 14fb 403d b7ee a2bd
00000040: 69d5 0d3e 56ce e2bd 7490 073d 1c26 593d
00000050: f857 0dbe c501 193e 2019 a83b 07c2 19be
00000060: bd70 1ebe 7288 a03d b9be 27be 20f4 26bd
00000070: 1a3a d1bd f90d 29be c615 d23d 1015 07bd
