competition/result/lstm_win3_noStandardized_2layer_16hidden_0.99g_epoch7_clean/trained_model/all_model/critic_num_epoch_3.pth (torch, 22264 bytes, 10 tensors)

weight_ih_l0 f4 [64, 11]
0.2531379 0.15917511 -0.27712882 0.18550602 0.178933 -0.017793776 0.050878625 0.000901386
-0.050392855 0.07239345 -0.15465032 0.121971436 0.26391542 0.17352316 0.1805018 0.011714826
0.022122772 -0.20110148 0.005403755 -0.10778968 -0.09627413 -0.2462488 0.19537657 -0.061747532
-0.24379943 -0.10239229 0.15804452 0.058915358 -0.22366168 0.029848777 -0.07748104 0.1586125
-0.23722106 -0.23968172 0.012102218 -0.124414004 0.14686267 -0.22097626 -0.21552598 0.24887684
0.22971696 -0.10988009 0.16563588 0.11804163 -0.08169475 0.069274694 -0.15811439 0.14363042
0.237215 0.17953722 0.24745885 0.0032707748 0.057260666 -0.11031669 -0.24862784 -0.16387929
0.109486476 -0.21936636 0.043500654 -0.037574217 -0.084409185 -0.07738033 0.15753749 -0.13048555
-0.1241033 0.14924246 -0.023461629 -0.1613708 0.16741933 -0.23947538 0.020661227 0.23104161
-0.017666884 0.18488783 -0.21969453 -0.15032904 -0.14499366 -0.093425736 0.30539468 -0.15191092
0.127065 -0.08239524 0.11741497 -0.15675344 0.028341282 0.09256952 -0.16018167 -0.2327204
-0.06964059 -0.07746387 -0.24259745 0.15545236 -0.1030615 -0.22574244 -0.03502729 -0.07846315
-0.012281449 -0.231609 -0.22999601 -0.020041944 -0.18409286 -0.046741635 0.09227426 -0.19002844
0.06431761 -0.21529223 0.19551736 -0.186656 -0.00016564364 -0.10136003 -0.1420119 -0.015296992
-0.08367509 0.08329111 -0.12180789 -0.1793441 0.2126951 -0.23958476 -0.1909581 0.11386582
0.02166456 0.0674287 0.027670333 0.15730137 -0.048559356 -0.22930585 0.1496254 0.23294006
0.021075476 -0.1221002 -0.044652667 -0.053379424 0.014102362 0.31786585 -0.3073925 0.082731806
-0.21104641 -0.24281704 -0.25360715 -0.22866999 0.22576909 0.084140584 -0.1734876 -0.051297214
-0.04443796 -0.11463634 0.0088342205 -0.10264458 -0.20726353 -0.028016862 -0.16042939 0.14150648
-0.12529932 0.025492968 -0.07973594 -0.101636305 0.019045794 0.07511787 -0.036710713 -0.064138375
0.035213713 0.18132047 -0.07335501 -0.20258601 -0.18681723 -0.167196 0.24679235 -0.16221689
-0.17879817 0.16191931 0.13935961 -0.11302082 -0.097860076 -0.10049816 -0.02757949 -0.101637796
-0.19482727 -0.1562133 0.06800742 0.086406924 0.21653847 0.22966637 -0.21699457 -0.17555541
0.23700981 -0.075556345 -0.019628827 0.13800453 0.28162944 -0.22256237 0.041694183 0.14836942
-0.21221468 0.16841638 -0.030258253 0.13311681 -0.03696898 0.042482365 -0.23897131 0.27771464
0.0024080263 -0.13163336 -0.20641245 0.04234963 -0.22040811 -0.13718264 0.204315 -0.1241103
0.043349072 -0.02191799 0.1241594 -0.08709333 0.009218598 -0.14052457 -0.059584755 -0.051459044
-0.18521178 -0.2381004 -0.14910193 -0.22710243 -0.20666653 0.23154253 -0.2081092 0.030992733
0.103620134 0.19753152 0.07237654 0.08917712 0.14848797 -0.12426123 0.023661915 0.15909146
0.041468482 -0.12121596 0.1326018 -0.13101459 -0.05958011 0.19136678 -0.1834847 -0.19095129
-0.0018150933 -0.06855424 -0.19238856 -0.11505683 0.054753546 -0.10495304 -0.23423912 -0.20605707
0.119631246 -0.24812502 -0.03819896 0.21903388 0.22653496 -0.14744456 -0.13302857 0.071033336
00000000: 4a9b 813e cdfe 223e d4e3 8dbe 4af5 3d3e
00000010: 363a 373e 41c4 91bc 1b66 503d fe4a 6c3a
00000020: bd68 4ebd 0443 943d a75c 1ebe 29cc f93d
00000030: ec1f 873e 0eb0 313e 77d5 383e 8bef 3f3c
00000040: d13a b53c 8ced 4dbe fc11 b13b d6c0 dcbd
00000050: 5f2b c5bd a528 7cbe cc10 483e fbea 7cbd
00000060: 8fa6 79be 0db3 d1bd 6cd6 213e 3b51 713d
00000070: 9107 65be 6c85 f43c 61ae 9ebd 516b 223e
00000080: 14ea 72be 206f 75be 6248 463c c5cc febd
00000090: 2b63 163e 9a47 62be d8b2 5cbe 92d9 7e3e
000000a0: ec3a 6b3e d008 e1bd 749c 293e cfbf f13d
000000b0: 944f a7bd e4df 8d3d bde8 21be da13 133e
000000c0: 7de8 723e 9bd8 373e da65 7d3e 7f5a 563b
000000d0: 298a 6a3d b7ed e1bd 4c98 7ebe f9cf 27be
000000e0: 723a e03d 93a1 60be be2d 323d 6ce7 19bd
000000f0: b9de acbd 9479 9ebd 8251 213e 019e 05be
00000100: df29 febd 04d3 183e 9a32 c0bc 633e 25be
00000110: f96f 2b3e 0939 75be bc41 a93c 2c96 6c3e
00000120: 24ba 90bc 3c53 3d3e 9af7 60be dbef 19be
00000130: 3879 14be fe55 bfbd b15c 9c3e 898e 1bbe
00000140: 541d 023e d6be a8bd 4377 f03d f983 20be
00000150: fa2b e83c 1795 bd3d aa06 24be 424e 6ebe
00000160: ba9f 8ebd 61a5 9ebd 776b 78be e72e 1f3e
00000170: e811 d3bd 0729 67be c778 0fbd 4ab1 a0bd
00000180: 2138 49bc e92a 6dbe 1384 6bbe 012f a4bc
00000190: d782 3cbe 2874 3fbd 4afa bc3d d196 42be
000001a0: f3b8 833d 9175 5cbe b435 483e c022 3fbe
000001b0: a0b0 2db9 d995 cfbd 916b 11be 3ca0 7abc
000001c0: d85d abbd 8894 aa3d 6a76 f9bd fba5 37be
000001d0: bfcc 593e b555 75be 858a 43be 7c32 e93d
000001e0: e079 b13c 0f18 8a3d e5ac e23c 9c13 213e
000001f0: 2de6 46bd 27cf 6abe 6737 193e d787 6e3e
00000200: 7aa6 ac3c ab0f fabd b7e5 36bd 62a4 5abd
00000210: 980d 673c 50bf a23e 8d62 9dbe 4b6f a93d
00000220: 8d1c 58be 08a5 78be ccd8 81be 7728 6abe
00000230: 0330 673e e651 ac3d bca6 31be 071d 52bd
00000240: 9404 36bd 75c6 eabd 68bd 103c 5237 d2bd
00000250: e43c 54be 9e83 e5bc 9a47 24be 13e7 103e
00000260: 774e 00be a1d6 d03c 994c a3bd b226 d0bd
00000270: ed05 9c3c 66d7 993d f95d 16bd fb5a 83bd
00000280: 413c 103d 13ac 393e 273b 96bd b572 4fbe
00000290: 044d 3fbe 6e35 2bbe 22b7 7c3e 2f1c 26be
000002a0: de16 37be 2dce 253e 49b4 0e3e 7677 e7bd
000002b0: dd6a c8bd fbd1 cdbd 62ee e1bc 7a27 d0bd
000002c0: cd80 47be 61f6 1fbe 7947 8b3d 1df6 b03d
000002d0: 43bc 5d3e a92d 6b3e d333 5ebe ccc4 33be
000002e0: b3b2 723e 49bd 9abd a2cc a0bc 0f51 0d3e
000002f0: bc31 903e 64e7 63be 85c7 2a3d 27ee 173e
00000300: ce4e 59be 5875 2c3e 28e0 f7bc c64f 083e
00000310: c96c 17bd fd01 2e3d e5b4 74be 9d30 8e3e
00000320: facf 1d3b e5ca 06be c95d 53be ce76 2d3d
00000330: aab2 61be 9b79 0cbe f437 513e 8a2d febd
00000340: cc8e 313d 5b8d b3bc 4947 fe3d fd5d b2bd
00000350: 9a09 173c ace5 0fbe 250f 74bd b8c6 52bd
00000360: 28a8 3dbe 97d0 73be 2dae 18be 8a8d 68be
00000370: 64a0 53be 7c19 6d3e 941a 55be 79e4 fd3c
00000380: cb36 d43d b445 4a3e 273a 943d 7ea2 b63d
00000390: 3b0d 183e ac7c febd a2d6 c13c dfe8 223e
000003a0: dbda 293d 1340 f8bd c4c8 073e b028 06be
000003b0: 460a 74bd a7f5 433e 6ae3 3bbe bc88 43be
000003c0: 6de8 edba 2a66 8cbd 8201 45be eaa2 ebbd
000003d0: 4145 603d 9ff1 d6bd 61dc 6fbe a000 53be
000003e0: 3a01 f53d 7c14 7ebe 8376 1cbd 6b4a 603e
000003f0: c8f8 673e b5fb 16be a438 08be ed79 913d

weight_hh_l0 f4 [64, 16]
0.16168924 -0.06085136 -0.077259436 0.014687991 -0.24235538 0.022181973 0.14811133 0.07436191
-0.17618074 0.07519818 0.051838256 0.32134795 0.06328038 -0.026015919 -0.13929981 -0.058487512
-0.2014877 -0.2465867 -0.065627985 -0.25754708 0.18600996 -0.09960263 0.2094068 0.06571556
-0.028535334 -0.018791482 0.112195924 0.06745845 -0.07643645 -0.19798684 -0.023077287 0.17075187
0.059770647 0.11726666 0.09107729 -0.2888641 0.010019062 0.101494305 0.061341837 0.032553583
-0.059491627 0.33139685 -0.31882516 0.16505118 -0.11530501 -0.10134485 0.028471895 0.19199663
-0.26126286 -0.080606714 0.1743286 -0.29803455 0.0732648 0.19503503 -0.0247485 0.16142742
0.07155479 -0.021924341 -0.28561854 0.16751806 0.0038336937 -0.28118578 -0.18277778 0.15731072
-0.09337399 -0.036035333 0.0062743924 0.06185529 -0.18439788 0.08192921 0.20557044 -0.21247314
0.07455927 0.25600109 -0.20788997 -0.014811736 -0.07437262 -0.01848506 0.043115735 -0.0057044234
0.06421496 0.007852173 0.10468236 -0.15654175 -0.07861973 -0.02663607 -0.17730547 -0.22973618
0.13140534 0.18707725 0.040066585 0.069282144 0.20132297 -0.18523352 -0.18176746 -0.11188569
-0.13588066 -0.2340626 0.23608522 0.109076984 0.084953815 -0.1934816 0.046481732 0.0085682385
-0.040809065 0.27696002 0.118435375 -0.07293689 -0.10005186 -0.22607265 -0.11321465 -0.13896851
-0.22396691 0.16034865 0.06407978 -0.31062177 0.15816496 0.20625499 0.049821284 -0.1486733
-0.17117095 -0.069579326 -0.24709146 0.1604757 0.035162747 -0.18409815 0.10913886 -0.16969626
-0.2950034 0.043611147 -0.07316739 0.14710616 -0.108533196 -0.13174303 0.091926165 0.050569624
0.0745877 0.0020561186 0.08525003 0.22020473 0.015927542 -0.063025065 0.038208313 0.037708536
0.05313369 -0.07410745 0.22824503 0.15994792 0.12624308 0.06576845 -0.020233661 -0.25693917
-0.18794844 0.10560656 -0.321861 -0.056462053 0.15399559 0.10853807 0.2776479 0.11570593
-0.06820733 -0.18464218 -0.079069324 -0.0029681746 0.1463592 -0.07787746 0.31444186 -0.23747478
-0.3017929 0.3202765 -0.19653687 -0.14059626 -0.102137275 0.14018486 -0.06872817 -0.0664479
0.16801254 0.10971144 0.28220895 0.13776985 0.16239446 -0.26123947 0.08243507 -0.1511798
-0.31249684 0.12574455 -0.28506187 -0.050183345 0.115327686 -0.1375998 0.30516002 0.2898346
-0.12123329 -0.042095263 -0.08783866 -0.28348753 -0.07437672 0.190151 0.06513678 -0.09686292
0.020650908 -0.018257443 0.06209195 0.2777418 -0.111924745 -0.29402164 0.094129056 -0.06680188
-0.09663014 -0.12056147 -0.057478376 -0.18454306 0.09469726 -0.08150661 0.26331696 -0.035751365
-0.28697798 -0.07986855 -0.2935698 0.056488406 -0.15575385 -0.12069494 0.27248526 -0.05676855
-0.22913602 0.22168984 0.15020984 -0.011577708 -0.08804873 -0.12679599 0.11309816 0.0711495
-0.07069657 0.052696884 -0.019662224 -0.0005390266 0.08405639 -0.23014697 0.18281487 0.11967397
0.1719072 -0.30145872 0.17716488 -0.19222645 -0.23338456 -0.06437569 0.19188847 -0.057394017
0.15843526 -0.16908811 -0.20085196 0.09723703 0.14912984 -0.096076906 0.29623616 -0.15733872
00000000: dd91 253e 473f 79bd 323a 9ebd e6a5 703c
00000010: 022c 78be f8b6 b53c 7faa 173e 0f4b 983d
00000020: b968 34be 8101 9a3d 5a54 543d b887 a43e
00000030: 2599 813d 561f d5bc 9ca4 0ebe 9a90 6fbd
00000040: cb52 4ebe 3981 7cbe f767 86bd 36dd 83be
00000050: 6579 3e3e 77fc cbbd bc6e 563e e195 863d
00000060: efc2 e9bc 98f0 99bc fac6 e53d a827 8a3d
00000070: b78a 9cbd 10bd 4abe 940c bdbc 94d9 2e3e
00000080: 11d2 743d 8129 f03d bb86 ba3d ffe5 93be
00000090: fe26 243c 3fdc cf3d 9441 7b3d e856 053d
000000a0: 7ead 73bd d9ac a93e 0d3d a3be 2d03 293e
000000b0: 0825 ecbd e48d cfbd e43d e93c c49a 443e
000000c0: 3fc4 85be 2215 a5bd 3283 323e fc97 98be
000000d0: db0b 963d 43b7 473e 5ebd cabc 3b4d 253e
000000e0: 518b 923d ad9a b3bc 983c 92be db89 2b3e
000000f0: b53e 7b3b 95f7 8fbe 192a 3bbe 1016 213e
00000100: dd3a bfbd c999 13bd 6b99 cd3b f95b 7d3d
00000110: ccd2 3cbe 80ca a73d 0f81 523e 8f92 59be
00000120: 88b2 983d 9312 833e 1ce1 54be ecac 72bc
00000130: ac50 98bd fb6d 97bc 209a 303d 2cec babb
00000140: 2283 833d 67a6 003c b563 d63d 7b4c 20be
00000150: 6203 a1bd e333 dabc 918f 35be f63f 6bbe
00000160: 1f8f 063e 2e91 3f3e dc1c 243d cce3 8d3d
00000170: 9c27 4e3e dbad 3dbe 4021 3abe 5324 e5bd
00000180: 4d24 0bbe 1bae 6fbe 53c0 713e c163 df3d
00000190: 44fc ad3d 0a20 46be a163 3e3d cc61 0c3c
000001a0: 6827 27bd b4cd 8d3e 3f8e f23d f05f 95bd
000001b0: fde7 ccbd 977f 67be 15dd e7bd c34d 0ebe
000001c0: 9557 65be 7032 243e 423c 833d d109 9fbe
000001d0: fff5 213e 8234 533e 6711 4c3d d03d 18be
000001e0: 7047 2fbe 9b7f 8ebd 8b05 7dbe be53 243e
000001f0: d006 103d 3a84 3cbe 3284 df3d dbc4 2dbe
00000200: b00a 97be 9aa1 323d c9d8 95bd ffa2 163e
00000210: a746 debd a5e7 06be c943 bc3d 1822 4f3d
00000220: 70c1 983d f2bf 063b 9197 ae3d 597d 613e
00000230: 7a7a 823c 4913 81bd 5280 1c3d 4474 1a3d
00000240: b6a2 593d a6c5 97bd 11b9 693e 63c9 233e
00000250: de45 013e 9cb1 863d 10c1 a5bc 888d 83be
00000260: 8e75 40be 4148 d83d f7ca a4be c144 67bd
00000270: 05b1 1d3e 3549 de3d de27 8e3e 3bf7 ec3d
00000280: 49b0 8bbd d712 3dbe 19ef a1bd b585 42bb
00000290: 30df 153e 387e 9fbd 86fe a03e 972c 73be
000002a0: 9984 9abe 48fb a33e f640 49be 77f8 0fbe
000002b0: 592d d1bd 9f8c 0f3e 5bc1 8cbd d615 88bd
000002c0: 7b0b 2c3e 64b0 e03d b17d 903e 8a13 0d3e
000002d0: bc4a 263e 2ec1 85be b8d3 a83d e1ce 1abe
000002e0: 96ff 9fbe 2ec3 003e a1f3 91be 0d8d 4dbd
000002f0: ec30 ec3d f6e6 0cbe ef3d 9c3e 3365 943e
00000300: 2949 f8bd 156c 2cbd c1e4 b3bd 4725 91be
00000310: d252 98bd f2b6 423e 6f66 853d 1160 c6bd
00000320: 182c a93c a290 95bc 2154 7e3d 2c34 8e3e
00000330: cd38 e5bd 018a 96be bcc6 c03d 6dcf 88bd
00000340: 06e6 c5bd efe8 f6bd 726e 6bbd dbf8 3cbe
00000350: a3f0 c13d f0ec a6bd 7bd1 863e 0670 12bd
00000360: c7ee 92be 1f92 a3bd c84e 96be 6360 673d
00000370: f07d 1fbe e92e f7bd 3083 8b3e 2486 68bd
00000380: a2a2 6abe a902 633e 9cd0 193e 6db0 3dbc
00000390: e452 b4bd cfd6 01be 02a0 e73d d4b6 913d
000003a0: 5dc9 90bd b0d8 573d ac12 a1bc 764d 0dba
000003b0: c225 ac3d a6ab 6bbe d233 3b3e a017 f53d
000003c0: 7108 303e cc58 9abe b66a 353e 03d7 44be
000003d0: 5dfc 6ebe 67d7 83bd 697e 443e fd15 6bbd
000003e0: da3c 223e 6f25 2dbe 23ac 4dbe 3524 c73d
000003f0: 7eb5 183e f8c3 c4bd 44ac 973e 671d 21be

bias_ih_l0 f4 [64]
0.0020665922 0.19218531 0.26438192 0.14573798 -0.17541656 0.16000216 0.23104182 -0.111320354
0.1708108 -0.09219586 0.07197537 -9.640036e-06 0.26375315 0.0599353 0.12884207 -0.16625306
0.16110486 0.23526755 -0.14958368 0.10629286 -0.10875098 -0.12557593 0.25353384 0.037785184
-0.074273095 0.24603842 0.2785152 -0.15720071 0.32905182 0.070494294 -0.034847513 -0.06066269
-0.31819448 -0.26942495 0.25336748 -0.2879481 -0.05043941 -0.040275626 0.24050158 -0.19729695
-0.20271246 0.0993194 -0.0036187833 0.06182894 -0.08346148 -0.15162554 0.08429134 -0.06157508
0.119937986 0.23874757 0.1983809 -0.16771387 -0.048414197 0.087372206 -0.056638014 0.23771665
0.2048038 0.20775968 -0.017293366 0.094826214 -0.14295153 0.33155122 -0.09923504 0.027984904
00000000: aa6f 073b 3acc 443e 115d 873e 563c 153e
00000010: 66a0 33be 9bd7 233e 3a96 6c3e edfb e3bd
00000020: 07e9 2e3e 2fd1 bcbd d367 933d a4bb 21b7
00000030: a70a 873e b87e 753d 2def 033e 3e3e 2abe
00000040: acf8 243e fae9 703e 772c 19be 12b0 d93d
00000050: d5b8 debd fa96 00be 30cf 813e a3c4 1a3d
00000060: 7e1c 98bd 7ff1 7b3e 8b99 8e3e 39f9 20be
00000070: 7b79 a83e 505f 903d 44bc 0ebd 7179 78bd
00000080: 63ea a2be 11f2 89be 62b9 813e ef6d 93be
00000090: 8e99 4ebd 0ef8 24bd 0c46 763e 3608 4abe
000000a0: db93 4fbe f867 cb3d 1c29 6dbb 5840 7d3d
000000b0: daed aabd ba43 1bbe f0a0 ac3d 2736 7cbd
000000c0: 0ca2 f53d 3e7a 743e 5d24 4b3e 2fbd 2bbe
000000d0: f74d 46bd 33f0 b23d 43fd 67bd fe6b 733e
000000e0: 16b8 513e f4be 543e d1aa 8dbc 3f34 c23d
000000f0: e361 12be 15c1 a93e be3b cbbd 9940 e53c

bias_hh_l0 f4 [64]
0.30775592 -0.030580644 -0.10516514 0.014177267 -0.16563718 -0.17146708 0.06049275 -0.105257705
-0.111690536 0.29807127 0.25275478 0.28139156 -0.025143763 0.19075978 0.020478552 -0.07366099
0.17106414 0.18871926 0.14364363 0.138467 -0.18294846 -0.17126264 0.16273838 -0.15913619
0.21562746 -0.05036268 0.017456952 0.1439114 0.32720453 -0.06047927 -0.17013995 0.2920205
-0.28267285 0.11752909 0.17482029 0.14983952 -0.24580634 0.029805666 -0.08566782 -0.13483825
-0.1703153 0.0015748478 -0.215486 0.20226781 0.303117 -0.13308069 0.12231785 0.19699763
-0.09300488 -0.116138764 0.19243397 0.13866217 0.03276026 0.014548804 0.13046896 -0.17369822
0.0023579237 0.13614261 0.009939115 0.30624938 0.037186828 0.044014085 0.13777791 0.20419088
00000000: 2f92 9d3e 4284 fabc d260 d7bd c547 683c
00000010: cb9c 29be 1195 2fbe 3fc7 773d 5a91 d7bd
00000020: 02be e4bd cc9c 983e 1369 813e 8e12 903e
00000030: 4bfa cdbc 8856 433e a3c2 a73c 93db 96bd
00000040: 702b 2f3e 9f3f 413e 5117 133e 4bca 0d3e
00000050: d756 3bbe 795f 2fbe e4a4 263e 99f4 22be
00000060: 72cd 5c3e 1949 4ebd e201 8f3c 835d 133e
00000070: 5a87 a73e 1cb9 77bd 2b39 2ebe b683 953e
00000080: 7fba 90be 17b3 f03d 1704 333e 886f 193e
00000090: a8b4 7bbe 032b f43c 9c72 afbd 0a13 0abe
000000a0: 2267 2ebe 206b ce3a 5da8 5cbe 4b1f 4f3e
000000b0: 2732 9b3e 4e46 08be c881 fa3d bfb9 493e
000000c0: 5879 bebd 29da edbd 690d 453e 75fd 0d3e
000000d0: 9f2f 063d 1b5e 6e3c a899 053e f2dd 31be
000000e0: 6587 1a3b f868 0b3e abd7 223c b8cc 9c3e
000000f0: 3751 183d 1d48 343d a715 0d3e 6a17 513e

weight_ih_l1 f4 [64, 16]
-0.17072517 -0.12696192 0.10150351 -0.18233968 0.14678392 -0.12578586 -0.09499061 0.10548084
-0.2818741 0.031201085 0.08904551 -0.03249658 0.14409578 -0.04690428 -0.13978937 0.26343876
0.11259643 -0.11051403 -0.030034535 -0.03340692 -0.06798758 0.11911461 -0.17467482 0.13524267
-0.15129712 -0.07810758 -0.2557575 0.24214843 0.09876473 0.03593267 0.0154213505 -0.10046651
-0.20898776 -0.19258508 0.1794367 0.12383692 -0.14499931 0.18338977 0.048123114 0.051182218
0.05246708 -0.016976729 0.016799208 0.068934 0.12294965 0.12308637 -0.017556457 0.2347798
-0.26156908 0.13115 -0.12879732 0.06761677 -0.275923 0.17779313 0.05320486 -0.1693546
0.14385922 0.05075255 -0.22226088 0.2601966 0.19716495 -0.0063712564 0.034588855 0.30070415
0.11285118 -0.2567788 0.11580149 -0.17898826 -0.007225203 -0.070173986 0.1677542 -0.28343105
-0.2887762 -0.05754215 0.024615057 -0.036947027 -0.12645958 -0.04771081 0.1692452 0.28176075
-0.3241049 0.15589383 -0.06132785 -0.13692869 -0.15775004 0.111257784 0.2669426 -0.32118663
0.121176 0.037513066 -0.10116633 -0.057577886 0.0022629926 0.0044308854 0.052909423 0.31428927
0.01333351 0.010172583 -0.01520227 -0.08276881 0.018200802 -0.0074562794 0.1638395 -0.08083978
0.100263156 -0.084410705 0.10775625 -0.17542844 0.19095209 -0.27212152 0.20773233 -0.15319514
-0.0826991 -0.2272119 -0.17480326 -0.20922573 -0.02029182 0.2712207 0.27493173 -0.3141139
0.12299119 0.26466283 0.09759024 0.05543495 -0.00046928588 -0.025800519 0.16442782 0.2160092
-0.08212651 -0.2947731 0.103999734 0.038984906 -0.30720022 0.27743542 0.17492136 -0.13820589
-0.17024548 0.01914637 0.13234445 0.095024265 0.057380963 -0.284579 -0.0058720643 0.0539926
-0.2579898 0.17308816 0.16351593 0.06026334 -0.26804474 -0.079856046 -0.0760643 0.0998699
-0.14185683 -0.019713135 -0.0012299906 0.14047773 -0.03322629 0.16738741 0.20194742 -0.122050986
-0.2318018 -0.19289382 0.021719662 0.108202495 0.12790394 0.068045124 0.059002567 -0.3134598
-0.1839813 0.09012559 0.11713177 0.25567228 0.23631309 0.1480547 -0.17825739 -0.07148951
-0.26076144 -0.29098624 0.17661047 0.08400495 -0.13501404 0.214049 0.19853544 -0.2561226
0.062926166 -0.10728398 -0.3108196 0.18614165 0.20945476 -0.22552156 -0.14222106 0.027009573
-0.07930436 -0.0705749 0.060409 -0.20256582 -0.19311349 -0.033121295 -0.14781532 -0.2780626
-0.16299263 0.1787858 -0.1013511 0.05568291 0.19004591 0.15429597 -0.036007814 0.09673677
0.020571018 -0.18235143 0.11347429 -0.19973989 0.09498978 -0.21831305 0.20471859 0.1824109
-0.047436927 -0.1810941 -0.048780892 -0.11919992 -0.16152057 0.117596716 0.22331488 0.3101256
0.07377102 -0.31467637 -0.025691437 -0.16913816 0.08246486 -0.13088134 0.22987463 -0.06420706
-0.30207327 0.15399572 0.13813747 0.32860366 0.16690259 0.011897409 -0.011042648 0.14091574
-0.30650333 -0.24126415 -0.1482104 0.098225765 0.037262477 0.06756089 -0.14675567 0.10693311
-0.06420819 -0.05214151 -0.060450163 0.20612307 0.012410976 -0.034641575 0.28120503 0.31768474
00000000: 94d2 2ebe 4e02 02be 12e1 cf3d 41b7 3abe
00000010: 864e 163e 02ce 00be 708a c2bd 5706 d83d
00000020: cd51 90be 6b99 ff3c 7e5d b63d 221b 05bd
00000030: d88d 133e b41e 40bd f224 0fbe 72e1 863e
00000040: f598 e63d 2e55 e2bd fc0a f6bc b2d5 08bd
00000050: 133d 8bbd 5cf2 f33d f5dd 32be 0e7d 0a3e
00000060: a2ed 1abe def6 9fbd a6f2 82be c2f5 773e
00000070: 2a45 ca3d 232e 133d d5a9 7c3c 63c1 cdbd
00000080: e300 56be 0635 45be 41be 373e 369e fd3d
00000090: b37a 14be 87ca 3b3e be1c 453d 72a4 513d
000000a0: b9e7 563d c812 8bbc 7e9e 893c 452d 8d3d
000000b0: 07cd fb3d b514 fc3d 8fd2 8fbc 1e6a 703e
000000c0: 62ec 85be 304c 063e 72e3 03be a97a 8a3d
000000d0: c845 8dbe 670f 363e 57ed 593d 4b6b 2dbe
000000e0: d54f 133e e8e1 4f3d 5b98 63be 7d38 853e
000000f0: 9ce5 493e f9c5 d0bb 0bad 0d3d e5f5 993e
00000100: 851e e73d 8378 83be 5529 ed3d b348 37be
00000110: 65c1 ecbb 61b7 8fbd c2c7 2b3e e01d 91be
00000120: 79da 93be 51b1 6bbd 84a5 c93c c455 17bd
00000130: 9f7e 01be 696c 43bd 9d4e 2d3e f242 903e
00000140: 14f1 a5be a2a2 1f3e e932 7bbd 0937 0cbe
00000150: 3a89 21be 1fdb e33d b3ac 883e 9372 a4be
00000160: 1f2b f83d 4da7 193d 4b30 cfbd cad6 6bbd
00000170: b74e 143b f630 913b 8db7 583d 86ea a03e
00000180: cb74 5a3c e8aa 263c f112 79bc b282 a9bd
00000190: d919 953c ce53 f4bb 8bc5 273e 548f a5bd
000001a0: c556 cd3d 85df acbd 4faf dc3d 83a3 33be
000001b0: f288 433e 8353 8bbe c9b7 543e 30df 1cbe
000001c0: 255e a9bd 3caa 68be a0ff 32be 453f 56be
000001d0: 083b a6bc 71dd 8a3e dac3 8c3e 89d3 a0be
000001e0: cee2 fb3d e381 873e 64dd c73d c20f 633d
000001f0: 7c0a f6b9 9c5b d3bc c45f 283e 8431 5d3e
00000200: f231 a8bd 80ec 96be d0fd d43d a3ae 1f3d
00000210: 5949 9dbe 040c 8e3e 961e 333e d885 0dbe
00000220: d554 2ebe d9d8 9c3c 4e85 073e 159c c23d
00000230: 4d08 6b3d 57b4 91be 726a c0bb 5827 5d3d
00000240: 3d17 84be 063e 313e b870 273e b1d6 763d
00000250: 293d 89be 918b a3bd 9ac7 9bbd 9788 cc3d
00000260: eb42 11be 717d a1bc a337 a1ba 65d9 0f3e
00000270: 4a18 08bd 9b67 2b3e 4ecb 4e3e def5 f9bd
00000280: 735d 6dbe f585 45be 6fed b13c 4599 dd3d
00000290: 40f9 023e 3e5b 8b3d adac 713d ce7d a0be
000002a0: 9865 3cbe c493 b83d c8e2 ef3d 7ae7 823e
000002b0: 0ffc 713e a79b 173e 1b89 36be 1869 92bd
000002c0: 8682 85be 26fc 94be 60d9 343e ca0a ac3d
000002d0: 1f41 0abe a92f 5b3e e04c 4b3e 8022 83be
000002e0: 6fdf 803d b4b7 dbbd bf23 9fbe eb9b 3e3e
000002f0: 4f7b 563e 20ef 66be 66a2 11be 2e43 dd3c
00000300: 536a a2bd 9389 90bd 6d6f 773d 6a6d 4fbe
00000310: 8bbf 45be 32aa 07bd e65c 17be 395e 8ebe
00000320: 8ae7 26be a013 373e 2a91 cfbd c313 643d
00000330: 659b 423e c3ff 1d3e ee7c 13bd ed1d c63d
00000340: 8d84 a83c 55ba 3abe 3565 e83d 9d88 4cbe
00000350: 008a c23d 758d 5fbe c0a1 513e ecc9 3a3e
00000360: 394d 42bd bb70 39be 79ce 47bd 161f f4bd
00000370: a665 25be 8cd6 f03d a8ac 643e c8c8 9e3e
00000380: 4315 973d 431d a1be d976 d2bc 8e32 2dbe
00000390: 56e3 a83d c205 06be 4164 6b3e fe7e 83bd
000003a0: 59a9 9abe 0eb1 1d3e e973 0d3e bd3e a83e
000003b0: 83e8 2a3e 5aed 423c 39ec 34bc 374c 103e
000003c0: 01ee 9cbe f30d 77be 78c4 17be 972a c93d
000003d0: 8aa0 183d 5d5d 8a3d 1e47 16be bfff da3d
000003e0: 957f 83bd 5692 55bd 979a 77bd ed11 533e
000003f0: 6857 4b3c 53e4 0dbd 1bfa 8f3e 93a7 a23e

weight_hh_l1 f4 [64, 16]
-0.003782811 0.07341347 0.09828302 -0.2515892 -0.04101056 -0.2477657 0.11902585 0.24656548
-0.14350547 0.035496484 -0.12057033 -0.012564493 0.004271632 0.305377 0.061699662 0.01059709
-0.105695605 -0.021436661 -0.05579161 -0.08383172 -0.22591811 -0.18824776 0.18455048 -0.031047828
0.09854802 0.05368513 -0.27682677 -0.103056796 -0.30991176 0.18379085 -0.11369826 -0.022412973
-0.26221558 -0.042720437 -0.0028807593 -0.20004486 -0.16609915 -0.0062616966 0.19594803 -0.11070255
-0.1256176 -0.09136098 -0.21680179 -0.1570061 0.066046156 -0.19147821 0.1700091 -0.124292396
-0.15655136 -0.15097329 0.19094884 -0.14721817 -0.16814351 -0.31042546 0.11595843 0.035623036
-0.0046043377 -0.01537249 -0.27285534 -0.16009735 -0.31337368 0.20866075 0.22255304 -0.08929304
0.28598413 0.07666285 -0.03315667 -0.17577161 -0.30896285 -0.060995568 0.2239283 0.15580437
0.1725298 -0.21477285 -0.23943557 -0.27939457 -0.053586047 -0.054013904 -0.074086085 0.15726012
0.059163816 -0.026704185 -0.16078158 -0.052980367 0.02308116 -0.26512396 0.30086055 0.30025068
0.08205753 0.2158827 0.05034074 -0.17321484 0.006277293 0.075664245 -0.13831027 -0.02495792
0.018166017 0.04046901 -0.1746571 0.13031283 0.014848427 0.13961168 -0.16368535 0.3006694
0.014948813 -0.013181371 -0.03544905 -0.17465115 -0.021176888 -0.039596226 0.30143595 0.004165284
-0.102477655 0.13003665 0.041218035 -0.095418125 0.11296467 -0.24902193 0.056846518 0.17892468
0.0392091 0.016320506 6.9275724e-05 -0.0714096 -0.18270952 0.16856247 -0.10000893 0.1942275
-0.16705224 -0.045626596 0.30591568 -0.0968002 -0.041805197 0.101342216 0.29701653 0.14049895
0.19291177 0.10914495 -0.20068763 -0.17482135 -0.17889562 0.29593655 -0.13320914 0.19476682
-0.084060326 0.18393213 -0.16081429 0.17085654 -0.036813665 0.14765477 0.099845335 -0.0747949
-0.107835665 0.011244477 0.0016977452 -0.021888925 -0.12118623 0.13028711 -0.14071387 0.12280791
0.046999156 0.063257426 0.045804206 0.12394845 0.022404218 -0.12443742 0.17494497 0.25742972
0.17954926 -0.23617616 -0.11290754 0.054111227 -0.14178143 0.09452607 0.28524992 0.3254378
-0.033045907 -0.27124128 0.2727152 -0.18943946 0.027575912 -0.068991475 0.11773414 0.32759106
0.31793413 0.05578274 0.019133966 0.091897726 -0.1942512 -0.1309481 0.17793651 -0.038903438
0.21306781 0.09756235 -0.11174832 -0.17384079 -0.11536175 -0.12056863 -0.06082278 0.07999272
0.09465708 -0.23497243 -0.24935897 -0.22199857 -0.21031696 0.19758187 0.09924483 0.060478553
0.2525717 -0.22743852 -0.14954273 0.013880516 -0.085649215 0.096320406 0.20916927 0.17457387
-0.0729837 -0.15590407 0.054761656 0.09496029 -0.06448341 0.2659761 0.23404282 0.07428547
-0.055500735 0.14164849 0.12679245 -0.04126694 -0.02768795 -0.03732562 0.21590717 -0.15425304
-0.13265495 0.056712564 0.10862663 -0.17936411 -0.2081917 0.014213911 0.08804617 0.26465106
0.20865592 -0.2481 0.29964292 -0.18673868 0.12672973 -0.26558426 0.19236918 0.32862666
-0.15029106 0.058378875 -0.23768018 -0.29895616 -0.21588175 0.042032156 0.030457629 -0.088230275
00000000: 0ae9 77bb cd59 963d 9c48 c93d 4dd0 80be
00000010: b0fa 27bd 4bb6 7dbe d3c3 f33d a97b 7c3e
00000020: 19f3 12be c364 113d 94ed f6bd 4edb 4dbc
00000030: 0cf9 8b3b 605a 9c3e c9b8 7c3d 6b9f 2d3c
00000040: f076 d8bd f09b afbc be85 64bd f7af abbd
00000050: 1457 67be 05c4 40be cdfa 3c3e 0458 febc
00000060: 8bd3 c93d f0e4 5b3d 3dbc 8dbe 710f d3bd
00000070: c1ac 9ebe ab33 3c3e a2da e8bd 699b b7bc
00000080: 1f41 86be a0fb 2ebd 1fcb 3cbb 8fd8 4cbe
00000090: e515 2abe eb2e cdbb 9aa6 483e 05b8 e2bd
000000a0: e6a1 00be 771b bbbd 4a01 5ebe 35c6 20be
000000b0: 3543 873d dd12 44be de16 2e3e 038d febd
000000c0: 004f 20be be98 1abe 1888 433e 5cc0 16be
000000d0: d02d 2cbe 16f0 9ebe 9d7b ed3d 76e9 113d
000000e0: fcdf 96bb e5dc 7bbc b2b3 8bbe 8ff0 23be
000000f0: 8472 a0be 2aab 553e f2e4 633e 45df b6bd
00000100: 836c 923e 6a01 9d3d 4acf 07bd 79fd 33be
00000110: 6130 9ebe 7dd6 79bd 764d 653e 2e8b 1f3e
00000120: a7ab 303e 6aed 5bbe 992e 75be ce0c 8fbe
00000130: 0b7d 5bbd af3d 5dbd 72ba 97bd cc08 213e
00000140: c255 723d bcc2 dabc eda3 24be f101 59bd
00000150: b314 bd3c 54be 87be 650a 9a3e 75ba 993e
00000160: c70d a83d 5b10 5d3e 1732 4e3d 3b5f 31be
00000170: c0b1 cd3b dbf5 9a3d 35a1 0dbe 8d74 ccbc
00000180: e6d0 943c d5c2 253d 50d9 32be ba70 053e
00000190: d146 733c 5df6 0e3e 229d 27be 57f1 993e
000001a0: deeb 743c adf6 57bc 0633 11bd c0d7 32be
000001b0: 277b adbc a72f 22bd d055 9a3e ef7c 883b
000001c0: cedf d1bd 5428 053e 3ed4 283d 946a c3bd
000001d0: 055a e73d 9bff 7ebe e5d7 683d 0838 373e
000001e0: b999 203d 95b2 853c 1f48 9138 323f 92bd
000001f0: 3418 3bbe a49b 2c3e 7bd1 ccbd 93e3 463e
00000200: be0f 2bbe f4e2 3abd fba0 9c3e 2f3f c6bd
00000210: ed3b 2bbd 828c cf3d 8d12 983e f5de 0f3e
00000220: aa8a 453e 6387 df3d 0f81 4dbe 5e04 33be
00000230: 6a30 37be ff84 973e fa67 08be f470 473e
00000240: d227 acbd b458 3c3e 80ac 24be 04f5 2e3e
00000250: edc9 16bd d032 173e b67b cc3d 122e 99bd
00000260: f2d8 dcbd c13a 383c e086 de3a 6750 b3bc
00000270: 7c30 f8bd fc69 053e 4c17 10be b782 fb3d
00000280: 3082 403d 1c8d 813d 319d 3b3d afd8 fd3d
00000290: 0d89 b73c 0cd9 febd c624 333e d4cd 833e
000002a0: c3db 373e 2ad8 71be 113c e7bd bca3 5d3d
000002b0: 272f 11be e296 c13d 470c 923e c99f a63e
000002c0: 255b 07bd 23e0 8abe 54a1 8b3e 6bfc 41be
000002d0: e1e6 e13c 674b 8dbd 991e f13d 04ba a73e
000002e0: 43c8 a23e 717c 643d d6be 9c3c e034 bc3d
000002f0: c9e9 46be 4217 06be fd34 363e 3659 1fbd
00000300: 732e 5a3e c5ce c73d 4edc e4bd 5203 32be
00000310: c842 ecbd b0ec f6bd 4f21 79bd 39d3 a33d
00000320: 92db c13d 9d9c 70be f557 7fbe 9853 63be
00000330: 545d 57be e752 4a3e e040 cb3d 5cb8 773d
00000340: 1451 813e a5e5 68be bb21 19be 1b6b 633c
00000350: db68 afbd a243 c53d 7830 563e 7ec3 323e
00000360: 7a78 95bd 51a5 1fbe c24d 603d 8a7a c23d
00000370: e10f 84bd 052e 883e eca8 6f3e fb22 983d
00000380: bd54 63bd 4d0c 113e e1d5 013e 8607 29bd
00000390: d7d1 e2bc c0e2 18bd c516 5d3e 82f4 1dbe
000003a0: b3d6 07be 6f4b 683d a377 de3d 3aab 37be
000003b0: 3430 55be 77e1 683c 8d51 b43d 5880 873e
000003c0: e6a9 553e ed0d 7ebe cc6a 993e 6d38 3fbe
000003d0: 70c5 013e a9fa 87be 6dfc 443e c141 a83e
000003e0: e6e5 19be b01e 6f3d 6f62 73be c810 99be
000003f0: 1b10 5dbe e929 2c3d 4782 f93c 13b2 b4bd

bias_ih_l1 f4 [64]
-0.0035771627 -0.01541571 -0.10273883 0.2525746 -0.16031183 0.29820612 0.23568864 0.28113976
0.2956752 0.09917117 0.1777861 0.2085202 0.061199907 0.024434932 0.23367818 -0.013408515
0.18737926 0.1266938 -0.019787822 0.21411598 0.19970623 0.24541964 0.24312635 0.16988586
0.056309946 -0.10293061 -0.11208285 0.08862455 0.04689363 0.24408706 0.32361436 0.11610681
0.24970382 0.066271394 0.17851847 0.09464894 -0.27546117 -0.3088798 0.13907605 0.12831078
0.08787029 0.048871323 0.08528566 -0.018086264 -0.037716568 -0.03235361 0.15476844 0.070499614
-0.17786592 0.06874861 -0.101467885 0.060195975 -0.035705026 0.30513656 0.2544392 0.049586315
0.1398063 0.0897579 0.256097 -0.13401593 -0.038780637 0.08390494 -0.011541971 0.1426043
00000000: d56e 6abb 2d92 7cbc bc68 d2bd 7551 813e
00000010: c928 24be 79ae 983e 5d58 713e 8df1 8f3e
00000020: bd62 973e 411a cb3d 8f0d 363e 5286 553e
00000030: c1ac 7a3d c42b c83c 5549 6f3e 63af 5bbc
00000040: 59e0 3f3e 05bc 013e 121a a2bc 3841 5b3e
00000050: ca7f 4c3e 494f 7b3e 1df6 783e 8ff6 2d3e
00000060: 42a5 663d 49cd d2bd b18b e5bd ca80 b53d
00000070: 8913 403d f5f1 793e c8b0 a53e 68c9 ed3d
00000080: 5cb2 7f3e 4cb9 873d 8ccd 363e 4ed7 c13d
00000090: 3f09 8dbe 7e25 9ebe f469 0e3e e763 033e
000000a0: 57f5 b33d 4c2d 483d 40aa ae3d a529 94bc
000000b0: b07c 1abd 3885 04bd 9e7b 1e3e 1a62 903d
000000c0: 7c22 36be 12cc 8c3d 65ce cfbd 0e90 763d
000000d0: 6f3f 12bd dc3a 9c3e db45 823e 051b 4b3d
000000e0: 6229 0f3e fdd2 b73d 251f 833e 793b 09be
000000f0: 72d8 1ebd 5ad6 ab3d 891a 3dbc dd06 123e

bias_hh_l1 f4 [64]
-0.10613088 -0.091575064 0.07109113 -0.16219978 -0.02067336 0.079723 0.06312286 0.035100386
0.13987423 0.13156156 0.31601512 -0.11508166 -0.1019312 -0.1722677 0.04989613 0.03726816
-0.06523616 0.0020059368 -0.102774546 0.19501801 0.20247376 0.004694166 -0.080140166 -0.052417517
0.19054082 -0.13976482 -0.16903351 0.07215625 -0.03355386 0.019989697 0.08149449 0.019258723
-0.0032669227 -0.28653577 0.14560431 -0.19324276 -0.1983335 -0.0021317238 -0.0007280821 0.14883454
0.123527125 -0.11705181 -0.2706573 -0.18776494 -0.23847678 0.11780522 0.02136252 0.035505895
0.12437405 0.22033787 0.13818176 -0.06260322 -0.056879263 -0.01758979 0.2986835 0.07829964
0.20257494 0.074242115 0.09660867 0.21562669 0.1550508 0.26851216 0.31740135 0.086001195
00000000: 265b d9bd b58b bbbd 3a98 913d b317 26be
00000010: 2e5b a9bc d045 a33d 8f46 813d 6cc5 0f3d
00000020: 313b 0f3e 13b8 063e bccc a13e efaf ebbd
00000030: 4ec1 d0bd f266 30be e25f 4c3d 80a6 183d
00000040: 899a 85bd 0976 033b 767b d2bd cdb2 473e
00000050: 4855 4f3e 85d1 993b 8720 a4bd c0b3 56bd
00000060: 221d 433e 821e 0fbe 1f17 2dbe a8c6 933d
00000070: c66f 09bd 6fc1 a33c 95e6 a63d 78c4 9d3c
00000080: de19 56bb d1b4 92be 4c19 153e 6ee1 45be
00000090: f017 4bbe 64b4 0bbb c3dc 3eba 1568 183e
000000a0: cafb fc3d dcb8 efbd 9893 8abe 7445 40be
000000b0: 4233 74be dd43 f13d 7400 af3c a16e 113d
000000c0: d2b7 fe3d 40a0 613e 857f 0d3e 1e36 80bd
000000d0: 3bfa 68bd 7718 90bc 0bed 983e 905b a03d
000000e0: ce6f 4f3e 400c 983d c4da c53d 3ecd 5c3e
000000f0: a3c5 1e3e 6d7a 893e 6e82 a23e 6521 b03d

weight f4 [1, 16]
0.23178989 -0.17078613 -0.16545537 -0.23746821 -0.28973275 -0.020483559 0.05899375 0.21547621
0.23847589 0.25453457 -0.24159768 -0.287063 -0.18870859 0.23247841 0.10214577 0.28515783
00000000: 545a 6d3e 8fe2 2ebe 226d 29be de2a 73be
00000010: da57 94be 23cd a7bc 6ea3 713d cca5 5c3e
00000020: 0633 743e 5b52 823e 6265 77be ecf9 92be
00000030: d33c 41be d20e 6e3e cd31 d13d 3500 923e

weight f4 [1, 31]
-0.055523008 -0.06806154 -0.046138838 0.013666615 -0.03322661 -0.11900355 0.13149536 -0.013655484
-0.13642558 -0.07383778 -0.060578056 -0.011053398 0.085197926 0.08862224 -0.13716093 -0.061907656
0.1777074 -0.1040263 0.06466952 -0.028336093 0.0941481 -0.17269228 0.11237326 -0.06788293
-0.12685017 -0.11647059 0.050036103 0.15999499 0.11003208 0.04797356 -0.06129852
00000000: 186c 63bd d963 8bbd 14fc 3cbd f0e9 5f3c
00000010: a018 08bd 22b8 f3bd b8a6 063e 40bb 5fbc
00000020: 26b3 0bbe 4338 97bd b220 78bd 5019 35bc
00000030: 407c ae3d 947f b53d ea73 0cbe e292 7dbd
00000040: eef8 353e be0b d5bd 7471 843d 1821 e8bc
00000050: b8d0 c03d 3fd6 30be f423 e63d 3506 8bbd
00000060: 03e5 01be 2288 eebd a8f2 4c3d bad5 233e
00000070: 8058 e13d ec7f 443d 2814 7bbd
