competition/result/lstm_win3_noStandardized_2layer_16hidden_0.99g_epoch20/trained_model/all_model/actor_num_epoch_3.pth (torch, 21374 bytes, 9 tensors)

weight_ih_l0 f4 [64, 11]
-0.20606273 0.05814844 0.12730707 0.016528465 -0.10753281 0.22059068 0.11608765 -0.11335434
0.2219821 0.011051424 -0.16148186 -0.13634321 0.19330634 0.016702255 0.19968891 -0.07480637
0.15926191 -0.025437912 -0.0056806044 -0.15028203 0.039082244 -0.1049464 0.19053118 -0.05859445
0.12525856 0.20369482 0.1378451 -0.09283894 -0.039887045 -0.22739908 -0.1373131 -0.23195398
0.05405673 0.022259906 -0.15275888 0.03606889 -0.087329745 -0.07994058 0.22227861 0.12352715
0.16167347 0.0888748 0.22937986 0.14213417 -0.1702964 -0.057601865 -0.04686601 -0.07143072
0.07963344 0.18656622 0.0062617017 0.23576438 0.08507558 0.23464432 -0.1804 0.24231745
0.23349878 -0.074533485 -0.10643715 -0.08548264 -0.16073008 0.11788582 0.2232866 -0.023223797
-0.21788463 0.06344631 0.15767524 -0.08586241 0.123199336 0.011505529 0.08490467 0.10747439
0.0047910367 -0.10048841 -0.113192834 0.015814262 -0.08101491 -0.24307118 -0.22044218 -0.22591029
0.010509481 -0.0021481265 -0.0020437858 0.01118712 -0.18585028 0.12035341 0.18951152 0.1650394
-0.22593348 0.05035784 0.12118915 0.22709744 -0.059855394 -0.19422083 -0.18044035 -0.05921228
0.15868425 -0.00828483 -0.1923098 -0.19352467 0.17957832 0.07969443 -0.22008383 -0.19798069
-0.19755559 -0.09312986 0.11209695 0.005749667 0.007327263 0.16555922 -0.1771307 0.09376857
0.01219439 -0.031521194 0.21011055 -0.02424012 -0.19358528 0.07504715 0.07071712 0.06986151
-0.07051599 -0.16044864 -0.054314356 0.11107844 -0.14716962 -0.10679314 0.15665695 -0.10762971
0.24654835 0.2161067 0.18852562 0.17829597 -0.07331951 0.10799394 0.11926049 -0.019376973
0.14880513 0.23180874 0.041192494 -0.019756658 -0.2151982 -0.13467975 -0.053294655 0.24783564
0.08101126 0.24589269 0.031749837 0.10218238 0.1638436 -0.20403828 -0.23067585 0.062337443
-0.025763324 0.034295477 -0.22714013 -0.23691264 -0.115777895 0.074613355 -0.07315324 0.18511866
0.24395268 0.13836192 0.24815823 0.25040662 0.09424632 -0.07915198 0.23026738 -0.1959005
0.15012306 -0.12252474 -0.22341351 -0.14924084 0.114776015 0.09058434 -0.043867216 0.022656078
-0.1649723 0.013591351 0.20495611 0.22349007 0.24882376 0.09639711 0.009004196 0.21557175
-0.056564815 -0.096644565 -0.23236312 -0.14024663 -0.20821518 0.110249214 0.056971256 0.067917354
-0.13989516 -0.07229471 -0.2217382 -0.014999859 0.041247543 -0.24151134 -0.11979007 -0.24499904
-0.019736633 0.101367734 0.050498165 0.15601832 -0.12850922 -0.0066286256 0.21115538 0.17655833
-0.14057136 -0.039522815 -0.1610923 -0.14253774 -0.22613332 0.20377618 -0.09268742 0.115991786
0.18138453 -0.16858597 -0.14999574 -0.13165069 -0.034385093 0.19096266 -0.20212938 0.098233506
-0.17115001 0.072267875 0.13445039 -0.01661928 -0.12595111 0.0744333 -0.22594492 0.24931867
-0.21832275 0.15001206 0.026925322 0.11029204 0.01094686 -0.010791708 0.060581207 0.17701496
0.2192948 -0.24249397 -0.21837226 0.17207938 -0.15035348 -0.041497245 0.0041424623 0.06207936
0.15764906 0.09569007 0.024892075 -0.15994577 0.22961307 0.13062009 0.22668333 0.13800922
00000000: 1c02 53be 0f2d 6e3d c95c 023e b466 873c
00000010: 293a dcbd 86e2 613e 5dbf ed3d 5226 e8bd
00000020: 474f 633e 0811 353c 805b 25be 8e9d 0bbe
00000030: 19f2 453e 2bd3 883c 407b 4c3e 1534 99bd
00000040: 8e15 233e 2b63 d0bc 5d24 babb 88e3 19be
00000050: b414 203d 23ee d6bd 9b1a 433e bc00 70bd
00000060: c843 003e 6095 503e 4427 0d3e 5822 bebd
00000070: 9960 23bd 4edb 68be ce9b 0cbe 5885 6dbe
00000080: 976a 5d3d 685a b63c d36c 1cbe f9bc 133d
00000090: f0d9 b2bd e3b7 a3bd 019d 633e cdfb fc3d
000000a0: bb8d 253e fe03 b63d 8ee2 6a3e 9f8b 113e
000000b0: 2e62 2ebe efef 6bbd 93f6 3fbd 454a 92bd
000000c0: db16 a33d 370b 3f3e f62e cd3b 386c 713e
000000d0: 1b3c ae3d 9a46 703e c7ba 38be 1122 783e
000000e0: 4e1a 6f3e 03a5 98bd b8fb d9bd 8611 afbd
000000f0: 6d96 24be 1f6e f13d 3ea5 643e d53f bebc
00000100: 261d 5fbe 24f0 813d 9e75 213e a2d8 afbd
00000110: ef4f fc3d b081 3c3c 80e2 ad3d 881b dc3d
00000120: 21fe 9c3b decc cdbd a5d1 e7bd e98c 813c
00000130: 25eb a5bd a7e7 78be 98bb 61be 0755 67be
00000140: f52f 2c3c 95c7 0cbb 09f1 05bb 2f4a 373c
00000150: 894f 3ebe d97b f63d 4f0f 423e 1700 293e
00000160: 1b5b 67be 0644 4e3d 0432 f83d 3b8c 683e
00000170: ee2a 75bd d3e1 46be 5bc5 38be 9388 72bd
00000180: 207e 223e 18bd 07bc dcec 44be 552b 46be
00000190: 61e3 373e d536 a33d a85d 61be 73bb 4abe
000001a0: 034c 4abe deba bebd 1693 e53d b467 bc3b
000001b0: 8919 f03b 5b88 293e c061 35be bc09 c03d
000001c0: fbca 473c 5e1c 01bd 3827 573e 3793 c6bc
000001d0: 383b 46be 52b2 993d 23d4 903d 8d13 8f3d
000001e0: b06a 90bd a64c 24be bb78 5ebd 187d e33d
000001f0: a2b3 16be 5db6 dabd ae6a 203e f76c dcbd
00000200: 2c77 7c3e 134b 5d3e dc0c 413e 3893 363e
00000210: 8a28 96bd ed2b dd3d d83e f43d 75bc 9ebc
00000220: 5f60 183e 455f 6d3e 76b9 283d b7d8 a1bc
00000230: eb5c 5cbe 7de9 09be 7f4b 5abd a0c8 7d3e
00000240: 3be9 a53d 4bcb 7b3e 1e0c 023d ff44 d13d
00000250: 9ec6 273e 69ef 50be 4a36 6cbe 8c55 7f3d
00000260: 9b0d d3bc 6a79 0c3d 6c97 68be 3a99 72be
00000270: f61c edbd e3ce 983d 5ed1 95bd bf8f 3d3e
00000280: bbce 793e bfae 0d3e 311d 7e3e 4c35 803e
00000290: 3704 c13d 6f1a a2bd 36cb 6b3e 249a 48be
000002a0: dcb9 193e 40ee fabd 83c6 64be 97d2 18be
000002b0: b00f eb3d 4884 b93d 1cae 33bd 3d99 b93c
000002c0: 80ee 28be 42ae 5e3c 04e0 513e 95da 643e
000002d0: a8cb 7e3e d96b c53d 5686 133c d7be 5c3e
000002e0: 82b0 67bd 96ed c5bd 99f0 6dbe d09c 0fbe
000002f0: 5c36 55be 57ca e13d b15a 693d 4118 8b3d
00000300: ad40 0fbe 400f 94bd 570f 63be f8c1 75bc
00000310: 2ff3 283d c04e 77be 7f54 f5bd 07e1 7abe
00000320: b8ae a1bc e399 cf3d 2ad7 4e3d 44c3 1f3e
00000330: ec97 03be f134 d9bb 1e39 583e b5cb 343e
00000340: f0f1 0fbe ade2 21bd 61f5 24be 6af5 11be
00000350: 7e8f 67be b4aa 503e e7d2 bdbd 1a8d ed3d
00000360: debc 393e cda1 2cbe 7c98 19be 70cf 06be
00000370: 62d7 0cbd b78b 433e 01fb 4ebe a62e c93d
00000380: f341 2fbe 2e01 943d 5dad 093e 2825 88bc
00000390: 54f9 00be 7c70 983d 1b5e 67be 654d 7f3e
000003a0: 0090 5fbe c39c 193e 7e92 dc3c cbe0 e13d
000003b0: 755a 333c b4cf 30bc 0024 783d 6943 353e
000003c0: d18e 603e 5750 78be fa9c 5fbe 9435 303e
000003d0: 43f6 19be 04f9 29bd 7ebd 873b ed46 7e3d
000003e0: c16e 213e 28f9 c33d 77ea cb3c d3c8 23be
000003f0: b01f 6b3e 46c1 053e ad1f 683e 4a52 0d3e

weight_hh_l0 f4 [64, 16]
-0.10072362 -0.020389492 -0.13245201 -0.083793566 -0.034982137 0.14089592 0.09277809 0.15072206
0.16094548 -0.084692605 0.13862301 -0.07423458 0.12623799 0.21934707 0.24280976 -0.0025823403
-0.13297983 -0.075128905 0.1489553 -0.19706349 -0.116755575 0.07305672 0.065434664 0.046527162
-0.01458225 0.20329797 0.08441967 -0.01986538 0.03469785 -0.07390521 -0.15002912 -0.112854004
-0.1603684 -0.0040178495 -0.16363542 -0.071025975 0.22438855 0.108859144 -0.0479953 -0.18251652
-0.08059093 -0.02804346 -0.23894796 -0.2337271 0.013955998 0.097220734 0.08626729 0.16580571
-0.22239569 0.18066505 0.055291772 0.18725319 0.14390601 -0.13019171 0.092855856 0.20585299
0.117370896 -0.108603515 -0.08038124 0.06282862 -0.0146118235 0.20901944 -0.013955359 -0.07001166
-0.18263529 -0.23887892 0.010630136 -0.21198668 -0.076226644 0.005066138 0.07411159 -0.17386872
0.14872998 -0.107129745 0.2275599 -0.24129573 0.093858264 0.063774064 -0.21405594 0.17028832
-0.22371423 -0.1423424 -0.15275975 -0.060624763 -0.115280755 0.110063694 -0.2000297 -0.115737185
-0.07848511 0.16832349 0.2288471 -0.14365612 0.19474377 -0.04214019 0.12782139 -0.24678221
0.2352525 -0.17560692 0.14133346 -0.1502685 -0.058881894 0.07934549 0.14281107 -0.24049091
0.16866615 0.0054740813 -0.12482728 0.12629254 -0.08743873 -0.028961072 -0.22847128 -0.01675716
0.23054093 0.11176366 -0.16232082 -0.0214918 -0.07746459 0.090545624 0.14741811 -0.17385617
-0.24984248 -0.17373008 -0.17647041 -0.1378432 -0.03908268 0.19925198 -0.22634616 -0.13950244
0.015203838 -0.12518054 -0.1269544 -0.24256894 0.082274295 -0.14589593 -0.14223897 -0.2218551
-0.070859134 -0.020748708 0.13816015 -0.13776517 -0.17931104 -0.23654981 0.032322314 0.11191437
0.23598073 -0.1869636 0.012542435 -0.20342414 0.24355774 0.13527879 0.22316319 -0.21583737
0.07147865 0.028190183 -0.056002244 0.004311615 -0.14064848 0.11596578 0.0133226365 -0.08796461
0.16958725 -0.23611593 0.030553957 0.19674379 0.108913645 -0.040256575 0.13918182 0.18478069
0.012867145 -0.09881534 -0.15160945 -0.07601329 0.24044314 -0.013847415 0.2159604 0.119964026
0.009997158 0.12795717 -0.1994952 0.031358827 0.123838104 0.23306493 -0.2002048 0.24150372
0.12447168 -0.079429224 -0.22860345 -0.017087601 -0.16680823 -0.24413091 -0.13762021 0.20171416
-0.038347855 0.17138322 -0.03589746 0.2246272 -0.04172081 0.02782739 -0.021430485 0.12827502
-0.05764269 -0.076621935 0.112007394 -0.022096833 0.007066791 -0.1671486 0.11226344 -0.06034402
-0.07520363 0.0891179 -0.019958215 -0.0734632 -0.21933466 0.022482704 0.1186421 0.1797272
0.099189155 0.20459713 0.22352701 -0.23557517 0.005225205 0.04423288 0.0816835 0.023175143
-0.1280506 -0.096820146 0.1565006 -0.037697572 -0.017846989 0.099515535 -0.18517245 0.018289141
0.008642501 0.1423039 0.0067628003 -0.22352375 0.014097474 0.07686104 -0.16957049 0.17738274
0.008879755 -0.028982582 0.006951405 -0.17032222 0.17224722 0.15924682 0.13534261 0.06397007
-0.21785632 -0.15593237 -0.14984863 0.01838237 -0.080218054 -0.12282177 0.09918929 -0.03704454
00000000: 2f48 cebd dd07 a7bc 80a1 07be f69b abbd
00000010: 6e49 0fbd 0547 103e 7002 be3d e256 1a3e
00000020: e4ce 243e 5173 adbd 31f3 0d3e 4d08 98bd
00000030: 8844 013e 859c 603e 1fa3 783e 7b3c 29bb
00000040: dd2b 08be 2fdd 99bd bd87 183e 03cb 49be
00000050: 8c1d efbd c39e 953d 9c02 863d 4493 3e3d
00000060: 64ea 6ebc 582d 503e 38e4 ac3d b9bc a2bc
00000070: 551f 0e3d 9d5b 97bd 3ca1 19be 0020 e7bd
00000080: 9d37 24be 2aa8 83bb 0b90 27be 1176 91bd
00000090: 1dc6 653e 8bf1 de3d b896 44bd 9ce5 3abe
000000a0: dc0c a5bd 66bb e5bc c6ae 74be 2856 6fbe
000000b0: b3a7 643c aa1b c73d e8ac b03d f9c8 293e
000000c0: b2bb 63be 4200 393e a079 623d 4dbf 3f3e
000000d0: 195c 133e fa50 05be 362b be3d 20cb 523e
000000e0: 2760 f03d 856b debd eb9e a4bd 4bac 803d
000000f0: 6e66 6fbc 3109 563e 05a5 64bc 4662 8fbd
00000100: bf04 3bbe ad9c 74be 062a 2e3c 0913 59be
00000110: b71c 9cbd d901 a63b d1c7 973d a40a 32be
00000120: ac4c 183e d766 dbbd 7605 693e 3a16 77be
00000130: c338 c03d fa9b 823d 7b31 5bbe 1060 2e3e
00000140: 5815 65be 35c2 11be 0d6d 1cbe ac51 78bd
00000150: 5118 ecbd 1369 e13d 96d4 4cbe 9e07 edbd
00000160: cdbc a0bd fe5c 2c3e e556 6a3e 971a 13be
00000170: e96a 473e 319b 2cbd 9ce3 023e 7ab4 7cbe
00000180: 08e6 703e 4dd2 33be b8b9 103e fcdf 19be
00000190: 242e 71bd e37f a23d 113d 123e 4043 76be
000001a0: d2b6 2c3e ec5f b33b 72a5 ffbd d552 013e
000001b0: 1413 b3bd c53f edbc 60f4 69be 5046 89bc
000001c0: ec12 6c3e 59e4 e43d 6e37 26be 920f b0bc
000001d0: c1a5 9ebd fc6f b93d c6f4 163e 5a07 32be
000001e0: b5d6 7fbe 4ce6 31be a9b4 34be c526 0dbe
000001f0: 2915 20bd b608 4c3e 4ac7 67be bad9 0ebe
00000200: 8519 793c 542f 00be 5600 02be fe63 78be
00000210: 6d7f a83d be65 15be 18a7 11be fc2d 63be
00000220: 981e 91bd 32f9 a9bc db79 0d3e 5012 0dbe
00000230: 509d 37be 1d3a 72be 6764 043d 5c33 e53d
00000240: efa4 713e 6373 3fbe c97e 4d3c 6b4e 50be
00000250: 3367 793e 8686 0a3e e484 643e 7904 5dbe
00000260: 6663 923d 19ef e63c 9c62 65bd 7348 8d3b
00000270: 2806 10be 787f ed3d 3047 5a3c ca26 b4bd
00000280: 48a8 2d3e 60c8 71be 4b4c fa3c 3477 493e
00000290: 1e0e df3d 14e4 24bd ae85 0e3e 2637 3d3e
000002a0: b8d0 523c b25f cabd 823f 1bbe dbac 9bbd
000002b0: ba36 763e 45e0 62bc b924 5d3e b3af f53d
000002c0: 1fcb 233c 3407 033e 7848 4cbe 1d72 003d
000002d0: d59e fd3d 93a8 6e3e 7d02 4dbe c04c 773e
000002e0: 02eb fe3d caab a2bd 0617 6abe 4cfb 8bbc
000002f0: c7cf 2abe 74fd 79be 50ec 0cbe 288e 4e3e
00000300: a412 1dbd 157f 2f3e 3709 13bd ac04 663e
00000310: 71e3 2abd 44f6 e33c fc8e afbc 875a 033e
00000320: be1a 6cbd f6eb 9cbd 2264 e53d 6b04 b5bc
00000330: 8a90 e73b 0129 2bbe 60ea e53d 4b2b 77bd
00000340: 5c04 9abd 7283 b63d 697f a3bc e073 96bd
00000350: 4499 60be a62d b83c a1fa f23d 680a 383e
00000360: af23 cb3d e981 513e 44e4 643e 9e3a 71be
00000370: 3238 ab3b 892d 353d ae49 a73d ccd9 bd3c
00000380: b21f 03be a449 c6bd b141 203e c568 1abd
00000390: d933 92bc cdce cb3d d99d 3dbe 1cd3 953c
000003a0: 4799 0d3c 1db8 113e 7b9a dd3b 69e3 64be
000003b0: 17f9 663c 5269 9d3d e3a3 2dbe d2a3 353e
000003c0: 647c 113c e16c edbc 9dc8 e33b f368 2ebe
000003d0: 9361 303e 9911 233e 4197 0a3e bd02 833d
000003e0: ba15 5fbe bcac 1fbe eb71 19be a096 963c
000003f0: 5d49 a4bd fb89 fbbd c123 cb3d 04bc 17bd

bias_ih_l0 f4 [64]
0.1044695 0.15544045 -0.12867515 0.097381555 -0.01283881 -0.054905258 0.1899744 0.047753185
0.119073726 0.042904314 -0.20837401 0.041921034 -0.0402061 -0.06354011 -0.09400679 0.1126228
-0.16200389 0.007497216 -0.040012456 0.16408995 -0.09706586 -0.1374277 -0.10086381 -0.07650505
0.22645372 -0.012531124 0.23833023 0.121592104 0.061233155 -0.051990166 0.11629315 -0.18079123
-0.11847721 0.030767357 0.012569751 0.13086608 -0.037036795 -0.21545754 -0.06942017 -0.07941148
-0.05410991 0.025677385 0.22987288 -0.18898758 0.20321412 0.06922263 -0.10796773 0.043076042
0.13288182 0.12594353 0.18846588 0.009610759 -0.1918347 -0.048418522 -0.073985614 -0.20484705
-0.17100781 0.0716594 0.22380626 0.13470449 -0.07477067 0.1161251 0.026665462 0.072494425
00000000: 1bf4 d53d c82b 1f3e 6bc3 03be fb6f c73d
00000010: df59 52bc 56e4 60bd a688 423e d898 433d
00000020: eddc f33d 6fbc 2f3d ff5f 55be 64b5 2b3d
00000030: 27af 24bd 5121 82bd a286 c0bd c8a6 e63d
00000040: 59e4 25be 35ab f53b 1ae4 23bd 3207 283e
00000050: 77ca c6bd d9b9 0cbe af91 cebd aeae 9cbd
00000060: 7ce3 673e 584f 4dbc d70c 743e 4805 f93d
00000070: 9ecf 7a3d a4f3 54bd 1a2b ee3d 5621 39be
00000080: 2ea4 f2bd d30b fc3c 5bf1 4d3c c201 063e
00000090: e5b3 17bd e7a0 5cbe 292c 8ebd 7ca2 a2bd
000000a0: 5aa2 5dbd 6159 d23c cc63 6b3e f685 41be
000000b0: 5d17 503e 98c4 8d3d 2f1e ddbd 8170 303d
000000c0: 2c12 083e 57f7 003e 33fd 403e 7276 1d3c
000000d0: 5170 44be 8052 46bd c585 97bd 6dc3 51be
000000e0: ac1c 2fbe 2ac2 923d 782d 653e f9ef 093e
000000f0: 5d21 99bd ffd2 ed3d 8771 da3c f577 943d

bias_hh_l0 f4 [64]
-0.16632435 -0.036470823 -0.08112229 -0.08251002 -0.22259618 0.18864654 -0.09324105 -0.25054502
-0.13220362 0.2240729 0.011937695 -0.17906182 -0.13325088 -0.010369175 0.19106689 0.010105372
-0.14883879 0.18277213 0.24569997 -0.11801117 -0.20323262 -0.16552418 -0.023865214 -0.18543239
0.12333549 -0.03744534 0.17203823 -0.18574373 0.16693796 0.15572596 -0.07467281 0.10604955
-0.23095416 -0.07177274 0.031442586 -0.13373798 -0.12944032 0.01904443 -0.161282 0.16611004
0.01959386 0.1608101 0.18511775 0.08318611 -0.2173393 -0.052277923 -0.052418903 -0.065984406
-0.19410132 0.18578582 -0.093444675 -0.24818225 -0.11644909 0.209607 0.0036078803 -0.080802545
-0.0883205 -0.014286449 0.038668096 -0.13094302 0.06597134 -0.15954794 0.20582104 -0.124982215
00000000: ee50 2abe 6e62 15bd 7123 a6bd 03fb a8bd
00000010: 41f0 63be 8f2c 413e 2af5 bebd 7047 80be
00000020: 6360 07be 5e73 653e 5296 433c fb5b 37be
00000030: eb72 08be 79e3 29bc 0aa7 433e 0191 253c
00000040: 3269 18be 9e28 3b3e c698 7b3e d7af f1bd
00000050: 361c 50be 2c7f 29be fb80 c3bc fde1 3dbe
00000060: 5197 fc3d 4960 19bd ca2a 303e 9b33 3ebe
00000070: c9f1 2a3e a076 1f3e 0fee 98bd 8230 d93d
00000080: 3f7f 6cbe 96fd 92bd f1c9 003d 9cf2 08be
00000090: 018c 04be 1103 9c3c 1c27 25be c018 2a3e
000000a0: 4d83 a03c 67ab 243e 828f 3d3e 7b5d aa3d
000000b0: 328e 5ebe 6021 56bd 34b5 56bd d522 87bd
000000c0: 7fc2 46be a33e 3e3e ec5f bfbd 7d23 7ebe
000000d0: dc7c eebd 38a3 563e 3072 6c3b ce7b a5bd
000000e0: 61e1 b4bd b611 6abc 7062 1e3d ed15 06be
000000f0: fb1b 873d 8960 23be c0c2 523e adf6 ffbd

weight_ih_l1 f4 [64, 16]
0.240847 -0.17783795 0.19415393 0.17529345 0.09288777 -0.11118405 -0.18401249 0.23623802
0.16613312 -0.0432055 -0.04041794 0.11200729 -0.14684038 0.20653047 -0.08079603 0.16257569
-0.072667666 0.09559053 -0.044168904 0.22657584 -0.099380046 -0.22843228 -0.0864748 0.06352904
-0.20546748 -0.21261917 -0.17718536 -0.22336105 0.20672566 -0.08291062 -0.24069244 0.005603718
0.009680624 0.17548342 -0.2525655 -0.08947394 -0.24046826 -0.17500255 -0.19341597 0.19497322
-0.07252426 -0.24386792 -0.12576422 0.17756951 0.22597052 0.1838621 0.0253713 -0.24452995
-0.088781655 -0.025903458 -0.049237598 0.2335943 0.2384722 -0.01901912 -0.03270898 -0.23993622
-0.006287353 0.08765665 -0.180139 0.08165886 -0.17952405 0.12882788 -0.22650996 0.07077388
0.19435477 -0.095351055 -0.09308315 -0.13365923 -0.093522675 -0.07939624 0.19800389 -0.18730026
0.058987696 0.032653198 -0.1706361 -0.24702042 -0.14511554 -0.1340298 0.1727095 -0.19963953
0.028626872 0.12528248 0.062267758 0.09168113 -0.047938284 -0.17656408 0.14955825 0.21058948
-0.07079858 0.24205586 -0.18550241 -0.20849901 0.24909787 0.1885542 0.113967806 0.11449295
-0.18851852 0.15348229 0.23750211 0.15795957 0.124018066 0.015074212 0.13936973 0.081273675
-0.17599933 -0.121948436 0.24130006 -0.040520836 0.15431082 -0.22621734 -0.06814103 -0.23722017
-0.025448753 0.13983184 0.084007345 0.06852218 0.07206814 -0.19499359 -0.02013346 -0.08384376
0.1186164 -0.23713337 0.07268342 0.12369982 0.20159084 -0.046178453 0.21987511 0.012370171
-0.062524475 -0.20468116 0.22599457 -0.030131845 -0.16617317 -0.036956392 -0.037800804 -0.19314672
-0.24503505 -0.037430022 -0.18390572 -0.18783395 -0.051706523 0.24528041 -0.235594 -0.05553095
-0.09443885 -0.21865168 -0.06984404 -0.02159239 0.2336036 -0.0272972 -0.089396864 -0.06943371
0.21589753 0.17418587 -0.03663603 -0.19702688 -0.13280126 -0.23470418 0.0056034974 -0.085226536
-0.15511753 0.15014422 -0.13012946 -0.090119556 -0.032326847 0.2412678 0.014397223 -0.20913847
-0.08374199 -0.1377855 0.06629089 0.06104024 0.16286823 0.21656111 -0.106134705 -0.20148514
-0.07662724 -0.22256604 -0.17122391 0.23931864 -0.16730298 -0.06600161 0.023874003 0.16934894
0.09384566 0.12984158 0.21267852 0.04449011 -0.0649706 -0.0153476335 -0.18991391 0.24339221
-0.031640407 0.09261519 0.24439445 -0.14520895 -0.18676941 0.041017186 -0.23803842 0.21795315
0.21399896 -0.19949166 -0.06866578 0.14717104 -0.1200083 0.19891977 0.08729129 -0.17003052
0.18454428 0.099860154 0.14286117 -0.03581417 0.026329292 -0.17685565 -0.18530114 -0.073101304
-0.1575537 0.104940884 -0.25156972 0.11270833 0.22246347 -0.04681057 0.20436054 0.07278385
0.16658713 -0.19158193 0.22064328 -0.11260097 0.050422683 0.21297383 0.12272482 -0.19242959
-0.2320269 -0.15776137 -0.20712109 0.18778452 0.18991806 -0.20199785 0.012820725 0.1546351
0.20450388 0.17904675 -0.2242561 -0.20296052 0.18148813 -0.12505102 0.021798337 -0.025052074
0.24378826 -0.19856873 -0.10585118 -0.22445434 0.16304077 0.14573178 0.025730921 0.16607344
00000000: 99a0 763e 271b 36be 4ad0 463e 2080 333e
00000010: f13b be3d 77b4 e3bd c56d 3cbe 61e8 713e
00000020: cd1e 2a3e 40f8 30bd 488d 25bd 1464 e53d
00000030: 535d 16be b97c 533e 6478 a5bd 3e7a 263e
00000040: c9d2 94bd f8c4 c33d 74ea 34bd 7f03 683e
00000050: c487 cbbd 27ea 69be b319 b1bd 831b 823d
00000060: 1166 52be d7b8 59be 1470 35be c2b8 64be
00000070: e4af 533e 0bcd a9bd 1478 76be 659f b73b
00000080: 7b9b 1e3c edb1 333e 4450 81be 1d3e b7bd
00000090: 503d 76be de33 33be d60e 46be 0fa7 473e
000000a0: 9987 94bd 83b8 79be 56c8 00be c8d4 353e
000000b0: d164 673e 5946 3c3e 79d7 cf3c 0f66 7abe
000000c0: 28d3 b5bd 7d33 d4bc 5dad 49bd 5833 6f3e
000000d0: 0e32 743e fccd 9bbc daf9 05bd d7b1 75be
000000e0: 2406 cebb 5485 b33d 5c76 38be c33c a73d
000000f0: 27d5 37be 75eb 033e 3af2 67be e5f1 903d
00000100: f004 473e 6a47 c3bd 61a2 bebd f7dd 08be
00000110: d188 bfbd 7f9a a2bd 88c1 4a3e a4cb 3fbe
00000120: 159d 713d 5cbf 053d 3bbb 2ebe ecf2 7cbe
00000130: 2b99 14be 1c3f 09be c2da 303e 4e6e 4cbe
00000140: e782 ea3c 0d4a 003e 7a0c 7f3d 51c3 bb3d
00000150: ef5a 44bd 37cd 34be cc25 193e c5a4 573e
00000160: d9fe 90bd 7edd 773e 58f4 3dbe c480 55be
00000170: 8313 7f3e 5a14 413e f467 e93d 487b ea3d
00000180: 000b 41be 762a 1d3e c133 733e 27c0 213e
00000190: 2ffd fd3d d4f9 763c f0b6 0e3e d072 a63d
000001a0: 2b39 34be 1ac0 f9bd 5d17 773e 2df9 25bd
000001b0: a803 1e3e 85a5 67be 868d 8bbd d8e9 72be
000001c0: e779 d0bc 1430 0f3e 0b0c ac3d 5b55 8c3d
000001d0: 7698 933d 66ac 47be edee a4bc 47b6 abbd
000001e0: 28ed f23d 17d3 72be 0bdb 943d 5556 fd3d
000001f0: d46d 4e3e 9e25 3dbd f126 613e 42ac 4a3c
00000200: d50c 80bd f097 51be 1f6b 673e 0fd7 f6bc
00000210: 4d29 2abe 965f 17bd 04d5 1abd 41c8 45be
00000220: 78ea 7abe 3950 19bd c851 3cbe 8b57 40be
00000230: 38ca 53bd ca2a 7b3e 8e3f 71be 6c74 63bd
00000240: 2869 c1bd 3ae6 5fbe 640a 8fbd 86e2 b0bc
00000250: c835 6f3e 619e dfbc b415 b7bd 4333 8ebd
00000260: 3e14 5d3e c85d 323e a90f 16bd 6ac1 49be
00000270: 0efd 07be 4b56 70be 8b9d b73b 408b aebd
00000280: 21d7 1ebe 68bf 193e a840 05be 9a90 b8bd
00000290: 2869 04bd e80e 773e 54e2 6b3c 6528 56be
000002a0: ec80 abbd a417 0dbe 85c3 873d 5505 7a3d
000002b0: eec6 263e 32c2 5d3e 275d d9bd 1f52 4ebe
000002c0: beee 9cbd 5ae8 63be 5255 2fbe f20f 753e
000002d0: 7951 2bbe da2b 87bd 6a93 c33c cf69 2d3e
000002e0: 2732 c03d 31f5 043e 66c8 593e 433b 363d
000002f0: 4e0f 85bd a474 7bbc cb78 42be cf3b 793e
00000300: 5f99 01bd 08ad bd3d 8a42 7a3e a8b1 14be
00000310: 7b40 3fbe a301 283d 58c0 73be 1c2f 5f3e
00000320: 8b22 5b3e 8b47 4cbe a5a0 8cbd 01b4 163e
00000330: e9c6 f5bd a0b1 4b3e c7c5 b23d 7b1c 2ebe
00000340: 2df9 3c3e 7b83 cc3d 334a 123e e1b1 12bd
00000350: 87b0 d73c a619 35be 95bf 3dbe 23b6 95bd
00000360: c255 21be 3feb d63d bfcd 80be a0d3 e63d
00000370: 77cd 633e 71bc 3fbd e443 513e b30f 953d
00000380: d195 2a3e 0e2e 44be 50f0 613e 569b e6bd
00000390: 0488 4e3d d015 5a3e 2757 fb3d 430c 45be
000003a0: 7698 6dbe 328c 21be 8d17 54be 964a 403e
000003b0: e179 423e 86d8 4ebe 050e 523c aa58 1e3e
000003c0: 7769 513e 0858 373e 64a3 65be e2d4 4fbe
000003d0: 06d8 393e 600d 00be 6d92 b23c 023a cdbc
000003e0: a1a3 793e 9a55 4bbe 81c8 d8bd 5cd7 65be
000003f0: 29f4 263e b63a 153e a7c9 d23c 280f 2a3e

weight_hh_l1 f4 [64, 16]
-0.22428457 -0.049290773 0.18841906 -0.2520372 0.06566243 -0.1834028 0.10408957 0.24144532
-0.16509281 -0.17521225 -0.16754985 0.12326967 0.16226763 0.20854904 0.043175984 0.115424514
-0.17799518 0.22627145 0.15391582 0.1576075 0.13703482 0.021635465 -0.0467337 -0.23665096
0.13581595 -0.06474677 0.24955864 0.1846336 -0.13496253 -0.18489422 -0.2331102 -0.04547677
0.2238087 -0.24420166 0.08610656 -0.16881834 0.2410921 0.031247994 0.15502286 -0.24182048
0.10678589 -0.1935884 0.037248842 0.1152066 -0.1495112 0.194342 0.03801209 -0.16166948
-0.14072885 0.13015318 -0.24334583 0.03905838 0.14998652 0.0337912 0.010018615 -0.0840631
-0.22609761 -0.24834941 -0.05567937 -0.2412638 0.21633306 0.09914996 -0.012529607 0.08329577
-0.02206098 0.22309327 -0.03163256 0.0049974318 0.13633108 0.12968352 -0.050782345 0.23817515
0.030640872 0.1890603 -0.23126443 0.14995074 -0.0014010089 0.08565296 -0.034671716 -0.03817474
0.14979775 0.0846929 0.25337824 -0.14756109 -0.21071085 0.19003934 -0.10105653 -0.21327151
0.20490734 -0.17577562 0.024753569 0.24241708 0.1632014 0.08121269 0.10751485 0.1795865
0.10168958 0.07189525 -0.18540359 -0.031919014 -0.015820453 -0.052942928 0.120747276 -0.23091805
0.03756787 -0.1248502 -0.111484796 0.11472634 0.22012277 -0.050275568 -0.18223174 0.18152647
-0.21307546 -0.21103455 0.021985767 0.24702573 -0.08262357 -0.09037755 -0.012138485 -0.12747486
-0.023196101 -0.1992072 0.12231983 -0.022787524 0.1634205 -0.12997627 0.23384315 -0.11874828
-0.039061837 -0.2126389 -0.24616171 0.082339056 -0.21799317 -0.20037742 0.13420522 0.124132246
-0.1458751 -0.23086597 -0.21067348 0.18293595 0.18256515 -0.20323357 -0.026390519 -0.20873362
0.18131903 0.19386728 0.12892045 -0.074272536 0.02184982 0.0893057 -0.033695426 -0.026252605
-0.023138486 0.22856294 0.08427827 0.041749183 0.08944583 0.17812027 -0.15717426 -0.15876228
-0.20740284 -0.18468253 -0.19884762 0.01912541 0.18092161 -0.004429057 -0.17773996 -0.13751476
0.20346801 0.15669553 -0.23542182 0.1484004 0.007827482 -0.07778319 0.028645778 0.17807704
0.09757569 -0.0865029 -0.105774835 -0.1653186 0.21377176 -0.20486754 -0.22635461 -0.20185123
0.072360985 -0.1297562 0.14797789 0.022621421 -0.047979396 0.12285358 0.1036052 -0.20984402
0.2351339 0.24705094 -0.054851286 0.024728533 0.19901185 -0.20803905 -0.1907177 -0.15152794
-0.00798246 -0.12871498 -0.1286545 -0.0055783307 0.044288162 0.093402445 -0.20406361 0.13749763
-0.15359989 0.014961929 -0.1808769 -0.03224379 -0.12217175 -0.19334306 0.1953721 0.098537594
-0.09877121 0.17813659 -0.20695177 -0.063799456 -0.23439138 -0.04036545 -0.1357159 -0.0754282
-0.07183779 0.21122307 -0.22535384 -0.12468504 -0.09178487 -0.0005432753 0.19777043 -0.109320566
-0.14334741 -0.032596953 -0.15985253 0.08108313 -0.1073915 -0.17498507 -0.11762908 0.17329194
0.19110772 0.13968012 -0.07108587 0.13058576 -0.005222564 -0.1321878 -0.1363449 0.1051608
-0.13761987 -0.081667885 -0.0616108 0.1274284 -0.0476339 -0.2123719 0.17372826 -0.14988993
00000000: dbaa 65be 1fe5 49bd edf0 403e 050b 81be
00000010: 067a 863d f2cd 3bbe ea2c d53d 713d 773e
00000020: 170e 29be d76a 33be 3092 2bbe cf74 fc3d
00000030: 7c29 263e e18d 553e 4dd9 303d b063 ec3d
00000040: 5e44 36be b4b3 673e 1c9c 1d3e dc63 213e
00000050: db52 0c3e dc3c b13c d66b 3fbd a154 72be
00000060: 5613 0b3e f499 84bd 4d8c 7f3e 9710 3d3e
00000070: 9e33 0abe e954 3dbe 71b4 6ebe d945 3abd
00000080: 1c2e 653e 0010 7abe a358 b03d b7de 2cbe
00000090: d9e0 763e cbfb ff3c 50be 1e3e ca9f 77be
000000a0: 90b2 da3d 0a3c 46be 3e92 183d 70f1 eb3d
000000b0: 7719 19be 9701 473e 91b2 1b3d af8c 25be
000000c0: 391b 10be e046 053e a62f 79be aefb 1f3d
000000d0: 1196 193e a468 0a3d 1e25 243c 4629 acbd
000000e0: 2286 67be 4f4f 7ebe 0d10 64bd dc0d 77be
000000f0: 6a86 5d3e 220f cb3d fb48 4dbc f996 aa3d
00000100: 3ab9 b4bc 9072 643e 2591 01bd 7fc1 a33b
00000110: 609a 0b3e c2cb 043e 2601 50bd 30e4 733e
00000120: 9102 fb3c 0699 413e 95d0 6cbe b08c 193e
00000130: 0fa2 b7ba d26a af3d ee03 0ebd 1e5d 1cbd
00000140: 9564 193e 7973 ad3d cbba 813e 411a 17be
00000150: 96c4 57be ac99 423e baf6 cebd d963 5abe
00000160: 3bd3 513e 86fe 33be ffc7 ca3c 2f3c 783e
00000170: 451e 273e d752 a63d bf30 dc3d 86e5 373e
00000180: a042 d03d d13d 933d 70da 3dbe 83bd 02bd
00000190: e599 81bc afda 58bd 594a f73d c875 6cbe
000001a0: c4e0 193d 76b1 ffbd 2452 e4bd a5f5 ea3d
000001b0: dd67 613e c1ed 4dbd f59a 3abe 13e2 393e
000001c0: 7430 5abe 7119 58be 7f1b b43c 50f4 7c3e
000001d0: 8c36 a9bd dd17 b9bd 7fe0 46bc c588 02be
000001e0: c005 bebc f9fc 4bbe d282 fa3d e7ac babc
000001f0: b457 273e 8018 05be 9474 6f3e 4c32 f3bd
00000200: 4eff 1fbd 03be 59be d111 7cbe 61a1 a83d
00000210: 9a39 5fbe bd2f 4dbe 186d 093e 0c39 fe3d
00000220: 4860 15be 2168 6cbe caba 57be 9053 3b3e
00000230: 5cf2 3a3e 761c 50be ee30 d8bc 44be 55be
00000240: b2ab 393e 2585 463e b903 043e 331c 98bd
00000250: 65fe b23c e8e5 b63d 3704 0abd b40f d7bc
00000260: ec8c bdbc 670c 6a3e 169a ac3d 3101 2b3d
00000270: 602f b73d 2965 363e 4af2 20be 9492 22be
00000280: 6961 54be 6b1d 3dbe b69e 4bbe e4ac 9c3c
00000290: 8443 393e 9f21 91bb 7701 36be abd0 0cbe
000002a0: eb59 503e cb74 203e 6b12 71be 46f6 173e
000002b0: d73e 003c cb4c 9fbd 8daa ea3c d459 363e
000002c0: c3d5 c73d 6f28 b1bd 7aa0 d8bd 4749 29be
000002d0: fce6 5a3e ccc8 51be 81c9 67be 17b2 4ebe
000002e0: ff31 943d cfde 04be 8487 173e 8f50 b93c
000002f0: 0b86 44bd a89a fb3d f72e d43d 5ae1 56be
00000300: f1c6 703e ecfa 7c3e beab 60bd 7e93 ca3c
00000310: c3c9 4b3e 3008 55be 804b 43be 242a 1bbe
00000320: ddc8 02bc dccd 03be 01be 03be 6eca b6bb
00000330: 8167 353d c849 bf3d 0df6 50be 2ecc 0c3e
00000340: 4a49 1dbe e122 753c cb37 39be 1012 04bd
00000350: 2f35 fabd b9fb 45be a00f 483e 14ce c93d
00000360: 8f48 cabd 7069 363e 2aeb 53be 4aa9 82bd
00000370: 4b04 70be 3e56 25bd 1cf9 0abe 1a7a 9abd
00000380: b11f 93bd dc4a 583e 28c3 66be df5a ffbd
00000390: b5f9 bbbd 976a 0eba 5584 4a3e 76e3 dfbd
000003a0: aac9 12be 6284 05bd 62b0 23be e90e a63d
000003b0: 13f0 dbbd 492f 33be 84e7 f0bd 7173 313e
000003c0: beb1 433e 4e08 0f3e 7895 91bd 46b8 053e
000003d0: 0b22 abbb 3d5c 07be ff9d 0bbe 8c5e d73d
000003e0: 39ec 0cbe 7e41 a7bd 9b5b 7cbd 977c 023e
000003f0: c41b 43bd 0578 59be d2e5 313e bf7c 19be

bias_ih_l1 f4 [64]
0.23204783 -0.12798879 0.22149532 0.13480356 -0.078144744 0.23608872 -0.15620422 -0.1309572
0.22675335 -0.104673535 0.19832541 0.17320502 -0.18121049 -0.14348716 -0.18270698 0.03298909
-0.14302762 -0.14110696 0.18692774 -0.16290505 0.1557124 0.23107135 -0.16884722 0.017169304
0.100769125 0.14747055 -0.2268997 0.1899436 -0.21174066 0.12723266 0.017744254 0.13962208
0.20611876 -0.16774961 -0.23827071 0.021471892 -0.1884843 0.0025386952 -0.13556585 -0.11675016
0.14455417 -0.018355228 0.04448369 -0.22875178 0.12312341 -0.01831231 -0.025656398 0.14941637
-0.16473296 0.1270741 0.19200557 -0.14862296 0.061613623 0.09445026 -0.136104 0.22338279
0.22966073 -0.24081568 -0.14045247 -0.15539822 -0.009104001 0.16807961 0.21518275 0.000116171264
00000000: f29d 6d3e 7e0f 03be abcf 623e f209 0a3e
00000010: 5a0a a0bd 3ec1 713e 00f4 1fbe a519 06be
00000020: 0832 683e 145f d6bd d115 4b3e a85c 313e
00000030: 3e8f 39be 4cee 12be 8a17 3bbe 911f 073d
00000040: d575 12be 587e 10be fc69 3f3e 95d0 26be
00000050: 1273 1f3e f89d 6c3e 49e6 2cbe a4a6 8c3c
00000060: 0b60 ce3d 8502 173e 6558 68be 9380 423e
00000070: 8bd2 58be 4749 023e 665c 913c 17f9 0e3e
00000080: cc10 533e 8ec6 2bbe 3dfd 73be d2e5 af3c
00000090: 0702 41be 3d60 263b c6d1 0abe b51a efbd
000000a0: 0206 143e b45d 96bc 8834 363d e83d 6abe
000000b0: 2028 fc3d b303 96bc 5e2d d2bc 9b00 193e
000000c0: c2af 28be b61f 023e 1c9d 443e 9e30 18be
000000d0: 915e 7c3d 236f c13d d95e 0bbe 75be 643e
000000e0: 2f2c 6b3e 6398 76be c6d2 0fbe b620 1fbe
000000f0: f328 15bc 101d 2c3e de58 5c3e f9a0 f338

bias_hh_l1 f4 [64]
-0.09267046 -0.1989887 -0.051984888 -0.14577736 -0.0753188 0.12526724 0.08678278 0.07100204
0.19787684 -0.087858126 0.18902113 -0.07261783 -0.20247588 -0.013569805 -0.11086456 0.156213
0.21095173 0.23880595 -0.10218315 0.07374659 0.13769494 -0.24846825 -0.20028417 0.22061284
-0.058808044 -0.046309423 -0.2527885 -0.19694334 0.19917801 -0.22688794 -0.17801061 0.21830015
0.047357593 -0.086730935 0.15688281 -0.0886769 -0.17755854 0.24072583 0.07721 0.021317413
-0.0037543161 -0.075310275 0.1445297 -0.1992068 0.118454896 0.014919855 0.2006013 0.21802418
0.21204115 -0.24399082 -0.094684064 0.24505627 0.15693022 -0.10056874 0.107387155 -0.20072079
0.19700131 0.048332546 0.1608483 0.15665355 -0.12815343 0.09310927 0.231111 -0.13152902
00000000: 03ca bdbd b2c3 4bbe 1bee 54bd a946 15be
00000010: be40 9abd 0e46 003e 2cbb b13d 8469 913d
00000020: 3aa0 4a3e f6ee b3bd c18e 413e a8b8 94bd
00000030: d655 4fbe e353 5ebc f50c e3bd 4df6 1f3e
00000040: bb03 583e 8c89 743e 6645 d1bd 7408 973d
00000050: e7ff 0c3e 766e 7ebe 4b17 4dbe 55e8 613e
00000060: b4e0 70bd f3ae 3dbd 7f6d 81be 84ab 49be
00000070: 52f5 4b3e 5055 68be 6a48 36be 138a 5f3e
00000080: 09fa 413d fd9f b1bd e3a5 203e 3c9c b5bd
00000090: e8d1 35be d580 763e 4720 9e3d dba1 ae3c
000000a0: f90a 76bb 463c 9abd 98ff 133e defc 4bbe
000000b0: 7b98 f23d 6872 743c 6d6a 4d3e bb41 5f3e
000000c0: 5121 593e bbd8 79be b8e9 c1bd 08f0 7a3e
000000d0: 51b2 203e fcf6 cdbd cced db3d c089 4dbe
000000e0: b6ba 493e 59f8 453d 6bb5 243e ca69 203e
000000f0: a73a 03be 13b0 be3d 5da8 6c3e 8baf 06be

weight f4 [1, 16]
-0.21266018 0.023860423 -0.09521465 0.02735208 0.14186239 0.14136344 -0.16391504 -0.053043563
0.122663505 0.04681806 0.11986813 0.1781302 -0.20704076 0.18152513 0.17696819 -0.15597847
00000000: 97c3 59be ef76 c33c e6ff c2bd 7811 e03c
00000010: 6044 113e 94c1 103e 58d9 27be 3544 59bd
00000020: 0137 fb3d 4bc4 3f3d 6c7d f53d c367 363e
00000030: 7e02 54be b9e1 393e 2637 353e d2b8 1fbe
