competition/result/lstm_win3_noStandardized_2layer_32hidden_0.99g/trained_model/best_model/actor.pth (torch, 62206 bytes, 9 tensors)

weight_ih_l0 f4 [128, 11]
0.05898646 0.067974694 -0.018313274 0.07673445 0.07698427 -0.02968663 0.045190334 0.08517258
-0.05444834 0.0019848756 0.022288363 0.061278228 -0.02310048 0.16161364 -0.14733614 -0.051949795
-0.072037034 0.1452998 -0.18079114 -0.08131641 -0.05370002 -0.051841743 0.0366802 -0.026051877
0.023250086 -0.0076688016 -0.011337003 -0.0058109215 -0.09922757 0.03972142 -0.1595828 -0.093668886
-0.10504679 -0.035151664 -0.17566311 -0.103635676 -0.10561286 -0.12830625 -0.11177253 -0.14133005
-0.0066726767 0.032667074 0.101614825 -0.065510586 0.06906891 0.09357838 -0.11231799 -0.043100495
0.1643654 0.08807498 -0.11013061 -0.16866586 -0.095317595 0.09579372 -0.061407905 -0.15462697
0.07711347 -0.062311225 0.08742202 -0.14675617 0.049428906 -0.057656754 0.1179404 -0.16505232
0.097848244 0.15192656 0.03543699 -0.06300974 0.00034657176 -0.059051212 0.14662056 -0.02200183
-0.14183432 -0.028766062 -0.066525675 -0.009009391 -0.02529657 0.16384378 0.12946333 0.046396583
-0.09156034 0.14576003 -0.03249318 0.07356578 0.1662949 -0.13532315 -0.012421879 0.113082446
-0.065056674 0.16238226 0.12366928 -0.047012046 -0.034329608 0.03692808 0.004622358 0.121494375
0.16618259 0.03148727 -0.062031873 -0.04510434 -0.14351684 -0.15218134 -0.08696316 0.08980982
0.0113023985 -0.08526385 0.13439287 0.13469398 0.0133870365 -0.13116024 0.032618288 0.109004654
0.0456503 0.16048618 -0.0896849 -0.0014745381 0.14616908 0.04121929 -0.07371824 -0.140716
-0.08887012 0.026680075 -0.12617978 -0.014210647 0.031792868 0.15751687 -0.077378035 0.0397103
0.14989844 0.0815361 -0.01024297 -0.06684367 0.10473774 -0.17544602 0.026525257 0.076643616
-0.104069375 0.043711696 0.009216665 0.10038753 -0.10399791 -0.079905346 0.1445937 -0.027897574
0.17719607 0.047613624 -0.0200778 0.006528055 0.030015813 0.053603917 -0.026660306 -0.072349094
-0.0989952 -0.16736367 -0.07275586 0.061528854 0.08625743 0.023079775 0.07504408 -0.15453346
-0.0014988882 0.03840121 -0.066095404 0.13611248 -0.106899396 -0.12833603 -0.087384 -0.11999704
0.07165568 0.030140888 -0.06529671 0.027815785 -0.10746694 -0.1544742 0.16807398 0.14431335
0.020144686 -0.16652776 -0.09007977 0.061215833 -0.11966572 -0.032890026 -0.10472553 0.12297653
-0.14635448 0.02056889 0.071882516 -0.08585818 -0.12170172 -0.08257823 -0.0435866 -0.029797705
0.05131058 -0.05539631 -0.06816709 -0.07320253 -0.081102975 -0.10921794 -0.04522883 -0.11832404
-0.12360048 0.13195498 -0.124494985 0.109889366 -0.033496138 -0.076679505 -0.09904797 -0.0109319175
0.06051496 -0.15883636 -0.12375412 0.09178492 0.13944523 -0.121454254 0.13328473 -0.0011537588
0.08998733 -0.043615013 -0.058667272 -0.03499057 0.027315056 0.16234347 -0.06097398 -0.1273139
0.11712751 0.10222013 0.105526365 -0.1093992 0.05234359 -0.14407174 0.0206376 -0.052552357
0.08306084 -0.12354437 -0.14078279 0.15800117 0.09698823 0.08228022 0.09213532 0.11645051
-0.10391439 -0.033044722 0.016006079 -0.07521858 0.10178385 0.07415701 -0.053217947 0.14550978
0.15033285 0.0210415 0.16739662 0.09430007 -0.083866075 -0.062158793 -0.11112035 -0.15868405
00000000: c99b 713d 5136 8b3d b805 96bc f426 9d3d
00000010: eea9 9d3d 6031 f3bc 8019 393d f66e ae3d
00000020: 3905 5fbd b014 023b 1696 b63c e1fe 7a3d
00000030: 383d bdbc 0c7e 253e 49df 16be 4fc9 54bd
00000040: 2788 93bd 79c9 143e 5021 39be 3889 a6bd
00000050: 8df4 5bbd 0258 54bd fa3d 163d bf6a d5bc
00000060: f776 be3c 924a fbbb d6be 39bc 8b69 bebb
00000070: d337 cbbd edb2 223d ac69 23be 79d5 bfbd
00000080: c522 d7bd 31fb 0fbd 08e1 33be f13e d4bd
00000090: 8e4b d8bd b762 03be ffe8 e4bd d3b8 10be
000000a0: 78a6 dabb e9cd 053d 6f1b d03d 6a2a 86bd
000000b0: 0074 8d3d 06a6 bf3d f906 e6bd 258a 30bd
000000c0: 674f 283e a860 b43d 288c e1bd beb6 2cbe
000000d0: df35 c3bd 7f2f c43d db86 7bbd 8856 1ebe
000000e0: abed 9d3d 0e3a 7fbd 510a b33d 4047 16be
000000f0: f775 4a3d 7d29 6cbd bd8a f13d 7a03 29be
00000100: a964 c83d a392 1b3e 6126 113d 400b 81bd
00000110: 13b4 b539 afdf 71bd b323 163e 2f3d b4bc
00000120: 043d 11be cea6 ebbc 9d3e 88bd 209c 13bc
00000130: c13a cfbc aac6 273e 0992 043e 580a 3e3d
00000140: fd83 bbbd 1e42 153e 9217 05bd a8a9 963d
00000150: 3649 2a3e 2792 0abe 2385 4bbc c597 e73d
00000160: 6f3c 85bd 8947 263e 5246 fd3d b48f 40bd
00000170: 349d 0cbd e641 173d 2677 973b 0bd2 f83d
00000180: c52b 2a3e ccf8 003d 2215 7ebd 54bf 38bd
00000190: 14f6 12be 6dd5 1bbe be19 b2bd 36ee b73d
000001a0: b22d 393c d09e aebd 499e 093e 38ed 093e
000001b0: 4d55 5b3c df4e 06be c19a 053d d53d df3d
000001c0: cffb 3a3d 7d56 243e b8ac b7bd 4a45 c1ba
000001d0: 59ad 153e 8fd5 283d 97f9 96bd db17 10be
000001e0: 8a01 b6bd 2c90 da3c 4635 01be c6d3 68bc
000001f0: 3d39 023d 1a4c 213e 6078 9ebd 44a7 223d
00000200: fa7e 193e 66fc a63d 21d2 27bc 56e5 88bd
00000210: bd80 d63d 1fa8 33be 7f4b d93c 54f7 9c3d
00000220: 5322 d5bd 090b 333d 7f01 173c fa97 cd3d
00000230: dbfc d4bd 6aa5 a3bd 5f10 143e 7489 e4bc
00000240: e372 353e 8106 433d 337a a4bc 4be9 d53b
00000250: b9e3 f53c c88f 5b3d b766 dabc c32b 94bd
00000260: ffbd cabd 6261 2bbe 0601 95bd ae05 7c3d
00000270: bca7 b03d cc11 bd3c b6b0 993d 053e 1ebe
00000280: 5876 c4ba 964a 1d3d 075d 87bd 1261 0b3e
00000290: 12ee dabd 856a 03be 62f6 b2bd 02c1 f5bd
000002a0: 37c0 923d 06ea f63c 48ba 85bd eedd e33c
000002b0: a117 dcbd 7c2e 1ebe 961b 2c3e e1c6 133e
000002c0: 7806 a53c 4186 2abe be7b b8bd 74bd 7a3d
000002d0: 4d13 f5bd b1b7 06bd 577a d6bd 1edb fb3d
000002e0: f3dd 15be 1780 a83c 2437 933d 6ad6 afbd
000002f0: c03e f9bd c61e a9bd dd87 32bd 511a f4bc
00000300: 0b2b 523d 3ee7 62bd 309b 8bbd 35eb 95bd
00000310: 5119 a6bd a8ad dfbd de41 39bd e053 f2bd
00000320: 4022 fdbd 351f 073e 3af7 febd ad0d e13d
00000330: 3f33 09bd 250a 9dbd a9d9 cabd c91b 33bc
00000340: 89de 773d 00a6 22be cd72 fdbd bbf9 bb3d
00000350: bbca 0e3e 02bd f8bd cb7b 083e b939 97ba
00000360: 474b b83d a8a5 32bd 184d 70bd 4652 0fbd
00000370: d3c3 df3c 5e3d 263e dabf 79bd 935e 02be
00000380: 8ce0 ef3d ca58 d13d 351e d83d b00c e0bd
00000390: 3b66 563d 8b87 13be 2f10 a93c 2441 57bd
000003a0: cd1b aa3d d504 fdbd 5d29 10be 0fcb 213e
000003b0: c4a1 c63d 8882 a83d 71b1 bc3d 9b7d ee3d
000003c0: 11d1 d4bd e759 07bd 2e1f 833c 330c 9abd
000003d0: 0d74 d03d a1df 973d 10fb 59bd 8400 153e
000003e0: dbf0 193e 395f ac3c 056a 2b3e 6520 c13d
000003f0: fac1 abbd 389a 7ebd 1193 e3bd 127e 22be

weight_hh_l0 f4 [128, 32]
-0.06754565 -0.17005053 -0.13853428 -0.1156256 0.12251269 -0.17771664 -0.06164752 0.048260603
0.13803677 -0.15014446 0.05757522 -0.035102647 0.059663832 0.070649125 0.008667266 -0.14323848
-0.08332242 0.12860374 -0.09051848 -0.0067389584 0.118779674 0.067337185 -0.14957963 0.07322901
-0.09072939 0.17229544 0.03978369 -0.0037055637 -0.11282978 -0.17466071 -0.062499687 0.15722305
-0.10775467 -0.16935153 0.15933321 0.11208744 -0.029471053 0.12085431 0.025990456 0.15701741
-0.014111484 -0.16633976 0.13292788 -0.111868694 -0.037656434 -0.017478656 0.017810158 -0.098421685
0.1740366 -0.050407253 0.01938806 0.16830163 0.1290857 -0.046399202 0.15129039 -0.02397374
-0.177333 0.060952693 0.053306207 -0.16871955 0.008077684 0.007970878 0.15041928 -0.055041615
-0.03986449 -0.07136975 -0.14215665 -0.04688218 0.031488337 0.044208117 -0.029343294 -0.09482006
-0.15068464 0.049655817 0.0892431 -0.035313483 0.07966663 -0.15084058 -0.09789676 -0.020496134
-0.096403174 -0.0055377893 0.074746534 0.0066585443 0.13401045 0.008377886 0.09349711 -0.16752496
0.15244992 0.018488165 0.16257444 0.046421926 0.048404932 0.032322843 0.17420472 0.0189574
-0.14526619 -0.03376682 -0.070205264 -0.13340272 0.027173933 0.007677565 0.11944919 0.06633701
-0.029465975 -0.1507135 -0.009759368 0.09856788 -0.07613574 0.1510683 0.01943683 0.042503048
-0.16101716 0.07385517 -0.16873437 -0.122337565 -0.13392425 0.08080492 -0.124157324 0.042738643
0.11728404 0.17480384 -0.16423748 -0.050631538 0.02335273 -0.08492941 -0.09208001 -0.046909623
-0.014728999 0.028289603 0.1430913 -0.1623779 0.007898198 0.0008180062 -0.15226494 -0.1718868
0.16870567 -0.12640145 0.13440165 -0.02847823 -0.13359933 -0.15941961 -0.045719836 0.055525552
-0.12784761 -0.024175644 0.04277552 -0.042582516 0.12569518 -0.17318392 -0.12988141 0.066491656
0.10752389 0.1047568 -0.061409753 -0.0029300896 0.11629365 0.17856237 0.022165213 -0.10863946
0.12407576 0.13646647 0.09321226 -0.0059192246 0.10171354 0.0008410302 -0.044369865 -0.15377854
-0.04286809 0.028766032 -0.14022458 0.122054845 -0.085718855 -0.017255414 0.11642209 0.15649228
0.13107994 0.06637812 0.03397959 0.11583943 0.12883043 0.1515288 -0.13791606 -0.08715096
0.011275713 0.10368976 -0.15448809 -0.052919082 0.12167861 0.06622419 0.02997417 -0.094971284
0.054667044 -0.00687601 0.012466245 0.00094958313 0.07519678 -0.11096309 0.03540846 -0.15227826
-0.11992055 0.17771372 0.018438507 0.08828367 -0.09978168 -0.051502846 -0.15401019 0.09389088
0.15793686 -0.022228984 -0.042817347 -0.034250647 0.074306786 -0.07581705 0.13506046 -0.030586665
-0.096304126 -0.046495408 -0.12994665 0.09977384 0.14832005 -0.10266701 0.074332274 -0.0748344
-0.17942403 0.05964595 0.077634394 0.070690505 0.17381172 -0.015390416 -0.16929816 0.1423617
0.086067535 0.05000485 0.11820817 0.122118086 -0.02241899 -0.16966385 -0.07245534 -0.116506286
-0.036381386 -0.12143249 0.0033824504 -0.03783772 0.07844978 -0.063793086 0.03367429 -0.14515273
0.017465258 0.06344809 0.06190063 -0.05471281 -0.07834536 -0.056586277 -0.07420762 -0.09640086
00000000: 6055 8abd ba21 2ebe eedb 0dbe 1dcd ecbd
00000010: efe7 fa3d 5afb 35be 1c82 7cbd e9ac 453d
00000020: 8359 0d3e 78bf 19be fed3 6b3d cbc7 0fbd
00000030: 1062 743d 7db0 903d 2601 0e3c 1cad 12be
00000040: f2a4 aabd b3b0 033e c161 b9bd 7bd2 dcbb
00000050: c242 f33d 14e8 893d 672b 19be 17f9 953d
00000060: 55d0 b9bd 376e 303e 39f4 223d 0bd9 72bb
00000070: 4d13 e7bd 42da 32be acff 7fbd 14ff 203e
00000080: 7bae dcbd 7d6a 2dbe 3f28 233e 1a8e e53d
00000090: 476d f1bc 7782 f73d f0e9 d43c 2cc9 203e
000000a0: db33 67bc f854 2abe 3f1e 083e 6a1b e5bd
000000b0: a23d 1abd 662f 8fbc 9ce6 913c 4f91 c9bd
000000c0: a736 323e d677 4ebd b5d3 9e3c 4357 2c3e
000000d0: 0b2f 043e 170d 3ebd deeb 1a3e 9464 c4bc
000000e0: c896 35be 88a9 793d 9c57 5a3d d1c4 2cbe
000000f0: 4358 043c 4998 023c 8307 1a3e 5173 61bd
00000100: f348 23bd 4e2a 92bd 8391 11be 8707 40bd
00000110: eaf9 003d 9213 353d 5961 f0bc 0531 c2bd
00000120: 134d 1abe e663 4b3d 16c5 b63d dfa4 10bd
00000130: 4228 a33d f475 1abe 197e c8bd 82e7 a7bc
00000140: 076f c5bd 5876 b5bb b614 993d eb2f da3b
00000150: 093a 093e 6743 093c 6a7b bf3d aa8b 2bbe
00000160: d51b 1c3e 7e74 973c ea79 263e eb24 3e3d
00000170: 4044 463d f564 043d b962 323e 8d4c 9b3c
00000180: a9c0 14be 144f 0abd c7c7 8fbd b99a 08be
00000190: de9b de3c 1594 fb3b c7a1 f43d b3db 873d
000001a0: a162 f1bc a454 1abe c2e5 1fbc f5dd c93d
000001b0: 0eed 9bbd a6b1 1a3e fd39 9f3c ad17 2e3d
000001c0: afe1 24be 6141 973d b4c8 2cbe 1e8c fabd
000001d0: 7023 09be 0d7d a53d 3246 febd b70e 2f3d
000001e0: 9d32 f03d c7ff 323e df2d 28be 0463 4fbd
000001f0: 394e bf3c 78ef adbd 7294 bcbd 4e24 40bd
00000200: e651 71bc 99bf e73c 8786 123e 6446 26be
00000210: 7267 013c 786f 563a 57eb 1bbe 1803 30be
00000220: 2ec1 2c3e 626f 01be 96a0 093e 2d4b e9bc
00000230: 43ce 08be e53e 23be b944 3bbd c36e 633d
00000240: 7cea 02be 000c c6bc 6235 2f3d 016b 2ebd
00000250: 3db6 003e 2057 31be a2ff 04be c72c 883d
00000260: 7c35 dc3d bc8a d63d cb88 7bbd bf06 40bb
00000270: 5d2b ee3d 0ed9 363e d293 b53c 5d7e debd
00000280: 6f1b fe3d debd 0b3e 12e6 be3d 0ef6 c1bb
00000290: 304f d03d 9578 5c3a 2dbd 35bd 1f78 1dbe
000002a0: 7396 2fbd bea6 eb3c 0897 0fbe e4f7 f93d
000002b0: 5e8d afbd 3a5b 8dbc b46e ee3d 833f 203e
000002c0: d239 063e 40f1 873d 2f2e 0b3d 393d ed3d
000002d0: 20ec 033e 5e2a 1b3e de39 0dbe 347c b2bd
000002e0: c5bd 383c 4c5b d43d 2032 1ebe aec1 58bd
000002f0: a332 f93d 8ca0 873d 648c f53c 4e80 c2bd
00000300: 8dea 5f3d 2750 e1bb 393f 4c3c 72ed 783a
00000310: c500 9a3d 9e40 e3bd 7608 113d d5ee 1bbe
00000320: e898 f5bd 96fa 353e 5a0c 973c 12ce b43d
00000330: 565a ccbd a6f4 52bd d9b4 1dbe dd49 c03d
00000340: 33ba 213e 8f19 b6bc 3e61 2fbd 684a 0cbd
00000350: 282e 983d f845 9bbd 4a4d 0a3e e390 fabc
00000360: 193b c5bd f871 3ebd bc10 05be 3a56 cc3d
00000370: 36e1 173e 1543 d2bd 853b 983d c742 99bd
00000380: efba 37be 504f 743d c8fe 9e3d 2fc6 903d
00000390: b3fb 313e 1528 7cbc 7f5c 2dbe 44c7 113e
000003a0: 2d44 b03d e3d1 4c3d 2017 f23d 0c19 fa3d
000003b0: 08a8 b7bc 5cbc 2dbe 7763 94bd d99a eebd
000003c0: a604 15bd 99b1 f8bd 1aac 5d3b bafb 1abd
000003d0: 47aa a03d f3a5 82bd 0dee 093d eba2 14be
000003e0: 4d13 8f3c 12f1 813d 848b 7d3d 8a1a 60bd
000003f0: 8873 a0bd 03c7 67bd 2afa 97bd d06d c5bd

bias_ih_l0 f4 [128]
-0.09249148 0.07089917 -0.12722032 0.06842061 -0.016238496 0.074726634 -0.09531146 0.15748903
0.16915774 0.00015224438 -0.16779037 -0.17145701 0.16480476 -0.043581024 -0.16073461 -0.09352041
0.015166954 -0.02874498 -0.066463605 0.15418404 -0.014601882 0.101065315 0.112934075 -0.11735827
-0.11818102 -0.029329691 -0.13530506 0.07752196 -0.101166874 0.036414646 0.13768347 0.08987376
0.1205222 0.10830705 -0.06319392 0.14523149 0.092673264 0.16262908 0.04957908 -0.048991546
-0.094404474 0.060325645 0.07930691 0.17161573 -0.15231428 0.09676012 -0.112629116 -0.1662099
0.01180934 0.015925061 -0.01912816 0.07887479 -0.026712948 -0.06589733 0.09753123 0.14678906
-0.08256076 -0.0925424 0.005456282 -0.1428833 -0.09812149 0.04257303 0.16352764 0.0380438
0.10585551 -0.09008938 -0.13707365 0.08354166 -0.01247698 0.024321496 0.033828624 -0.094524935
-0.059505958 0.0593018 0.14782307 -0.058792755 0.059205774 0.15024853 0.07430537 -0.030955901
-0.054968886 0.023112802 0.1438812 0.03097121 0.119856454 -0.023571944 0.13005935 0.06691382
-0.061378233 -0.17703946 0.032315254 -0.00402126 -0.060866825 0.11530812 -0.13202097 0.12135187
0.07521216 0.016755797 -0.10237034 -0.15190731 -0.12820554 -0.061760023 -0.099584356 0.14686696
-0.0025523554 0.14722489 0.035394486 0.061117552 -0.17199762 -0.119903326 -0.015758056 0.013318884
0.04184072 0.14655931 -0.08523645 -0.07527651 0.17299329 0.034261517 0.13964094 0.032741174
-0.13490777 -0.1200577 -0.074863076 0.064457156 0.11447749 0.029304504 0.05328396 -0.08608699
00000000: 2c6c bdbd 9633 913d 0b46 02be 1b20 8c3d
00000010: 9806 85bc 470a 993d a832 c3bd ce44 213e
00000020: b037 2d3e caa3 1f39 3dd1 2bbe 6d92 2fbe
00000030: 94c2 283e 0482 32bd 9d97 24be a187 bfbd
00000040: d17e 783c 987a ebbc 121e 88bd 6ce2 1d3e
00000050: bb3c 6fbc 55fb ce3d fb49 e73d 8859 f0bd
00000060: e408 f2bd d244 f0bc 698d 0abe d5c3 9e3d
00000070: 9430 cfbd 8627 153d e5fc 0c3e bc0f b83d
00000080: 58d4 f63d 16d0 dd3d d06b 81bd 90b7 143e
00000090: 7bcb bd3d 3d88 263e 6f13 4b3d 5cab 48bd
000000a0: 2257 c1bd 0618 773d a96b a23d 09bc 2f3e
000000b0: 46f8 1bbe 2b2a c63d 18aa e6bd ee32 2abe
000000c0: f67b 413c 4675 823c a9b2 9cbc 1b89 a13d
000000d0: 1dd5 dabc 2ef5 86bd 74be c73d df4f 163e
000000e0: 9e15 a9bd df86 bdbd 9cca b23b 0050 12be
000000f0: ebf3 c8bd 0f61 2e3d ca73 273e d1d3 1b3d
00000100: c6ca d83d c880 b8bd 095d 0cbe e417 ab3d
00000110: 3f6c 4cbc e03d c73c e28f 0a3d 4a96 c1bd
00000120: 85bc 73bd 72e6 723d ee5e 173e acd0 70bd
00000130: c181 723d c0da 193e 6a2d 983d 3b97 fdbc
00000140: 0e27 61bd 0f57 bd3c 9855 133e 56b7 fd3c
00000150: 4d77 f53d f319 c1bc 472e 053e 1d0a 893d
00000160: be67 7bbd d549 35be 005d 043d c6c4 83bb
00000170: 7e4f 79bd aa26 ec3d 8130 07be 5487 f83d
00000180: d508 9a3d 7443 893c 8aa7 d1bd 978d 1bbe
00000190: 5048 03be 14f8 7cbd e2f2 cbbd 4b64 163e
000001a0: 6b45 27bb 1fc2 163e cff9 103d 6656 7a3d
000001b0: 2520 30be e08f f5bd 0a17 81bc 7337 5a3c
000001c0: 2d61 2b3d a513 163e 7390 aebd 922a 9abd
000001d0: 2725 313e ce55 0c3d 09fe 0e3e 9c1b 063d
000001e0: 4325 0abe d0e0 f5bd d051 99bd 1d02 843d
000001f0: 2d73 ea3d 0010 f03c 4840 5a3d 604e b0bd

bias_hh_l0 f4 [128]
-0.09894414 -0.10056807 0.009215934 0.15555203 -0.16316253 -0.12026889 -0.0897149 0.1421791
0.16155165 -0.10856409 -0.10704695 0.10454039 0.075222254 -0.08238181 -0.08246489 0.053623382
-0.13633183 0.0024494943 -0.110813305 -0.11377914 -0.061124634 0.104093075 0.049264964 -0.042985924
0.16366725 0.14558622 -0.15701571 0.09176723 -0.0942373 0.04135949 0.045075074 0.02590459
-0.0036568528 0.040294938 0.16841199 -0.17780651 -0.05336591 0.16738342 -0.12876008 0.15117349
0.094083205 -0.051317032 -0.030590704 -0.11422691 -0.0769336 0.06560673 -0.08239972 0.07002837
0.05189701 0.03201886 0.064976744 0.126559 0.17693177 0.058713228 -0.1194497 -0.04361154
0.099793404 0.019248307 0.05759974 0.1311862 0.115523055 -0.16081311 0.06325905 -0.14749648
-0.132046 -0.1476822 0.09631657 0.03189411 -0.028021349 0.03363506 -0.022444615 0.15562968
0.14268167 -0.027324587 -0.06999478 -0.030645337 -0.115278326 -0.07211778 -0.047462054 0.17550154
-0.0027464037 -0.15321393 0.12788138 -0.14493856 -0.17807981 -0.13981017 -0.03224812 -0.11536511
-0.0043858215 0.117709175 -0.10960566 -0.0101892585 0.09446869 0.1132317 0.14528702 0.15407439
-0.041443817 0.06066796 0.14949962 -0.00035777682 -0.15547557 0.05022287 0.032268915 -0.073498294
-0.028625948 -0.037758175 0.15487568 -0.060203433 -0.09761702 -0.044427898 0.15343578 -0.11060567
-0.1741916 -0.01553995 -0.010761144 -0.04566522 0.03635783 0.046669804 0.1410802 -0.019520799
-0.019055957 -0.03720766 -0.1359268 0.13257852 -0.096978836 0.09049915 -0.1332006 -0.057426248
00000000: 3aa3 cabd a2f6 cdbd 6efe 163c 0849 1f3e
00000010: 1414 27be 894f f6bd 72bc b7bd 6697 113e
00000020: cc6d 253e da56 debd 6e3b dbbd 4619 d63d
00000030: 200e 9a3d cbb7 a8bd 5ae3 a8bd 31a4 5b3d
00000040: 929a 0bbe b287 203b 16f2 e2bd 0a05 e9bd
00000050: d35d 7abd c02e d53d 0fca 493d 0212 30bd
00000060: 6398 273e 8e14 153e bac8 20be 75f0 bb3d
00000070: 7cff c0bd 9268 293d a4a0 383d dd35 d43c
00000080: cfa7 6fbb 4e0c 253d 3174 2c3e e912 36be
00000090: 3696 5abd 8f66 2b3e afd9 03be 39cd 1a3e
000000a0: b2ae c03d cf31 52bd 5b99 fabc ccef e9bd
000000b0: 5d8f 9dbd d25c 863d 2fc1 a8bd 096b 8f3d
000000c0: f691 543d 3526 033d 8712 853d af98 013e
000000d0: 9a2d 353e 487d 703d 0ba2 f4bd 04a2 32bd
000000e0: 7c60 cc3d a0ae 9d3c b4ed 6b3d ad55 063e
000000f0: 5a97 ec3d 31ac 24be f68d 813d 5109 17be
00000100: 1137 07be 013a 17be 9f41 c53d 66a3 023d
00000110: 078d e5bc ebc4 093d c5dd b7bc 635d 1f3e
00000120: 251b 123e d0d7 dfbc 6c59 8fbd ee0b fbbc
00000130: 0b17 ecbd 7db2 93bd 9267 42bd adb6 333e
00000140: 02fd 33bb 1de4 1cbe 56f3 023e c66a 14be
00000150: 8e5a 36be 662a 0fbe 9b16 04bd 8b44 ecbd
00000160: f0b6 8fbb 8211 f13d ef78 e0bd d9f0 26bc
00000170: cd78 c13d 06e6 e73d 1fc6 143e adc5 1d3e
00000180: fec0 29bd f87e 783d 6e16 193e fe93 bbb9
00000190: fd34 1fbe 7fb6 4d3d 692c 043d 4686 96bd
000001a0: f780 eabc 51a8 1abd bb97 1e3e e097 76bd
000001b0: 6feb c7bd 07fa 35bd 451e 1d3e 3a85 e2bd
000001c0: 485f 32be 469b 7ebc 824f 30bc 740b 3bbd
000001d0: f3eb 143d d628 3f3d 5477 103e 15ea 9fbc
000001e0: 3d1b 9cbc 0f67 18bd 6530 0bbe aac2 073e
000001f0: d79c c6bd 9e57 b93d bd65 08be c937 6bbd

weight_ih_l1 f4 [128, 32]
-0.000795163 -0.013261136 -0.11753282 0.07676887 0.09552659 -0.059171744 -0.03202784 0.098606974
-0.11057641 0.026688855 -0.05622509 -0.053914536 -0.13956383 0.15571898 0.1481985 0.1106192
-0.026094556 -0.1572502 -0.12250334 -0.07754087 -0.03545357 -0.13824758 -0.14204057 -0.120116994
0.022144658 0.16500062 -0.039614055 -0.06451709 0.14174728 -0.12636521 -0.07309149 0.010977433
0.07627042 0.064319834 0.08704558 0.06723189 -0.014263312 -0.057948843 -0.07095716 -0.048767425
-0.08619448 -0.034083012 0.17152247 -0.11616249 0.09933747 -0.11206245 0.15158868 0.0047891024
-0.15165342 -0.13045332 -0.09947005 -0.07243695 0.0016006317 -0.018654766 0.05239546 0.15734708
0.14771478 -0.16532245 -0.13745455 -0.17735115 0.1215352 -0.14267538 -0.16592593 -0.13623287
-0.10459495 0.070903435 -0.040895406 0.14256938 0.06951881 0.06690427 0.143627 -0.17777114
-0.10962986 0.082351945 -0.017022071 0.06624597 -0.013595555 -0.09662281 -0.12347375 -0.15607558
-0.006819428 -0.043756362 -0.098726556 0.15331307 -0.12049446 -0.143064 -0.10091792 0.18003196
0.15424804 0.0056189285 0.061944973 -0.1474792 -0.03141604 0.16287833 -0.03778981 0.056223985
0.066125564 -0.09291575 0.007916137 -0.051053014 -0.11756897 -0.1676971 0.08421831 0.087975904
0.0768901 -0.070413925 -0.03590687 -0.098081864 -0.13271739 0.08771936 -0.08093061 -0.016708817
0.048698343 -0.109612346 0.010809504 -0.16837786 0.031467672 -0.021148447 -0.12716733 -0.052289035
-0.1406371 -0.14534718 0.011465675 0.09844416 0.02687095 0.16935453 0.006041662 0.1292823
-0.14918391 -0.15632011 0.050544497 -0.16860716 0.046683814 0.026798623 -0.086927004 0.120977536
0.17231385 0.0403256 0.101399295 0.0961459 -0.014906329 0.07214404 0.15124531 -0.16060549
0.14082202 0.055116236 -0.10043819 0.041521996 -0.152657 -0.040471938 -0.16499712 -0.075345
0.0938438 0.12295427 0.034607954 -0.08578062 -0.15152067 -0.094850555 -0.12898974 -0.00929523
-0.13621062 0.12427628 -0.114275016 -0.14600205 0.10891511 -0.15064892 0.05709353 0.050231706
-0.0210487 -0.106298916 -0.089177996 -0.010336503 -0.10041572 0.07320555 0.1457475 0.12724106
-0.108055554 -0.028067363 -0.10293675 -0.0062319357 0.122892536 0.13720371 -0.106261306 -0.15135628
0.02561992 -0.008655685 0.05041804 0.017248442 -0.16350196 0.10071586 0.09835156 0.11960204
-0.013648246 0.11040313 -0.11840715 -0.050819624 0.15814853 0.026890682 0.030833911 -0.039210822
-0.03989772 0.09678141 -0.028631335 -0.16338065 -0.04714096 -0.10785645 0.028256355 -0.10328231
0.13465573 -0.12712567 0.06552289 -0.07905204 0.08698735 0.118916936 0.003026774 0.10230585
-0.0047462396 0.11401697 0.049926773 0.09173783 -0.06650014 0.10527977 -0.12685081 -0.03269208
-0.06285362 0.03152243 -0.123922676 -0.07438538 -0.10978874 0.061762955 -0.09887375 0.053602636
-0.072404966 0.13549143 0.052354705 0.10593016 0.08445941 0.13488533 -0.10704768 -0.1322478
-0.032328743 0.13176972 -0.042947635 0.022167908 -0.062241066 -0.020018477 0.074893884 0.16081998
0.020169016 -0.02362489 0.015026292 0.0004874867 -0.18044388 0.028574577 0.038528346 -0.16099729
00000000: 7c72 50ba 3c45 59bc 0cb5 f0bd ff38 9d3d
00000010: 72a3 c33d 125e 72bd a02f 03bd 74f2 c93d
00000020: e375 e2bd 96a2 da3c 484c 66bd 7dd5 5cbd
00000030: d2e9 0ebe cc74 1f3e 59c1 173e 528c e23d
00000040: 40c4 d5bc 3206 21be 08e3 fabd bfcd 9ebd
00000050: c337 11bd c690 0dbe 1573 11be e6ff f5bd
00000060: b768 b53c ecf5 283e 5942 22bd 8921 84bd
00000070: 3326 113e e265 01be feb0 95bd b1da 333c
00000080: aa33 9c3d 1eba 833d f444 b23d e0b0 893d
00000090: abb0 69bc c45b 6dbd fd51 91bd 5ac0 47bd
000000a0: bb86 b0bd a19a 0bbd 96a3 2f3e 99e6 edbd
000000b0: 7271 cb3d ff80 e5bd 103a 1b3e e7ed 9c3b
000000c0: 094b 1bbe 8e95 05be f4b6 cbbd d359 94bd
000000d0: 4acc d13a e1d1 98bc 9f9c 563d 981f 213e
000000e0: 8b42 173e 4a4a 29be e3c0 0cbe 8a9b 35be
000000f0: 72e7 f83d 7f19 12be 7de8 29be a180 0bbe
00000100: e135 d6bd d235 913d f181 27bd b5fd 113e
00000110: e15f 8e3d 1b05 893d f512 133e a309 36be
00000120: 9f85 e0bd 23a8 a83d df71 8bbc f8ab 873d
00000130: e4bf 5ebc 2ee2 c5bd cedf fcbd 47d2 1fbe
00000140: 8275 dfbb df39 33bd 2631 cabd 1afe 1c3e
00000150: cdc5 f6bd 5f7f 12be 0eae cebd 4c5a 383e
00000160: 33f3 1d3e fd1e b83b 03ba 7d3d ca04 17be
00000170: 1bae 00bd 94c9 263e 7dc9 1abd 1f4b 663d
00000180: d76c 873d 9d4a bebd afb2 013c f71c 51bd
00000190: 00c8 f0bd cab8 2bbe a67a ac3d b62c b43d
000001a0: 8f78 9d3d 2d35 90bd 1513 13bd 25df c8bd
000001b0: 11e7 07be 35a6 b33d f3be a5bd eee0 88bc
000001c0: ea77 473d 707c e0bd 591a 313c 3f6b 2cbe
000001d0: 3fe4 003d 823f adbc 2738 02be 072d 56bd
000001e0: 2c03 10be e4d5 14be 87da 3b3c 179d c93d
000001f0: 7720 dc3c 466b 2d3e 22f9 c53b 9462 043e
00000200: abc3 18be 6112 20be bf07 4f3d 5ba7 2cbe
00000210: 8737 3f3d c988 db3c c906 b2bd 12c3 f73d
00000220: 0b73 303e 752c 253d 6faa cf3d 24e8 c43d
00000230: ad39 74bc 41c0 933d 0de0 1a3e c475 24be
00000240: a633 103e 90c1 613d 8ab2 cdbd f812 2a3d
00000250: 1e52 1cbe e7c5 25bd 01f5 28be 7b4e 9abd
00000260: 2e31 c03d 73cf fb3d 12c1 0d3d c0ad afbd
00000270: 3c28 1bbe 0241 c2bd e315 04be 054b 18bc
00000280: cc7a 0bbe 9084 fe3d 0509 eabd 9081 15be
00000290: e30e df3d b643 1abe e8da 693d c3bf 4d3d
000002a0: 536e acbc 3fb3 d9bd f4a2 b6bd 705a 29bc
000002b0: c2a6 cdbd cbec 953d d53e 153e 7b4b 023e
000002c0: 3b4c ddbd 87ed e5bc 81d0 d2bd 4435 ccbb
000002d0: 15af fb3d 217f 0c3e 879f d9bd 24fd 1abe
000002e0: dee0 d13c 93d0 0dbc 2683 4e3d 9b4c 8d3c
000002f0: 0f6d 27be 1e44 ce3d 8b6c c93d eaf1 f43d
00000300: e59c 5fbc 091b e23d 737f f2bd 3d28 50bd
00000310: b0f1 213e d949 dc3c 6697 fc3c 879b 20bd
00000320: cb6b 23bd 5535 c63d 438c eabc 424d 27be
00000330: e116 41bd d8e3 dcbd df79 e73c ad85 d3bd
00000340: 31e3 093e 3b2d 02be dd30 863d 09e6 a1bd
00000350: 6c26 b23d b98a f33d d75c 463b bb85 d13d
00000360: 5886 9bbb bb81 e93d 0480 4c3d 0be1 bb3d
00000370: 3a31 88bd ec9c d73d 2ee5 01be 21e8 05bd
00000380: 66b9 80bd aa1d 013d 2ccb fdbd 5d57 98bd
00000390: ebd8 e0bd 27fb 7c3d 527e cabd 708e 5b3d
000003a0: 0e49 94bd 44be 0a3e e371 563d e9f1 d83d
000003b0: 0ef9 ac3d 611f 0a3e d03b dbbd f86b 07be
000003c0: 256b 04bd a4ee 063e dce9 2fbd 7999 b53c
000003d0: 7df0 7ebd cafd a3bc f761 993d fead 243e
000003e0: 7e39 a53c fc88 c1bc d630 763c 5b95 ff39
000003f0: 48c6 38be 3b15 ea3c e6cf 1d3d 79dc 24be

weight_hh_l1 f4 [128, 32]
-0.07771907 0.17005734 0.04976158 -0.040126726 -0.019377943 -0.1470728 0.16043898 0.13201179
-0.0090073 0.029493902 0.0960321 -0.15941201 -0.12988521 0.08099589 0.11770299 0.09206125
0.06159463 0.08769899 0.056131434 0.18055558 0.16558088 0.05709457 0.10214816 0.10969552
0.04860733 0.052530993 0.12601589 -0.03464703 0.025780508 -0.046148274 -0.01054169 -0.030073103
0.040479507 0.04723665 -0.17360502 -0.11472772 0.14219496 0.13053784 -0.12717608 0.07051992
0.008416343 -0.006938815 0.06695548 -0.012526592 0.08405446 0.12993865 -0.14317632 -0.14997092
0.04597587 -0.044524968 -0.1564159 0.14062046 0.14723308 -0.050532952 0.13784973 -0.15401076
-0.1643335 0.058562756 -0.12194811 0.048736222 -0.1550852 0.17877464 0.13378434 -0.08075747
-0.10145669 0.06735179 -0.090863414 0.06755968 -0.038267776 0.051209792 -0.050513927 -0.05856053
-0.009087364 0.06868996 0.009869573 -0.13563515 -0.096760534 -0.099304706 0.05907933 -0.051738065
0.08807745 -0.12900953 -0.04829421 -0.06923395 0.0752177 -0.0076264394 -0.10058967 -0.026814684
0.14464608 -0.17159331 0.08543549 -0.101120666 0.07671163 0.061170366 -0.091438904 0.014522912
0.1528822 0.15355197 -0.14673425 -0.09664436 -0.14269227 -0.15243566 0.023484796 0.097516045
-0.14281319 -0.079683654 0.176712 -0.08808068 -0.1404646 0.046654996 -0.020353543 -0.108813554
0.042359393 -0.15059716 -0.1763569 -0.06326398 -0.13741182 0.05093797 0.1049147 0.09192809
0.1471801 -0.022777976 -0.14688376 0.14994188 -0.10419071 0.0754005 0.12524614 0.022425456
-0.031503037 0.13421299 -0.066634215 -0.009011815 -0.07279875 0.026264476 -0.14533757 0.007975787
0.16883475 -0.15781644 -0.09223697 0.062943 0.17394365 -0.10573808 -0.07836291 -0.10916219
0.018031185 -0.09412949 -0.098069385 -0.04160855 0.13063109 0.078314714 -0.106402524 -0.12934287
0.02057958 -0.076829314 -0.016457833 0.011985174 0.17037669 -0.07899737 -0.07365869 -0.12822072
0.14442104 -0.105787665 -0.12414667 -0.05575538 -0.17156516 0.09109338 0.07472254 -0.052273158
-0.051644616 0.13152188 0.03139115 -0.10442689 0.13060148 0.054289307 -0.1349226 -0.07567665
-0.13586016 0.084534444 -0.051403284 0.16033967 0.14359985 0.021243628 0.094592355 -0.13975409
-0.027124746 -0.043638602 -0.0547449 -0.14870335 -0.14444071 -0.12825288 -0.018602 -0.048798464
0.123564705 0.118121065 -0.13918585 -0.0070392685 -0.07781244 0.02424677 -0.09100689 0.08162993
-0.052595742 0.15936492 0.13800088 -0.014064775 -0.14654326 0.020121811 -0.00962937 -0.079514734
-0.010327599 0.015509589 0.044593465 0.023195656 -0.13055395 0.053818658 -0.09637072 0.016238304
0.16457987 -0.016824063 0.17098263 -0.07985906 0.11081111 -0.16593407 0.025058525 0.16823143
-0.088314354 -0.008310984 0.116819575 0.17653014 0.09655934 0.15934506 -0.06859717 -0.010136163
-0.038763326 -0.10109337 0.15403919 -0.026384024 -0.048871115 0.12994583 0.028481327 0.04738703
0.025143366 0.03826139 0.14753498 0.07115838 0.09615908 0.15202208 0.11157831 -0.104230925
0.010560706 0.16768745 -0.12223485 -0.14232403 0.0343546 0.14533442 0.16745885 -0.07365098
00000000: 2d2b 9fbd 8323 2e3e ccd2 4b3d ec5b 24bd
00000010: 7ebe 9ebc 419a 16be 1e4a 243e 192e 073e
00000020: 5b93 13bc 329d f13c 7aac c43d e73c 23be
00000030: a100 05be 2ce1 a53d 440e f13d 9c8a bc3d
00000040: a74a 7c3d 879b b33d 13ea 653d 90e3 383e
00000050: 098e 293e ffdb 693d 0e33 d13d 0ba8 e03d
00000060: 7b18 473d bd2a 573d 4f0a 013e 0bea 0dbd
00000070: a531 d33c f905 3dbd 0db7 2cbc de5b f6bc
00000080: d7cd 253d 387b 413d 84c5 31be 5ef6 eabd
00000090: 8e9b 113e b6ab 053e 723a 02be bf6c 903d
000000a0: b3e4 093c 005f e3bb f41f 893d 563c 4dbc
000000b0: bf24 ac3d a30e 053e d09c 12be fa91 19be
000000c0: 3251 3c3d d05f 36bd 7d2b 20be cffe 0f3e
000000d0: 45c4 163e a4fb 4ebd 7b28 0d3e ffb4 1dbe
000000e0: 0b47 28be 80df 6f3d eebf f9bd a29f 473d
000000f0: a8ce 1ebe b310 373e c3fe 083e 2c64 a5bd
00000100: 86c8 cfbd bcef 893d 9916 babd bb5c 8a3d
00000110: acbe 1cbd 5cc1 513d b1e7 4ebd 2bdd 6fbd
00000120: 2be3 14bc 52ad 8c3d fdb3 213c f1e3 0abe
00000130: 632a c6bd 4460 cbbd 2bfd 713d 4beb 53bd
00000140: f361 b43d 131b 04be 26d0 45bd 87ca 8dbd
00000150: bd0b 9a3d 36e7 f9bb f501 cebd 78aa dbbc
00000160: 1a1e 143e 28b6 2fbe cdf8 ae3d 5a18 cfbd
00000170: fd1a 9d3d c78d 7a3d 5244 bbbd 82f1 6d3c
00000180: 278d 1c3e ba3c 1d3e 8141 16be 7aed c5bd
00000190: ec1d 12be 1818 1cbe 3063 c03c 7eb6 c73d
000001a0: 9f3d 12be 2f31 a3bd fef3 343e a563 b4bd
000001b0: f4d5 0fbe 4f19 3f3d 79bc a6bc a4d9 debd
000001c0: 0b81 2d3d 2436 1abe e796 34be 8c90 81bd
000001d0: afb5 0cbe 55a4 503d 85dd d63d cb44 bc3d
000001e0: 61b6 163e e198 babc b268 16be 5d8a 193e
000001f0: f061 d5bd 946b 9a3d 8640 003e 97b5 b73c
00000200: 5409 01bd 216f 093e 8577 88bd 4ba6 13bc
00000210: 8317 95bd 9928 d73c 5fd3 14be e0ac 023c
00000220: 04e3 2c3e a29a 21be bde6 bcbd 42e8 803d
00000230: 491e 323e 358d d8bd bc7c a0bd 6d90 dfbd
00000240: 23b6 933c f6c6 c0bd 9ad8 c8bd ba6d 2abd
00000250: 28c4 053e 7763 a03d 91e9 d9bd 7572 04be
00000260: 8296 a83c b058 9dbd 94d2 86bc 775d 443c
00000270: 3a77 2e3e 60c9 a1bd 5eda 96bd 4b4c 03be
00000280: 1ce3 133e 34a7 d8bd 9c40 febd c15f 64bd
00000290: c7ae 2fbe 2a8f ba3d 2208 993d 611c 56bd
000002a0: 4e89 53bd acad 063e 0294 003d c4dd d5bd
000002b0: 65bc 053e 775e 5e3d 2629 0abe 5cfc 9abd
000002c0: ed1e 0bbe 6520 ad3d 408c 52bd 1530 243e
000002d0: d70b 133e 1e07 ae3c a3b9 c13d b21b 0fbe
000002e0: b734 debc 64be 32bd 303c 60bd b145 18be
000002f0: 44e8 13be b954 03be 3963 98bc e6e0 47bd
00000300: 7e0f fd3d 75e9 f13d bc86 0ebe aaa9 e6bb
00000310: 215c 9fbd 2aa1 c63c d261 babd 982d a73d
00000320: a26e 57bd 8f30 233e 1a50 0d3e f16f 66bc
00000330: 700f 16be 7fd6 a43c 81c4 1dbc 9fd8 a2bd
00000340: 1735 29bc ee1b 7e3c a3a7 363d d104 be3c
00000350: efaf 05be f470 5c3d 035e c5bd 3106 853c
00000360: a087 283e 9ed2 89bc 1216 2f3e 268d a3bd
00000370: eff0 e23d 9fea 29be 8947 cd3c dc44 2c3e
00000380: 28de b4bd cb2a 08bc 1a3f ef3d 51c4 343e
00000390: e7c0 c53d 5a2b 233e ac7c 8cbd 2612 26bc
000003a0: 4bc6 1ebd 0a0a cfbd 73bc 1d3e 4f23 d8bc
000003b0: 142d 48bd 8510 053e ac51 e93c e718 423d
000003c0: 76f9 cd3c fab7 1c3d 6913 173e 7cbb 913d
000003d0: 0def c43d adab 1b3e 2b83 e43d 0677 d5bd
000003e0: d006 2d3c 42b6 2b3e 4456 fabd 64bd 11be
000003f0: 69b7 0c3d 8cd2 143e 557a 2b3e 53d6 96bd

bias_ih_l1 f4 [128]
0.02160532 -0.08378986 0.07373942 -0.04542281 0.09638588 0.15042715 0.015803771 -0.09267302
0.105273694 -0.028459003 -0.1041021 -0.08140995 0.11932072 -0.018374939 0.09811263 0.055495873
-0.0010975647 -0.09678945 -0.08012796 -0.08978105 -0.1445029 0.15686356 0.0018121009 0.007562694
-0.15109456 -0.08969102 0.103441395 0.032134164 -0.055625048 0.03221886 -0.08763487 0.030637264
0.15595876 -0.13323177 0.08787636 0.022504402 0.149586 -0.012184906 -0.030557457 -0.062147625
-0.061122768 0.04109291 -0.06306052 -0.034755256 -0.16659205 -0.13010615 -0.06560813 -0.09004693
0.14219548 0.06463913 0.0740667 -0.13270164 -0.102020964 -0.16754596 -0.04584239 0.044380073
-0.008077112 -0.15699892 -0.017949741 -0.16648556 0.15072426 0.007657311 -0.092326745 -0.16570015
0.052665006 -0.056758154 0.09766055 0.09375347 0.070759796 -0.002510049 0.14073199 0.107539795
0.10618003 0.022464 -0.14020137 -0.12319528 -0.13849163 -0.15845382 -0.09944188 -0.0143429795
0.104746535 0.07827504 -0.0054889284 -0.008562237 0.027911408 0.11392395 -0.07787063 -0.1273949
0.009716404 -0.07058156 -0.13458125 -0.16742212 -0.003930807 -0.12254706 0.06016011 -0.1491883
0.07342464 -0.1761965 0.014015232 -0.06909503 -0.062234264 -0.052329026 0.011956723 0.0696164
0.107523546 -0.14962406 -0.03556059 0.15410073 -0.05962147 -0.074879475 0.17920803 -0.11424201
-0.07289278 -0.12968232 0.15260653 0.012057274 -0.15178584 -0.058642447 -0.09901079 -0.026289694
-0.10641736 -0.035805188 0.13797493 -0.12001094 0.031479634 0.117255665 0.13996738 -0.12845442
00000000: a4fd b03c 059a abbd b104 973d 450d 3abd
00000010: f665 c53d 9309 1a3e e976 813c 5acb bdbd
00000020: bc99 d73d db22 e9bc 7b33 d5bd 43ba a6bd
00000030: 6c5e f43d 0a87 96bc 46ef c83d a44f 633d
00000040: 29dc 8fba 8c39 c6bd 211a a4bd 21df b7bd
00000050: 91f8 13be d7a0 203e 0484 ed3a 7ad0 f73b
00000060: 88b8 1abe edaf b7bd 15d9 d33d 1d9f 033d
00000070: 17d7 63bd ecf7 033d e979 b3bd 00fb fa3c
00000080: a7b3 1f3e e96d 08be 85f8 b33d 275b b83c
00000090: 132d 193e 33a3 47bc a253 fabc 828e 7ebd
000000a0: de5b 7abd 0a51 283d e025 81bd 875b 0ebd
000000b0: 1b97 2abe 8c3a 05be 8e5d 86bd 866a b8bd
000000c0: b19b 113e 8561 843d 48b0 973d f0e2 07be
000000d0: 5ef0 d0bd 2b91 2bbe 3bc5 3bbd e1c7 353d
000000e0: dd55 04bc 53c4 20be 560b 93bc 317b 2abe
000000f0: 7657 1a3e 2eea fa3b ce15 bdbd 4dad 29be
00000100: 43b7 573d 3d7b 68bd 4102 c83d d201 c03d
00000110: 83ea 903d a27f 24bb 0c1c 103e d33d dc3d
00000120: ea74 d93d 6c06 b83c f390 0fbe cf4d fcbd
00000130: c0d0 0dbe b841 22be 2fa8 cbbd d1fe 6abc
00000140: 5a85 d63d aa4e a03d 78dc b3bb a048 0cbc
00000150: 77a6 e43c f650 e93d a37a 9fbd cf73 02be
00000160: 8d31 1f3c 118d 90bd abcf 09be b470 2bbe
00000170: 00ce 80bb f4f9 fabd 736a 763d d1c4 18be
00000180: a85f 963d db6c 34be 25a0 653c b281 8dbd
00000190: 5be9 7ebd f656 56bd 22e6 433c 0b93 8e3d
000001a0: 4e35 dc3d 0d37 19be fba7 11bd 95cc 1d3e
000001b0: a435 74bd 695a 99bd 4f82 373e b7f7 e9bd
000001c0: cf48 95bd 71cb 04be e344 1c3e df8b 453c
000001d0: bf6d 1bbe 1033 70bd 2bc6 cabd 7c5d d7bc
000001e0: 58f1 d9bd 76a8 12bd 4d49 0d3e 4cc8 f5bd
000001f0: caf0 003d bd23 f03d 9c53 0f3e 8e89 03be

bias_hh_l1 f4 [128]
0.10390043 -0.14730698 0.11471662 0.11654577 0.12173127 -0.13382357 0.11208432 -0.031792644
-0.10582654 0.11501262 -0.15496634 -0.11837264 -0.08902683 0.12245432 0.11277823 0.06192835
-0.13882716 0.028529294 -0.012434617 0.09136845 0.15685539 -0.06974514 -0.18424116 0.076778196
-0.04423187 0.07767901 0.15764084 0.12780446 -0.0012538631 -0.14170893 0.09693148 -0.049263936
-0.14987949 -0.13359644 -0.017524332 0.0991428 -0.16496241 0.06023134 0.08511472 -0.16914788
0.15039605 -0.12641864 -0.08396208 0.008223918 -0.08673624 0.03231492 0.064432226 0.05156223
-0.059546318 -0.056740586 0.0072927224 -0.09351637 0.160179 0.03387471 0.0939727 -0.08558348
0.14804445 -0.13655813 0.12657602 0.012108516 -0.12855722 -0.15733184 0.031474035 0.13955572
0.09319855 0.01650129 0.119575895 -0.15684302 0.0755564 0.16236657 0.09799059 0.056046657
0.07884015 0.10748809 -0.02757136 -0.09293514 0.07182684 -0.16010015 -0.17894426 -0.1307586
0.12644048 -0.07040367 0.1108985 -0.00060428795 -0.1433356 0.09292942 0.11661379 0.014054674
-0.1452305 0.050068736 0.16929948 -0.082542025 0.010419652 -0.07139342 -0.15085042 0.17123939
-0.054444265 -0.0880358 0.16441528 0.13874033 0.0770018 -0.13349715 -0.056150507 0.029970668
0.037957016 -0.038937382 -0.17300044 -0.044720195 0.07450117 -0.15335706 0.11352029 0.1318666
0.063000344 0.15154907 0.15414405 -0.08895731 0.040620103 -0.14420785 0.04961776 0.13903333
-0.12513834 0.06969985 -0.098634206 0.17835473 0.13300724 -0.16460904 -0.0369567 -0.07000719
00000000: c0c9 d43d a4d7 16be 8cf0 ea3d 8caf ee3d
00000010: 3e4e f93d 0c09 09be 778c e53d 0139 02bd
00000020: 96bb d8bd bd8b eb3d 7faf 1ebe 5b6d f2bd
00000030: b353 b6bd 55c9 fa3d 46f8 e63d 95a8 7d3d
00000040: b528 0ebe 44b6 e93c 90ba 4bbc 621f bb3d
00000050: b39e 203e 8ad6 8ebd b7a9 3cbe e33d 9d3d
00000060: 7a2c 35bd 2c16 9f3d 9a6c 213e 2cdf 023e
00000070: aa58 a4ba 251c 11be 0384 c63d fbc8 49bd
00000080: 027a 19be 81cd 08be 308f 8fbc 610b cb3d
00000090: e8eb 28be 23b5 763d a050 ae3d 1a35 2dbe
000000a0: 6c01 1a3e e373 01be 50f4 abbd 9dbd 063c
000000b0: c5a2 b1bd a65c 043d 0bf5 833d eb32 533d
000000c0: d7e6 73bd d168 68bd caf7 ee3b 8385 bfbd
000000d0: f705 243e 35c0 0a3d c274 c03d 6446 afbd
000000e0: f798 173e e5d5 0bbe 259d 013e cc62 463c
000000f0: 81a4 03be 991b 21be ebea 003d b2e7 0e3e
00000100: e2de be3d b72d 873c 35e4 f43d 759b 20be
00000110: 50bd 9a3d 6c43 263e 4aaf c83d 2e91 653d
00000120: f276 a13d b722 dc3d 55dd e1bc c754 bebd
00000130: f319 933d 4bf1 23be 2a3d 37be 95e5 05be
00000140: 9d79 013e cd2f 90bd c11e e33d 1469 1eba
00000150: 91c6 12be c851 be3d 36d3 ee3d 9345 663c
00000160: 4eb7 14be e014 4d3d d85c 2d3e cb0b a9bd
00000170: 30b7 2a3c b736 92bd 8878 1abe 6159 2f3e
00000180: f300 5fbd 1d4c b4bd 7b5c 283e f211 0e3e
00000190: 1fb3 9d3d 7ab3 08be 13fe 65bd 0c85 f53c
000001a0: d178 1b3d ce7c 1fbd 0727 31be 862c 37bd
000001b0: 1294 983d a209 1dbe 537d e83d 0a08 073e
000001c0: 5306 813d ae2f 1b3e f0d7 1d3e 402f b6bd
000001d0: 4461 263d 39ab 13be fe3b 4b3d c15e 0e3e
000001e0: 4424 00be ccbe 8e3d bb00 cabd 9fa2 363e
000001f0: 0d33 083e 468f 28be e95f 17bd ee5f 8fbd

weight f4 [1, 32]
0.15938713 0.032805957 -0.0038758263 -0.066330485 0.019108735 -0.16442327 0.0028894658 0.13151693
-0.008138382 0.14473443 -0.09203824 0.09150607 -0.09962506 0.11394078 0.0157547 -0.13650192
0.10270047 -0.13304041 0.013857357 -0.138974 -0.05625038 0.1575565 -0.004248716 -0.035045397
0.029239923 -0.050042074 -0.024307542 0.017112613 -0.058240376 -0.16073997 0.017111778 -0.054180317
00000000: 6136 233e 8a5f 063d 9301 7ebb 47d8 87bd
00000010: ec89 9c3c 935e 28be 315d 3d3b 60ac 063e
00000020: d956 05bc 4335 143e 8b7e bcbd 8967 bb3d
00000030: 3908 ccbd c959 e93d 0010 813c 29c7 0bbe
00000040: a054 d23d bf3b 08be f809 633c 334f 0ebe
00000050: cc66 66bd 7e56 213e d038 8bbb c38b 0fbd
00000060: 9088 ef3c ebf8 4cbd 9c20 c7bc c02f 8c3c
00000070: 768d 6ebd 0599 24be 002e 8c3c 2eec 5dbd
