competition/result/lstm_win3_noStandardized_2layer_8hidden_0.98g/trained_model/all_model/actor_num_epoch_7.pth (torch, 10238 bytes, 9 tensors)

weight_ih_l0 f4 [32, 11]
0	0xbdd11ff6	-0.10211174
1	0x3e3526c6	0.17690572
2	0xbe998c77	-0.2998998
3	0x3db99fe6	0.09063701
4	0x3e9097a2	0.28240687
5	0x3e39d8f1	0.18149163
6	0xbdd30e01	-0.103054054
7	0xbe30c058	-0.17260873
8	0xbe8caf26	-0.27477378
9	0x3eae9872	0.34100682
10	0x3e26e2a5	0.16297396
11	0x3e48e0f8	0.19617069
12	0x3e65d485	0.22444351
13	0xbc41b85f	-0.011823743
14	0x3cd80d8b	0.026373645
15	0x3e5441d3	0.20728235
16	0xbe8adc2d	-0.27121106
17	0x3d3e76f6	0.04650017
18	0xbe15a6fb	-0.14614479
19	0x3e8a2058	0.269778
20	0xbeb3a706	-0.35088366
21	0xbea0586c	-0.3131746
22	0x3d71c901	0.059029583
23	0x3e9d28c2	0.30695158
24	0x3cf34fcd	0.029701138
25	0xbd80fbf9	-0.0629806
26	0xbe165d76	-0.1468409
27	0x3e886147	0.26636717
28	0x3e8eab77	0.27865192
29	0xbc85ba01	-0.016324045
30	0xbe8d8ce6	-0.2764656
31	0xbdcf08e9	-0.10109121
32	0xbe92c960	-0.28669262
33	0xbe647e20	-0.22313738
34	0x3e729f04	0.23693472
35	0x3e02c46f	0.12770246
36	0x3e201e69	0.156366
37	0x3d28ece2	0.041241534
38	0xbe1cf5e5	-0.15328176
39	0x3aa3c580	0.0012494773
40	0xbe44003b	-0.19140713
41	0x3ead4148	0.33838868
42	0x3d19b9c8	0.03753069
43	0xbdc57c1f	-0.09642815
44	0x3b7346b0	0.003712099
45	0xbd847597	-0.06467741
46	0xbda2d1c5	-0.079501666
47	0x3da90786	0.08253388
48	0xbe11b70a	-0.1422998
49	0xbea404f1	-0.3203502
50	0xbcfac6d3	-0.030612385
51	0x3d4c42b7	0.04986831
52	0x3e83577b	0.2565268
53	0x3dea168b	0.11430081
54	0xbea439e5	-0.3207542
55	0x3c0f6454	0.008751947
56	0xbcabd82b	-0.0209771
57	0xbd3c65d4	-0.04599555
58	0xbea69cb9	-0.32541445
59	0xbdd7a5ef	-0.10529696
60	0x3e9262da	0.28591043
61	0x3e0e7461	0.13911583
62	0xbe31be92	-0.17357853
63	0xbe92b8cf	-0.28656623
64	0xbea869b9	-0.3289316
65	0xbe33422c	-0.17505711
66	0x3e8451d3	0.25843677
67	0xbe82db90	-0.25558138
68	0xbe9f8bc0	-0.31161308
69	0xbe2bef5a	-0.16790524
70	0x3dbaede8	0.09127408
71	0x3e01bad8	0.12668931
72	0x3e8c1446	0.27359217
73	0xbe03df52	-0.12878159
74	0x3e6ceb05	0.23136528
75	0xbe3e9b99	-0.18614043
76	0xbeb1a67f	-0.3469734
77	0x3c17af37	0.009258083
78	0xbea3684e	-0.31915516
79	0x3da2c4aa	0.07947667
80	0x3d03c29a	0.03216801
81	0x3e13c32c	0.14429921
82	0xbd838a1c	-0.06422827
83	0xbe0d4c9d	-0.13798757
84	0xbe605b5d	-0.21909852
85	0xbe914c6f	-0.28378627
86	0x3e0e0592	0.13869312
87	0x3e9a9c2e	0.3019728
88	0xbd986819	-0.0744173
89	0xbe549587	-0.20760165
90	0xbd700228	-0.058595806
91	0xbe442fda	-0.19158879
92	0x3e870fdc	0.26379287
93	0xbd8101e4	-0.06299189
94	0xbe804ce9	-0.25058678
95	0x3df0f1ca	0.117648676
96	0x3c192532	0.009347247
97	0x3cef726c	0.029229365
98	0x3c1b64cf	0.009484484
99	0x3b3f1fb1	0.0029163177
100	0xbda18bd3	-0.078879975
101	0xbd0b5de9	-0.034025107
102	0xbe1831a0	-0.1486268
103	0xbde0a8b3	-0.10969677
104	0xbc6d1c51	-0.014472083
105	0xbebd4ad1	-0.36971143
106	0x3d02d2ea	0.031939425
107	0xbdb81ed0	-0.08990252
108	0xbe82af3c	-0.25524318
109	0xbbd8ae60	-0.006612584
110	0x3d11a2b6	0.035555564
111	0x3aef3b85	0.0018251991
112	0xbeaf6d3e	-0.34263033
113	0x3cbc7d08	0.023008838
114	0xbe51f785	-0.20504577
115	0x3e9dab0c	0.3079456
116	0xbdf0c584	-0.11756423
117	0x3db45978	0.08806127
118	0x3e7dcfc9	0.24786295
119	0xbe89768d	-0.2684826
120	0x3eb17c37	0.3466508
121	0xbe9678d2	-0.29389054
122	0x3e3e5eab	0.185908
123	0x39a48114	0.00031376688
124	0xbd57be75	-0.05267187
125	0x3e83d1bc	0.25745952
126	0xbe2f17e1	-0.17098953
127	0xbe9d8be8	-0.30770802
128	0x3d23aa9a	0.03995762
129	0x3d4c3f5c	0.04986511
130	0xbeb783ac	-0.35842645
131	0x3dac37a4	0.0840905
132	0xbe7c3835	-0.24630816
133	0xbe946720	-0.28984928
134	0xbdd7d040	-0.105377674
135	0x3db108c9	0.08644254
136	0x3e1b870d	0.15188237
137	0xbcbbd140	-0.022926927
138	0xbe60d649	-0.21956743
139	0x3e0cf7cc	0.13766402
140	0x3bf1fa57	0.007384579
141	0xbe43f04c	-0.19134635
142	0x3e68141a	0.22663918
143	0xbe40e101	-0.18835832
144	0xbe1018a3	-0.14071898
145	0xbe16cb4b	-0.14725988
146	0x3e3897cc	0.18026656
147	0xbe8a4ff1	-0.27014115
148	0xbe531d1b	-0.20616572
149	0x3e996f1f	0.2996759
150	0x3e8f16da	0.27947122
151	0xbe07177d	-0.13192554
152	0xbe3c64e3	-0.1839786
153	0xbcbba0f9	-0.022903906
154	0x3e270c8e	0.16313383
155	0xbd150861	-0.036384944
156	0xbd5fe977	-0.05466601
157	0x3d2fe571	0.04294342
158	0xbe4ead1e	-0.20183226
159	0x3e40ee80	0.1884098
160	0xbe6abcd5	-0.22923596
161	0xbe86b109	-0.26306942
162	0x3deba464	0.115059644
163	0xbea24f4d	-0.31701127
164	0x3e7270be	0.2367582
165	0x3e0d3c28	0.13792479
166	0xbe545851	-0.20736815
167	0x3ea85688	0.32878518
168	0x3ddd449b	0.10804101
169	0x3ddccbe8	0.107810795
170	0xbde3a66b	-0.11115726
171	0x3e0e8da8	0.13921225
172	0x3dbec8b5	0.093156256
173	0xbddff8b9	-0.10936112
174	0x3e2c02b5	0.16797908
175	0x3e8ef89a	0.27924043
176	0xbe3e7d5f	-0.18602513
177	0x3dea26d3	0.114331864
178	0x3d075571	0.033040468
179	0x3e06f5dd	0.13179727
180	0xbd278272	-0.040895887
181	0xbe1ad017	-0.15118442
182	0xbe9e3329	-0.30898407
183	0x3dd97ef9	0.10619921
184	0x3dbd1e93	0.09234347
185	0xbcac9bb1	-0.021070333
186	0xbe520ab4	-0.20511895
187	0x3caa428c	0.020783685
188	0x3d806aa1	0.06270338
189	0xbea175e7	-0.31535265
190	0xbe371b5b	-0.17881529
191	0xbde6cfc7	-0.11270099
192	0x3e0c895e	0.13724276
193	0x3db9ace4	0.090661794
194	0x3e500800	0.20315552
195	0xbe76bb63	-0.2409492
196	0xbeb7ca9b	-0.35896763
197	0x3e60e27e	0.219614
198	0xbe4ffcd3	-0.20311289
199	0xbd1f52d8	-0.038897365
200	0xbb83bd88	-0.0040203966
201	0x3e9376ad	0.2880148
202	0x3cbb3b0a	0.0228553
203	0xbe5cd561	-0.21565773
204	0xbe13f18c	-0.14447612
205	0x3e6c450c	0.23073214
206	0x3e7d7621	0.24752094
207	0x3d34f109	0.04417518
208	0x3e7430cc	0.2384674
209	0x3ddb6ef0	0.10714519
210	0x3e286b68	0.16447222
211	0xbe42997e	-0.19003865
212	0xbd9e53f5	-0.07730857
213	0x3e626861	0.2211013
214	0xbe5bb94b	-0.21457402
215	0x3e4ca307	0.19984065
216	0xbdaa8b1d	-0.08327315
217	0xbd693013	-0.056930613
218	0x3e4bb445	0.19892986
219	0x3e45e8e0	0.19327116
220	0xbe8ee1f1	-0.27906755
221	0xbe9243f7	-0.28567478
222	0xbd9528b6	-0.072831556
223	0xbe87c70c	-0.26519048
224	0x3e756397	0.23963772
225	0x3e3f8f64	0.18707043
226	0x3e64d1a3	0.22345595
227	0x3da75a86	0.08171563
228	0x3c89937d	0.01679396
229	0xbe80d179	-0.25159815
230	0x3e4756fc	0.19466776
231	0x3e47e92f	0.19522546
232	0x3e7228e3	0.2364841
233	0x3e9c8944	0.30573475
234	0x3e8ed576	0.27897233
235	0xbcfef7c3	-0.031124001
236	0x3c0fbfb0	0.008773729
237	0xbe8e0bd8	-0.2774341
238	0x3e396c33	0.18107681
239	0x3dfc289d	0.12312434
240	0xbdab738c	-0.08371648
241	0xbd81763c	-0.063213795
242	0xbe771881	-0.24130441
243	0xbe5d6e76	-0.21624169
244	0x3e3b92f9	0.18317784
245	0xbe9d7807	-0.30755636
246	0x3c0146e1	0.007890434
247	0x3e79bfc5	0.2438956
248	0x3ead5202	0.3385163
249	0x3e314992	0.17313221
250	0xbe8a175c	-0.26970947
251	0xbdcbdc41	-0.099541195
252	0x3e02102e	0.12701485
253	0x3e5cbfe1	0.21557571
254	0x3ddfd41b	0.10929128
255	0xbe59fc8c	-0.21287745

weight_hh_l0 f4 [32, 8]
0	0x3dd590b5	0.10427991
1	0x3e3cd993	0.18442373
2	0xbea4a065	-0.3215362
3	0x3e9eb30c	0.30995977
4	0xbcfb9013	-0.030708348
5	0x3e4ba315	0.1988643
6	0x3e447358	0.19184625
7	0x3d439f53	0.047759365
8	0xbd8c2ad0	-0.06844103
9	0x3e959be3	0.29220495
10	0x3ea13dec	0.31492555
11	0x3e3602c9	0.177745
12	0xbeb0b0d1	-0.345099
13	0x3d415756	0.04720243
14	0xbe993d96	-0.299298
15	0xbe4d937c	-0.20075792
16	0x3ea785ad	0.32719174
17	0x3e67fc2e	0.22654793
18	0x3e1e33eb	0.15449493
19	0xbde51236	-0.11185114
20	0xbd918b80	-0.07106686
21	0xbdd9fa9a	-0.106435016
22	0x3e39d911	0.1814921
23	0xbd01c35f	-0.03168046
24	0xbe8f23b5	-0.2795693
25	0xbb4b061b	-0.003097898
26	0x3caf4323	0.021394318
27	0x3e8c0e4b	0.27354655
28	0xbe61e941	-0.22061636
29	0x3df32fda	0.11874361
30	0x3d9de2c2	0.07709266
31	0xbeaad10f	-0.33362624
32	0xbd927f4d	-0.07153187
33	0xbe81dc91	-0.2536359
34	0x3e1b8794	0.15188438
35	0x3e6910b4	0.22760278
36	0xbe44c89d	-0.19217153
37	0xbe90b806	-0.282654
38	0xbdb3c874	-0.08778468
39	0x3eacbd58	0.33738208
40	0xbc451419	-0.012028717
41	0xbd22e0c4	-0.039765134
42	0xbdc25931	-0.09489668
43	0xbea5af87	-0.3236048
44	0xbe63d9ab	-0.22251002
45	0xbea8e837	-0.32989666
46	0xbdbaaabb	-0.091145955
47	0xbea964ad	-0.33084622
48	0x3e2c409b	0.1682152
49	0x3e74b0b4	0.23895532
50	0x3e843225	0.25819507
51	0xbe9ade40	-0.30247688
52	0xbe73ced0	-0.23809361
53	0x3e0582c3	0.13038163
54	0x3e9d7dd5	0.30760065
55	0xbda1ff85	-0.079100646
56	0x3c9dd54b	0.019266745
57	0x3e8f376a	0.27971965
58	0xbea83e0e	-0.32859844
59	0xbe94b7b8	-0.29046416
60	0x3c381ac7	0.011236853
61	0x3e46af3a	0.19402781
62	0x3dc8e265	0.09808806
63	0x3e03c0cf	0.1286652
64	0x3eaf0667	0.34184572
65	0xbea8e266	-0.32985228
66	0xbe9d35e5	-0.3070518
67	0x3d1c3992	0.03814084
68	0x3e0c7691	0.13717104
69	0xbdce011d	-0.10058806
70	0x3e9f755f	0.31144235
71	0x3dca5545	0.09879545
72	0xbeb672fd	-0.35634604
73	0x3eb0f427	0.34561273
74	0xbdd8a17a	-0.10577674
75	0xbeb2c505	-0.3491594
76	0x3e839623	0.25700483
77	0x3e11e3e0	0.14247084
78	0x3e08f725	0.13375528
79	0x3dfe8b3f	0.12428903
80	0xbe64faaf	-0.22361253
81	0x3d9c9ba8	0.076468766
82	0x3e922c8b	0.2854961
83	0xbdfc6237	-0.123234205
84	0xbe7bb10e	-0.2457926
85	0xbe106e71	-0.1410463
86	0x3eacd50c	0.33756292
87	0xbe6db299	-0.23212661
88	0xb7cfa5ab	-2.4753468e-05
89	0xbbd40556	-0.0064703627
90	0xbe97ab4f	-0.29622886
91	0x3dcbe196	0.099551365
92	0xbe94f705	-0.2909471
93	0xbe7caccb	-0.2467529
94	0x3da8870f	0.082288854
95	0x3d101829	0.03517929
96	0x3e591c55	0.21202214
97	0xbe0ab470	-0.13545394
98	0x3e63dac3	0.2225142
99	0xbd54a823	-0.05191816
100	0xbd5c0df8	-0.05372426
101	0x3e5ca001	0.21545412
102	0xbd5fdbdd	-0.054653037
103	0xbcee58de	-0.02909511
104	0x3e1b785f	0.15182637
105	0xbe4037a3	-0.18771224
106	0x3e71e42b	0.23622195
107	0x3e7c3e58	0.24633157
108	0x3e306f41	0.1722994
109	0x3e1ce9e0	0.15323591
110	0x3d874ec4	0.0660682
111	0xbd8a5252	-0.067539826
112	0x3eafaa72	0.34309727
113	0x3bab7ed4	0.005233625
114	0xbe6c9007	-0.23101817
115	0x3c81b2e3	0.01583237
116	0x3cad53ba	0.021158088
117	0x3e095a27	0.13413297
118	0xbddcc019	-0.10778827
119	0xbeb47d46	-0.35251826
120	0x3e1d6274	0.15369588
121	0xbd595b06	-0.053065322
122	0x3ea01d45	0.3127233
123	0xbd791c5d	-0.060818065
124	0x3a21e02a	0.00061750656
125	0xbe251361	-0.16120674
126	0x3cbca0ad	0.023025835
127	0xbdcb7cbe	-0.09935902
128	0xbea000e5	-0.31250682
129	0x3e85d816	0.26141423
130	0x3e8b8c00	0.2725525
131	0x3d8de89f	0.069291346
132	0xbe0e50a1	-0.13897945
133	0x3d82bfa5	0.063842095
134	0xbd91bc3a	-0.071159795
135	0xbe61a826	-0.220368
136	0xbe74a14d	-0.23889656
137	0x3e574738	0.21023262
138	0x3c3df8ff	0.01159501
139	0xbe1d4d0b	-0.15361421
140	0xbe9cdf42	-0.30639082
141	0x3e78453f	0.24245165
142	0x3dbbd4a0	0.091714144
143	0xbe5601a6	-0.20899066
144	0xbc7e0d34	-0.015506078
145	0x3daf2a56	0.08552997
146	0x3d1a7054	0.03770478
147	0x3e6a527c	0.22883028
148	0x3da2bd45	0.079462565
149	0xbde9c531	-0.114145644
150	0x3e75bf0e	0.23998663
151	0xbde81910	-0.11332905
152	0xbe6651b2	-0.22492102
153	0xbc1955b3	-0.009358811
154	0xbe7df23e	-0.2479944
155	0xbe917ffe	-0.28417963
156	0x3dfb53d5	0.12271849
157	0xbd25f586	-0.040517353
158	0x3e8c605b	0.27417263
159	0xbe3bfd17	-0.18358265
160	0x3def6086	0.11688332
161	0x3e2c09dd	0.16800638
162	0xbe063ef8	-0.13109958
163	0x3d353e2e	0.044248752
164	0xbe45f43f	-0.19331454
165	0x3e3b42b8	0.1828717
166	0x3eb395c9	0.35075215
167	0xbd3c83f8	-0.046024293
168	0xbe8063ba	-0.25076085
169	0xbdb1c78e	-0.0868064
170	0x3cf37c0d	0.029722238
171	0x3eb01e5b	0.3439816
172	0xbe490721	-0.19631626
173	0x3eac147d	0.3360938
174	0x3ea52463	0.32254323
175	0xbe089ca0	-0.13340998
176	0xbe2fe126	-0.17175731
177	0x3e473553	0.19453935
178	0x3ea90af4	0.3301617
179	0x3e6aa177	0.22913156
180	0xbe57c4bd	-0.21071143
181	0xbc955c60	-0.018232524
182	0xbe979b0c	-0.2961048
183	0xbd992064	-0.07476881
184	0x3e69501b	0.22784464
185	0x3e4e3d22	0.20140508
186	0xbe226804	-0.15859991
187	0xbd6c663d	-0.05771469
188	0xbe37393b	-0.17892925
189	0xbe82aa1c	-0.25520408
190	0x3c19daf4	0.009390581
191	0x3e6d33d1	0.23164298
192	0xbc0affe2	-0.008483859
193	0xbd913470	-0.0709008
194	0x3b458757	0.0030140483
195	0xbe491849	-0.1963817
196	0xbd436c34	-0.047710612
197	0x3e4e8e79	0.20171537
198	0x3e90802d	0.2822279
199	0xbe8d31b0	-0.2757697
200	0x3ea26588	0.31718087
201	0xbddf3462	-0.10898663
202	0x3dc336f7	0.09531968
203	0xbe898bdb	-0.26864514
204	0x3d2379fc	0.039911255
205	0xbe4f4be4	-0.20243794
206	0x3dbcee07	0.092250876
207	0x3eb40f9d	0.35168162
208	0x3e019f9e	0.12658545
209	0xbe915b6c	-0.28390062
210	0xbeb39355	-0.35073343
211	0xbe184ca0	-0.1487298
212	0xbe8d0f28	-0.27550626
213	0xbea7aca1	-0.32748893
214	0x3e4ec9d2	0.20194176
215	0xbeaa262b	-0.33232245
216	0xbeafcaa0	-0.34334278
217	0x3e19862a	0.14992586
218	0xbbc50ed7	-0.006013732
219	0x3e360a75	0.17777427
220	0xbd12abc0	-0.035808325
221	0xbeb55f8b	-0.35424456
222	0x3dd0b3ce	0.10190545
223	0x3e16dd03	0.14732747
224	0x3dfa5f52	0.12225212
225	0xbd5713b4	-0.052509025
226	0xbda31eaf	-0.07964837
227	0x3d984147	0.07434326
228	0x3e659fb2	0.224242
229	0x3d39f6b2	0.045401283
230	0x3dd3336d	0.10312543
231	0xbe2e9e29	-0.17052521
232	0x3e671bca	0.22569194
233	0xbe93dd9c	-0.28880012
234	0xbe3ba096	-0.18322977
235	0xbe859189	-0.26087597
236	0xbeaea664	-0.3411132
237	0x3e99cd3d	0.30039397
238	0xbe686457	-0.22694527
239	0xbe340195	-0.17578728
240	0x3e5b78fe	0.21432874
241	0xbe769419	-0.24079932
242	0xbe4e539f	-0.20149086
243	0x3e5b272c	0.21401662
244	0xbd9f89d4	-0.077899605
245	0xbe739533	-0.23787384
246	0x3e0b9c34	0.13633806
247	0xbdf225b0	-0.118235946
248	0x3d5121c7	0.051057603
249	0xbe336d27	-0.17522107
250	0x3c13e66d	0.009027106
251	0xbe4904ad	-0.1963069
252	0xbea4e62a	-0.3220685
253	0x3e9ffe3b	0.3124865
254	0xbe31f3dd	-0.17378183
255	0x3df5c95c	0.12001297

bias_ih_l0 f4 [32]
0	0xbe9c1ba7	-0.30489847
1	0x3e3eca1a	0.18631783
2	0xbda0a567	-0.07844048
3	0x3e1951ef	0.14972661
4	0x3dc006ac	0.093762726
5	0x3dcfc967	0.10145836
6	0x3e78681c	0.24258465
7	0x3d73f3bc	0.059558615
8	0x3c95575f	0.018230138
9	0xbe15956e	-0.14607784
10	0x3e8bdc9e	0.27316755
11	0x3e0d4944	0.1379748
12	0x3ead3a29	0.33833435
13	0x3d95fcfa	0.07323642
14	0x3e91bb31	0.28463128
15	0x3e4eb62e	0.20186684
16	0x3eaaa693	0.3333021
17	0x3e95151f	0.29117677
18	0x3d848871	0.06471337
19	0x3d9ce972	0.07661714
20	0x3ea2bed2	0.3178621
21	0x3e1ee120	0.15515566
22	0x3e2a0777	0.1660441
23	0xbdd6dbfb	-0.10491177
24	0x3dc38feb	0.095489345
25	0xbdbc5978	-0.09196752
26	0x3b8a481b	0.0042200214
27	0xbe74cd88	-0.23906529
28	0xbe8cc949	-0.27497318
29	0xbe522d64	-0.20525128
30	0xbcdcd6a8	-0.026957825
31	0xbde47f60	-0.11157107

bias_hh_l0 f4 [32]
0	0x3e74cd9a	0.23906556
1	0xbe959a61	-0.29219344
2	0x3e4db3c5	0.20088108
3	0xbe5f72bc	-0.21821111
4	0xbe4053bc	-0.18781942
5	0x3c1d2718	0.00959184
6	0xbe9aac97	-0.302098
7	0x3db8b156	0.09018199
8	0xbe02f34f	-0.12788127
9	0xbe3fd7a3	-0.18734603
10	0xbda0d4cc	-0.07853088
11	0xbe860bec	-0.2618097
12	0xbd80ac5a	-0.062828735
13	0x3e9d483c	0.30719173
14	0x3daa61a4	0.08319405
15	0x3ea78731	0.3272033
16	0x3def01ef	0.11670291
17	0x3c6083d0	0.013703302
18	0xbeb18633	-0.34672698
19	0x3e90dafa	0.28292066
20	0x3e127b97	0.14304958
21	0x3e3d6391	0.18495013
22	0x3c53de45	0.012931411
23	0x3d1bdb05	0.03805067
24	0x3e9405ad	0.2891058
25	0xbdb6dc1e	-0.08928703
26	0x3e107601	0.14107515
27	0x3e7dca11	0.24784113
28	0xbd756cbc	-0.05991815
29	0x3ca00ef1	0.019538375
30	0x3e94cd2e	0.2906279
31	0xbd1654dc	-0.036702022

weight_ih_l1 f4 [32, 8]
0	0x3ddfdb73	0.109305285
1	0x3dd0a89c	0.1018841
2	0xbe9475f7	-0.2899625
3	0x3de41320	0.1113646
4	0x3ea401d4	0.32032645
5	0x3e2911c8	0.1651069
6	0xbe43616d	-0.19080134
7	0x3d79c900	0.060982704
8	0x3d91a3b4	0.07111302
9	0x3e58b031	0.21160962
10	0x3d19a8fa	0.037514664
11	0x3e414b16	0.188763
12	0x3b378e3f	0.002800837
13	0x3df48476	0.119393274
14	0x3e200e7f	0.1563053
15	0x3dde5bdf	0.10857367
16	0x3e8435d8	0.2582233
17	0x3c3565f2	0.011071669
18	0xbe7ba98d	-0.24576397
19	0x3e256eeb	0.16155593
20	0xbe17dd72	-0.14830568
21	0x3d351a38	0.044214457
22	0xbdaf8e72	-0.08572091
23	0xbe2fc32d	-0.17164297
24	0xbe82dcba	-0.25559026
25	0x3ded5119	0.11587734
26	0xbe027fda	-0.12744084
27	0x3ead9fd1	0.33910993
28	0xbe501804	-0.20321661
29	0x3de1c6c9	0.110242434
30	0xbca00018	-0.019531295
31	0x3d1bf20f	0.038072642
32	0x3b67b22c	0.0035354001
33	0x3e0d1ede	0.13781306
34	0xbe91f13d	-0.28504363
35	0xbea60992	-0.32429177
36	0xbdaa564a	-0.083172396
37	0xbea606e5	-0.32427135
38	0xbe87a696	-0.26494282
39	0x3e074f14	0.1321376
40	0xbe12db94	-0.14341575
41	0xbe94aa27	-0.29036066
42	0xbe3a5314	-0.18195754
43	0xbd5077c9	-0.050895486
44	0x3e1a3a15	0.15061219
45	0xbe034d13	-0.1282237
46	0x3d730f71	0.059340898
47	0xbe6da8e3	-0.23208956
48	0xbe0d2c10	-0.1378634
49	0x3be088a5	0.006852227
50	0xbdd620f8	-0.10455507
51	0xbe1148b2	-0.14187887
52	0x3ea82dd6	0.3284747
53	0xbe4b5a32	-0.19858626
54	0x3e94c669	0.29057625
55	0x3e56ed7f	0.20989035
56	0x3e9201bf	0.28516957
57	0x3e872d43	0.2640172
58	0x3ea79f18	0.32738566
59	0xbeae54bd	-0.34049025
60	0xbe679982	-0.22617152
61	0xbe8cc6d3	-0.2749544
62	0xbe385ef8	-0.18004978
63	0x3de446a9	0.1114629
64	0x3e170ea3	0.14751677
65	0x3eab97b0	0.33514166
66	0x3ccb7134	0.024834253
67	0xbd1eae6e	-0.038740568
68	0xbe4a5278	-0.19758022
69	0x3dd92295	0.10602299
70	0x3dafe1cc	0.08587989
71	0xbe7184e5	-0.23585851
72	0xbd6bbe11	-0.05755431
73	0xbe9ffccc	-0.31247556
74	0xbe3814a3	-0.17976622
75	0x3e7b1d18	0.24522817
76	0xbeac59ed	-0.33662358
77	0xbe9b3dbd	-0.3032054
78	0xbe298cf3	-0.16557674
79	0x3e429b19	0.19004478
80	0xbe9ab6fe	-0.30217737
81	0x3e2263c8	0.15858376
82	0x3ea6f280	0.32606888
83	0x3eac4571	0.3364673
84	0xbeb42afa	-0.3518904
85	0x3e9aee38	0.3025987
86	0x3eaf4f8d	0.3424038
87	0x3e00b06c	0.125673
88	0xbea59ce9	-0.32346275
89	0x3e81b59a	0.25333863
90	0x3d58b1fd	0.052904118
91	0x3e84b594	0.25919783
92	0xbe0f3a21	-0.13987018
93	0x3c26ec87	0.010188228
94	0x3dbd4f53	0.092436455
95	0xbd7c1ee2	-0.06155289
96	0x3e079aeb	0.1324269
97	0xbd9774b1	-0.07395304
98	0xbe2e0abf	-0.16996287
99	0x3cb22943	0.02174819
100	0xbb9b755e	-0.004744216
101	0xbe913a83	-0.28364953
102	0x3c096ad9	0.008387291
103	0xbe9c8030	-0.3056655
104	0xbd55a1fb	-0.05215643
105	0xbded91db	-0.11600085
106	0x3ea40f6b	0.32043013
107	0x3e8aa714	0.27080595
108	0xbe04b63f	-0.12960146
109	0x3ea8e681	0.3298836
110	0xbe5c4d49	-0.21513857
111	0x3ceb78e6	0.028744172
112	0xbea331c3	-0.31873903
113	0x3e83b149	0.25721195
114	0x3e0bb133	0.13641815
115	0xbe843fbb	-0.25829872
116	0xbe9a0b49	-0.30086735
117	0x3e235169	0.15949024
118	0x3dfd47b3	0.12367191
119	0xbe2375f8	-0.1596297
120	0xbe33c7d6	-0.175567
121	0xbeab13db	-0.33413586
122	0xbe2e9295	-0.17048104
123	0x3e960254	0.2929865
124	0x3ea6b2e6	0.32558364
125	0xbc13bab6	-0.009016683
126	0xbe4c1b00	-0.19932175
127	0x3e87665a	0.26445276
128	0xbe02b767	-0.12765275
129	0xbde9c097	-0.11413687
130	0x3e7f8e0e	0.24956533
131	0xbe97050b	-0.29496035
132	0x3e97c8f3	0.296455
133	0x3e19756c	0.14986199
134	0xbe8a19af	-0.2697272
135	0xbe810fe3	-0.25207433
136	0xbea9d052	-0.33166748
137	0xbe4b289f	-0.19839714
138	0xbc21ed83	-0.009883287
139	0xbea5f9ce	-0.32417148
140	0x3e82e6e1	0.25566772
141	0x3eabfd61	0.3359175
142	0x3e6babf8	0.2301482
143	0x3e474e07	0.19463359
144	0xbdcb337d	-0.0992193
145	0x3e4b91be	0.19879815
146	0x3e77c8c1	0.24197675
147	0xbe36d791	-0.1785567
148	0xbe956266	-0.29176635
149	0x3e037955	0.12839253
150	0x3da63137	0.08114856
151	0x3e5a039c	0.2129044
152	0xbea67468	-0.32510686
153	0x3e3b1737	0.18270575
154	0x3e9a2541	0.30106547
155	0xbe2188d0	-0.15774846
156	0x3da142b3	0.0787405
157	0x3eb44358	0.3520763
158	0xbdec6376	-0.11542408
159	0x3dd0f78d	0.102034666
160	0x3e261d64	0.16222149
161	0x3e9a7baa	0.30172473
162	0x3ea0335d	0.31289187
163	0x3d1fb26f	0.038988527
164	0x3cce6113	0.025192773
165	0x3e84b401	0.25918582
166	0xbdc746fe	-0.097303376
167	0x3e836070	0.25659513
168	0xbe3758e4	-0.17905003
169	0x3e97f8d2	0.29682022
170	0x3dd33a3c	0.10313842
171	0x3e27d093	0.16388159
172	0xbe3fae52	-0.18718842
173	0xbdfed35f	-0.124426596
174	0x3d380c75	0.044933755
175	0xbead4c7e	-0.3384742
176	0xbe88db2c	-0.26729715
177	0x3e6c1e61	0.23058464
178	0xbd6301a0	-0.05542147
179	0xbdf84e27	-0.121242814
180	0x3dd425a0	0.10358739
181	0x3e9ad900	0.30243683
182	0x3dec556c	0.115397304
183	0xbeae5c1d	-0.34054652
184	0x3e15bb8b	0.14622323
185	0xbe612dab	-0.21990077
186	0xbe56a255	-0.20960362
187	0xbc81c7aa	-0.015842278
188	0xbdf837c4	-0.121200114
189	0x3d8e4234	0.06946221
190	0xbe899d83	-0.26877984
191	0xbe56f773	-0.20992832
192	0x3e689268	0.227121
193	0x3eac468e	0.3364758
194	0xbe209275	-0.15680869
195	0x3d28552a	0.041096844
196	0x3e9f7885	0.31146637
197	0xbe72b85c	-0.2370314
198	0x3e9c2cab	0.3050283
199	0xbba3fe36	-0.0050046695
200	0x3df13630	0.117779136
201	0xbe4c4499	-0.19948043
202	0xbe71bf3e	-0.2360811
203	0x3e0865cc	0.13320082
204	0xbe886b45	-0.2664434
205	0x3eaf28d1	0.34210828
206	0xbd8546dc	-0.06507656
207	0xb97f119c	-0.00024325255
208	0xbeafb2aa	-0.34315997
209	0x3bdd6d76	0.0067574335
210	0x3daa9620	0.08329415
211	0xbe888563	-0.26664266
212	0xbea2ca3a	-0.31794912
213	0x3c5c8185	0.013458614
214	0x3e87b9f8	0.2650907
215	0xbe9083ee	-0.28225654
216	0xbe8bd3a0	-0.27309895
217	0x3d8a15f9	0.06742472
218	0xbc4c693d	-0.012476263
219	0x3ea5bfc6	0.32372874
220	0x3e20e3ec	0.15711945
221	0xbe75a902	-0.23990253
222	0xbd5df194	-0.054185465
223	0x3e8692de	0.26283926
224	0x3e4d6d1b	0.20061152
225	0x3df4a2a0	0.11945081
226	0x3e98de6d	0.29857197
227	0xbd904753	-0.07044854
228	0xbe8f1096	-0.27942342
229	0xbe6115ea	-0.21981016
230	0x3dbe98c2	0.0930648
231	0x3ea3d2da	0.31996804
232	0xbe470529	-0.19435562
233	0xbdf4748d	-0.11936293
234	0xbe43eb99	-0.19132842
235	0xbea4d75d	-0.3219556
236	0x3cbc1629	0.022959786
237	0x3ce8f3c4	0.028436549
238	0x3eb0eb0f	0.34554335
239	0xbe8a117d	-0.26966467
240	0xbd97e3fa	-0.0741653
241	0xbd64cb6d	-0.055858064
242	0xbd60fddd	-0.054929603
243	0xbe621923	-0.22079901
244	0xbd701c55	-0.05862077
245	0x3ea27c4d	0.3173546
246	0xbdd38429	-0.10327942
247	0x3ea0a45f	0.31375405
248	0xbe38ee46	-0.18059644
249	0x3e4f0227	0.20215665
250	0x3d845b07	0.064626746
251	0xbe5f4785	-0.21804626
252	0x3e04926a	0.12946478
253	0x3c987851	0.018612059
254	0x3ea1abbe	0.3157634
255	0xbd229942	-0.03969694

weight_hh_l1 f4 [32, 8]
0	0x3dfb74ab	0.12278112
1	0x3df9cfbd	0.12197826
2	0xbe12e447	-0.14344893
3	0xbdca7928	-0.0988639
4	0xbe2dc5a3	-0.16969924
5	0x3e37743d	0.17915435
6	0xbeb61b19	-0.3556755
7	0x3d26cc2f	0.04072207
8	0x3ddbd619	0.10734195
9	0x3dd933de	0.10605596
10	0x3e2e2778	0.17007244
11	0x3d68424f	0.05670386
12	0x3e9b0187	0.30274603
13	0xbe7c2891	-0.2462485
14	0xbe6f3cce	-0.23363039
15	0x3db43000	0.08798218
16	0x3ea092d7	0.3136203
17	0xbe9e3b35	-0.30904546
18	0x3db3dc19	0.08782215
19	0xbe9922ce	-0.29909366
20	0x3e9a4dce	0.30137485
21	0x3e587696	0.21138987
22	0xbe013c94	-0.12620765
23	0xbe5a30dd	-0.21307702
24	0xbe7e649e	-0.2484307
25	0x3e874562	0.26420122
26	0x3ea7eed7	0.32799408
27	0x3d86cc09	0.06581885
28	0x3e0ec395	0.13941796
29	0xbe9ce5ee	-0.30644172
30	0xbe0ad199	-0.13556518
31	0xbc105d5b	-0.00881132
32	0xbeac3c68	-0.33639836
33	0xbe843066	-0.25818175
34	0x3e158098	0.14599836
35	0xbe10c180	-0.14136314
36	0x3d6d4e17	0.0579358
37	0x3e536855	0.20645268
38	0x3dd5435a	0.10413237
39	0x3e947d91	0.2900205
40	0xbdf7309c	-0.120698184
41	0xbd9e0ff4	-0.077178866
42	0xbc08de62	-0.008353801
43	0xbe4dcd73	-0.20097904
44	0x3ce00901	0.027348043
45	0x3e98d045	0.29846397
46	0xbe35583d	-0.17709441
47	0x3ea24e49	0.31700352
48	0x3e4198c6	0.18905935
49	0xbdc73823	-0.09727504
50	0xbe356b13	-0.17716627
51	0xbe36f3f8	-0.17866504
52	0xbeadd00e	-0.33947796
53	0xbe15ba2c	-0.146218
54	0x3e3f6292	0.18689945
55	0x3e4611e7	0.19342767
56	0xbcc4ebe7	-0.024038268
57	0xbdcb601a	-0.09930439
58	0xbeb14bcb	-0.34628138
59	0xbd06bd80	-0.032895565
60	0xbeacf3fc	-0.33779895
61	0xbeaaa06d	-0.3332552
62	0x3e34250a	0.17592254
63	0x3e77be92	0.2419379
64	0x3d545fa6	0.05184903
65	0x3d3829de	0.044961803
66	0xbcb29b4c	-0.021802567
67	0xbeb6a0ca	-0.35669547
68	0x3ddbd0d9	0.10733194
69	0xbe57c569	-0.210714
70	0xbbb85686	-0.005625549
71	0xbe97af53	-0.2962595
72	0xbe4f5009	-0.20245375
73	0x3e1687a4	0.1470018
74	0x3e1aa54a	0.15102115
75	0xbd634a67	-0.055490877
76	0x3e536328	0.20643294
77	0xbeae997d	-0.34101477
78	0xbe0b0a3e	-0.13578126
79	0x3d83f050	0.0644232
80	0x3e1ec3e2	0.15504411
81	0xbe89ac1f	-0.2688913
82	0x3dba50d2	0.090974465
83	0x3e7b51e9	0.24542965
84	0x3d006097	0.031342115
85	0xbe84c262	-0.25929552
86	0x3e82a002	0.255127
87	0x3db4572e	0.08805691
88	0xbe4b4016	-0.19848666
89	0x3e31cbd0	0.17362905
90	0xbe4bb022	-0.19891408
91	0x3e9f2b33	0.31087646
92	0x3d58411d	0.052796472
93	0xbe07f322	-0.13276342
94	0xbe531c1c	-0.20616192
95	0xbe7d128d	-0.24714108
96	0x3dab6068	0.083679974
97	0xbd9f3bcf	-0.077750795
98	0x3e4966bd	0.19668098
99	0xbe78e166	-0.24304733
100	0x3cd56902	0.026051048
101	0xbd9812df	-0.074254744
102	0xbe1bad75	-0.15202887
103	0x3e469ffe	0.1939697
104	0x3e09e4ce	0.13466188
105	0x3e5ccb04	0.2156182
106	0xbe90aed1	-0.28258374
107	0xbce9ccef	-0.028540103
108	0xbea30c6c	-0.31845415
109	0x39b0a173	0.00033689625
110	0xbd77f602	-0.060537346
111	0x3d8ccf5a	0.06875487
112	0xbeb86b18	-0.36019206
113	0x3d51378d	0.051078368
114	0x3e6e8535	0.23293002
115	0x3dda82cf	0.10669481
116	0x3c4ae50a	0.012383709
117	0x3e824772	0.25445133
118	0x3d544ece	0.051832967
119	0xbdcc517a	-0.09976478
120	0x3db4416c	0.08801541
121	0x3e5de499	0.21669234
122	0xbdc629cf	-0.09675943
123	0xbe85c479	-0.2612646
124	0x3eb02b02	0.34407812
125	0x3e5528cd	0.20816346
126	0xbdec2cd6	-0.11531989
127	0x3d9f8673	0.07789316
128	0xbe8a468c	-0.27006948
129	0xbe257f64	-0.16161877
130	0xbe2ad714	-0.16683608
131	0x3e1c6f38	0.15276802
132	0x3e933df9	0.2875822
133	0x3e638513	0.22218733
134	0x3e4e6deb	0.20159118
135	0x3d200f72	0.03907723
136	0xbeb5d2fa	-0.35512525
137	0x3e879d1b	0.2648705
138	0xbe94b6f3	-0.2904583
139	0x3eb6de65	0.3571655
140	0x3e8d6969	0.27619484
141	0xbe022ab2	-0.127116
142	0x3e37a074	0.17932302
143	0xbe9c0cdf	-0.3047857
144	0x3e84f23d	0.25966063
145	0xbe088514	-0.13332015
146	0x3e92db9e	0.2868318
147	0xbce377b2	-0.027767036
148	0xbe993ece	-0.2993073
149	0xbe0822fc	-0.13294595
150	0xbd29cd24	-0.041455403
151	0x3e41ad96	0.18913874
152	0x3dfb3fa1	0.122679956
153	0x3e8efbb7	0.27926418
154	0x3eb0c107	0.34522268
155	0x3e84de96	0.2595107
156	0x3e350d67	0.17680894
157	0x3e0f3824	0.1398626
158	0xbe824d1b	-0.25449452
159	0xbe9d96f6	-0.30779237
160	0xbdba9309	-0.09110076
161	0x3e7a4420	0.2444005
162	0xbcb4bf11	-0.022063764
163	0x3e4c313e	0.1994066
164	0xbde7025a	-0.112797454
165	0xbe020080	-0.12695503
166	0xbe490e16	-0.1963428
167	0xbe8162c1	-0.25270656
168	0x3eade10f	0.3396077
169	0x3e5b7bb5	0.21433909
170	0x3d1b2f65	0.037886996
171	0x3eae0b1a	0.33992845
172	0xbe600e3d	-0.21880431
173	0xbd8072ce	-0.06271897
174	0x3debb822	0.1150973
175	0xbe2a7665	-0.16646726
176	0x3e0bea10	0.13663507
177	0xbe925170	-0.28577757
178	0x3e18de7f	0.14928626
179	0xbe369b6e	-0.17832729
180	0xbea4072b	-0.3203672
181	0xbe12cae4	-0.14335209
182	0xbea6d18d	-0.3258175
183	0x3d90c521	0.07068849
184	0x3dc7db33	0.09758606
185	0xbe4bb066	-0.1989151
186	0xbdada997	-0.08479612
187	0xbea9c3db	-0.33157238
188	0x3e725858	0.23666513
189	0xbeabd378	-0.33559775
190	0x3e5e8f91	0.21734454
191	0xbe2f5250	-0.17121243
192	0x3df88ce3	0.12136247
193	0x3e7bf65d	0.24605699
194	0x3da318cb	0.07963713
195	0x3de937e5	0.11387614
196	0x3e118d73	0.14214115
197	0xbeabc45d	-0.3354825
198	0x3e9c0432	0.3047195
199	0xbdb4394f	-0.08799993
200	0x3c8edfd4	0.017440714
201	0xbe8eaa5c	-0.2786435
202	0x3cc24594	0.023714818
203	0x3d95501a	0.07290669
204	0x3ea0762b	0.31340155
205	0xbe91e80c	-0.2849735
206	0x3e1f9b8f	0.15586685
207	0xbe4fdfd8	-0.20300233
208	0x3c7f6ae0	0.015589446
209	0x3adf71ab	0.0017047425
210	0x3d5e371f	0.054251786
211	0xbe892b2a	-0.26790744
212	0x3e4a1649	0.19735064
213	0xbeb12a45	-0.34602562
214	0xbe7ab107	-0.24481593
215	0xbe8e87b7	-0.27837917
216	0xbe9d922c	-0.30775583
217	0x3e6aa303	0.22913747
218	0xbea89f6b	-0.32934126
219	0xbe7d9197	-0.2476257
220	0x3e92e983	0.2869378
221	0xbd32feb2	-0.043699928
222	0xbe80154a	-0.25016242
223	0x3e8a85d6	0.27055234
224	0x3cfcd9e9	0.030865626
225	0xbe6f16c4	-0.23348528
226	0xbc37f898	-0.011228703
227	0xbdfe85ab	-0.12427839
228	0xbe615157	-0.22003685
229	0x3dc9d94d	0.098559
230	0x3dcad667	0.09904175
231	0x3eb1192c	0.34589517
232	0xbc5be4b9	-0.013421231
233	0xbde2ba92	-0.11070742
234	0x3e5e2a66	0.21695861
235	0x3a5ed127	0.0008499794
236	0x3d0f9811	0.03505713
237	0xbe85658f	-0.26054046
238	0xbe9e4b71	-0.30916932
239	0xbce02e09	-0.027365701
240	0x3e0b157c	0.13582414
241	0x3e1ab2ad	0.15107222
242	0xbe8f55fb	-0.27995285
243	0x3e7a0207	0.24414836
244	0x3ea0effe	0.314331
245	0xbd87763a	-0.06614347
246	0xbcb9d774	-0.022685744
247	0xbe12e3de	-0.14344737
248	0x3dd26c42	0.10274555
249	0xbe5b13d6	-0.21394286
250	0x3e572683	0.21010785
251	0x3d7959fb	0.060876828
252	0xbea472eb	-0.32118925
253	0xbdfb9e41	-0.12286044
254	0xbe42d617	-0.19026981
255	0x3e9fec14	0.312348

bias_ih_l1 f4 [32]
0	0x3e837857	0.2567775
1	0x3e9b931c	0.30385673
2	0xbca407bb	-0.020023217
3	0xbe8c845a	-0.27444726
4	0x3e957de3	0.29197606
5	0x3e52fd40	0.2060442
6	0xbe7f75e9	-0.24947323
7	0xbe1ddd1e	-0.15416381
8	0x3da187da	0.0788724
9	0x3e8a0223	0.26954755
10	0xbe9744bd	-0.2954463
11	0xbc8c2030	-0.017105192
12	0x3e577ac6	0.21042928
13	0x3df51f12	0.11968817
14	0xbe82c9d2	-0.25544602
15	0xbdd16ce8	-0.1022585
16	0xbd777962	-0.060418494
17	0xbe9f0dca	-0.31065208
18	0x3eaa36d3	0.33244953
19	0xbe808007	-0.25097677
20	0x3e956548	0.29178834
21	0x3dc7ce43	0.09756138
22	0x3d88a4ba	0.06672044
23	0x3e9cc2fa	0.30617505
24	0x3e387d7f	0.18016623
25	0xbe3ae5e8	-0.18251765
26	0x3e95ac45	0.29232994
27	0x3b760676	0.0037540472
28	0xbe95e413	-0.2927557
29	0x3dc8994a	0.097948626
30	0x3d49b6e9	0.049246702
31	0x3eb72679	0.3577154

bias_hh_l1 f4 [32]
0	0xbe9a3b60	-0.30123425
1	0xbd2f284c	-0.04276304
2	0x3e60ccfc	0.21953195
3	0x3e60984e	0.219331
4	0x3dcbe3e1	0.09955574
5	0xbeb140b1	-0.34619668
6	0xbda27ef5	-0.079343714
7	0xbd0b32f1	-0.03398413
8	0x3e2b2e65	0.16716917
9	0xbeafc384	-0.34328854
10	0xbe95a499	-0.2922714
11	0xbe02d0b4	-0.12774926
12	0xbe5fcec7	-0.21856223
13	0xbd82d8a8	-0.0638898
14	0xbe121549	-0.14265932
15	0x3e647a76	0.2231234
16	0x3e876e43	0.2645131
17	0xbdef3044	-0.11679128
18	0x3d97d250	0.07413161
19	0xbe97d334	-0.29653323
20	0x3e7ce550	0.24696851
21	0xbeb2aff8	-0.34899879
22	0xbe150d4c	-0.14555854
23	0x3e059bd7	0.1304773
24	0x3d91f7f4	0.071273714
25	0x3e6258bd	0.22104163
26	0x3de23835	0.11045877
27	0xbd9d5531	-0.076822646
28	0x3e1ffb17	0.15623127
29	0xbe011f65	-0.12609632
30	0xbd4fcf7a	-0.050734974
31	0xbcd57a79	-0.026059376

weight f4 [1, 8]
0	0x3e839dd5	0.25706354
1	0xbe87c992	-0.26520973
2	0xbe052bca	-0.13004985
3	0x3d93f831	0.07225073
4	0xbdd4f0a4	-0.10397461
5	0xbe3c7437	-0.18403707
6	0x3e5fdedf	0.21862362
7	0x3dc7045a	0.09717627
