competition/result/lstm2layer/trained_model/all_model/actor_num_epoch_2.pth (torch, 12542 bytes, 9 tensors)

weight_ih_l0 f4 [40, 11]
0	0xbe1bbcd6	-0.15208754
1	0xbe8d2f1c	-0.27575004
2	0xbce883c2	-0.02838314
3	0xbcca8518	-0.024721667
4	0xbe99a568	-0.30009007
5	0x3d220589	0.03955606
6	0xbe6a9d13	-0.22911482
7	0xbe150d03	-0.14555745
8	0x3e870665	0.26372066
9	0x3e74e981	0.239172
10	0x3e684ff7	0.22686754
11	0x3e03265d	0.12807603
12	0xbe7d60a3	-0.24743895
13	0x3e8caff5	0.27477995
14	0xbbb160d8	-0.005413156
15	0xbe2bfe36	-0.16796193
16	0x3e7f4c42	0.24931434
17	0xbe1d2573	-0.15346317
18	0x3e7c321d	0.24628492
19	0x3e3bc08d	0.18335171
20	0x3d7280d3	0.059204888
21	0xbe21775c	-0.15768188
22	0x3e3723d7	0.17884766
23	0xbe87a404	-0.26492321
24	0xbe8fcce3	-0.28086004
25	0x3cc1e1fc	0.023667328
26	0x3deeb5ba	0.11655755
27	0xbe5dff60	-0.21679449
28	0x3e56742f	0.20942758
29	0x3d43c7e9	0.04779807
30	0x3d6a1ec0	0.05715823
31	0xbc7f595d	-0.015585271
32	0x3d18de9a	0.037321664
33	0x3e9d53f1	0.30728105
34	0x3e9cc762	0.30620867
35	0x3e28aa24	0.16471153
36	0xb984a1a7	-0.00025297442
37	0xbe8d2145	-0.27564445
38	0xbde16bc2	-0.11006881
39	0xbe8fa437	-0.28054973
40	0xbea1a3c9	-0.3157027
41	0x3e2edc9f	0.17076348
42	0xbe6aeba3	-0.22941451
43	0x3cfafc88	0.030637994
44	0x3e5fa4ce	0.21840212
45	0xbe9d6ce1	-0.3074713
46	0xbd8463aa	-0.06464322
47	0x3df3a3ff	0.11896514
48	0xbe83d9db	-0.25752148
49	0xbe28d0fc	-0.16485971
50	0x3d8d0236	0.06885187
51	0xbe94f461	-0.29092696
52	0x3e5a9ad6	0.21348128
53	0xbe92d993	-0.2868162
54	0xbdf56a76	-0.119831964
55	0x3e30b68b	0.17257135
56	0x3e9413b1	0.28921273
57	0xbe84cd84	-0.25938046
58	0x3e66bd63	0.22533183
59	0x3d135b80	0.035975933
60	0x3e8a7c66	0.27048033
61	0x3e4015e2	0.18758348
62	0x3e0b29f4	0.13590223
63	0x3cfd75ee	0.030940022
64	0xbd55e5b7	-0.052221026
65	0xbe565d0e	-0.20933935
66	0xbe0a1537	-0.13484655
67	0xbe7563ac	-0.23963803
68	0x3e264610	0.16237664
69	0x3b6e2d23	0.0036342822
70	0xbc2bbe4f	-0.010482385
71	0xbd06ab27	-0.032878067
72	0x3d9316fc	0.07182118
73	0x3e90615d	0.28199282
74	0x3d0743eb	0.033023756
75	0xbdc6a2d3	-0.09699025
76	0x3e5df407	0.2167512
77	0xbe33859e	-0.1753144
78	0x3e9a5bdc	0.30148208
79	0xbdf17f9e	-0.11791919
80	0x3daafd05	0.08349041
81	0x3d9a704e	0.07540952
82	0xbba3ec0e	-0.005002505
83	0xbe9c542e	-0.30532974
84	0x3ddd2412	0.107978955
85	0x3d40f654	0.047109917
86	0x3e7c7d88	0.24657261
87	0xbe6743a4	-0.22584397
88	0xbc7b495c	-0.015337314
89	0x3cf44e58	0.029822513
90	0x3ca725c9	0.02040376
91	0x3e431932	0.1905258
92	0xbdab5057	-0.08364933
93	0x3db0e948	0.08638245
94	0x3e804b95	0.25057665
95	0x3e4826e2	0.19546083
96	0xbe88c975	-0.267162
97	0xbea253ea	-0.31704646
98	0xbe5833fe	-0.21113583
99	0x3e8eb253	0.27870426
100	0x3e7157e7	0.23568688
101	0xbe600dc8	-0.21880257
102	0xbd035765	-0.032065768
103	0x3e588e51	0.2114804
104	0x3de55686	0.11198144
105	0x3daaee07	0.08346181
106	0xbe6128ec	-0.21988267
107	0x3e83ee6b	0.25767836
108	0x3e278ed2	0.16363075
109	0x3e5bf002	0.21478274
110	0xbe682a78	-0.2267245
111	0xbe1ae788	-0.15127385
112	0xbe3997fa	-0.1812438
113	0xbdf8844f	-0.12134611
114	0x3cfae530	0.030626863
115	0xbe8e9197	-0.2784545
116	0xbe01ca2c	-0.12674779
117	0xbc0c6a41	-0.008570255
118	0xbe092802	-0.13394168
119	0x3d380b09	0.0449324
120	0xbe99a400	-0.30007935
121	0xbdeb8e72	-0.11501779
122	0x3e6f30d9	0.23358478
123	0x3e455c0d	0.19273396
124	0xbe490ec8	-0.19634545
125	0xbc092873	-0.00837146
126	0xbe705a08	-0.23471844
127	0x3ceb4fa7	0.028724505
128	0xbdac0baf	-0.08400666
129	0xbd413102	-0.047165878
130	0xbda77fce	-0.08178674
131	0xbe56bf57	-0.20971428
132	0x3dfc2b19	0.12312908
133	0x3cf5cd43	0.030005103
134	0x3d688ea7	0.05677667
135	0xbe616e4f	-0.22014736
136	0xbe6074fb	-0.21919625
137	0xbe56ed35	-0.20988925
138	0xbe5fba18	-0.21848333
139	0xbe05ae50	-0.13054776
140	0x3e1fef43	0.15618615
141	0x3e68388a	0.22677818
142	0x3dc36077	0.095398836
143	0xbe093d26	-0.13402233
144	0x3e9be281	0.30446246
145	0x3e42839e	0.1899552
146	0x3e334f85	0.17510803
147	0xbc1da600	-0.009622097
148	0x3cbba4c0	0.022905707
149	0x3e556a0e	0.20841238
150	0xbe0f2034	-0.13977128
151	0x3ea19525	0.315591
152	0x3e6dfb2f	0.2324035
153	0x3e970743	0.29497728
154	0xbe952b91	-0.291348
155	0xbe652351	-0.22376753
156	0x3d38ab9e	0.045085542
157	0xbcf726bb	-0.030169835
158	0xbd6fbee1	-0.058531646
159	0xbd989719	-0.074506946
160	0xbd1bbcc3	-0.038021814
161	0xbe916b4f	-0.28402182
162	0xbd96d2c8	-0.07364422
163	0xbe2c6689	-0.16835989
164	0xbde4be1d	-0.11169074
165	0xbdafddf2	-0.085872546
166	0xbe530b68	-0.2060982
167	0xbe90d77c	-0.28289402
168	0x3d37e1bb	0.044893008
169	0xbd88b6c2	-0.06675483
170	0x3e2b24b1	0.16713215
171	0x3d244ac1	0.040110353
172	0x3d8835c3	0.06650879
173	0x3e99025d	0.29884616
174	0xbe18c2c7	-0.14918052
175	0x3daec76f	0.08534133
176	0xbe7e2927	-0.24820386
177	0x3e88b66c	0.26701677
178	0xbc455c67	-0.012045956
179	0xbe7a322f	-0.24433206
180	0xbe81d144	-0.2535497
181	0x3e57982e	0.21054146
182	0x3dcaf3f8	0.099098146
183	0x3e3bf668	0.18355715
184	0xbe46f1d7	-0.19428192
185	0xbe69a162	-0.22815469
186	0xbe8da2b0	-0.27663183
187	0x3e2bb2ed	0.16767474
188	0xbd253e1c	-0.040342435
189	0xbe4e5889	-0.20150961
190	0x3e68c7ee	0.22732517
191	0xbe820b7a	-0.2539938
192	0xbd63a5ce	-0.055578046
193	0x3dfe03e8	0.12403089
194	0xbdda0838	-0.10646099
195	0x3d68ab75	0.05680414
196	0xbe0008c5	-0.12503345
197	0xbe91a01b	-0.28442463
198	0xbdd56f1b	-0.10421582
199	0xbe6a2b84	-0.22868162
200	0xbccf5628	-0.025309637
201	0x3e862878	0.2620275
202	0xbd375da6	-0.044767044
203	0x3db2faa6	0.08739214
204	0xbe0b692b	-0.13614337
205	0x3e5caba5	0.21549852
206	0x3e7fa482	0.24965099
207	0x3e62b4a0	0.22139215
208	0x3d1fe98e	0.039041094
209	0xbe11919f	-0.14215706
210	0xbcc885b2	-0.024477813
211	0x3db5bc72	0.08873834
212	0xbe193f70	-0.14965606
213	0xbe4cd503	-0.20003133
214	0xbe9164b6	-0.2839715
215	0xbe1e2128	-0.15442336
216	0xbe842b38	-0.25814223
217	0x3dd6a279	0.10480208
218	0xbd79186f	-0.060814317
219	0x3e5e5b44	0.21714503
220	0x3e613be7	0.21995507
221	0xbc891663	-0.016734308
222	0xbd71294c	-0.058877274
223	0x3db60f45	0.08889631
224	0xbe9551a4	-0.2916385
225	0xbe995143	-0.2994481
226	0xbe84488c	-0.258366
227	0x3e73b9c6	0.23801336
228	0x3e1c0593	0.15236501
229	0x3e4f5ed5	0.2025102
230	0xbe42c896	-0.1902183
231	0xbdf1576c	-0.117842525
232	0xbd0ced2c	-0.034405872
233	0x3e89372d	0.26799908
234	0xbdf551d2	-0.119784966
235	0x3d04a055	0.032379467
236	0xbe71dc1b	-0.2361912
237	0xbe391388	-0.18073857
238	0xbcccdc02	-0.025007252
239	0xbe4995f6	-0.19686112
240	0x3dfa1687	0.12211328
241	0xbe724784	-0.23660094
242	0xbcdfdd9d	-0.027327353
243	0xbc48c4d1	-0.012253956
244	0xbddadb59	-0.106863685
245	0x3e973307	0.29531118
246	0x3e7c5132	0.24640349
247	0x3dc62ae8	0.096761525
248	0xbe602e60	-0.2189269
249	0x3e9a213d	0.30103484
250	0x3d3ea8a0	0.046547532
251	0x3e900989	0.28132275
252	0xbdc5866c	-0.096447796
253	0x3e9122e0	0.2834692
254	0x3c7770c8	0.015102573
255	0xbe45012d	-0.1923873

weight_hh_l0 f4 [40, 10]
0	0xbcbf5ea5	-0.02336056
1	0x3c8d541e	0.017252024
2	0x3d242c55	0.04008134
3	0xbdd0099f	-0.10158085
4	0xbe84df34	-0.2595154
5	0xbdf1a61a	-0.117992595
6	0x3e8fcc47	0.2808554
7	0xbcde0ef2	-0.027106736
8	0xbe8b426c	-0.27199113
9	0xbe9353b8	-0.2877481
10	0xbe875d40	-0.26438332
11	0xbe62d990	-0.22153306
12	0x3e38a141	0.18030263
13	0x3e9325e7	0.28739855
14	0x3c030f7b	0.007999296
15	0x3e44c8c1	0.19217207
16	0x3e2ea8da	0.170566
17	0x3e9dee1e	0.30845731
18	0x3e21a4e1	0.15785553
19	0x3e989825	0.29803577
20	0xbe9c1e90	-0.30492067
21	0x3acbe7b2	0.0015556721
22	0x3e82ad1d	0.255227
23	0xbe0db073	-0.13836841
24	0x3d8a5df2	0.067562
25	0x3e688bc0	0.2270956
26	0xbe4722a5	-0.1944681
27	0x3def3f85	0.11682037
28	0x3de830b6	0.11337416
29	0xbdcef6e6	-0.10105686
30	0xbe319e7b	-0.17345612
31	0x3e34c1f6	0.17652115
32	0x3e30764e	0.1723263
33	0xbb618fd2	-0.0034418
34	0xbe113ba1	-0.14182903
35	0xbe964aa6	-0.29353827
36	0xbdff1feb	-0.1245726
37	0xbd95f2d9	-0.0732171
38	0xbdbbd5d1	-0.091716416
39	0x3e95a224	0.29225266
40	0xbc128a5a	-0.008944118
41	0x3e64fd64	0.22362286
42	0x3e5693e1	0.20954849
43	0x3e698572	0.22804812
44	0x3e22b259	0.15888347
45	0x3dba6813	0.09101882
46	0xbd853c83	-0.06505682
47	0x3dbda76e	0.0926045
48	0xbc8e55d8	-0.017374918
49	0x3db44cdd	0.08803723
50	0x3e244046	0.16040143
51	0xbe9f38f8	-0.3109815
52	0xbe0516e5	-0.12997015
53	0xbd002c34	-0.031292155
54	0xbe9f481d	-0.31109706
55	0xbe423467	-0.18965302
56	0x3e395481	0.18098642
57	0x3e30f6e5	0.17281683
58	0xbe296a35	-0.16544421
59	0x3e320439	0.17384423
60	0xbb83a759	-0.004017752
61	0x3da9214f	0.08258306
62	0x3e5a40ec	0.21313828
63	0xbe58103c	-0.21099943
64	0xbe0bcec0	-0.13653088
65	0x3e6ff727	0.23434125
66	0xbe2738f1	-0.16330315
67	0xbe454368	-0.19263995
68	0x3e9fe938	0.3123262
69	0xbe7d53cf	-0.24739002
70	0xbe0b99b4	-0.13632852
71	0x3e9d8f60	0.3077345
72	0xbe4dcffd	-0.20098872
73	0xbe6b284f	-0.22964595
74	0x3e4bfd02	0.19920734
75	0xbd84bad9	-0.06480951
76	0x3e08b010	0.13348413
77	0xbde983b9	-0.11402077
78	0xbdef696e	-0.11690031
79	0xbe5b79df	-0.21433209
80	0xbea22dcd	-0.31675568
81	0x3d22f965	0.039788622
82	0xbd67bf5f	-0.05657899
83	0xbd964cb5	-0.073388495
84	0xbbabc110	-0.0052415207
85	0xbde7981c	-0.113083094
86	0x3e43ded0	0.19127965
87	0xbde75627	-0.11295729
88	0xbea256f9	-0.3170698
89	0x3e63b5eb	0.22237365
90	0xbe845065	-0.25842586
91	0x3e427e4e	0.18993494
92	0xbe463b0b	-0.1935846
93	0x3e70294b	0.23453252
94	0xbe55ce0d	-0.20879383
95	0x3d7f9f42	0.06240774
96	0xbd0c8088	-0.034302264
97	0xbe035a5c	-0.12827438
98	0xbe0d56fa	-0.1380271
99	0xbcf85ebe	-0.030318614
100	0x3e8d4768	0.2759354
101	0x3da7636f	0.08173262
102	0x3e3f2c1a	0.18669167
103	0x3d1ecab9	0.03876755
104	0x3e271a03	0.16318516
105	0x3e4a4ae1	0.19755127
106	0xbe83fc58	-0.2577846
107	0x3c651e7d	0.01398432
108	0xbe65b84c	-0.22433585
109	0xbbb592ad	-0.0055411668
110	0xbd4358d3	-0.04769213
111	0x3e1f4704	0.15554434
112	0xbde9e34b	-0.11420306
113	0x3ea0dd1f	0.31418702
114	0xbcd7b852	-0.026333008
115	0xbe29630b	-0.16541688
116	0x3ca23344	0.019799836
117	0x3e609623	0.21932273
118	0x3e3b4fc5	0.18292148
119	0x3e7ed33e	0.2488527
120	0x3e245c2a	0.16050783
121	0x3ea038d7	0.31293365
122	0x3c17a601	0.009255887
123	0xbd8c4622	-0.06849314
124	0x3e3798cc	0.17929381
125	0x3e8b64be	0.27225298
126	0xbe43195c	-0.19052643
127	0xbe964164	-0.29346764
128	0x3e922f19	0.28551558
129	0x3df3eda1	0.119105585
130	0xbd93bd9d	-0.072139
131	0xbd05869f	-0.032599088
132	0xbe77272a	-0.24136034
133	0x3e79a180	0.24378014
134	0x3e7bceb9	0.24590577
135	0x3e90b7ef	0.2826533
136	0xbe851126	-0.25989646
137	0xbe8f99d0	-0.28047037
138	0xbe719ea9	-0.2359568
139	0xbe46d109	-0.19415678
140	0x3e61135f	0.21980046
141	0x3d7ca8be	0.061684363
142	0xbd3d62f8	-0.046236962
143	0x3e5a3b01	0.2131157
144	0xbe59d941	-0.21274282
145	0x3d2d5e27	0.04232612
146	0x3e56ef87	0.2098981
147	0xbde5276d	-0.111891605
148	0x3d26797a	0.040643193
149	0x3e823cce	0.25437015
150	0x3d687088	0.056747943
151	0xbd2abc89	-0.041683707
152	0xbe61bb3f	-0.22044085
153	0x3e50163c	0.20320982
154	0xbe050c7f	-0.12993048
155	0xbe9b2f4a	-0.30309516
156	0xbe1901b4	-0.14942056
157	0x3e816719	0.2527397
158	0xbe2b0950	-0.16702771
159	0xbda679a4	-0.0812867
160	0x3d4b033a	0.049563624
161	0xbdf07b74	-0.11742297
162	0xbc04e810	-0.008111969
163	0x3e8c5e6d	0.2741579
164	0xbdcad327	-0.09903555
165	0xbe2eea68	-0.17081606
166	0x3e9fb3c5	0.3119184
167	0xbd897b83	-0.06713011
168	0xbe41a6d0	-0.1891129
169	0xbe539dfc	-0.20665735
170	0x3dc5089b	0.09620782
171	0x3de50122	0.11181857
172	0x3e2b81fc	0.16748804
173	0x3e5ac783	0.2136517
174	0x3c2c1658	0.010503374
175	0x3d3d7dfe	0.046262734
176	0xbe7108af	-0.23538469
177	0xbd6e0c9e	-0.0581175
178	0xbd449228	-0.047990948
179	0xbd7c045f	-0.061527606
180	0xbe743541	-0.2384844
181	0xbc886b60	-0.016652763
182	0x3e672068	0.22570956
183	0xbe9b741e	-0.30362028
184	0x3e9e4b4f	0.3091683
185	0xbe1b52c6	-0.15168294
186	0xbd7173e2	-0.058948405
187	0xbe8968b5	-0.26837698
188	0x3d9db730	0.07700956
189	0xbd1c5919	-0.038170908
190	0xbe8cf834	-0.27533114
191	0xbc9a0f9f	-0.018806277
192	0x3dd78dfd	0.10525129
193	0xbe4527cb	-0.19253461
194	0x3e983a90	0.2973218
195	0xbd978d6e	-0.074000224
196	0x3e8b74e7	0.27237627
197	0x3e9f8246	0.31154078
198	0xbcb6e278	-0.022324786
199	0x3d031ab2	0.03200788
200	0x3e052502	0.13002399
201	0x3dae299d	0.08504031
202	0xbe9bb9b8	-0.3041513
203	0x3e8b2a4c	0.27180707
204	0xbe97a605	-0.2961885
205	0x3e80af64	0.25133812
206	0x3e94d9f3	0.29072532
207	0xbe9b65a3	-0.3035098
208	0x3e8f5075	0.2799107
209	0xbd2d5985	-0.0423217
210	0x3e3d60eb	0.18494003
211	0x3da33f00	0.07971001
212	0xbe238c95	-0.15971597
213	0xbe5e9558	-0.21736658
214	0xbe2d7045	-0.16937359
215	0x3dee9ca3	0.1165097
216	0x3e204601	0.15651704
217	0xbe8b2840	-0.27179146
218	0xbe9017ae	-0.28143066
219	0x3e98128a	0.29701644
220	0x3e36df9a	0.17858735
221	0x3e7c604a	0.24646106
222	0x3c8b87da	0.017032553
223	0xbdf88eaf	-0.1213659
224	0xbe08d2d5	-0.13361676
225	0x3e3bc64b	0.18337362
226	0x3da036f7	0.07822984
227	0xbe142854	-0.14468509
228	0xbe955034	-0.29162753
229	0xbea09a75	-0.3136784
230	0xbd53c91e	-0.051705472
231	0xbe399cdf	-0.18126248
232	0x3e7d6a5f	0.24747609
233	0x3e301e8c	0.17199153
234	0x3e675c11	0.22593714
235	0xbe00500d	-0.12530537
236	0x3e223d0f	0.15843605
237	0xbd67c4b7	-0.056584086
238	0xbe03e4ab	-0.12880199
239	0xbe79eb94	-0.24406272
240	0xbd4b3698	-0.04961261
241	0x3d7c10ed	0.06153958
242	0xb9d0a9c8	-0.00039799348
243	0x3de7ab11	0.11311925
244	0x3e9f4cab	0.3111318
245	0xbdcf5f5c	-0.1012561
246	0xbe1cacfe	-0.15300366
247	0xbdfafaee	-0.12254892
248	0x3d0674e4	0.03282632
249	0x3e2b52f8	0.16730869
250	0xbd6ac1c2	-0.057313688
251	0x3e7650f4	0.24054319
252	0xbdef9935	-0.11699144
253	0x3c69d3ab	0.014271657
254	0xbde8791c	-0.11351225
255	0xbd9e4534	-0.07728043

bias_ih_l0 f4 [40]
0	0xbda2c26e	-0.07947241
1	0x3cf781a4	0.030213185
2	0xbe9f7839	-0.3114641
3	0xbde881fd	-0.11352918
4	0x3e7c57c1	0.2464285
5	0xbd36d58a	-0.04463724
6	0xbe0e973b	-0.13924877
7	0x3d85a421	0.06525446
8	0xbb5cb05f	-0.0033674461
9	0xbe6dd00a	-0.23223892
10	0x3e9edcf4	0.3102795
11	0xbe9fb25a	-0.3119076
12	0x3e547cb6	0.20750698
13	0xbdc30d77	-0.095240526
14	0x3e3b964e	0.18319055
15	0xbe8e214c	-0.27759778
16	0xbd1ad2c6	-0.037798665
17	0xbe307d39	-0.17235269
18	0xbe8a3a2e	-0.26997513
19	0xbe73425d	-0.23755784
20	0xbe476f21	-0.19475986
21	0xbe7642f9	-0.24048986
22	0x3d9bf806	0.07615666
23	0x3e2215ff	0.15828703
24	0xbcc34a53	-0.023839151
25	0xbe482cd0	-0.19548345
26	0x3d9e93c5	0.077430286
27	0x3d491140	0.049088717
28	0xbe9ecd12	-0.3101583
29	0xbe0ceb08	-0.13761532
30	0x3daba3d4	0.08380857
31	0x3d54c8b9	0.051949237
32	0xbe9e6fef	-0.30944774
33	0xbe31debe	-0.17370126
34	0xbe686e51	-0.22698332
35	0xbe8fae04	-0.2806245
36	0xbd16fa94	-0.036860064
37	0x3cb5d7bd	0.022197599
38	0xbbe03057	-0.0068417
39	0x3e9207b1	0.28521493

bias_hh_l0 f4 [40]
0	0xbd9653df	-0.07340216
1	0x3dfe0ce0	0.124047995
2	0x3e6d0175	0.23145087
3	0x3e58cb6b	0.21171348
4	0x3e229745	0.15878017
5	0x3de88244	0.11352971
6	0x3e8bce76	0.27305955
7	0x3e138cee	0.14409229
8	0x3c53938d	0.012913597
9	0x3e238f65	0.1597267
10	0xbdcfde05	-0.10149769
11	0xbe7dd2f4	-0.24787503
12	0x3dec2e70	0.11532295
13	0xbc54c835	-0.012987186
14	0xbdc34f88	-0.09536654
15	0x3d4c7683	0.04991771
16	0x3e9334fd	0.28751364
17	0xbb44e82a	-0.0030045607
18	0x3dc3d2fd	0.09561727
19	0xbe921980	-0.2853508
20	0x3e1fa252	0.15589264
21	0x3e06f351	0.13178755
22	0x3d8966aa	0.06709035
23	0xbe3ab9e0	-0.18234968
24	0xbe96ad1d	-0.2942895
25	0xbe84af85	-0.2591516
26	0xbe2cd064	-0.1687637
27	0xbe77e462	-0.24208215
28	0xbe28f871	-0.16501023
29	0x3d2aa039	0.041656706
30	0x3e88a9e4	0.26692116
31	0xbe968ec6	-0.29405802
32	0x3bb8f84e	0.0056448346
33	0xbe902b8b	-0.2815822
34	0xbcbb3df6	-0.022856694
35	0xbe81ee42	-0.2537709
36	0xbc01cc32	-0.007922219
37	0xbc87700e	-0.016532924
38	0xbe65bbe6	-0.22434959
39	0xbd1a8a91	-0.037729803

weight_ih_l1 f4 [40, 10]
0	0xbccb4181	-0.024811508
1	0xbe230a6d	-0.15921946
2	0xbe3f3af8	-0.18674839
3	0xbe468bd4	-0.19389278
4	0x3c66d267	0.01408825
5	0x3e8b33c0	0.2718792
6	0xbe81422b	-0.25245795
7	0xbdc369aa	-0.09541638
8	0x3e268897	0.16263042
9	0xbe75183a	-0.23935023
10	0xbe0e3a79	-0.13889493
11	0x3cc2df0c	0.023787998
12	0x3c80f7c9	0.015743153
13	0x3e2b0219	0.16700019
14	0x3e119012	0.14215115
15	0x3e4e87ce	0.20168993
16	0xbded7869	-0.11595232
17	0x3e905fb7	0.28198025
18	0xbe858d50	-0.26084375
19	0x3e6afe5e	0.22948596
20	0x3e1e9964	0.15488201
21	0x3d60fddc	0.0549296
22	0xbe045e70	-0.1292665
23	0xbe1550d0	-0.14581609
24	0x3e345c94	0.17613441
25	0x3e5028e1	0.20328094
26	0xbde9914c	-0.11404666
27	0x3d00ad5f	0.03141534
28	0x3e2c1973	0.16806583
29	0xbe264e24	-0.16240746
30	0x3cf35b6e	0.029706683
31	0x3e86c259	0.2632015
32	0xbc593b0d	-0.013258708
33	0x3e21b828	0.15792906
34	0xbe6bb500	-0.23018265
35	0x3e24caaf	0.16092943
36	0xbe8e272b	-0.27764258
37	0x3e88f2e4	0.2674781
38	0x3e99dbec	0.300506
39	0xbe87f24e	-0.2655205
40	0xbe024024	-0.1271978
41	0x3e705f7a	0.23473921
42	0xbe8078c3	-0.25092134
43	0xbd2593b9	-0.040424082
44	0xbe9e2386	-0.30886477
45	0x3e7681f9	0.24073018
46	0xbe843332	-0.2582031
47	0x3e8f25e0	0.27958584
48	0x3ab9228f	0.0014124679
49	0xbe0ea104	-0.1392861
50	0x3e8a805c	0.27051055
51	0x3d2dbffb	0.042419415
52	0x3e0a702d	0.13519354
53	0xbe142a31	-0.1446922
54	0xbe950c99	-0.29111174
55	0xbcfd116c	-0.030892096
56	0xbd17bd6f	-0.037045892
57	0x3e353ec5	0.17699726
58	0x3e841be1	0.2580252
59	0xbe023758	-0.12716424
60	0xbe308b7f	-0.17240714
61	0x3e4a1123	0.197331
62	0x3c9969f9	0.01872729
63	0x3e8f33e1	0.27969268
64	0x3d068528	0.03284183
65	0xbe231a8c	-0.15928096
66	0x3e4418fc	0.19150156
67	0x3e400794	0.18752891
68	0x3cd45920	0.025921404
69	0xbe95fd75	-0.29294935
70	0x3e89118e	0.26771206
71	0x3e8f1528	0.27945828
72	0x3db2f6cd	0.0873848
73	0x3e9b8cba	0.30380803
74	0x3e83f5c6	0.25773448
75	0xbddfb72e	-0.10923611
76	0x3ca9a9b3	0.020710802
77	0xbe54bd7f	-0.20775412
78	0xbe3ca31b	-0.18421595
79	0xba62844a	-0.00086409284
80	0x3cbb7938	0.02288495
81	0x3d1c06be	0.038092367
82	0xbdc05813	-0.09391799
83	0x3e615d48	0.2200824
84	0xbe7e6af1	-0.24845482
85	0xbe65b2e7	-0.22431527
86	0x3e26309e	0.16229483
87	0x3e5fb098	0.21844709
88	0xbe295938	-0.1653794
89	0x3e85d3e9	0.26138237
90	0xbd822da0	-0.063563585
91	0xbdcd4cb5	-0.10024396
92	0xbdc71dbf	-0.097224705
93	0x3d41b3b5	0.047290523
94	0x3e78badd	0.24290033
95	0xbcd86396	-0.026414674
96	0x3e033139	0.12811746
97	0xbe2c75ea	-0.16841856
98	0x3c26fe40	0.010192454
99	0xbe50c476	-0.20387444
100	0x3c9beda4	0.019034214
101	0xbd907fbc	-0.070556134
102	0x3e754fcd	0.23956223
103	0x3d9fb3ea	0.07797988
104	0xbe6820da	-0.22668782
105	0x3e0e7cf3	0.13914852
106	0x3cfbea0a	0.030751247
107	0xbe6a826a	-0.22901312
108	0x3e9e9403	0.309723
109	0x3cd066d4	0.025439657
110	0xbd902d62	-0.07039906
111	0xbe64a0f6	-0.22327027
112	0xbe1bd732	-0.15218809
113	0x3bb97333	0.005659485
114	0x3b4f4f1d	0.0031632849
115	0xbc6ab671	-0.014325724
116	0xbd961a4e	-0.07329236
117	0xbddd00a4	-0.10791138
118	0xbe315e6a	-0.17321172
119	0xbe44cb23	-0.19218116
120	0xbe226c56	-0.1586164
121	0x3e225ebe	0.15856454
122	0x3e9725ff	0.29521176
123	0xbe200a41	-0.15628912
124	0x3e5a3730	0.21310115
125	0xbd242f2e	-0.040084057
126	0xbe11ec74	-0.14250356
127	0x3d378bc3	0.04481102
128	0xbe96d2a1	-0.29457572
129	0xbe844e13	-0.25840816
130	0x3e576c3b	0.2103738
131	0x3e9798e9	0.2960885
132	0x3e8681a5	0.26270786
133	0xbd65addc	-0.05607401
134	0x3e92a7c6	0.28643626
135	0x3e076656	0.13222632
136	0xbe601101	-0.21881486
137	0x3dd6de4c	0.104916185
138	0xbe14cfb1	-0.14532353
139	0xbe8fc8f3	-0.28083
140	0xbe7a0816	-0.24417147
141	0xbe27a08d	-0.16369839
142	0xbcfa2895	-0.03053693
143	0x3e6fdca6	0.23424014
144	0x3e84075c	0.25786865
145	0xbcf98e36	-0.03046332
146	0xbde73ce1	-0.112909086
147	0x3d7e5a98	0.062098116
148	0x3dc450b5	0.09585706
149	0xbd89a5ec	-0.067211
150	0xbe5bb0f0	-0.21454215
151	0xbe435033	-0.19073562
152	0x3d011ceb	0.03152172
153	0xbe4f1c5d	-0.20225663
154	0xbe9c4f2e	-0.3052916
155	0x3d7efb3e	0.062251322
156	0x3d4ffd28	0.050778538
157	0x3de7ccd7	0.11318367
158	0xbe3311a9	-0.17487206
159	0xbe858075	-0.26074567
160	0xbe3ba431	-0.18324353
161	0xbe833fe1	-0.25634673
162	0xbcc0a95f	-0.023518262
163	0xbcb277a9	-0.021785574
164	0xbe743156	-0.23846945
165	0xbcc4deb5	-0.024031976
166	0x3e5d666c	0.21621102
167	0x3da5fbe1	0.08104683
168	0xbe835879	-0.25653437
169	0xbdd9b40a	-0.10630043
170	0xbe7cedeb	-0.24700134
171	0x3d32777f	0.04357099
172	0xbe0eb1f7	-0.13935076
173	0xbd93ba32	-0.07213248
174	0x3e5a2c82	0.21306041
175	0xbe8d6ac9	-0.27620533
176	0x3d00fb9b	0.03148995
177	0x3d0a609f	0.03378355
178	0xbe9fc2ae	-0.31203216
179	0x3d9fb4d7	0.07798164
180	0xbe63b7d0	-0.22238088
181	0xbe9cafde	-0.30602926
182	0xbc94fc5c	-0.01818674
183	0x3e8f29aa	0.27961475
184	0x3e8ccca8	0.2749989
185	0x3e06f9d7	0.13181244
186	0x3ca56138	0.02018796
187	0x3e1bf0be	0.15228555
188	0x3e7b45e4	0.2453838
189	0xbd3a3f20	-0.045470357
190	0xbc288f7d	-0.0102881165
191	0x3e10c9f6	0.14139542
192	0xbe96671f	-0.2937555
193	0x3e0e5f22	0.13903478
194	0x3d9b8bf0	0.0759505
195	0xbe9fc774	-0.31206858
196	0xbc999194	-0.018746175
197	0xbe89b29e	-0.26894087
198	0xbde5d90c	-0.11223039
199	0x3e9a0bb5	0.30087057
200	0xbe689ddb	-0.22716467
201	0x3e0b7868	0.1362015
202	0x3e966a3d	0.29377928
203	0x3d8c5bff	0.06853484
204	0xbd7362cb	-0.05942039
205	0x3e9ed6c6	0.31023234
206	0x3e59d107	0.21271144
207	0xbe58b069	-0.21161045
208	0xbe93527f	-0.28773877
209	0xbc92e7cf	-0.0179328
210	0xbceaaa59	-0.028645681
211	0xbd420601	-0.047369007
212	0x3e7a8b4b	0.24467199
213	0x3d3b4315	0.04571827
214	0xbe342ac0	-0.17594433
215	0xbe44aa03	-0.1920548
216	0xbc487cdb	-0.012236799
217	0x3e5c5a42	0.21518806
218	0xbdd41358	-0.10355252
219	0xbdaaaa1f	-0.08333229
220	0x3e997bc0	0.29977226
221	0xbe6fa3e5	-0.23402365
222	0xbdaf3f35	-0.08556978
223	0xbdc07e7f	-0.09399127
224	0xbe84d4d4	-0.25943625
225	0xbe999ad4	-0.30000937
226	0xbd525f15	-0.05136021
227	0x3e38300a	0.17987075
228	0xbccf0f82	-0.02527595
229	0x3d187944	0.037225023
230	0xbe9cce70	-0.3062625
231	0x3e67f9ea	0.22653928
232	0x3e844c73	0.25839576
233	0x3e175ebe	0.14782235
234	0x3e2d7860	0.1694045
235	0xbe20ccf5	-0.15703185
236	0xbe97fccf	-0.29685065
237	0x3d612085	0.054962654
238	0xbdf647a2	-0.120253816
239	0x3e97a72f	0.29619738
240	0x3e81e1c1	0.2536755
241	0xbd199425	-0.037494797
242	0xbb978cfc	-0.004624961
243	0x3e420b42	0.18949607
244	0xbd9e5933	-0.07731857
245	0xbbbdc3d3	-0.0057911663
246	0xbe4277ff	-0.18991087
247	0x3e3b5392	0.18293598
248	0xbe9e0ba7	-0.30868265
249	0x3e476950	0.19473767
250	0xbdb78f89	-0.08962924
251	0xbd359349	-0.044329915
252	0xbe50e2c8	-0.2039901
253	0xbe6cd0e4	-0.2312656
254	0x3e52cebe	0.20586678
255	0x3e7ddb81	0.24790765

weight_hh_l1 f4 [40, 10]
0	0x3e224f1a	0.15850487
1	0x3d9e5b97	0.07732313
2	0xbe5a088d	-0.21292324
3	0x3def7978	0.1169309
4	0xbe177571	-0.14790894
5	0xbbc76dd8	-0.0060860924
6	0xbcb7ede3	-0.0224523
7	0x3dafd98c	0.08586416
8	0x3e2c771c	0.16842312
9	0x3e36cfe9	0.17852749
10	0x3e0cfc05	0.13768013
11	0xbd866232	-0.06561698
12	0xbe94cff1	-0.29064897
13	0xbdd999aa	-0.10625012
14	0x3e80aeb4	0.25133288
15	0x3dfe8552	0.124277726
16	0x3e2078f5	0.15671141
17	0x3d55287f	0.052040573
18	0xbe668751	-0.22512557
19	0xbc3d6c00	-0.011561394
20	0xbe56b1c1	-0.20966245
21	0x3d1393d0	0.036029637
22	0xbe289fef	-0.1646726
23	0x3d2a5382	0.041583546
24	0xbdd2d50c	-0.10294542
25	0xbe29a700	-0.16567612
26	0x3e03b566	0.12862167
27	0x3d69f14e	0.05711489
28	0x3e253760	0.16134405
29	0xbe8c95d5	-0.27458063
30	0xbd8893e3	-0.06668832
31	0x3ddd77a2	0.10813834
32	0xbe687946	-0.22702512
33	0xbe95df82	-0.29272085
34	0x3e5d1624	0.21590477
35	0x3e14440c	0.14479083
36	0xbe9ddb4f	-0.30831382
37	0x3e2afced	0.16698046
38	0xbe8cfb6f	-0.2753558
39	0x3e5d100e	0.21588156
40	0xbe9f5357	-0.3111827
41	0x3e35f4cc	0.17769164
42	0x3e8579c8	0.26069474
43	0x3e713d01	0.23558427
44	0xbe607ad7	-0.2192186
45	0xbe26bdf4	-0.16283399
46	0x3e435af6	0.19077668
47	0x3e852131	0.26001886
48	0xbe4836fa	-0.19552222
49	0xbe5f5c8f	-0.21812652
50	0x3dcb97b5	0.09941045
51	0xbe320f11	-0.1738856
52	0xbe0adfc0	-0.13561916
53	0x3cf90c7a	0.030401457
54	0xbd3c5abe	-0.045984976
55	0xbe9ed475	-0.31021467
56	0xbe876d9b	-0.2645081
57	0xbe4e0c5b	-0.201219
58	0xbe14c14e	-0.14526865
59	0xbe2f6b50	-0.1713078
60	0x3df5857e	0.11988352
61	0x3dcc22a6	0.09967546
62	0x3e92fa3c	0.2870654
63	0x3e070375	0.13184913
64	0xbe5df73a	-0.2167634
65	0x3daf33cb	0.085548006
66	0x3e96d44b	0.29458842
67	0xbdf836ac	-0.12119803
68	0xbe768779	-0.24075116
69	0x3e4857c2	0.19564727
70	0xbe155e9b	-0.1458687
71	0x3e1b5064	0.15167385
72	0xbe6749f5	-0.22586806
73	0xbc3445fd	-0.011003015
74	0xbe8a897f	-0.27058026
75	0x3df194b9	0.11795945
76	0xbe07f682	-0.13277629
77	0x3d94dc70	0.072686076
78	0xbe64761d	-0.22310682
79	0x3e831382	0.2560082
80	0xbe97d312	-0.2965322
81	0x3e2abb6d	0.1667306
82	0xbe5803cc	-0.21095198
83	0xbe73fdca	-0.23827282
84	0x3c4d72a6	0.012539541
85	0x3e15e68b	0.14638726
86	0xbc120971	-0.008913384
87	0xbe0406c4	-0.12893206
88	0xbd2e9025	-0.042617936
89	0x3e8dce12	0.27696282
90	0xbdeae69f	-0.11469769
91	0x3e6fdb09	0.23423399
92	0x3e24f4ec	0.16109055
93	0x3da2311f	0.07919525
94	0xbe580c7d	-0.21098514
95	0x3d533eab	0.051573437
96	0xbe6b4a03	-0.22977452
97	0xbc68cc67	-0.01420889
98	0x3e9c9902	0.30585486
99	0xbcde6282	-0.027146582
100	0xbe77bff2	-0.24194315
101	0xbe7fe441	-0.24989416
102	0x3e5dd533	0.2166336
103	0x3c450158	0.012024246
104	0x3e882dbb	0.2659739
105	0xbd9a7f48	-0.07543808
106	0xbe95b9f3	-0.2924343
107	0xbdf5599a	-0.11979981
108	0xbe811eea	-0.25218898
109	0xbe7cf670	-0.24703383
110	0xbdc200f3	-0.09472837
111	0x3e1d4758	0.15359247
112	0xbe754a39	-0.23954095
113	0xbe0cd699	-0.13753738
114	0x3d4482b9	0.04797623
115	0xbdd76ab0	-0.10518396
116	0x3e9a7f0d	0.30175057
117	0xbd243295	-0.0400873
118	0x3e9e9b4d	0.3097786
119	0xbe897298	-0.2684524
120	0x3cda26c4	0.026629813
121	0x3e8f1356	0.2794444
122	0x3e362e18	0.17791021
123	0xbbefbe4a	-0.0073163854
124	0x3e923ce6	0.28562087
125	0xbe50d1da	-0.20392552
126	0x3e912207	0.28346273
127	0xbe293389	-0.16523565
128	0x3e16f090	0.14740205
129	0x3e571301	0.21003343
130	0x3de015ec	0.10941681
131	0x3daf549a	0.08561058
132	0x3c46ac0d	0.012125981
133	0x3d6f3246	0.058397554
134	0x3e7e2b1e	0.24821135
135	0x3e67d800	0.22640991
136	0x3e6b33bc	0.22968954
137	0xbdbbd7c3	-0.09172013
138	0x3ea1444d	0.31497422
139	0xbe6fac15	-0.23405488
140	0x3e024b39	0.12724008
141	0xbe9e1f9f	-0.308835
142	0x3ddb3900	0.10704231
143	0xbcc1caa9	-0.023656206
144	0x3e30da7a	0.17270842
145	0x3d1055c2	0.035238035
146	0xbcee28b1	-0.029072138
147	0x3e4bf9bb	0.19919483
148	0xbe987bdd	-0.29782
149	0xbe8fcad7	-0.28084442
150	0xbe7e3420	-0.24824572
151	0xbe871127	-0.26380274
152	0xbdbbec73	-0.091759585
153	0xbe8a23fc	-0.2698058
154	0x3deb3176	0.11484043
155	0x3ea18c1b	0.31552204
156	0x3cf6f6e4	0.030147023
157	0xbc2c99a6	-0.0105346795
158	0x3d7e5ef4	0.062102273
159	0x3d9cff39	0.07665867
160	0x3d88bac6	0.06676249
161	0x3e014fdc	0.1262812
162	0xbd8c46c4	-0.06849435
163	0xbe5d0408	-0.21583569
164	0x3d9a23d7	0.07526367
165	0xbd86821c	-0.06567785
166	0xbe7ced47	-0.24699889
167	0xbc25ddb7	-0.010123662
168	0xbe76c0bb	-0.24096958
169	0x3db8ab0a	0.09016998
170	0xbd17f647	-0.037100103
171	0x3b3af5de	0.0028527896
172	0xbe4e1367	-0.20124589
173	0x3da127ac	0.07868895
174	0xbdb0d3c1	-0.08634139
175	0xbe53e3a4	-0.20692307
176	0xbdeea137	-0.11651843
177	0xbe8d0482	-0.27542502
178	0x3e8207fc	0.25396717
179	0x3d73da65	0.05953445
180	0x3d4d86dd	0.050177444
181	0xbe849ebd	-0.25902358
182	0x3e920516	0.28519505
183	0x3e7a938b	0.24470346
184	0x3de94906	0.11390881
185	0x3e905a3b	0.2819384
186	0xbe00fa88	-0.1259557
187	0x3d49b956	0.049249016
188	0xbe739dce	-0.23790666
189	0xbe3bda3a	-0.18344966
190	0xbde43b75	-0.11144153
191	0xb737df0e	-1.0959584e-05
192	0x3e5d37a9	0.21603264
193	0x3e1d6a62	0.15372613
194	0xbe30a43c	-0.1725015
195	0x3e38a0c8	0.18030083
196	0xbe694581	-0.2278042
197	0x3be63126	0.007024902
198	0x3d23e57b	0.04001377
199	0x3e6ac2b8	0.22925842
200	0xbe2d874a	-0.1694614
201	0xbe587718	-0.2113918
202	0xbe179463	-0.14802699
203	0xbe87e860	-0.26544476
204	0x3e0339fd	0.1281509
205	0xbe36dcfe	-0.1785774
206	0xbcfb21cd	-0.030655766
207	0xbe102859	-0.14077891
208	0x3e97ae9b	0.296254
209	0x3e265273	0.1624239
210	0xbd03955b	-0.03212486
211	0xbe51b24c	-0.20478171
212	0x3e96e378	0.2947042
213	0x3d0c7f19	0.034300897
214	0x3dfa47f7	0.122207575
215	0xbe9c39b5	-0.30512777
216	0x3e83aab7	0.25716183
217	0x3e709080	0.23492622
218	0xbe7fb045	-0.24969585
219	0x3d8fd6cc	0.07023391
220	0xbe99f17c	-0.3006705
221	0x3c83af6c	0.016074859
222	0xbcbab823	-0.022792881
223	0x3e8afdde	0.2714681
224	0xbde97dcb	-0.11400946
225	0x3e319845	0.17343242
226	0xbd44264e	-0.047888093
227	0xbe4d7c31	-0.20066907
228	0x3db84630	0.08997762
229	0x3d63e353	0.055636715
230	0x3dd32292	0.10309328
231	0xbc7ff51d	-0.015622404
232	0x3debb45f	0.115090124
233	0xbd22ec9a	-0.039776422
234	0x3d4b86aa	0.049688973
235	0x3e7beb1b	0.24601404
236	0x3d8147fb	0.06312557
237	0x3e3db2ad	0.1852519
238	0x3e29082a	0.1650702
239	0xbe146c56	-0.14494452
240	0xbd5632b9	-0.052294467
241	0x3e130613	0.14357786
242	0x3e8170e4	0.2528144
243	0xbe202fb6	-0.156432
244	0x3d59a5df	0.053136703
245	0x3e7b6d32	0.24553373
246	0xbe5b8a49	-0.2143947
247	0xbda3586b	-0.07975849
248	0x3e1f15a1	0.15535595
249	0xbe29d395	-0.16584618
250	0x3e00c5ca	0.1257545
251	0x3d2741df	0.040834304
252	0xbe86d6f4	-0.2633587
253	0xbe241b12	-0.16025952
254	0xbdee46cc	-0.11634597
255	0x3e7a47c3	0.24441437

bias_ih_l1 f4 [40]
0	0xbe0e112e	-0.13873741
1	0xbe2628b7	-0.16226469
2	0x3db27283	0.087132476
3	0xbe9754f1	-0.29556993
4	0xbe6ab534	-0.22920686
5	0xbd588fa0	-0.052871346
6	0x3d836dbc	0.064174145
7	0x3e3420a9	0.17590584
8	0x3d070dc1	0.0329721
9	0xbe118330	-0.142102
10	0x3e92dc2b	0.286836
11	0x3e157a08	0.14597332
12	0x3e9b7fcb	0.30370936
13	0xbca726a6	-0.020404171
14	0x3be069a7	0.0068485322
15	0x3e47a836	0.19497761
16	0xbe99d2d5	-0.30043665
17	0x3e9da5da	0.30790597
18	0x3bddcdc1	0.0067689125
19	0xb9f1ace7	-0.00046095924
20	0xbdfcb90e	-0.12339984
21	0x3dc75cd2	0.09734501
22	0xbc9bb10e	-0.019005325
23	0xbe75fc09	-0.24021925
24	0x3c153a22	0.009108098
25	0x3e5ba70e	0.21450445
26	0x3e0a8a0e	0.13529226
27	0x3e9ba724	0.30400956
28	0xbdc9c603	-0.09852221
29	0x3dec796c	0.11546597
30	0xbdc70741	-0.097181804
31	0x3e4a4ee6	0.1975666
32	0xbc81b48a	-0.015833158
33	0x3d305405	0.043048877
34	0x3debf840	0.11521959
35	0xbe76c6a8	-0.24099219
36	0xbe208bbc	-0.15678304
37	0xbdf1a03a	-0.11798139
38	0x3e7428e4	0.23843724
39	0xbe249981	-0.16074182

bias_hh_l1 f4 [40]
0	0xbd128852	-0.035774536
1	0xbe76472c	-0.24050587
2	0xbdb85d69	-0.090021916
3	0x3cbe8bc8	0.023260012
4	0x3e593da6	0.21214923
5	0x3d26ed2f	0.04075354
6	0x3e161dc9	0.146598
7	0xbe8f6f8c	-0.2801479
8	0x3e6691b8	0.22516525
9	0x3e40f72e	0.18844292
10	0x3dc30b51	0.09523643
11	0xbdb10222	-0.08642985
12	0x3d851c6d	0.064995624
13	0xbe468229	-0.1938559
14	0x3e7ef9ae	0.24899933
15	0xbe9f5719	-0.31121138
16	0x3aabf373	0.0013118818
17	0x3e94a473	0.29031715
18	0xbdfe508d	-0.124177076
19	0xbe5745a9	-0.21022667
20	0xbdb838f3	-0.08995237
21	0xbcdb9786	-0.02680565
22	0xbe4859a5	-0.19565447
23	0xbd416806	-0.047218345
24	0xbdf4c7a0	-0.11952138
25	0xbdaf634c	-0.08563861
26	0x3de608e6	0.11232166
27	0xbda8eabc	-0.08247897
28	0x3e9d9844	0.30780232
29	0xbe59f825	-0.21286066
30	0x3e89b2ae	0.26894134
31	0xbe54f08d	-0.20794888
32	0x3e5821ca	0.2110664
33	0x3de135fc	0.10996625
34	0x3dbef368	0.0932377
35	0x3e19f9b1	0.15036656
36	0x3d24a622	0.0401975
37	0xbdd05ccf	-0.10173952
38	0xbe70136e	-0.23444912
39	0xbe4b7863	-0.19870143

weight f4 [1, 10]
0	0x3e2d4a06	0.16922769
1	0x3dedc16a	0.116091564
2	0xbe4f5d0a	-0.20250335
3	0xbd024922	-0.031808026
4	0xbe1f70ab	-0.15570323
5	0x3e71cab2	0.23612478
6	0xbd9bdcd4	-0.07610479
7	0xbd513408	-0.05107501
8	0x3d8d2976	0.06892674
9	0xbe123c82	-0.14280894
