competition/result/lstm2layer/trained_model/all_model/actor_num_epoch_1.pth (torch, 12542 bytes, 9 tensors)

weight_ih_l0 f4 [40, 11]
000000 52 03 1f be c6 5a 8f be ed f0 e1 bc 4c 6c ce bc
       -0.1552861 -0.27998942 -0.027580703 -0.025198124
000010 09 4b 99 be c4 df 22 3d 7c 83 69 be 71 04 14 be
       -0.2994006 0.03976418 -0.22804064 -0.1445482
000020 72 92 87 3e 1d 46 77 3e db 6f 6b 3e 00 00 03 3e
       0.26478916 0.2414784 0.22991888 0.12792969
000030 13 bf 7c be 66 d0 8b 3e a7 95 83 bb 1b d7 29 be
       -0.24682264 0.27307433 -0.0040156427 -0.16585962
000040 4f c5 7c 3e 04 e7 20 be 54 02 78 3e 1c f1 36 3e
       0.24684642 -0.15713125 0.24219638 0.17865413
000050 ac e4 5b 3d 6e a9 27 be 63 df 35 3e 14 ce 88 be
       0.053684875 -0.16373226 0.17760997 -0.26719725
000060 79 fc 8e be b8 6e b9 3c f6 73 ed 3d c1 36 5c be
       -0.27926996 0.022635803 0.115943834 -0.21505262
000070 b6 3f 59 3e 02 b7 4d 3d 18 8c 75 3d d4 e0 3e bc
       0.2121571 0.050223358 0.059948057 -0.011650283
000080 88 f5 2b 3d 74 82 9e 3e 75 3f 9e 3e 0d fe 27 3e
       0.041982204 0.30958903 0.3090779 0.16405506
000090 bf af a6 ba 19 4f 8d be 12 96 df bd ce 6b 8f be
       -0.0012717171 -0.2759941 -0.109172955 -0.28011936
0000a0 f8 ab a1 be 1b b4 2e 3e 60 11 6c be 9c de ed 3c
       -0.31576514 0.17060892 -0.23053503 0.029036812
0000b0 2e 3c 62 3e 1b 6b 9b be fd d8 87 bd d8 7b f3 3d
       0.22093269 -0.30355152 -0.06633184 0.11888856
0000c0 f2 da 83 be 49 7d 29 be b5 cb 89 3d 34 b4 95 be
       -0.2575298 -0.16551699 0.06728307 -0.29239047
0000d0 24 d4 58 3e e7 58 94 be a7 c6 fc bd 54 a9 33 3e
       0.21174675 -0.28974077 -0.123425774 0.17545062
0000e0 d7 41 96 3e 3c 79 85 be 14 b6 66 3e 54 61 14 3d
       0.29347107 -0.26069057 0.22530395 0.03622563
0000f0 4e 3d 8a 3e f2 a9 3e 3e 27 84 09 3e 0b 06 ef 3c
       0.26999897 0.18619516 0.13429318 0.029177686
000100 0b e6 61 bd e4 13 5a be 88 7f 0c be d1 2a 78 be
       -0.055151027 -0.2129665 -0.13720524 -0.24235083
000110 39 e6 25 3e 58 bd 85 3b 40 f2 1a bc bd 34 0a bd
       0.16201104 0.0040814094 -0.009457171 -0.0337417
000120 75 50 92 3d ba 4a 90 3e c8 fd 05 3d 93 da c4 bd
       0.07144252 0.28182012 0.032712728 -0.09612002
000130 15 4f 5f 3e 05 34 37 be 2a 3e 98 3e 06 45 f0 bd
       0.21807511 -0.17890938 0.29734927 -0.11731915
000140 24 bf ab 3d 71 34 9a 3d 78 55 aa bb 8c 0a 9c be
       0.083860666 0.07529534 -0.005198177 -0.30476797
000150 5e 23 df 3d 28 83 45 3d 81 df 7e 3e 33 39 64 be
       0.10895418 0.048220783 0.24889947 -0.22287445
000160 01 25 92 bc 2b 97 d4 3c f3 b6 b4 3c d9 1b 43 3e
       -0.01783991 0.025950989 0.022059893 0.19053592
000170 9b 8c ab bd d7 8b b2 3d 7a 1c 81 3e 4f 94 49 3e
       -0.08376428 0.087180786 0.25217038 0.19685481
000180 08 ec 87 be d6 d8 a0 be 91 8a 54 be c3 11 8f 3e
       -0.26547265 -0.31415433 -0.20755984 0.2794324
000190 95 b4 71 3e ad 9a 5f be 54 88 08 bd ec 81 56 3e
       0.23604043 -0.21836348 -0.033333138 0.20947999
0001a0 e3 a8 ea 3d 0f 33 b2 3d 1e 44 5d be 72 26 86 3e
       0.11457994 0.08701145 -0.21608016 0.26201206
0001b0 ad a7 2c 3e 63 76 61 3e 86 9a 6b be cb 57 1f be
       0.16860838 0.22017817 -0.23008165 -0.15560834
0001c0 03 c2 38 be 17 78 f9 bd c1 6f fb 3c d3 8c 8e be
       -0.1804276 -0.121811084 0.030692937 -0.27841815
0001d0 26 dc 00 be 44 06 fb bb a7 32 08 be cd 0a 41 3d
       -0.1258398 -0.007660659 -0.13300572 0.04712944
0001e0 34 1e 98 be 18 41 ec bd c6 cb 6f 3e 80 03 44 3e
       -0.29710543 -0.11535853 0.23417577 0.1914196
0001f0 1b 93 47 be 02 eb f8 bb be ad 72 be 80 fa cb 3c
       -0.1948971 -0.0075963745 -0.2369909 0.024899721
000200 4a 81 b4 bd 1c 35 54 bd f4 d5 b2 bd 15 f4 5c be
       -0.088137224 -0.05180846 -0.087322146 -0.21577485
000210 de 48 f9 3d 14 49 e3 3c c7 0c 6e 3d c9 8f 62 be
       0.121721014 0.027744807 0.058117654 -0.22125162
000220 0b f4 60 be 5f 7b 55 be 90 f3 5c be ef 1b 03 be
       -0.21968095 -0.20847844 -0.21577287 -0.12803625
000230 7c cf 22 3e 87 47 6c 3e 02 fb cc 3d 2b 02 07 be
       0.15899462 0.2307416 0.100088134 -0.13184421
000240 b4 47 9d 3e 9a 0d 42 3e 87 30 32 3e af 1d 26 bc
       0.30718768 0.18950501 0.17401324 -0.010138913
000250 38 5c c2 3c 72 e7 55 3e 56 21 0f be c9 95 a1 3e
       0.023725614 0.2088907 -0.1397756 0.3155959
000260 9e fe 6c 3e 95 4f 96 3e 51 bc 93 be ad dc 60 be
       0.23144004 0.2935759 -0.28854612 -0.21959181
000270 fd d2 31 3d 1c f0 f7 bc 7e 12 70 bd 15 3c 99 bd
       0.043414105 -0.03026586 -0.058611386 -0.07482163
000280 3a 1f 21 bd 8c 0f 92 be 07 cc 99 bd 50 1d 2f be
       -0.03933642 -0.28527486 -0.07509618 -0.17101026
000290 00 95 eb bd e5 df a9 bd 93 ad 4e be 0b 89 91 be
       -0.11503029 -0.082946576 -0.20183401 -0.28424868
0002a0 60 c6 37 3d 4c 65 88 bd 8b c4 2a 3e e0 c3 1e 3d
       0.04486692 -0.06659946 0.16676538 0.03876102
0002b0 20 ec 84 3d 49 1e 98 3e 29 bd 1b be 9e 5d a7 3d
       0.0649035 0.29710606 -0.15208878 0.08172153
0002c0 71 7d 80 be 07 38 87 3e 9d 6e 4e bc 1b a7 79 be
       -0.25095704 0.26409933 -0.012599614 -0.24380152
0002d0 57 b2 81 be 85 bb 56 3e 23 4c c9 3d dc 85 3b 3e
       -0.25331375 0.2096997 0.09828975 0.18312782
0002e0 fe 9a 47 be 7e 1c 69 be 71 20 8d be 66 25 28 3e
       -0.19492719 -0.22764775 -0.27563813 0.16420516
0002f0 b4 86 36 bd ec b3 4d be 98 1f 69 3e af bf 81 be
       -0.044562057 -0.20088166 0.22765958 -0.25341555
000300 d0 f9 64 bd 26 34 ff 3d 1a 28 d8 bd 3a ce 6c 3d
       -0.055902302 0.124611184 -0.10554524 0.05781386
000310 c1 78 fb bd 1d 26 90 be e4 d1 da bd 58 29 6e be
       -0.12278891 -0.28154078 -0.10684565 -0.23257959
000320 73 a8 c1 bc cb 1f 86 3e b8 2f 37 bd af 18 b4 3d
       -0.023639893 0.2619613 -0.044723243 0.087937705
000330 e8 d0 09 be 59 17 5e 3e 5a a7 80 3e ef 9c 65 3e
       -0.13458598 0.21688594 0.2512768 0.22423147
000340 f6 71 2e 3d b7 01 11 be 60 dc c4 bc 5b 06 b6 3d
       0.04258915 -0.1416081 -0.024030864 0.08887931
000350 ac 97 1a be be 6b 4d be e1 63 90 be a6 e4 1a be
       -0.1509692 -0.20060632 -0.28201202 -0.15126285
000360 a2 72 82 be 57 77 de 3d 40 be 66 bd 14 58 63 3e
       -0.25478083 0.10862606 -0.05633378 0.22201568
000370 ed 77 64 3e 11 0d 4c bc 06 e3 76 bd 51 38 b6 3d
       0.22311373 -0.012454287 -0.0602751 0.0889746
000380 79 3c 95 be 6e 93 99 be 9b 08 85 be 2b 25 72 3e
       -0.291477 -0.29995292 -0.25983128 0.23646991
000390 d3 44 1a 3e 81 5d 4c 3e 9e 87 46 be 56 ba f6 bd
       0.15065317 0.19957544 -0.19387671 -0.120472595
0003a0 16 27 1e bd 69 3b 8a 3e e1 2e f5 bd 29 e1 04 3d
       -0.038611494 0.2699845 -0.11971832 0.032441292
0003b0 d0 30 71 be 53 7e 37 be 5d 3a c1 bc 02 dc 47 be
       -0.23553777 -0.17919283 -0.0235874 -0.1951752
0003c0 94 00 00 3e 6a a2 6e be 0a 2c f1 bc a9 45 80 bc
       0.1250022 -0.23304144 -0.029439945 -0.015658217
0003d0 11 36 d7 bd 72 2f 97 3e 86 3f 7c 3e 7d 52 c8 3d
       -0.10508359 0.29528385 0.24633607 0.097813584
0003e0 f3 39 5e be 98 f0 9a 3e ed 87 46 3d eb a1 91 3e
       -0.21701793 0.30261683 0.048469473 0.28443846
0003f0 b4 ce bd bd d3 b4 92 3e 82 fd 9e 3c 9e 3d 46 be
       -0.09267941 0.28653583 0.019407991 -0.19359443

weight_hh_l0 f4 [40, 10]
000000 20 2d a9 bc 6d 1c a0 3c 3a ec 16 3d 9b 1d d3 bd
       -0.0206514 0.019544804 0.036846377 -0.10308381
000010 f2 38 83 be 22 03 eb bd 05 c1 8f 3e cf 59 cd bc
       -0.25629383 -0.11475207 0.2807695 -0.025067238
000020 93 8c 89 be d7 e5 92 be 35 9e 88 be 0a 5d 62 be
       -0.26865062 -0.2869098 -0.26683202 -0.22105804
000030 d6 41 3a 3e 3a db 93 3e a2 3c b2 3b ba 84 42 3e
       0.18189177 0.28878194 0.005439357 0.18995944
000040 96 15 2f 3e e5 39 9d 3e 9f d9 1e 3e 2c 6d 99 3e
       0.17098078 0.30708233 0.15512703 0.29966104
000050 b8 9d 9a be c2 f0 38 3b 6e 2a 81 3e fd 10 0f be
       -0.30198455 0.0028219675 0.25227684 -0.13971324
000060 46 43 91 3d 54 dd 6b 3e 27 de 46 be eb 86 f3 3d
       0.070929095 0.23033649 -0.19420682 0.11890968
000070 98 68 ef 3d 3d 47 cf bd 8b 74 33 be 96 4b 33 3e
       0.116898715 -0.101210095 -0.17524926 0.17509302
000080 59 b0 32 3e 47 dc 09 bb f3 aa 13 be 66 81 97 be
       0.17450084 -0.0021035837 -0.1442068 -0.2959091
000090 3b 57 fd bd 6e 97 99 bd 7e cb c0 bd 99 3b 95 3e
       -0.123701535 -0.07499586 -0.09413813 0.29147032
0000a0 ba 86 44 bc 76 f2 62 3e c0 ff 59 3e e1 74 6b 3e
       -0.011995012 0.22162804 0.21288967 0.22993805
0000b0 1a 2a 1f 3e 78 60 b3 3d 9d 42 84 bd 8a bb b8 3d
       0.15543404 0.08758634 -0.06458018 0.09020145
0000c0 aa e8 ab bc 18 fa b2 3d 2b 01 21 3e e4 3e a0 be
       -0.020984966 0.08739108 0.15723102 -0.31297982
0000d0 ac a0 01 be 2b 38 ef bc 5e 18 a1 be 2e cb 45 be
       -0.12658948 -0.029201588 -0.31463903 -0.19315788
0000e0 bb 11 3a 3e 50 76 2e 3e 33 33 2d be f5 58 31 3e
       0.18170826 0.1703732 -0.16914062 0.1731909
0000f0 f1 52 68 bb e7 54 aa 3d ec 72 59 3e f3 c3 58 be
       -0.0035449828 0.08316975 0.21235245 -0.21168499
000100 8d ba 0a be 80 05 71 3e 90 78 27 be a3 9c 44 be
       -0.13547726 0.23537254 -0.16354585 -0.19200377
000110 a3 70 a0 3e 90 32 7d be 24 c0 09 be 4e 2b 9e 3e
       0.31335935 -0.2472632 -0.13452202 0.30892414
000120 ec fc 4f be a7 a6 6c be ee 61 4e 3e f7 01 80 bd
       -0.20311326 -0.23110448 0.20154545 -0.06250375
000130 90 33 08 3e 61 4e e6 bd 23 70 ea bd 3f 3c 5b be
       0.1330092 -0.11245418 -0.1144717 -0.21409701
000140 c5 9f a0 be 2c b2 2b 3d c6 bb 75 bd d8 f5 99 bd
       -0.31371894 0.041917965 -0.059993528 -0.07517594
000150 7d 01 e7 ba 38 79 e0 bd 51 8d 43 3e d6 64 e2 bd
       -0.0017624345 -0.10960621 0.19096877 -0.11054389
000160 fd 79 a0 be fd 80 64 3e 6f 1a 84 be f2 2b 41 3e
       -0.3134307 0.2231483 -0.25801417 0.1886442
000170 a1 13 46 be 19 04 70 3e 15 26 55 be 62 89 80 3d
       -0.19343425 0.23439063 -0.20815308 0.06276204
000180 e9 d8 0b bd 59 7f 03 be d0 92 0c be 92 87 03 bd
       -0.03414241 -0.12841548 -0.1372788 -0.03211171
000190 24 9c 8e 3e 54 1d ac 3d 19 f0 3b 3e 05 9e 18 3d
       0.278535 0.084040314 0.18353309 0.037260074
0001a0 ca 49 2a 3e 18 81 4d 3e e4 0b 84 be d4 64 82 3c
       0.16629711 0.20068777 -0.25790322 0.01591722
0001b0 a3 69 62 be 83 de 99 bb 25 e8 4c bd 62 c9 1f 3e
       -0.2211061 -0.004695715 -0.050026078 0.15604165
0001c0 1d bf e6 bd 9d 75 a1 3e 34 35 ec bc 9f 99 2b be
       -0.11266921 0.31535044 -0.028833963 -0.1675782
0001d0 62 57 a4 3c fa 4d 5f 3e a7 90 38 3e 9d 3f 80 3e
       0.020061199 0.2180709 0.1802393 0.25048533
0001e0 ec 45 27 3e ad c9 a0 3e 95 34 d3 3b 00 20 8f bd
       0.16335267 0.31403866 0.0064454773 -0.069885254
0001f0 91 f3 3a 3e 02 ff 8c 3e 13 fe 42 be 58 3d 95 be
       0.18256976 0.27538306 -0.19042234 -0.29148364
000200 23 f1 93 3e c0 4c f3 3d c9 fa 96 bd 7a a2 0a bd
       0.2889491 0.11879873 -0.07372052 -0.033846356
000210 01 3a 75 be 16 fd 7a 3e ec 92 79 3e e2 9d 8f 3e
       -0.23947908 0.24510607 0.24372452 0.28050143
000220 e7 98 84 be 83 6c 90 be 80 d7 73 be 15 7d 47 be
       -0.25897905 -0.28207788 -0.23812675 -0.19481309
000230 57 d9 5d 3e 58 44 73 3d 0d eb 2e bd 58 44 5c 3e
       0.2166494 0.05939135 -0.04270463 0.21510446
000240 22 7a 5d be f6 d1 1e 3d 4e 87 57 3e ba 3f ea bd
       -0.21628621 0.038774453 0.21047708 -0.11437936
000250 e5 53 17 3d f6 c6 81 3e aa fd 5a 3d 79 19 33 bd
       0.036945242 0.25347108 0.05346457 -0.043725464
000260 18 2f 5e be 92 52 52 3e 67 c8 08 be 6c 07 9d be
       -0.21697652 0.2053931 -0.13357697 -0.30669725
000270 14 2a 18 be 18 1c 80 3e 94 ec 2e be ea da a7 bd
       -0.14859802 0.25021434 -0.17082435 -0.081960514
000280 6a 74 4b 3d f4 aa ef bd 31 60 0a bc 34 0c 8c 3e
       0.049671568 -0.117025286 -0.008445785 0.2735306
000290 7a 6f c9 bd b2 43 2e be 44 93 9f 3e dd a0 88 bd
       -0.098357156 -0.17018011 0.31167042 -0.06671307
0002a0 6d 0a 41 be e8 83 53 be 71 f9 c8 3d 27 b4 e7 3d
       -0.18851633 -0.20655787 0.09813202 0.11313658
0002b0 5b 30 29 3e a3 42 59 3e 7e 75 54 3c 7e 7a 47 3d
       0.16522352 0.21216826 0.012967465 0.048700802
0002c0 01 83 71 be 9c 56 67 bd 89 18 3a bd 38 b1 7a bd
       -0.2358513 -0.05647908 -0.045433555 -0.061204165
0002d0 53 fa 70 be e4 8a 6c bc 75 84 63 3e 94 66 9c be
       -0.23532991 -0.014437411 0.22218497 -0.3054701
0002e0 91 22 a0 3e 9d a5 17 be be f4 72 bd 13 23 88 be
       0.31276372 -0.1480927 -0.059315436 -0.2658926
0002f0 08 66 a5 3d df 01 19 bd 09 e7 8c be d3 5f a4 bc
       0.080761015 -0.0373553 -0.27520016 -0.020065224
000300 02 4c d8 3d 36 23 45 be ad 66 98 3e f3 5d 97 bd
       0.10561372 -0.19251713 0.29765835 -0.07390966
000310 b0 9d 8b 3e 66 54 9f 3e cd 36 b3 bc 10 6a f8 3c
       0.27268744 0.31119078 -0.021876717 0.030324012
000320 64 12 02 3e 62 41 aa 3d c5 10 9a be 7d 2c 8c 3e
       0.12702328 0.08313252 -0.3009092 0.27377692
000330 b1 63 99 be c9 ec 7d 3e 2d 20 95 3e ab 92 9c be
       -0.2995887 0.24797358 0.2912611 -0.3058065
000340 34 7f 8d 3e ab 7a 2f bd c3 a6 40 3e 3d c5 a7 3d
       0.2763611 -0.042841595 0.18813615 0.08191917
000350 a0 2a 27 be 1e a1 60 be 6f c9 29 be f6 e9 f5 3d
       -0.16324854 -0.21936461 -0.16580747 0.12007515
000360 72 c5 1f 3e 39 e1 89 be 63 2e 8e be ff 7b 98 3e
       0.15602663 -0.26929644 -0.27769765 0.29782102
000370 19 ab 39 3e f0 0a 7e 3e 70 14 66 3c b9 f0 fb bd
       0.18131675 0.2480886 0.014042959 -0.123017736
000380 32 96 05 be c2 fa 3e 3e 10 d6 9f 3d 2b fa 11 be
       -0.13045576 0.18650344 0.07804501 -0.14255588
000390 50 9e 93 be c8 74 a0 be bf 47 61 bd fb b8 3b be
       -0.2883172 -0.31339097 -0.055000063 -0.18332283
0003a0 27 7c 80 3e 1c 69 32 3e a8 9f 63 3e 62 00 04 be
       0.2509472 0.17422909 0.22228873 -0.12890771
0003b0 cf 18 23 3e 90 2c 72 bd 94 c6 07 be 38 a5 7a be
       0.15927432 -0.05912453 -0.13259345 -0.24477088
0003c0 f3 78 3e bd 1e 12 82 3d 47 8b 75 bb f1 c1 e3 3d
       -0.046502065 0.06351112 -0.003746705 0.11120976
0003d0 bb 17 a1 3e 1a 43 c8 bd ce 09 1d be 69 ff f5 bd
       0.31463417 -0.097784236 -0.15335771 -0.12011606
0003e0 78 76 15 3d 93 ea 2b 3e 26 af 5c bd 53 a1 78 3e
       0.036489934 0.16788702 -0.053877972 0.2428029
0003f0 69 10 f7 bd a0 ad 44 3c 3d b5 e0 bd 4d 93 96 bd
       -0.12063677 0.012004286 -0.109720685 -0.07352314

bias_ih_l0 f4 [40]
000000 40 50 a9 bd 56 2a 05 3d a2 21 a1 be 16 94 e3 bd
       -0.082672596 0.032511078 -0.31470972 -0.111122295
000010 63 d6 7f 3e 1b 8a 28 bd b7 96 0f be ed e7 80 3d
       0.24984126 -0.041147333 -0.14022337 0.06294236
000020 9f 75 df bb 70 45 6e be 50 47 9d 3e c2 8a 9e be
       -0.0068194414 -0.23268676 0.3071847 -0.3096524
000030 33 44 51 3e 2d 90 be bd bd 31 3f 3e d9 4a 8c be
       0.20436172 -0.09304843 0.18671317 -0.27400854
000040 58 41 1d bd 96 fb 32 be ff 0d 8c be f7 6b 73 be
       -0.038392395 -0.17478785 -0.27354428 -0.23771654
000050 a0 03 44 be 5f e0 79 be 41 a3 95 3d ca be 25 3e
       -0.19142008 -0.24401997 0.07306529 0.16186062
000060 15 95 df bc 41 ff 4b be f8 c1 97 3d ad 9a 57 3d
       -0.027292768 -0.1992159 0.074100435 0.052637745
000070 bf 16 9d be 2e 5f 0a be 50 29 a5 3d 5a 08 5e 3d
       -0.30681416 -0.1351287 0.0806452 0.054207183
000080 04 1d a0 be 97 6a 2f be a3 c6 64 be 69 dd 8d be
       -0.31272137 -0.17130505 -0.22341399 -0.27707985
000090 f1 f5 1a bd a4 ec a2 3c 9a d8 2a bc ba db 91 3e
       -0.037832204 0.01988823 -0.010427618 0.2848795

bias_hh_l0 f4 [40]
000000 b1 e1 9c bd c9 60 01 3e af ae 69 3e 48 42 5b 3e
       -0.07660235 0.12634577 0.22820543 0.21412003
000010 e8 15 26 3e fc a7 ef 3d ac 4e 8b 3e ce 2e 11 3e
       0.16219294 0.11701962 0.2720846 0.14178011
000020 cf 04 1b 3c 00 1a 23 3e 6c 34 d6 bd e1 83 7b be
       0.009461596 0.15927887 -0.104592174 -0.24562027
000030 5f bd e5 3d e5 dd 30 bc aa 18 bc bd e1 29 5b 3d
       0.1121776 -0.010795091 -0.09184392 0.053506736
000040 32 e7 92 3e e9 3d b2 bb ca 83 bc 3d 4b 2e 92 be
       0.28692013 -0.005439509 0.09204824 -0.28550944
000050 d3 0d 23 3e eb 55 03 3e e5 11 83 3d 15 11 37 be
       0.15923242 0.12825744 0.063998975 -0.1787761
000060 c9 71 98 be c7 98 86 be 52 39 30 be 17 42 74 be
       -0.2977431 -0.26288435 -0.17209366 -0.23853336
000070 b3 8b 25 be 67 cf 34 3d 3f 0b 87 3e e2 66 95 be
       -0.16166572 0.044143107 0.26375768 -0.29180056
000080 d6 70 1b 3b 75 f1 8e be b9 00 9e bc a7 1d 80 be
       0.0023718379 -0.27918592 -0.019287454 -0.25022623
000090 c2 b9 11 bc 1e 5b 9a bc eb 67 69 be 09 ea 1b bd
       -0.008894386 -0.018842276 -0.22793548 -0.03806499

weight_ih_l1 f4 [40, 10]
000000 7d c2 e7 bc 0c 5e 25 be 4c 8c 3b be 80 f6 43 be
       -0.028290981 -0.16149157 -0.18315238 -0.19137001
000010 fc 03 29 3c 58 4d 89 3e a3 a6 80 be 3a cf c8 bd
       0.010315891 0.2681682 -0.25127134 -0.0980515
000020 83 88 22 3e cc 14 76 be 6c da 0a be 58 b5 d5 3c
       0.15872388 -0.24031371 -0.13559884 0.026087448
000030 39 d9 48 3c b5 8a 28 3e 4e 57 15 3e b1 3a 52 3e
       0.012258821 0.16459163 0.14584085 0.20530201
000040 3b ca ef bd e1 9e 91 3e e7 9c 83 be 58 12 6c 3e
       -0.11708494 0.28441527 -0.25705644 0.23053873
000050 27 90 21 3e be f7 69 3d ab a9 07 be 2b 78 17 be
       0.15777646 0.05712103 -0.13248317 -0.14791934
000060 d1 c2 37 3e 89 86 53 3e 78 12 eb bd 8b 8f 09 3d
       0.1794541 0.2065679 -0.11478132 0.03358416
000070 b6 9b 2f 3e 51 61 25 be 96 63 05 3d 0c b7 87 3e
       0.17149243 -0.16150405 0.032565676 0.2650684
000080 57 10 86 bc 35 c0 1f 3e 1e 55 68 be 3a 1e 28 3e
       -0.016365213 0.15600665 -0.2268872 0.1641778
000090 ad 74 8e be f3 12 8a 3e b7 9c 9b 3e 22 a4 87 be
       -0.27823392 0.26967582 0.30393 -0.2649241
0000a0 bd 1f 00 be 67 9d 71 3e 71 98 81 be 0e c9 2c bd
       -0.12512107 0.235952 -0.25311616 -0.04218393
0000b0 43 d4 9c be 9e 01 79 3e bf 7e 84 be 13 e6 8f 3e
       -0.30630693 0.24317023 -0.2587795 0.2810522
0000c0 56 0b 84 3b 38 78 0e be f0 f5 8b 3e df 21 38 3d
       0.0040296717 -0.13913047 0.27336073 0.044954177
0000d0 e9 19 07 3e 7a 7a 16 be ca 5c 93 be f7 48 e2 bc
       0.13193478 -0.14695159 -0.2878173 -0.027622683
0000e0 95 a1 1b bd 69 5c 37 3e 6d d3 85 3e 11 c7 00 be
       -0.037995894 0.17906345 0.26137868 -0.12575938
0000f0 81 eb 33 be 7f c4 47 3e 8a 21 b5 3c c9 85 90 3e
       -0.17570306 0.19508551 0.02211072 0.2822707
000100 76 7e ef 3c b5 b5 26 be 27 86 45 3e e7 86 3d 3e
       0.029235106 -0.16280253 0.19289456 0.18508492
000110 bf 0a b6 3c 75 98 96 be 01 23 87 3e 25 cb 8d 3e
       0.022221921 -0.2941319 0.26393893 0.2769405
000120 0f b0 ba 3d 47 f8 9c 3e 15 e6 81 3e a6 ca e7 bd
       0.09115612 0.3065817 0.2537085 -0.11317949
000130 a2 2f b9 3c 6a bb 57 be 34 da 40 be 28 ea 27 bb
       0.02260572 -0.21067587 -0.18833238 -0.0025621746
000140 68 fb d3 3c a6 cc 24 3d 29 f0 c6 bd 15 12 5f 3e
       0.025876716 0.04023423 -0.09713776 0.21784241
000150 13 f0 7a be 77 48 62 be 81 35 25 3e a1 f6 61 3e
       -0.24505644 -0.22097956 0.16133691 0.22066738
000160 5c c5 25 be c5 4f 86 3e e3 9b 77 bd 7c 67 c8 bd
       -0.16188568 0.26232734 -0.0604514 -0.09785363
000170 91 0c ce bd 60 02 38 3d 66 52 7c 3e 57 12 bc bc
       -0.100609906 0.04492414 0.24640808 -0.022957964
000180 b4 21 02 3e 1e 20 2a be 50 e6 61 3c a7 93 4f be
       0.12708169 -0.16613814 0.013787821 -0.20271169
000190 a1 15 7f 3c a4 14 95 bd d9 f7 78 3e 7f e4 a4 3d
       0.015569122 -0.072793275 0.24313296 0.08051395
0001a0 33 f9 6b be 4c b5 0a 3e 5d f4 02 3d 3b 2f 6d be
       -0.2304428 0.13545722 0.031971324 -0.23162548
0001b0 6d 96 9c 3e 83 d8 c8 3c d4 83 89 bd 83 4a 62 be
       0.30583516 0.024517303 -0.06714597 -0.22098736
0001c0 23 60 1f be 40 2f 58 3b 73 8a df 3b ea 06 30 bc
       -0.15564017 0.0032987148 0.0068219244 -0.010743836
0001d0 26 53 98 bd 8a 16 d8 bd 78 86 2d be 7e bb 43 be
       -0.07437734 -0.10551174 -0.16945827 -0.19114491
0001e0 e3 71 1f be 6a 9b 24 3e 3d 80 95 3e 4c 3b 22 be
       -0.15570788 0.16074911 0.291994 -0.15842932
0001f0 c1 9f 5d 3e 3b b3 16 bd 6f b8 12 be fd 67 40 3d
       0.21642973 -0.03679202 -0.14328168 0.04697417
000200 ab 10 95 be be d8 83 be f0 54 5a 3e 95 89 98 3e
       -0.2911428 -0.257513 0.21321464 0.29792467
000210 72 ed 84 3e a4 8e 6d bd ca 56 94 3e a8 b6 0a 3e
       0.25962406 -0.05799736 0.28972465 0.1354624
000220 0b ba 60 be fb 4a db 3d 8f 51 11 be b8 80 8f be
       -0.2194597 0.10707661 -0.14191268 -0.28027892
000230 cf e6 77 be cb 61 26 be 4f 1e 06 bd 75 18 6e 3e
       -0.2420914 -0.16248243 -0.03274375 0.23251517
000240 2a 56 85 3e ea 8d e5 bc 04 5c e8 bd 01 2a 82 3d
       0.260423 -0.028021771 -0.113456756 0.06355668
000250 aa ac c9 3d 55 61 89 bd 8b c1 58 be 95 b2 40 be
       0.09847386 -0.06708018 -0.21167581 -0.18818124
000260 0e 57 e7 3c e5 69 51 be c4 9c 9a be d7 3a 86 3d
       0.028239753 -0.20450552 -0.30197728 0.065541916
000270 f7 35 4c 3d 25 18 ec 3d 07 9c 2f be 7d c4 84 be
       0.049856152 0.11528043 -0.17149363 -0.2593116
000280 69 fd 3e be a6 60 84 be 79 33 a5 bc d7 9f 9d bc
       -0.18651356 -0.25854987 -0.020166146 -0.019241257
000290 9a dc 77 be 9a 82 e1 bc 49 cd 5e 3e df 02 a1 3d
       -0.24205247 -0.027528096 0.21757998 0.07861876
0002a0 4b 3a 85 be 81 03 dc bd 8d 61 80 be 7a e3 27 3d
       -0.26021037 -0.10742856 -0.25074425 0.040988423
0002b0 fd d0 0a be fc 0f 8e bd ff 17 56 3e ca 6b 8f be
       -0.13556285 -0.069366425 0.20907591 -0.28011924
0002c0 65 4c 08 3d 9e 24 fd 3c f3 d9 a1 be 9a 3c 9c 3d
       0.03327598 0.03090125 -0.31611595 0.07628746
0002d0 a8 ab 60 be 89 96 9b be 24 49 af bc 35 04 8e 3e
       -0.21940482 -0.30388287 -0.02139718 0.27737585
0002e0 84 88 8e 3e 2b 61 0a 3e 1f 8a 9d 3c 4e 32 1e 3e
       0.27838528 0.13513629 0.0192309 0.15448877
0002f0 c2 d5 7e 3e f4 5f 36 bd 0f 13 ec bb b8 3f 13 3e
       0.2488623 -0.0445251 -0.0072044204 0.14379776
000300 86 21 98 be e8 fb 0b 3e f0 ae a2 3d cd 04 9e be
       -0.29713076 0.13670313 0.07943523 -0.30863038
000310 60 c4 a1 bc 15 8a 88 be ed 87 de bd d7 a6 9a 3e
       -0.01974696 -0.26667848 -0.108657695 0.30205414
000320 53 51 65 be fa cd 0d 3e 59 a7 94 3e e5 77 87 3d
       -0.22394304 0.13848105 0.29033926 0.06614665
000330 0d ca 64 bd 2d a4 a0 3e b3 c9 58 3e eb 33 56 be
       -0.055856753 0.31375256 0.21170692 -0.20918243
000340 83 6f 91 be f8 d7 8a bc 99 f3 d0 bc 03 5d 38 bd
       -0.2840539 -0.016948685 -0.025506781 -0.045010578
000350 a7 12 77 3e 77 4a 31 3d cd 91 30 be aa 1e 41 be
       0.24128209 0.043283906 -0.17243119 -0.18859354
000360 bf 22 5a bc 0d b8 5e 3e eb b0 cc bd 56 5d a8 bd
       -0.013313948 0.21749897 -0.09994682 -0.082209274
000370 8e da 97 3e 85 f1 71 be 88 3f a8 bd 0d b9 bb bd
       0.29658931 -0.23627289 -0.082152426 -0.09166155
000380 af a5 86 be e1 65 9b be ac 89 4e bd f8 bc 35 3e
       -0.26298282 -0.30351165 -0.050424263 0.17747867
000390 a3 19 ed bc 27 a9 14 3d 04 67 9e be 2e b8 65 3e
       -0.028942889 0.03629413 -0.3093797 0.2243354
0003a0 98 09 86 3e 5d 8e 19 3e 7e e0 29 3e 08 5d 24 be
       0.26179194 0.14995714 0.16589543 -0.16051114
0003b0 93 a5 97 be de 59 57 3d b5 bc fd bd 4d 37 97 3e
       -0.2961851 0.05257594 -0.12389509 0.2953438
0003c0 41 42 80 3e 85 50 23 bd 78 70 9e ba 61 8d 44 3e
       0.25050548 -0.03987171 -0.0012087962 0.19194557
0003d0 62 92 a5 bd 10 e3 17 bc 76 59 41 be 34 f0 38 3e
       -0.08084561 -0.0092704445 -0.18881783 0.1806038
0003e0 d2 e6 9f be 34 41 46 3e 3e 01 b1 bd 0d b8 2b bd
       -0.3123079 0.1936081 -0.08642815 -0.04192357
0003f0 d3 63 54 be 85 6d 6f be 0a 70 56 3e 11 b7 80 3e
       -0.20741205 -0.23381622 0.20941177 0.2513967

weight_hh_l1 f4 [40, 10]
000000 a6 66 1e 3e 16 21 a6 3d 80 a1 5d be 66 53 e8 3d
       0.15468845 0.081117794 -0.21643639 0.11344032
000010 28 46 1a be 6f 16 25 bb 96 e4 9a bc ce a7 b7 3d
       -0.15065825 -0.0025190373 -0.018907826 0.08967553
000020 61 1f 30 3e 12 08 33 3e b1 d2 10 3e 6d ed 8d bd
       0.1719947 0.17483547 0.14142872 -0.06930051
000030 77 17 93 be 33 b7 d2 bd 50 f8 81 3e ba 97 f7 3d
       -0.2872884 -0.10288849 0.2538476 0.120894864
000040 65 f3 1c 3e dc dd 45 3d 5d 10 6a be 2a 14 03 bc
       0.15327223 0.048307285 -0.22857805 -0.008000413
000050 f4 29 53 be 09 cd 05 3d 44 8b 25 be 5f c1 36 3d
       -0.20621473 0.03266624 -0.16166407 0.044618007
000060 a4 33 ce bd 6c bf 2c be 83 82 00 3e 75 fd 5b 3d
       -0.100684434 -0.16869897 0.12549786 0.053708512
000070 f1 07 22 3e 79 f0 8a be c7 ad 81 bd 21 c2 d6 3d
       0.15823342 -0.2713659 -0.063319735 0.10486246
000080 2c 69 65 be 40 57 94 be 10 63 5f 3e 77 2d 11 3e
       -0.22403401 -0.28972816 0.21815133 0.141775
000090 bd 6e 9f be 3f 8d 27 3e 72 8e 8e be 5e 51 60 3e
       -0.31139174 0.16362475 -0.27843052 0.21906039
0000a0 90 fc 9d be d4 65 33 3e a2 95 86 3e 35 7b 73 3e
       -0.30856752 0.17519313 0.26286036 0.23777469
0000b0 44 16 5f be e5 fb 28 be 6a 04 41 3e 05 cc 83 3e
       -0.21785837 -0.1650234 0.1884934 0.25741592
0000c0 cc 8a 4a be de ef 5c be ce b4 d2 3d c0 84 35 be
       -0.1977951 -0.21575877 0.10288392 -0.17726421
0000d0 43 db 07 be 49 df 08 3d 6b 76 33 bd 5e 52 a0 be
       -0.13267235 0.033416066 -0.043814104 -0.3131284
0000e0 15 06 89 be 6e 87 51 be 91 ea 17 be dd 2b 2c be
       -0.26762453 -0.20461819 -0.14835574 -0.16813608
0000f0 8c 0f ee 3d b8 84 d3 3d b8 4a 91 3e 3d a0 03 3e
       0.11624059 0.103280485 0.28377318 0.12854095
000100 72 7c 60 be 18 fd b5 3d c7 8c 98 3e 76 cb f0 bd
       -0.21922472 0.088861644 0.29794905 -0.11757557
000110 a7 10 73 be 0d cb 44 3e 95 6d 19 be 3a 5a 1f 3e
       -0.23736821 0.19218083 -0.14983208 0.15561762
000120 01 1d 6b be 6c e5 71 bc 1e 03 8c be d3 2c f9 3d
       -0.22960283 -0.014764171 -0.27346128 0.12166753
000130 29 18 04 be 81 f4 9c 3d f5 8a 60 be 83 1b 81 3e
       -0.12899841 0.07663823 -0.21928008 0.25216302
000140 7a 0a 96 be 61 3e 27 3e 74 df 54 be 6f d4 70 be
       -0.29304868 0.1633239 -0.20788366 -0.23518537
000150 d9 9b 72 3c 41 bf 12 3e ad f7 45 bc f5 90 07 be
       0.014807665 0.1433077 -0.012082976 -0.1323889
000160 eb 8a 3b bd 66 7a 8f 3e 0a 7b e3 bd 77 37 6c 3e
       -0.04578678 0.2802307 -0.11107452 0.23068033
000170 9b 36 28 3e d3 c3 a8 3d f2 9c 55 be 38 30 46 3d
       0.1642708 0.082404755 -0.20860651 0.04838583
000180 4c a9 6e be 64 bb 91 bc fc e9 9a 3e 50 9d c2 bc
       -0.23306769 -0.01778955 0.3025664 -0.023756653
000190 f8 a2 7b be aa 06 7c be 6f 41 5a 3e b4 2b 0c 3c
       -0.24573886 -0.24611917 0.21314023 0.0085553415
0001a0 96 c8 86 3e 79 3a 93 bd 33 ec 93 be 5b 95 ed bd
       0.2632491 -0.07188887 -0.28891143 -0.11600753
0001b0 df 9a 7e be 9c 5c 80 be b5 62 ba bd 01 8b 19 3e
       -0.24863766 -0.25070655 -0.09100858 0.14994432
0001c0 30 e3 71 be 82 6e 09 be bb a3 4e 3d f9 41 de bd
       -0.23621821 -0.13421062 0.050449114 -0.10852427
0001d0 65 c0 98 3e d4 5d 33 bd 5e db 9c 3e 9d a4 87 be
       0.29834285 -0.043790653 0.30636114 -0.26492777
0001e0 09 74 f6 3c 64 59 8d 3e 3c 44 39 3e 60 21 8c bb
       0.030084627 0.27607262 0.18092436 -0.0042764395
0001f0 04 65 93 3e 22 ec 53 be fa 87 8f 3e 45 b2 2c be
       0.28788006 -0.20695546 0.2803343 -0.1686488
000200 9a bf 13 3e 5d 5f 5a 3e 8d f5 e6 3d ab aa a8 3d
       0.14428559 0.2132544 0.11277304 0.08235677
000210 be 65 77 3c 83 63 7b 3d e8 37 80 3e 41 c7 64 3e
       0.015099941 0.0613742 0.25042653 0.22341634
000220 51 10 68 3e fb b0 c2 bd 27 b3 9f 3e 35 6f 6c be
       0.22662474 -0.095064126 0.3119137 -0.23089297
000230 04 f9 04 3e 6f 67 9f be 53 a7 df 3d eb da af bc
       0.12985617 -0.311336 0.109205864 -0.021466693
000240 46 3f 32 3e b4 60 07 3d c5 6d 00 bd dc 4f 49 3e
       0.1740695 0.033051208 -0.031354684 0.1965937
000250 90 a5 99 be 93 94 8e be db a0 7a be 91 ce 88 be
       -0.30009127 -0.27847728 -0.24475424 -0.26720098
000260 80 d7 b5 bd f7 95 88 be 52 b0 ef 3d 09 0b a0 3e
       -0.08878994 -0.26676914 0.11703552 0.3125842
000270 4c 45 dd 3c 2b 9d 64 bc d1 a3 71 3d 08 89 a3 3d
       0.027010582 -0.013953487 0.058994118 0.07985121
000280 42 52 81 3d 30 fa 04 3e 8a f9 92 bd c0 60 60 be
       0.063145176 0.12986064 -0.07176502 -0.21911907
000290 3b 23 95 3d b0 86 7f bd 7f 82 79 be ac c3 d5 bb
       0.0728211 -0.062384307 -0.24366187 -0.00652357
0002a0 2d 50 73 be ef 9c b1 3d 17 31 28 bd 44 f4 de 3b
       -0.23761053 0.08672511 -0.04106244 0.006804021
0002b0 9e e2 51 be 4f 7e 99 3d 08 c6 b6 bd 3e 17 50 be
       -0.20496604 0.074947946 -0.0892449 -0.20321366
0002c0 aa ec e6 bd 3a ff 8a be e1 fa 83 3e aa 1c 64 3d
       -0.11275609 -0.27147847 0.25777343 0.0556914
0002d0 16 c3 5b 3d da 5b 86 be 56 95 93 3e d6 b9 7d 3e
       0.053652845 -0.26241952 0.28824872 0.24777922
0002e0 27 e7 ed 3d a8 c8 8e 3e 9c 36 04 be 9f 9b 3b 3d
       0.116163544 0.27887464 -0.12911457 0.04580271
0002f0 31 d9 76 be 1c 85 38 be 07 d9 dc bd 52 4d 68 bb
       -0.2410629 -0.18019527 -0.10783582 -0.0035446477
000300 67 73 60 3e 70 ae 20 3e be 39 2e be 4a 64 35 3e
       0.21919023 0.15691543 -0.17014214 0.17714038
000310 fa 9f 6c be 2a fb 62 3b ba 82 16 3d 87 35 6e 3e
       -0.23107901 0.0034634569 0.036745764 0.23262607
000320 6e c8 29 be 4f 2a 5c be 5c 37 14 be 37 39 86 be
       -0.16580364 -0.21500514 -0.14474243 -0.26215526
000330 7e d3 05 3e c0 43 3a be 75 51 0b bd f9 df 13 be
       0.13068959 -0.18189907 -0.03401323 -0.14440908
000340 ae f5 95 3e ea e1 29 3e 2b 6e e9 bc d3 5a 55 be
       0.29289 0.16590086 -0.028494915 -0.20835428
000350 a5 86 98 3e c9 b2 19 3d bf 38 ff 3d b0 df 9d be
       0.29790226 0.03752402 0.12461995 -0.30834723
000360 1c fa 81 3e ca e3 6c 3e 88 88 81 be 8d d0 96 3d
       0.2538613 0.2313377 -0.25299478 0.07363997
000370 40 cf 9b be 92 1b a1 3c 66 6a d5 bc 12 52 89 3e
       -0.30431557 0.019666467 -0.026051711 0.26820427
000380 61 9f ee bd 34 f8 34 3e 17 7b 36 bd 0e c8 49 be
       -0.11651493 0.17672807 -0.04455098 -0.19705221
000390 f9 1d bf 3d c9 ba 55 3d ac bc cb 3d 35 e4 45 bc
       0.09331889 0.052180085 0.09948096 -0.012078335
0003a0 ab 17 e5 3d a5 2d 30 bd d8 43 41 3d 6f 42 7f 3e
       0.11186155 -0.04301228 0.04718384 0.24927686
0003b0 c9 10 88 3d 5b 5e 41 3e 06 6c 2c 3e 4c ed 17 be
       0.066438265 0.1888365 0.16838083 -0.14836615
0003c0 e8 1c 65 bd 4c b3 16 3e 21 95 7f 3e c5 81 23 be
       -0.05593577 0.14716834 0.24959232 -0.15967472
0003d0 93 a3 4f 3d bb bf 7e 3e 8d 24 58 be b5 f8 9b bd
       0.050693106 0.24877827 -0.21107693 -0.076157965
0003e0 9b 7b 22 3e cb 55 2d be 77 84 04 3e a4 76 18 3d
       0.15867464 -0.16927259 0.12941156 0.03722252
0003f0 8e 2f 85 be b2 c4 20 be b2 4a e9 bd 92 f3 76 3e
       -0.26012844 -0.15700033 -0.113912 0.24116352

bias_ih_l1 f4 [40]
000000 9f 46 0a be d5 da 29 be 44 c7 ab 3d 25 fd 98 be
       -0.13503502 -0.16587384 0.08387616 -0.29880634
000010 21 32 6d be f4 ce 65 bd 4c ac 8a 3d bb 42 38 3e
       -0.23163654 -0.05610557 0.06771144 0.17994206
000020 23 dd f2 3c ac 07 15 be fe be 94 3e b6 cf 11 3e
       0.029646462 -0.14553708 0.29051965 0.14239392
000030 57 d4 99 3e 31 96 c1 bc 36 c1 90 3b 4b 52 44 3e
       0.30044815 -0.023631187 0.004417564 0.19172017
000040 d0 06 98 be a9 ae 9f 3e 63 8e 62 3b 3c 17 7e bb
       -0.29692698 0.31187943 0.0034569732 -0.0038771173
000050 23 f1 01 be 73 54 c0 3d 52 6d 7e bc 57 73 72 be
       -0.12689643 0.093911074 -0.015528994 -0.23676811
000060 f4 cb 4d 3c 6f 1a 58 3e 2e 50 0e 3e d9 ae 9d 3e
       0.012560833 0.21103834 0.13897774 0.3079746
000070 55 df d0 bd a1 6b f3 3d df 6a bf bd 22 99 46 3e
       -0.10198847 0.11885763 -0.09346556 0.19394353
000080 4c 43 9c bc 9e 06 23 3d 83 f5 e6 3d b7 17 7a be
       -0.019075058 0.039801233 0.112772964 -0.24423109
000090 b6 f2 1c be c6 5f e9 bd ca c2 70 3e f8 1e 28 be
       -0.15326962 -0.113952205 0.23511806 -0.16418064

bias_hh_l1 f4 [40]
000000 0b 5e 03 bd 4a f9 79 be a8 08 bf bd 8c 08 a4 3c
       -0.03207211 -0.24411502 -0.09327823 0.020023607
000010 b9 c0 56 3e dd ad 19 3d 0e bd 19 3e 6d 5e 8d be
       0.20971955 0.037519325 0.15013525 -0.27611104
000020 f5 29 63 3e b2 72 3d 3e 41 96 ca 3d b3 56 b8 bd
       0.22183974 0.18500784 0.0989194 -0.090009116
000030 80 dd 7c 3d 08 d0 49 be 5d 7c 7c 3e 0a 02 a1 be
       0.061734676 -0.19708264 0.24656816 -0.31446868
000040 60 02 9e 3b 42 ad 96 3e 86 8c 02 be 23 c5 5a be
       0.0048220605 0.2942906 -0.12748918 -0.21364264
000050 32 62 bf bd 08 b9 f7 bc 4d ca 44 be 51 45 33 bd
       -0.09344901 -0.030239597 -0.19217797 -0.043767277
000060 61 b5 ed bd 7e 7c b6 bd 00 95 ed 3d 06 cc a0 bd
       -0.11606861 -0.08910464 0.11600685 -0.078514144
000070 f6 d1 9b 3e 07 7f 56 be c8 99 8b 3e 52 a6 58 be
       0.30433625 -0.20946895 0.27265763 -0.21157196
000080 e4 cf 54 3e 52 8f da 3d ab f0 b9 3d a2 a8 16 3e
       0.20782429 0.106718674 0.09079107 0.14712766
000090 24 0a 33 3d 5b 1c c8 bd 88 79 73 be da fd 4e be
       0.043710843 -0.097710334 -0.23776829 -0.20214024

weight f4 [1, 10]
000000 d9 0f 31 3e 41 46 e6 3d 61 04 4c be 7e 77 e9 bc
       0.17291202 0.112438686 -0.19923545 -0.028499361
000010 a7 de 1c be e6 6f 6e 3e c5 c6 a2 bd fb 1b 60 bd
       -0.1531931 0.23284873 -0.079480685 -0.054714184
000020 ff 41 86 3d 38 b0 0e be
       0.065555565 -0.1393441
