competition/result/lstm_win5_noStandardized/trained_model/all_model/actor_num_epoch_2.pth (torch, 8011 bytes, 5 tensors)

weight_ih_l0 f4 [40, 11]
000000 7e 50 53 3e 6b 81 8c be 25 28 c1 3c 06 a5 05 3e
       0.20636174 -0.27442488 0.023578713 0.13051233
000010 a4 4c f6 bd 6f da 9c be fa da 62 bd 7c 0e 87 3e
       -0.12026337 -0.30635402 -0.055384614 0.26378238
000020 fd 52 83 3e b1 31 83 be 07 02 82 be 3c f4 8e be
       0.25649253 -0.2562385 -0.25392172 -0.2792071
000030 0e b2 62 3e b8 47 91 be e0 3c e6 3d bc 8f 68 bc
       0.22138235 -0.2837503 0.1124208 -0.014194425
000040 66 5e cf bd 42 25 9d 3e f2 62 76 be 7d 33 20 be
       -0.10125427 0.30692488 -0.24061182 -0.15644641
000050 42 3e 9c 3d e9 e6 51 3d 36 da 8b be f4 44 57 3e
       0.07629062 0.051245604 -0.2731492 0.21022397
000060 08 30 90 bd dd 6a 8a 3e 72 7e e4 3c 46 82 2c bd
       -0.07040411 0.27034655 0.027892325 -0.042116426
000070 d7 30 a8 bd 98 cd 56 be 78 2e 45 be 4c c8 6b be
       -0.082124405 -0.20976865 -0.19256008 -0.23025626
000080 93 f4 95 3e 93 d2 e7 bd c2 a0 db 3d ec bd ce bd
       0.29288158 -0.11319461 0.107240215 -0.100948185
000090 8a aa 12 be ee f3 d4 ba 86 67 90 3d 76 79 ca bd
       -0.14322868 -0.0016247013 0.070509955 -0.09886448
0000a0 33 9d 41 be cf 59 be 3d c5 93 c6 3d d6 33 59 be
       -0.18907623 0.092944734 0.096961536 -0.2121118
0000b0 c6 fc 5f 3e 25 34 9a be 7a 99 5f be d5 fc 99 be
       0.21873769 -0.30117908 -0.2183589 -0.30075708
0000c0 8b 89 8f be df 97 a8 bc 65 42 c7 bd 11 77 e8 bc
       -0.28034624 -0.02058023 -0.097294606 -0.028377088
0000d0 61 39 cb 3d 81 82 86 3e 93 2d 5a bd 65 55 ea bd
       0.099230535 0.26271442 -0.05326612 -0.11442069
0000e0 e2 58 5c 3d 42 ec 37 be f7 dc 42 be ea 52 56 3e
       0.053795703 -0.17961219 -0.19029604 0.20930067
0000f0 eb 88 f2 bd f3 c8 ee bd 0b 0b e8 bd 7a 60 6b be
       -0.11842521 -0.11659422 -0.11330231 -0.22986022
000100 01 84 51 be e7 13 64 3e d3 82 8c be 91 85 55 3d
       -0.20460512 0.22273217 -0.2744356 0.052129332
000110 67 94 ab bb 0d 5b 62 be 2d dd 71 3e 51 61 d0 3d
       -0.005236197 -0.22105046 0.23619528 0.10174812
000120 88 1f df 3d f9 6a df 3d fa af 93 be 1e 7e b0 3d
       0.10894686 0.10909075 -0.28845197 0.08617805
000130 54 c2 80 3e 9d f4 bb 3d 44 98 b2 bd cd f6 82 3e
       0.2514826 0.09177516 -0.087204486 0.2557892
000140 7f c2 2a bd 75 ff b2 3c 77 65 91 be ae 46 cd 3d
       -0.041689392 0.021850327 -0.28397724 0.10023247
000150 e8 a8 65 3e 05 ed b7 bd dc f0 13 be 5f b6 28 3e
       0.22427714 -0.08980755 -0.1444735 0.16475819
000160 dd 98 b8 bd 4f 99 91 3d 14 8c 07 3e ad f1 68 3c
       -0.09013531 0.071093194 0.1323703 0.014217776
000170 68 0c d1 bd a0 cd 4a be 35 57 3b be 7e 2d 41 be
       -0.102074444 -0.19805002 -0.18294986 -0.1886501
000180 2b af b5 bd 34 64 70 3e 67 47 af 3d 0e b5 30 be
       -0.08871301 0.23475724 0.08558541 -0.17256567
000190 66 ce 3f bd d9 0f 74 3e 2b 79 5a 3e ae e5 00 3e
       -0.046827696 0.2383417 0.21335284 0.12587616
0001a0 aa 28 87 bd 00 02 93 bd 13 cd 65 3e e0 e3 c9 3c
       -0.06599553 -0.07178116 0.22441511 0.024644792
0001b0 2f 4e 43 3e 30 66 8d 3e 8e e6 7e be 29 3c 22 3e
       0.19072793 0.27617025 -0.24892637 0.15843262
0001c0 68 46 8a 3e 5f ff 3f 3e cf 4f a0 3e 5f a2 69 bd
       0.2700684 0.1874976 0.3131089 -0.057039615
0001d0 86 70 5e 3d c1 51 e3 bd 76 62 97 3e 3f 0f ca bc
       0.05430653 -0.11099578 0.29567307 -0.024665473
0001e0 68 b9 16 be e9 e5 6c 3e c6 1c 01 be 9c a1 51 be
       -0.14719164 0.23134579 -0.12608632 -0.20471805
0001f0 29 e8 56 be 76 56 45 3e a7 2c b5 bd 94 d5 69 3e
       -0.20987 0.19271263 -0.088464074 0.2283538
000200 7d 0e 85 3e 88 9e 3f be 2c 66 79 bb 21 10 d7 bd
       0.25987616 -0.18712819 -0.0038055284 -0.10501123
000210 7f c0 7a be 91 e6 ef bd 91 15 4b be e0 8d 8f 3d
       -0.24487494 -0.11713899 -0.19832446 0.070094824
000220 9d 21 95 be 0c 5e 73 3e a4 87 97 3e 3d f4 bc bc
       -0.29127207 0.23766345 0.29595673 -0.02306568
000230 69 37 52 3d 16 02 e3 3d 99 62 97 be d3 06 33 3e
       0.051322374 0.11084382 -0.29567412 0.17483072
000240 29 b7 67 3e ac 9e 9f 3e 09 0e 09 be 7f 3c 9e 3e
       0.22628464 0.31175745 -0.1338426 0.3090553
000250 6a 3d 68 3e 67 84 9e be 92 61 9b 3e 9f 3d 9b be
       0.22679678 -0.3096039 0.30347878 -0.3032045
000260 f6 61 06 bd 3e c0 ce bd cd d0 5e 3c 9a 0f 86 3e
       -0.032808267 -0.10095261 0.013599587 0.26183778
000270 22 90 52 3e 17 61 4c be 07 0b 56 be 59 b4 84 3e
       0.20562795 -0.19958912 -0.20902644 0.25918844
000280 41 16 25 3e d0 2b 8f 3d df 21 94 be 75 2e fc 3d
       0.1612177 0.069907784 -0.28932092 0.123135485
000290 28 88 40 be 43 59 9e bc ee d8 9b 3d bb 73 8f bd
       -0.1880194 -0.019329673 0.076097354 -0.07004496
0002a0 e7 e0 bf 3c 6b 73 41 3e cf 2c 95 3e 0d 79 37 be
       0.023422671 0.18891685 0.2913575 -0.17917271
0002b0 e5 af 95 be 62 42 18 3e 8b e0 36 be 17 9e a0 be
       -0.2923576 0.14869073 -0.17859094 -0.31370613
0002c0 1b ba 40 3e 58 f0 cf 3c b1 32 a6 3d 24 a2 07 be
       0.18820994 0.02538316 0.08115137 -0.13245445
0002d0 52 22 9a 3e 16 93 dc 3d 32 b0 50 3e 61 2c a9 3c
       0.3010431 0.10770242 0.20379713 0.020651044
0002e0 dd e3 02 be 60 7f 32 3e 80 b6 41 be 54 24 e2 3d
       -0.12782235 0.17431402 -0.18917274 0.11042085
0002f0 f8 76 21 3d 70 0d 6b 3e 8a ba 3d be 91 41 99 3e
       0.039420098 0.22954345 -0.1852819 0.29932836
000300 32 2d 90 3e 51 90 91 bd db 2c 6d bd e6 ba 85 3e
       0.2815948 -0.07107604 -0.057904106 0.26119155
000310 67 8b 02 3e 2b 97 a4 3b a3 61 96 be fc 96 8f be
       0.1274849 0.0050229034 -0.29371366 -0.2804488
000320 36 1b d1 3b b6 f7 1c be 9f f2 bd bc 3e 0f ca 3d
       0.0063814176 -0.15328869 -0.02318698 0.098661885
000330 ee f2 8d 3d 89 ec 75 bd c7 61 8d 3e 51 d8 b5 3d
       0.06931101 -0.06004003 0.2761366 0.0887915
000340 2a d0 8e 3e bc 2a 87 3e c5 f1 89 3e a8 d8 72 3e
       0.27893192 0.2639979 0.26942268 0.2371546
000350 95 43 ca bb d1 b2 e1 3d 8b 54 0f 3e de 02 51 3e
       -0.006172607 0.11020435 0.13997094 0.2041125
000360 4a ec 73 3e d0 75 2a 3e 84 29 d5 bd 1b 24 66 bd
       0.23820606 0.16646504 -0.10408309 -0.056186777
000370 37 e3 9e 3e 0e eb 60 3e f2 1c 01 3e 93 3c 93 be
       0.31032726 0.21964666 0.12608698 -0.28757152
000380 44 43 3f 3e 17 90 2d be fd 49 30 3e 76 b9 fb 3d
       0.18678004 -0.16949497 0.17215724 0.12291233
000390 f9 e2 5a 3e 2e 6e 13 3e d2 d4 c9 3d 03 6a 32 be
       0.21375646 0.14397499 0.098550454 -0.17423253
0003a0 6b e8 de 3d 05 d0 6a bd 89 e9 01 3d fd 9b ed bc
       0.10884174 -0.05732729 0.031716857 -0.029005045
0003b0 d3 6e ae 3d 9c c1 16 bd 3a 25 20 bd 0d ae 2b bd
       0.08517232 -0.036805734 -0.039098002 -0.041914035
0003c0 d0 9f 5b 3e ed de 05 3d ca e1 24 be 81 47 96 be
       0.21447682 0.0326833 -0.16101757 -0.29351428
0003d0 1a 90 96 3e 64 6c 94 3e 56 54 21 be 13 83 51 be
       0.29406816 0.28988945 -0.15754828 -0.20460157
0003e0 84 50 16 3e 6b 68 91 3e 08 93 42 3e ac ee 52 3e
       0.14679152 0.28399977 0.190014 0.20598859
0003f0 65 0e 82 be 14 1c 4f 3e 4d 34 57 3e 6e 6b 0d be
       -0.25401607 0.20225555 0.21016045 -0.13810512

weight_hh_l0 f4 [40, 10]
000000 56 d1 23 3e 7e 23 72 3e ad 70 5c be 21 3b 31 be
       0.15997824 0.23646352 -0.21527357 -0.17307712
000010 3b ae db 3d bc cc 34 3e 7d 9d 04 3e dc 4f 54 3e
       0.10726591 0.17656225 0.12950702 0.20733589
000020 7e 27 4b bd d1 88 93 be fb 61 82 3e b1 4d 22 be
       -0.04959821 -0.2881532 0.25465378 -0.1584995
000030 7c d1 6c be a3 6e 6b be 29 d6 b2 bd 4b 4d 7e bd
       -0.23126787 -0.22991423 -0.08732254 -0.06208543
000040 d2 0e 89 3e 49 9c c1 bc 22 e6 1a 3e 0d e0 97 3e
       0.2676912 -0.023634093 0.15126851 0.29663125
000050 a0 19 ec bc 29 1d fc bd c8 17 6a 3e bc 30 3f 3e
       -0.028820813 -0.12310249 0.22860634 0.18670934
000060 6d 4b c7 3d 05 22 1e be 6c 35 dc bc 3b ff 02 bd
       0.09731183 -0.15442665 -0.026880942 -0.031981688
000070 70 0a cf bd 64 e5 97 be 69 19 54 3e 35 b6 80 be
       -0.10109413 -0.296672 0.20712818 -0.25139013
000080 34 20 52 3e 9d 3d 05 be 0b 98 ce bd 80 24 84 be
       0.20520097 -0.13011785 -0.10087594 -0.25809097
000090 5f 39 84 be 84 5d d5 3c f6 e1 73 be 53 56 07 bd
       -0.2582502 0.026045568 -0.23816666 -0.03304131
0000a0 52 dc 2a bb d8 3e 85 be 3d b0 8a 3e 2b e3 de 3d
       -0.0026071263 -0.26024508 0.27087584 0.108831726
0000b0 97 54 7a bc d4 d9 52 3e 1a 45 4f be 22 85 9a 3d
       -0.015278957 0.20590907 -0.20241204 0.07544924
0000c0 df f6 ff bc 1e 99 73 be 9a 77 8d 3d cb fa 0c 3e
       -0.031245647 -0.23788878 0.06907578 0.13767545
0000d0 5e 8b 44 be 29 4a 94 bc 54 ce a8 3d 1f 99 52 3d
       -0.1919379 -0.018101769 0.08242479 0.05141556
0000e0 42 3b c8 3c 05 1c 24 3e 28 ac 2b be e5 da 7c be
       0.024442319 0.16026314 -0.16764891 -0.24692877
0000f0 84 86 55 be cd 58 9c be c7 13 e7 3d 38 86 a0 be
       -0.20852095 -0.305365 0.11283069 -0.313524
000100 39 09 4f be a5 15 9b be 86 3d c6 3d 3e 23 24 ba
       -0.20218362 -0.3028995 0.096797034 -0.0006261355
000110 e3 a9 d9 3d ab 01 8f bd b7 b7 03 3c 5e 22 db bd
       0.106281064 -0.0698274 0.0080394065 -0.106999144
000120 5c 79 12 3e 03 8b 5b 3e d0 3c a1 3d cb 5a 75 be
       0.14304107 0.21439748 0.07872927 -0.23960416
000130 6d fa f6 bd b2 f7 16 3e f2 f7 20 3d 98 10 a0 3e
       -0.12059484 0.14742926 0.03929896 0.3126266
000140 db 45 07 3e 35 62 91 bd a3 90 8f 3e 6a 1a db 3d
       0.13210241 -0.0709881 0.28040037 0.106983975
000150 9a a5 bb bd ef fc 9c 3e 08 18 9f 3e ae 0e 06 3e
       -0.09162445 0.30661723 0.31073022 0.13091537
000160 b1 94 6d bd 29 1a 5b 3e 46 eb 1f 3e 71 1f 91 3e
       -0.05800313 0.21396698 0.15617093 0.283443
000170 6a 21 84 3e 4a 06 2e 3e 44 f8 66 be 03 9b 82 3e
       0.25806743 0.16994587 -0.22555643 0.2550889
000180 ea 30 e6 ba dd f7 4d be eb b5 98 3e 0b 71 84 be
       -0.0017562185 -0.20114084 0.29826292 -0.25867495
000190 b2 f5 02 be e9 c3 22 be dc a8 05 be 6a 09 87 3d
       -0.12789038 -0.15895046 -0.13052696 0.065935925
0001a0 db 1b 8b bd 67 e6 8e be 1f bd 67 be 6d ce c8 bd
       -0.067924224 -0.27910158 -0.22630738 -0.098049976
0001b0 f7 c1 2d 3e 14 5e 2e 3e 56 6c 69 3e 59 87 17 be
       0.16968523 0.17028075 0.22795233 -0.14797725
0001c0 e9 b8 b3 3d d3 26 f4 bd dc 49 47 3e 07 64 4c be
       0.08775503 -0.11921468 0.19461769 -0.19960032
0001d0 ac b2 90 3e 83 c0 89 3e 58 69 b8 bd 15 ce 7d 3e
       0.28261316 0.26904687 -0.09004468 0.24785645
0001e0 ae 89 87 bc 0b 65 17 3e b1 e1 9f 3d 9a 95 42 3e
       -0.016545143 0.14784639 0.07806719 0.19002381
0001f0 be 0f 45 be ee 43 89 3d 81 cc ee 3d 65 ad 99 be
       -0.19244286 0.0670241 0.116601 -0.30015102
000200 0b d2 08 be 14 ec a3 bd dc 40 17 3a 64 1c 59 3e
       -0.13361375 -0.08004013 0.00057698577 0.21202236
000210 9f b8 51 3d 92 e6 91 3e 41 10 e4 bc a6 93 6b bc
       0.05120146 0.28496224 -0.027839782 -0.014378464
000220 51 35 8d bd d2 ba 12 be f1 30 9a be 28 60 cb bd
       -0.06894935 -0.14329079 -0.30115464 -0.0993045
000230 4e ca 99 3d 15 e6 2f be 10 70 7a bd 38 67 15 3e
       0.0750929 -0.17177613 -0.061142027 0.14590156
000240 87 21 1e be d8 e5 90 be 34 3c 5e be 85 62 5f be
       -0.15442477 -0.28300357 -0.21702653 -0.21814926
000250 a3 b5 93 3e 22 d9 cf bd 86 38 b2 bd 82 84 87 3e
       0.28849515 -0.10148837 -0.08702187 0.26468283
000260 f0 f5 7d 3d 9c 5e 47 be 99 ee a3 be ef 0f 1c be
       0.062002122 -0.19469684 -0.32017973 -0.15240453
000270 10 f1 df 3d 62 4a 4d bd 9e 7c 8a 3d ac 08 aa 3c
       0.10934651 -0.050119765 0.0676205 0.020756088
000280 66 24 d7 3d a7 80 94 be 49 a1 28 be f6 96 a2 bd
       0.10504989 -0.29004404 -0.16467775 -0.0793895
000290 58 18 30 be 21 a8 44 bc cb f0 29 3d 8f 63 3b be
       -0.17196786 -0.012002976 0.041489404 -0.18299697
0002a0 48 66 06 be e4 5d d1 bd 72 bc 23 3e 9c 62 05 3e
       -0.13124955 -0.10222986 0.15989855 0.13025898
0002b0 e9 ce 08 3e 94 2e 61 be b8 ab 74 be 6d 93 88 3e
       0.1336018 -0.21990424 -0.2389363 0.26674977
0002c0 49 ce 30 be d0 91 9c be 62 11 e1 3d ba a6 97 3e
       -0.17266192 -0.30579996 0.10989644 0.2961939
0002d0 b1 ac c9 bd f4 c5 5d 3e f4 5f d5 3d 52 5a 00 3e
       -0.098473914 0.21657544 0.10418692 0.12534454
0002e0 81 13 21 3d 7e 65 67 3e 4e f8 29 3e 16 d4 7e be
       0.03932524 0.2259731 0.16598627 -0.24885592
0002f0 28 ea 51 3e 86 f2 6e be 1d f4 09 be d1 e7 1e 3e
       0.2049948 -0.23334703 -0.13472028 0.15518118
000300 18 30 86 bd 77 0f fd 3d 0a 62 05 3d 59 f7 62 3e
       -0.06552142 0.12356465 0.0325642 0.22164668
000310 cf f8 42 3e 7f bd 80 3e a1 98 84 be a2 9f fa bc
       0.19040225 0.25144574 -0.25897697 -0.030593697
000320 79 b0 04 3e e2 a9 5a bd 53 1d 21 be e3 0a 52 3e
       0.12957944 -0.05338467 -0.15733843 0.20511965
000330 6b ff c6 bd 0b c2 ce bc 39 c3 8e be 2e eb 5e be
       -0.09716686 -0.025239011 -0.27883318 -0.21769401
000340 fb 9c 3d be d3 18 82 3e c1 3e 46 3e de b4 de 3d
       -0.18516915 0.25409564 0.19359876 0.108743414
000350 d0 cf 53 be ce 0a a2 bd 93 4b dc bd 6d c8 64 be
       -0.20684743 -0.07912217 -0.10756602 -0.22342081
000360 d7 22 3b 3d 23 31 a3 be c7 b8 05 3e ba f1 17 be
       0.045687523 -0.31873426 0.13058768 -0.14838305
000370 19 82 8b be 32 25 38 3e bd ae 12 be 70 70 3e bd
       -0.27247694 0.17982939 -0.1432447 -0.046493948
000380 10 04 61 3e 8b 94 86 be f1 3c ee bd 45 ae 43 3e
       0.21974206 -0.26285204 -0.116327174 0.19109447
000390 dc 99 d7 bd 71 d9 85 be f8 2a 31 3e 89 a0 93 3e
       -0.10527393 -0.26142457 0.17301548 0.28833416
0003a0 1a 49 d6 bb 3a cd 98 be 56 cb 4b be 75 37 9a be
       -0.006539476 -0.29844075 -0.19901785 -0.30120435
0003b0 96 05 72 be ac d7 54 bd 67 8e 20 3c e4 06 3c be
       -0.23634943 -0.051963493 0.009799576 -0.18362004
0003c0 52 c3 63 3e 7b d7 22 be 50 f4 42 be 45 f6 56 be
       0.22242478 -0.15902512 -0.1903851 -0.20992382
0003d0 90 d1 5c bd 0f 53 ae bd 8d 6f 2c be 35 50 d4 bd
       -0.053910792 -0.08511936 -0.16839428 -0.10366861
0003e0 4d 3c 97 3e b5 e3 1c be 58 5c 77 be ff 41 21 bc
       0.29538193 -0.15321238 -0.2415632 -0.009842395
0003f0 67 ac cf 3d 2f 9c 87 3e c8 1e 43 be 3a fb 84 be
       0.10140305 0.26486346 -0.19054711 -0.2597292

bias_ih_l0 f4 [40]
000000 fa dd 84 be 22 c0 c9 3c e8 45 39 bd 4f 30 91 bb
       -0.25950605 0.024627749 -0.045232683 -0.0044308077
000010 58 15 87 3e f3 b2 43 3e 56 bd 9f be af 93 c7 3d
       0.2638347 0.19111232 -0.3119914 0.09744965
000020 90 51 bc 3d ba 31 af 3d b1 e0 98 3e c4 ed aa 3d
       0.09195244 0.085544065 0.29858926 0.083461314
000030 f4 3a 6c 3e fd 49 90 bc bf c4 99 3d ee e9 a3 be
       0.23069364 -0.017613405 0.075082295 -0.32014412
000040 e1 60 56 be 44 6c 10 be 7d 7a 80 be bf 76 63 3e
       -0.20935394 -0.141038 -0.2509345 0.22213267
000050 e0 10 9b be 0c f7 62 3e dd 85 96 ba 9e 3a 2c be
       -0.30286312 0.22164553 -0.0011483986 -0.16819236
000060 57 ef 88 3e 81 de 96 3e cc 5a 9b be 3b a2 3c 3e
       0.26745102 0.29466632 -0.3034271 0.18421261
000070 aa 92 10 be 23 e3 6c be 81 f0 b3 3d cc 2f 28 3e
       -0.14118448 -0.23133521 0.08786107 0.16424483
000080 0f dc 29 3e 30 ba 80 3e 11 e6 7b 3d 65 c4 55 be
       0.16587852 0.2514205 0.061498705 -0.208757
000090 03 0e 71 b9 f0 5c 99 3d fe 65 97 3d e3 d2 7a bd
       -0.00022988771 0.074884295 0.073925 -0.061236273

bias_hh_l0 f4 [40]
000000 5e 67 a1 bd 9f 47 a2 be 07 71 78 3e 63 ef 5c 3d
       -0.07881044 -0.31695268 0.24261867 0.053939234
000010 00 7d 03 3e 39 4d 9b 3d 24 67 c1 bb cf 4d a3 bd
       0.12840652 0.075830884 -0.005902188 -0.07973825
000020 dd 3e 3a 3e 60 35 4c 3d 82 ae f3 bd 8f bb 84 3e
       0.18188043 0.04985559 -0.11898519 0.25924346
000030 f3 c0 2a be 78 ce 95 be f3 48 ac 3d 40 19 11 3e
       -0.16675167 -0.29259086 0.084123515 0.14169788
000040 3d 04 09 3e 95 5b 48 3c f2 2d ac bd 54 cd 8d bc
       0.13380523 0.012228866 -0.08407201 -0.017309822
000050 ad 95 56 be bb 2a 80 3e 70 df 03 3e 2a 0f 03 39
       -0.20955534 0.250326 0.12878203 0.00012498783
000060 2d 22 96 3e 37 7b 66 be 4f a8 45 3e cb 7b 87 3e
       0.2932295 -0.2250794 0.19302486 0.26461634
000070 2b d8 68 3e 96 69 9f 3c 0f d2 c6 bd d5 ff 02 3d
       0.22738712 0.019459527 -0.09708034 0.03198226
000080 2e eb ad 3c 9b d8 09 bc db 88 88 be 14 b3 62 be
       0.021230306 -0.008413459 -0.26666912 -0.22138625
000090 d8 dc 83 3e a0 bf 34 bc 6e 97 37 be 2f ca 5a 3e
       0.25754428 -0.011032015 -0.1792886 0.2136619

weight f4 [1, 10]
000000 1c c9 79 3d 09 a0 76 be f9 28 94 3e e0 2f 83 3e
       0.06098281 -0.24084486 0.2893751 0.25622463
000010 e2 c6 5c 3e 30 81 b6 ba d0 13 8d bc 82 4f 91 be
       0.21560243 -0.0013923999 -0.017221361 -0.28380972
000020 a6 ee 89 3e 6b 0c 0f 3e
       0.26939887 0.13969581
