competition/result/lstm_win5_noStandardized/trained_model/all_model/critic_num_epoch_9.pth (torch, 28164 bytes, 6 tensors)

weight_ih_l0 f4 [128, 11]
0	0x3e2b6507	0.16737758
1	0x3dc2fcba	0.0952086
2	0x3e2f1119	0.17096366
3	0xbdb2f66b	-0.08738407
4	0x3e2d02a1	0.16895534
5	0xbe0ff08b	-0.14056604
6	0x3e328445	0.1743327
7	0xbb7b4c40	-0.003834501
8	0xbde6a36d	-0.1126164
9	0xbe2d533e	-0.16926286
10	0x3e08266f	0.13295911
11	0xbd852acd	-0.06502304
12	0x3e0997fd	0.13436885
13	0xbdeb791e	-0.11497711
14	0xbe27b6c1	-0.16378309
15	0xbd3c5f84	-0.04598953
16	0x3e13337b	0.14375107
17	0xbdbd64aa	-0.09247716
18	0xbe0ed49a	-0.13948289
19	0x3e01ad79	0.12663831
20	0x3d0d751c	0.034535512
21	0x3cce4238	0.02517806
22	0x3e25b459	0.16182078
23	0xbe16544b	-0.14680593
24	0xbdc1d373	-0.09464159
25	0xbe0f54fb	-0.13997261
26	0x3e31634f	0.1732304
27	0x3da9b7a6	0.08286981
28	0x3cbdaa10	0.023152381
29	0x3bfb2cc0	0.0076652467
30	0x3ce72670	0.02821657
31	0xbd5dd5ee	-0.054159097
32	0xbdfaeef0	-0.12252605
33	0x3d92c5d8	0.07166642
34	0xbd1c4670	-0.038153112
35	0x3e2946a7	0.16530858
36	0xbe24ba72	-0.16086748
37	0x3da4785e	0.08030771
38	0x3d877d04	0.06615642
39	0xbcf46658	-0.029833958
40	0x3c968a70	0.018376559
41	0x3e0e4967	0.13895188
42	0x3d6156c4	0.055014387
43	0x3b52cec0	0.003216669
44	0x3e0f0281	0.13965799
45	0x3d49fee4	0.04931535
46	0x3dcbd7be	0.09953259
47	0x3dd91e4a	0.1060148
48	0xbc879e18	-0.016554877
49	0x3b3a7c40	0.0028455406
50	0xbdc1fc6e	-0.09471975
51	0x3dd046e6	0.10169773
52	0xbe22f503	-0.15913777
53	0xbd622904	-0.055214897
54	0x3d78254c	0.060582444
55	0xbdcd95a9	-0.10038311
56	0xbdabb57b	-0.08384224
57	0xbd9774f6	-0.073953554
58	0x3e0380f3	0.12842159
59	0x3e1f08cf	0.15530704
60	0x3e0f16a9	0.13973488
61	0x3deec222	0.11658122
62	0xbdb42fbc	-0.08798167
63	0xbd8dcf97	-0.0692436
64	0x3d1d72b8	0.038439482
65	0x3d9646ee	0.073377475
66	0x3dd9cbea	0.10634597
67	0xbab27b00	-0.0013616979
68	0xbcc26f00	-0.02373457
69	0x3e115307	0.14191829
70	0x3d2ef9ac	0.042718574
71	0x3dd49bfe	0.10381316
72	0x3e066fd3	0.13128595
73	0x3d80026e	0.062504634
74	0xbda3c1eb	-0.07995971
75	0x3e1391cf	0.1441109
76	0xbdbb7f4b	-0.091551386
77	0xbd933c1b	-0.071891986
78	0x3e0e1573	0.1387537
79	0x3e0975ab	0.13423793
80	0x3a714300	0.0009203404
81	0xbc6d8e20	-0.014499217
82	0x3d94e4ba	0.07270189
83	0xbd26bb3c	-0.040705904
84	0x3dd956ea	0.10612281
85	0xbd11aac0	-0.03556323
86	0x3c06dbc0	0.008231103
87	0xbd09579c	-0.033530816
88	0xbd9b12d2	-0.07571949
89	0x3d9be582	0.076121345
90	0x3e2b298b	0.16715066
91	0xbdee5dae	-0.11638962
92	0xbd8a92da	-0.06766291
93	0x3dcf6fae	0.10128723
94	0x3e1387f5	0.14407332
95	0x3e21fb25	0.1581846
96	0x3cc11990	0.02357176
97	0x3d935b9e	0.07195209
98	0xbc86f458	-0.016473934
99	0xbd620e2c	-0.055189297
100	0x3e0775a1	0.13228466
101	0xbc94cbf0	-0.018163651
102	0xbdec8a0c	-0.11549768
103	0x3e321a11	0.17392756
104	0xbcb24990	-0.021763593
105	0x3e041009	0.12896742
106	0xbd990c72	-0.07473077
107	0x3dc99076	0.09842007
108	0x3d3871fc	0.04503058
109	0x3e34f91d	0.17673154
110	0x3e048143	0.12939934
111	0xbd1fd4c0	-0.039021254
112	0xbe1e9f9b	-0.15490572
113	0xbe2b1307	-0.16706477
114	0xbe05cda8	-0.13066733
115	0xbdd8484b	-0.10560664
116	0xbde4af45	-0.111662425
117	0x3e280f35	0.16412051
118	0x3d9f695a	0.07783766
119	0x3c3c1180	0.011478782
120	0x3d477c8c	0.04870276
121	0x3dbc25aa	0.09186871
122	0x3d01dbf8	0.03170392
123	0x3e1c69cd	0.15274735
124	0xbd8154a1	-0.0631497
125	0x3da33aca	0.079701975
126	0x3e04b109	0.12958159
127	0xbe270c30	-0.16313243
128	0x3dc175e2	0.094463125
129	0x3bcbc700	0.006218791
130	0x3d13910c	0.036027
131	0x3dcb195e	0.09916948
132	0xbd3b11f0	-0.045671403
133	0x3d1da6d4	0.038489178
134	0x3dc05c6a	0.093926266
135	0xbd642a00	-0.055704117
136	0x3d5029f8	0.050821275
137	0xbdfa8ff1	-0.12234486
138	0xbd2525e4	-0.04031934
139	0x3e1eb56f	0.15498899
140	0xbdcb4868	-0.0992592
141	0xbd5b97f6	-0.053611718
142	0xbd8a26e2	-0.067456976
143	0x3d5fd8b0	0.05465001
144	0xbdae1795	-0.08500592
145	0x3e311737	0.17294012
146	0xbcb6f170	-0.022331923
147	0x3ddb374a	0.10703905
148	0x3d37073c	0.044684634
149	0xbd8c4b06	-0.06850247
150	0xbd679aec	-0.05654423
151	0xbe30a068	-0.1724869
152	0xbe1964e3	-0.14979891
153	0xbdb75045	-0.08950857
154	0xbe2bd08d	-0.16778775
155	0xbe1b973a	-0.15194407
156	0xbd50d558	-0.05098471
157	0xbcb16f90	-0.021659642
158	0x3d8a80ca	0.06762846
159	0x3c482b70	0.012217388
160	0x3cf848b0	0.030308098
161	0xbe20abee	-0.15690586
162	0xbd8fa067	-0.07013016
163	0xbd53eea4	-0.051741257
164	0x3d69e5f0	0.05710405
165	0x3cc43158	0.02394931
166	0x3c0471c0	0.008083761
167	0xbca6e430	-0.02037248
168	0xbda167df	-0.0788114
169	0xbd8ee1bd	-0.0697665
170	0xbdbdeae5	-0.09273318
171	0x3d6281f0	0.0552997
172	0xbd70b828	-0.058769375
173	0xbd9359ba	-0.07194848
174	0x3dba64be	0.09101246
175	0xbe191674	-0.14949971
176	0x3ddf3cd6	0.109002754
177	0xbe18a2b7	-0.14905821
178	0x3db9c6ce	0.09071122
179	0xbddf3a86	-0.10899834
180	0x3d087e70	0.033323705
181	0xbc286780	-0.010278583
182	0x3e03de7d	0.12877841
183	0x3d98e97e	0.0746641
184	0x3e1d0b4b	0.15336339
185	0xbc9ed050	-0.01938644
186	0x3d2e8010	0.0426026
187	0x3c058420	0.008149177
188	0x3b8a6600	0.004223585
189	0x3dcb5f7e	0.09930323
190	0x3d4f12e8	0.05055514
191	0xbd7a31bc	-0.061082587
192	0xbc5ca570	-0.013467178
193	0x3e0e4a47	0.13895522
194	0xbd802731	-0.06257475
195	0x3c8240a0	0.015899956
196	0x3d22fc44	0.03979136
197	0xbe303927	-0.17209302
198	0xbdde05e5	-0.10840968
199	0x3cf84788	0.030307546
200	0xbd95d357	-0.073157005
201	0x3de209de	0.11037038
202	0x3cc470d0	0.023979574
203	0x3d87089e	0.065934405
204	0x3e165ed5	0.14684613
205	0x3d5f765c	0.054556236
206	0xbe1c919d	-0.15289922
207	0xbdfd5b31	-0.12370909
208	0x3d8e48b2	0.06947459
209	0xbdfd6882	-0.12373449
210	0x3d86a7e6	0.06574993
211	0x3d446208	0.047945052
212	0xbe076e50	-0.13225675
213	0xbddf9f25	-0.10919026
214	0xbe0b7d00	-0.13621902
215	0xbd80f446	-0.062965915
216	0xbd6bd148	-0.057572633
217	0xbcbe4b10	-0.023229152
218	0xbddf29c6	-0.108966395
219	0xbe27a08f	-0.16369842
220	0xbe2ae958	-0.16690576
221	0x3c7f2220	0.015572101
222	0xbdc14c37	-0.09438365
223	0x3d1410d4	0.03614886
224	0x3e2f914b	0.17145269
225	0x3e31bff1	0.17358376
226	0xbdcd793e	-0.10032891
227	0xbe27b1ca	-0.16376415
228	0x3c9545b8	0.018221721
229	0xbdaed283	-0.08536246
230	0x3dabcb6e	0.083884105
231	0xbd1318b0	-0.035912216
232	0x3d755cb8	0.059902877
233	0x3dbb072a	0.09132226
234	0x3daf4d36	0.08559649
235	0xbe0801c0	-0.13281918
236	0x3e0ee6bd	0.13955207
237	0xbcccefe0	-0.025016725
238	0x3d8cab1a	0.068685725
239	0x3d3083dc	0.0430945
240	0x3e08e49d	0.13368459
241	0xbda64659	-0.081188865
242	0xbc712f40	-0.014720738
243	0x3d7c626c	0.0616173
244	0x3c8bb040	0.017051816
245	0xbdc27013	-0.09494033
246	0xbe006396	-0.12537989
247	0xbe252402	-0.16127017
248	0x3c900c10	0.017583877
249	0xbdb09ba5	-0.08623437
250	0x3b9d6860	0.0048037022
251	0x3e143c5d	0.14476152
252	0xbe2d3569	-0.16914906
253	0xbbc81f40	-0.006107241
254	0xbdd6ad2b	-0.10482248
255	0xbdce7808	-0.10081488

weight_hh_l0 f4 [128, 32]
0	0xbd1717e8	-0.036888033
1	0xbdf18fdc	-0.11795017
2	0x3e289847	0.16464339
3	0x3da0ee0e	0.07857905
4	0x3cf5f400	0.030023575
5	0xbcdf8eb0	-0.027289718
6	0x3d56c318	0.05243215
7	0x3dddb692	0.10825838
8	0x3da2a06a	0.07940753
9	0xbe197791	-0.14987017
10	0x3d86bd14	0.065790325
11	0xbd655b9a	-0.05599556
12	0xbd8683bc	-0.06568095
13	0xbdaf5dd0	-0.08562815
14	0xbd3133f8	-0.043262452
15	0x3c589aa0	0.013220459
16	0xbdfbafb6	-0.122893736
17	0x3e3212dd	0.17390008
18	0xbe06d186	-0.13165864
19	0xbdbd546f	-0.0924462
20	0xbe24d79d	-0.16097875
21	0xbb8f6160	-0.0043756217
22	0x3cc9e160	0.0246436
23	0xbd153e3c	-0.036436304
24	0xbdf0a79b	-0.11750718
25	0x3d9a718a	0.07541187
26	0x3e2de071	0.16980149
27	0xbe17e60b	-0.14833848
28	0xbe071b4b	-0.13194005
29	0xbdca0e52	-0.09866013
30	0x3df4c3e6	0.11951427
31	0x3e3180b3	0.17334251
32	0x3def4ab6	0.11684172
33	0xbd8541d0	-0.06506693
34	0x3dafc76e	0.0858296
35	0xbe28fd43	-0.16502862
36	0xbd0ae324	-0.033908024
37	0xbe2dec8c	-0.16984767
38	0xbd54cf16	-0.051955305
39	0xbdf09804	-0.11747745
40	0x3e1082a7	0.1411234
41	0xbe20ab31	-0.15690304
42	0x3c29a280	0.010353684
43	0x3d2e2850	0.042518914
44	0x3e034279	0.12818326
45	0xbd98ecfd	-0.07467077
46	0x3d63df30	0.05563277
47	0x3d0be794	0.034156397
48	0xbe11694a	-0.14200321
49	0x3df75796	0.120772526
50	0x3d12e2c4	0.03586079
51	0x3d87b834	0.06626931
52	0x3d3bf4c8	0.04588774
53	0xbd4ae224	-0.04953207
54	0x3daf9ed2	0.085752144
55	0x3e118009	0.14208998
56	0x3e0c80d1	0.13721015
57	0xbe06f099	-0.13177718
58	0x3e321a6f	0.17392896
59	0xbd342618	-0.04398164
60	0x3ceedca8	0.029157951
61	0xbe23dbf7	-0.16001879
62	0xbcd1a258	-0.025590107
63	0x3dd32fe2	0.10311867
64	0xbcadb4f0	-0.021204442
65	0x3e02c7bb	0.12771504
66	0x3cac5e58	0.02104108
67	0xbe019f94	-0.1265853
68	0x3e3456a9	0.17611183
69	0xbde0374e	-0.109480485
70	0xbdf53433	-0.11972847
71	0x3dfadb02	0.12248804
72	0xbe0e666c	-0.13906258
73	0x3cf2f388	0.02965714
74	0xbe215660	-0.15755606
75	0xbd0ac920	-0.033883214
76	0x3ce5d948	0.02805771
77	0xbda08d11	-0.07839406
78	0xbd0af668	-0.033926398
79	0xbd604962	-0.054757483
80	0xbdd09fe5	-0.101867475
81	0xbe17b4f0	-0.14815116
82	0xbe27b491	-0.16377474
83	0x3d8444a8	0.06458408
84	0xbd72e5e8	-0.059301287
85	0x3c76e6a0	0.015069634
86	0xbdb66f05	-0.08907894
87	0xbd9540f8	-0.072877824
88	0xbd62049a	-0.05518017
89	0xbe3140a9	-0.17309822
90	0x3de91bae	0.113822326
91	0xbdad014d	-0.08447514
92	0xbdde07af	-0.10841309
93	0xbd81a460	-0.0633018
94	0xbdf8da3c	-0.12151
95	0xbe1a612b	-0.15076129
96	0x3db02932	0.086016074
97	0x3e24f3ad	0.1610858
98	0xbe25484f	-0.16140865
99	0xbe0fb886	-0.14035234
100	0xbdee2c04	-0.11629489
101	0x3e0f2649	0.13979448
102	0xbd0acc7c	-0.033886418
103	0xbd90bb50	-0.07066977
104	0xbd1edb14	-0.038783148
105	0x3e137e01	0.14403535
106	0x3cd34610	0.025790244
107	0xbcadcba8	-0.021215275
108	0xb988c800	-0.00026088953
109	0x3e279ffd	0.16369624
110	0xbd048960	-0.032357574
111	0x3ca45a18	0.020062491
112	0xbdcd6be8	-0.10030347
113	0xbe33cc12	-0.17558315
114	0x3dac5f66	0.08416633
115	0xbe1ac0c3	-0.15112595
116	0xbd928152	-0.07153572
117	0xbc2becd0	-0.010493472
118	0xbe2ef04c	-0.17083853
119	0x3e05277d	0.13003345
120	0x3c6c8890	0.014436856
121	0x3d9bb93a	0.076036885
122	0xbdae8b34	-0.08522645
123	0x3d799478	0.060932606
124	0xbd818e6c	-0.06325993
125	0xbe081cbf	-0.13292216
126	0xbe052077	-0.13000666
127	0xbdad0681	-0.08448506
128	0x3e340b5f	0.17582463
129	0xbe062e05	-0.13103493
130	0xbd9ff247	-0.078098826
131	0x3e1c41b3	0.15259437
132	0x3dfebb1e	0.124380335
133	0xbdea842e	-0.114509925
134	0xbddba584	-0.10724929
135	0x3e21e133	0.15808563
136	0x3d827096	0.0636913
137	0xbe31a63f	-0.17348574
138	0xbe07b147	-0.1325122
139	0x3d1e5424	0.03865446
140	0x3e08a1d1	0.13342978
141	0xbe09b086	-0.13446245
142	0x3c095f70	0.0083845705
143	0x3d8535ce	0.06504403
144	0x3dd4691a	0.10371609
145	0x3d80e3d8	0.06293458
146	0x3dba36a2	0.09092452
147	0x3cd02928	0.02541025
148	0xbe1b18c9	-0.15146174
149	0x3dd5db76	0.104422495
150	0x3b90e7c0	0.004422158
151	0x3e0b1441	0.13581945
152	0xbd2fa940	-0.04288602
153	0x3d2bc468	0.041935354
154	0x3c12efa0	0.008968264
155	0x3c89ef80	0.016837835
156	0x3d5186dc	0.051154003
157	0x3d2273c0	0.03966117
158	0xbe17a2f9	-0.14808263
159	0xbc36af10	-0.011150137
160	0x3d5d6bdc	0.05405794
161	0x3c741360	0.0148971975
162	0xbbeeae20	-0.007283941
163	0xbd7c84da	-0.061650135
164	0x3deefd46	0.11669402
165	0xbd66dbc8	-0.056361943
166	0xbe211478	-0.15730464
167	0xbcd222e8	-0.02565141
168	0x3e0eaa11	0.13932063
169	0x3e0e6bd7	0.13908325
170	0x3db8c5d6	0.09022109
171	0x3dade24a	0.08490427
172	0xbd2dbfa4	-0.04241909
173	0xbd899585	-0.06717972
174	0x3da4887e	0.08033846
175	0x3d9c4ede	0.0763223
176	0xbdd73b51	-0.105093606
177	0xbdffcbda	-0.124900535
178	0x3dfd1ee2	0.12359406
179	0xbdc23116	-0.09482019
180	0x3b359e80	0.0027712882
181	0xbd32dbf4	-0.043666795
182	0xbdb4a3be	-0.08820294
183	0x3d8b858a	0.0681258
184	0x3e32f6c3	0.17476945
185	0xbe299c8a	-0.16563621
186	0xbd203d18	-0.039120764
187	0x3c260730	0.01013355
188	0x3deff21a	0.11716099
189	0xbdd97550	-0.10618079
190	0xbdb34c8b	-0.08754834
191	0xbd098c4c	-0.033581063
192	0x3b5cb740	0.0033678561
193	0xbdb30be6	-0.08742504
194	0xbe0703c8	-0.13185036
195	0x3d832b3a	0.06404729
196	0xbdf8c420	-0.12146783
197	0xbddc8bf2	-0.1076888
198	0xbe02c909	-0.12772001
199	0x3c892880	0.016742945
200	0x3ccb3530	0.024805635
201	0x3e19e731	0.15029599
202	0xbd957dec	-0.07299408
203	0xbe064cf9	-0.131153
204	0xbd61ef6e	-0.05515998
205	0xbdcc2320	-0.09967637
206	0xbe16ac4c	-0.14714164
207	0xbdd0a9da	-0.101886466
208	0x3de1daf2	0.11028089
209	0x3c84fe00	0.016234398
210	0x3dba1aca	0.09087141
211	0x3d84b72e	0.06480251
212	0xbceee610	-0.029162437
213	0x3d8af938	0.06785816
214	0xbe1de41b	-0.15419047
215	0xbe13f419	-0.14448585
216	0xbe03f236	-0.12885365
217	0x3de9a3c6	0.114081904
218	0xbd056738	-0.03256914
219	0x3e2829db	0.16422217
220	0x3e1d7c77	0.15379511
221	0xbe2b9aa8	-0.16758215
222	0x3e201c0b	0.15635698
223	0xbe1c6a78	-0.1527499
224	0xbe1c60a8	-0.15271246
225	0xbdf1e352	-0.11810936
226	0x3d4311c8	0.04762438
227	0x3d92bdf2	0.071651354
228	0xbe1bea47	-0.15226088
229	0x3d83b7e4	0.06431559
230	0xbe0f8a03	-0.14017491
231	0xbd3791f0	-0.04481691
232	0x3e1c7415	0.15278657
233	0xbc990678	-0.018679842
234	0x3d962e6e	0.073330745
235	0xbe334340	-0.17506123
236	0x3de3bab6	0.11119597
237	0xbe2c3f30	-0.16820979
238	0xbdf0b784	-0.11753753
239	0xbe00a8e8	-0.12564433
240	0x3da22cda	0.07918711
241	0x3d087e54	0.0333236
242	0xbe07df9c	-0.13268894
243	0xbcc22560	-0.023699462
244	0xbc39bbb0	-0.011336252
245	0x3cf56610	0.029955894
246	0x3e2a52a7	0.16633092
247	0xbe048aef	-0.12943624
248	0x3dd3f15e	0.103487715
249	0xbc8cb1b8	-0.017174587
250	0xbe051196	-0.1299499
251	0x3d7f9814	0.062400892
252	0xbd420618	-0.047369093
253	0x3e0e2a39	0.13883294
254	0x3d51ec5c	0.0512508
255	0xbd0d978c	-0.034568354

bias_ih_l0 f4 [128]
0	0x3d785d00	0.060635567
1	0xbe057bda	-0.13035527
2	0xbe2fa62c	-0.17153233
3	0xbde76497	-0.11298483
4	0x3e1257c9	0.142913
5	0x3d8a8c0e	0.067649946
6	0x3dbe0282	0.09277822
7	0x3d417cd0	0.04723817
8	0xbd353798	-0.04424247
9	0xbdb4b60a	-0.08823784
10	0x3e3246f9	0.17409886
11	0xbdd07b64	-0.10179785
12	0x3dfe0102	0.12402536
13	0x3e198207	0.14991008
14	0xbe0b1c3c	-0.1358499
15	0x3e2bbbc7	0.1677085
16	0x3e2ce9d5	0.16886075
17	0x3ae03900	0.0017106831
18	0xbd8b0142	-0.06787349
19	0xbdc5ca23	-0.09657695
20	0xba565200	-0.0008175671
21	0xbda70059	-0.08154363
22	0x3cef76b8	0.029231414
23	0x3d3c29fc	0.045938477
24	0x3e0e8847	0.13919173
25	0xbd26116c	-0.04054396
26	0xbcf343a8	-0.029695347
27	0x3cbc8fd8	0.023017809
28	0x3d7dff1c	0.06201087
29	0xbd7fd06e	-0.062454633
30	0xbd84ffee	-0.06494127
31	0xbbfd42c0	-0.0077289045
32	0x3e04e6b3	0.1297863
33	0xbceba038	-0.028762922
34	0x3e05f487	0.13081561
35	0x3d204fd0	0.039138615
36	0x3e1a98f9	0.15097417
37	0xbcdf31a0	-0.027245343
38	0x3e1a0fb9	0.1504506
39	0xbdb74c75	-0.0895013
40	0x3de0e8c6	0.10981898
41	0xbdd2a714	-0.10285774
42	0x3b811460	0.0039391965
43	0xbd9cf0f2	-0.07663144
44	0x3ddb65ca	0.10712774
45	0x3dd0fa36	0.10203974
46	0xbd90163c	-0.07035491
47	0x3dcce0fa	0.100038484
48	0x3bee7ac0	0.0072778165
49	0x3d8f204c	0.06988582
50	0x3e23b26b	0.1598603
51	0xba9e0e00	-0.0012058616
52	0xbd7b32a8	-0.061327606
53	0x3d467ea8	0.048460633
54	0xbd4a6ce0	-0.049420238
55	0xbd22a230	-0.039705455
56	0xbe1b97c3	-0.15194611
57	0x3e346d05	0.17619713
58	0x3e25fe6b	0.16210334
59	0x3d59f9a0	0.053216577
60	0xbd040804	-0.032234207
61	0x3d426f7c	0.0474696
62	0x3d5bdcb4	0.053677276
63	0x3daaefd2	0.08346523
64	0x3d2903e8	0.04126349
65	0x3be6f140	0.007047802
66	0xbe33e0a0	-0.17566156
67	0xbd912b7d	-0.07088373
68	0xbe0c1757	-0.13680778
69	0xbd5d8df0	-0.05409044
70	0xbe255e87	-0.1614934
71	0x3d738b14	0.059458807
72	0xbdb2b3c6	-0.08725695
73	0xbdf0f3e2	-0.11765267
74	0x3d3b0e70	0.045668066
75	0x3d8cf1ca	0.06882055
76	0x3b6d5500	0.0036213994
77	0xbd2a96cc	-0.041647717
78	0xbdf26eb8	-0.11837524
79	0x3dd55f02	0.10418512
80	0xbd28be38	-0.04119703
81	0xbd49f33c	-0.049304232
82	0xb9e75200	-0.00044120848
83	0xbe01f95b	-0.12692778
84	0x3d73ac5c	0.059490547
85	0x3e2fe58f	0.17177413
86	0x3dd885ca	0.10572393
87	0x3e036717	0.12832294
88	0xbd6ab8c8	-0.057305127
89	0xbe1c8fe9	-0.15289272
90	0x3d8d96d6	0.06913535
91	0x3dd4c50e	0.10389148
92	0x3e0657b1	0.13119389
93	0x3c567d60	0.013091415
94	0x3e141d51	0.14464308
95	0x3d27aadc	0.04093443
96	0x3c85a5e8	0.016314462
97	0x3e164d05	0.14677818
98	0xbdc87b42	-0.097891346
99	0x3dfd054a	0.123545244
100	0x3e02b0df	0.12762783
101	0xbe0f99f0	-0.14023566
102	0x3c063eb0	0.008193657
103	0x3d774760	0.060370803
104	0xbddcd376	-0.107825205
105	0xbdbec816	-0.09315507
106	0x3cad5e88	0.02116324
107	0xbd045b40	-0.032313585
108	0x3e03d13d	0.12872787
109	0xbd78249e	-0.060581796
110	0xbe1b9f8a	-0.15197578
111	0x3e2e2e11	0.1700976
112	0xbc847d18	-0.01617293
113	0xbdc82114	-0.09771934
114	0x3d635714	0.055502966
115	0xbde237de	-0.11045812
116	0xbdc80e62	-0.09768368
117	0xbdb9af33	-0.0906662
118	0x3da3168a	0.07963283
119	0x3e285ef7	0.16442476
120	0x3c9a3f88	0.018829122
121	0xbe1712c6	-0.14753255
122	0x3b3c1000	0.002869606
123	0xbdac0da3	-0.084010385
124	0xbe172e5e	-0.14763781
125	0xbd83e045	-0.064392604
126	0x3d399850	0.045311272
127	0xbdee71aa	-0.116427734

bias_hh_l0 f4 [128]
0	0xbdffcaaf	-0.12489831
1	0x3da4fb62	0.0805576
2	0xbc01cab0	-0.00792186
3	0xbd9b87c5	-0.07594255
4	0xbd84ffcc	-0.06494102
5	0xbda4c830	-0.08045995
6	0xbd3ccf04	-0.046095863
7	0xbc752620	-0.014962703
8	0x3d95da7c	0.07317063
9	0xbdf4ae0c	-0.11947259
10	0xbd5cba1e	-0.053888433
11	0xbe05e59c	-0.1307587
12	0xbe0df222	-0.13861898
13	0x3d69eddc	0.057111606
14	0x3d76a04c	0.060211465
15	0xbe0be988	-0.13663304
16	0x3ca3acd0	0.019979864
17	0x3d1c8eb4	0.03822203
18	0xbdc65e85	-0.09685997
19	0x3d9a2c4e	0.07527982
20	0xbd608e7a	-0.054823376
21	0x3d89e4a4	0.06733063
22	0x3d9d6cd6	0.076867744
23	0x3dc14f0e	0.094389066
24	0xbd0052ac	-0.031328842
25	0xbde7efe3	-0.11325052
26	0xbe10b8a5	-0.14132936
27	0xbdec3426	-0.11533384
28	0xbe2bf3e6	-0.16792259
29	0x3dd90286	0.105961844
30	0xbb364dc0	-0.0027817339
31	0x3da6a3da	0.08136721
32	0x3d94ca7c	0.07265183
33	0x3dac7796	0.08421247
34	0x3e161843	0.14657693
35	0x39b03a00	0.0003361255
36	0x3dfbb5c6	0.1229053
37	0xbde1b98a	-0.11021717
38	0xbe32b9d3	-0.17453699
39	0xbe2430ec	-0.16034287
40	0x3db85196	0.08999936
41	0x3ba32900	0.004979253
42	0x3d1be7e0	0.03806293
43	0x3e009019	0.12554969
44	0x3e005499	0.12532271
45	0xbe030b7d	-0.12797351
46	0x3e141b25	0.1446348
47	0xbe18da77	-0.14927088
48	0xbe108edc	-0.14116997
49	0xbe20d478	-0.1570605
50	0x3dd59862	0.10429455
51	0xbd8d769e	-0.0690739
52	0xbcc5c508	-0.024141803
53	0x3d202a00	0.039102554
54	0x3dc21a56	0.094776794
55	0x3da7718e	0.08175956
56	0xbd1a01b4	-0.03759928
57	0x3e13355f	0.14375828
58	0x3e0e48dd	0.13894983
59	0xbdd3bce2	-0.10338761
60	0xbdd31df0	-0.103084445
61	0xbc584250	-0.013199404
62	0xbc966b48	-0.018361703
63	0xbdea0bb2	-0.11428012
64	0xbdd2010a	-0.102541044
65	0xbde3d151	-0.11123908
66	0xbbd32be0	-0.0064444393
67	0xbd9724c8	-0.07380062
68	0x3e0f921d	0.14020582
69	0xbd2ee9f0	-0.04270357
70	0xbe16038c	-0.1464979
71	0x3d08ec74	0.033428624
72	0x3dc73bf6	0.097282335
73	0x3cc92d98	0.024557874
74	0xbe0cff5a	-0.13769284
75	0xbd3f917c	-0.046769604
76	0xbe057af2	-0.13035181
77	0xbe22f4a7	-0.1591364
78	0xbc9b1628	-0.018931463
79	0xbe1d5256	-0.1536344
80	0xbc7a2640	-0.015267909
81	0x3e22bee5	0.15893133
82	0x3cba8070	0.022766322
83	0x3d8917e8	0.06694013
84	0x3d1bef88	0.03807023
85	0x3de5f78e	0.11228858
86	0x3d7c6d20	0.061627507
87	0x3d151358	0.0363954
88	0xbc89ffb0	-0.016845554
89	0x3d0ee104	0.03488256
90	0xbdd3da3d	-0.1034436
91	0x3b74a680	0.0037330687
92	0xbe1d453d	-0.15358444
93	0x3bad7600	0.0052936077
94	0xbe089361	-0.1333747
95	0x3df3660e	0.118847
96	0xbdecca62	-0.11562039
97	0xbd13aa74	-0.03605123
98	0xbd263560	-0.040578246
99	0x3e212e3b	0.15740292
100	0x3ddfc276	0.10925762
101	0x3e2b0b01	0.16703416
102	0xbe226a62	-0.15860894
103	0xbdb6b610	-0.089214444
104	0xbe1b2a50	-0.1515286
105	0x3e06ab75	0.13151343
106	0xbdff2e3c	-0.124599904
107	0xbd34a5e8	-0.044103533
108	0x3d521cbc	0.051296934
109	0x3de3673e	0.11103676
110	0xbcf4c358	-0.029878303
111	0x3ddf7a1e	0.10911964
112	0xbda8644a	-0.082222536
113	0xbe2b0161	-0.16699745
114	0xbe0c44a2	-0.13698056
115	0xbe216518	-0.1576122
116	0x3de2488a	0.11048992
117	0x3d8162bc	0.0631766
118	0x3d8c4290	0.06848633
119	0xbdea72dc	-0.11447689
120	0xbdbddc36	-0.092705175
121	0x3d259b84	0.040431514
122	0x3ddd0146	0.107912585
123	0x3dcc2fbe	0.099700436
124	0xbd95f45d	-0.07321999
125	0xbda2ddd2	-0.07952465
126	0xbe2c0a20	-0.16800737
127	0xbe0bf55c	-0.13667816

weight f4 [1, 32]
0	0xbd86493c	-0.06556937
1	0x3bf57be0	0.0074915737
2	0x3d2778e8	0.04088679
3	0x3e27980d	0.16366597
4	0x3d36a43c	0.04459022
5	0x3b8d1120	0.00430502
6	0x3da3249e	0.079659685
7	0x3db86fee	0.09005724
8	0xbdd3b10d	-0.10336504
9	0xbe2eef2d	-0.17083426
10	0x3df76bfa	0.12081142
11	0xbcb65ee8	-0.022262052
12	0xbd34fec4	-0.044188276
13	0xbda092e1	-0.07840515
14	0xbda4a2fa	-0.08038898
15	0xbd9f82b3	-0.07788601
16	0xbdd58eef	-0.10427653
17	0xbe20c55f	-0.15700291
18	0x3d831328	0.06400138
19	0x3db4d5ce	0.088298425
20	0xbd9e9503	-0.077432655
21	0x3df50216	0.119632885
22	0xbe04c418	-0.12965429
23	0xbd01b0ec	-0.031662866
24	0xbe3358de	-0.17514369
25	0x3d3133d8	0.043262333
26	0x3e305fff	0.1722412
27	0x3e183b09	0.1486627
28	0x3d014c00	0.03156662
29	0xbcb0e470	-0.021593302
30	0x3d610448	0.054935724
31	0x3d83e9e0	0.064410925

weight f4 [1, 32]
0	0xb97a4000	-0.000238657
1	0xbe2f886e	-0.17141888
2	0xbdba4eb2	-0.09097041
3	0xbddbdba5	-0.10735253
4	0x3d1b2564	0.037877455
5	0x3df3a9ce	0.11897622
6	0x3e29d33f	0.1658449
7	0xbd421f38	-0.047393054
8	0xbe1f6882	-0.1556721
9	0xbd324e94	-0.04353197
10	0x3c6e5810	0.014547363
11	0x3de8af7a	0.113615945
12	0xbcc4c6b8	-0.024020538
13	0x3b4e39c0	0.0031467527
14	0xbd6bc478	-0.057560414
15	0x3dd32e9e	0.10311626
16	0x3cc5a138	0.024124727
17	0x3d370e6c	0.04469149
18	0xbdf60329	-0.120123215
19	0x3de8b69a	0.113629535
20	0x3d77de70	0.060514867
21	0x3cac6c18	0.021047637
22	0x3cce67a8	0.025195912
23	0x3e1c43b3	0.152602
24	0x3d6f3c00	0.05840683
25	0x3e26c5f9	0.16286458
26	0xbe1338c9	-0.1437713
27	0xbe08b782	-0.13351253
28	0x3d877a9e	0.06615184
29	0x3d450cdc	0.048107967
30	0xbe1d9af4	-0.15391141
31	0x3d1a5190	0.03767544
