competition/result/lstm_win5/trained_model/all_model/actor_num_epoch_0.pth (torch, 8011 bytes, 5 tensors)

weight_ih_l0 f4 [40, 11]
0	0xbe88d45d	-0.2672452
1	0x3e2c709c	0.16839832
2	0xbe36270f	-0.17788337
3	0xbe1dddb9	-0.15416612
4	0x3e14bd70	0.1452539
5	0x3d463ef0	0.048399866
6	0x3d8994ea	0.06717856
7	0xbe31b232	-0.17353132
8	0xbe6d9381	-0.232008
9	0xbe1b33ac	-0.1515643
10	0x3d9170df	0.071016066
11	0x3e30307e	0.17205998
12	0xbdb97a74	-0.09056559
13	0x3e3de9fc	0.18546289
14	0xbe105b29	-0.14097275
15	0x3d9d3e68	0.07677919
16	0xbe9b6164	-0.3034774
17	0x3e976d73	0.2957569
18	0xbdf8f4ec	-0.1215609
19	0xbc3ecff7	-0.011646262
20	0x3e8a79d6	0.27046078
21	0xbe4a622c	-0.19764012
22	0xbc5c67b9	-0.013452464
23	0x3cb832c6	0.022485148
24	0x3d17dd68	0.037076384
25	0x3db3ff9e	0.087889895
26	0xbe52fefa	-0.20605078
27	0xbe2faea2	-0.17156461
28	0x3a82f496	0.0009991105
29	0x3e99c471	0.30032685
30	0xbe2d0b39	-0.16898812
31	0x3d5b876b	0.05359594
32	0x3e53546e	0.20637676
33	0x3e892b5d	0.26790896
34	0xbe28ef5c	-0.16497558
35	0x3e474e0b	0.19463365
36	0x3e298b66	0.16557083
37	0xbe432e0f	-0.19060539
38	0x3e87e525	0.2654201
39	0x3e4b877c	0.19875902
40	0x3ca3daf7	0.020001872
41	0xbddf3c61	-0.10900188
42	0xbe42c1eb	-0.19019286
43	0x3e9b5ddd	0.3034505
44	0x3e050528	0.12990248
45	0x3e31dfe5	0.17370565
46	0x3bd873cb	0.0066056005
47	0xbe9f15ea	-0.31071407
48	0x3e59fb23	0.21287207
49	0x3e95cc8f	0.29257628
50	0xbce52ea7	-0.027976347
51	0xbe880f13	-0.26574
52	0x3e8973ed	0.26846257
53	0x3e62d3e7	0.22151147
54	0xbe83777c	-0.25677097
55	0x3e927ed5	0.2861239
56	0xbc76f10d	-0.015072119
57	0x3b39db11	0.0028359334
58	0xbde6dc53	-0.11272492
59	0xbcb3b291	-0.021935733
60	0xbe9548ab	-0.29157004
61	0x3e97d460	0.29654217
62	0x3d96e686	0.073681876
63	0x3e54e4be	0.20790383
64	0x3d2a40cb	0.041565698
65	0xbe937853	-0.28802738
66	0xbd0c0c00	-0.03419113
67	0x3e56f504	0.20991904
68	0xbdf8d9be	-0.12150906
69	0x3e746d30	0.23869777
70	0x3e45067b	0.19240753
71	0x3e23d9c5	0.16001041
72	0xbd8cce03	-0.06875231
73	0x3e860823	0.26178083
74	0xbe8c4f93	-0.2740446
75	0xbe2e342c	-0.1701209
76	0x3d869776	0.06571858
77	0x3e463e20	0.19359636
78	0x3e9ed9a9	0.31025437
79	0xbddc9f96	-0.10772626
80	0xbe545eb7	-0.20739256
81	0xbe0830a8	-0.13299811
82	0x3ddf6d70	0.109095454
83	0xbd831310	-0.0640012
84	0x3e95e328	0.2927487
85	0xbe50845b	-0.2036299
86	0xbd938cf3	-0.07204618
87	0x3da851e5	0.08218745
88	0x3e94959c	0.29020393
89	0xbd3bfbfd	-0.04589461
90	0xbe749303	-0.23884206
91	0x3e8d81ab	0.2763799
92	0xbd70ac12	-0.05875785
93	0x3e94f6d1	0.29094556
94	0xbdc71a52	-0.09721817
95	0xbaa969c4	-0.0012925197
96	0xbe974297	-0.29542992
97	0xbe7a655d	-0.2445273
98	0xbe8bbec0	-0.27293968
99	0xbe08a02d	-0.13342352
100	0xbe084c6f	-0.13310407
101	0xbe8bc0d4	-0.27295554
102	0xbd98e56e	-0.07465635
103	0x3e344c39	0.17607202
104	0x3e0e2979	0.13883008
105	0xbe17e9f9	-0.14835347
106	0xbcd13d12	-0.025541816
107	0x3e0bada7	0.13640462
108	0x3e5bd94d	0.21469612
109	0xbe9f5724	-0.3112117
110	0x3e1923b0	0.1495502
111	0xbceb6992	-0.028736863
112	0x3e311409	0.17292799
113	0x3e8ccd36	0.27500314
114	0xbea04e87	-0.31309912
115	0x3deeee66	0.11666565
116	0xbd7645ee	-0.060125284
117	0xbd03eed1	-0.032210175
118	0x3e128ac9	0.14310755
119	0x3db52546	0.08845
120	0xbd35d495	-0.044392187
121	0xbd80dc74	-0.06292048
122	0xbe00314b	-0.12518804
123	0xbe4f3e6c	-0.20238656
124	0xbe93e851	-0.2888818
125	0x3e87fcc2	0.26560026
126	0x3e77d303	0.24201588
127	0x3d63768a	0.05553297
128	0x3d1b6f4c	0.037947938
129	0x3d5d61b2	0.054048248
130	0xbd443d4c	-0.04791002
131	0xbd46f9ea	-0.04857818
132	0x3d9cbd71	0.076533206
133	0xbe4e24dc	-0.20131248
134	0xbe9212c4	-0.28529942
135	0x3e414480	0.18873787
136	0xbe9bbbad	-0.30416623
137	0x3e8ef170	0.27918577
138	0x3e7d98c1	0.24765302
139	0xbe558c0f	-0.2085421
140	0x3d88dc60	0.06682658
141	0x3cca7d2b	0.024717888
142	0x3e713c7d	0.2355823
143	0xbde41b22	-0.11137988
144	0x3e0bc6ad	0.13650008
145	0x3e75681e	0.23965499
146	0x3c18d18a	0.009327302
147	0xbe6c61f2	-0.23084238
148	0x3e1e7ea9	0.15478005
149	0xbe994062	-0.29931933
150	0x3ea387c8	0.3193953
151	0xbe7f127f	-0.249094
152	0xbe6cafc2	-0.23113921
153	0xbdc6eb43	-0.09712841
154	0xbd40f24b	-0.04710607
155	0xbe8a12e7	-0.26967546
156	0xbe9af1d0	-0.30262613
157	0x3e38f57f	0.180624
158	0xbd903198	-0.07040709
159	0xbe781d37	-0.24229895
160	0xbe3e2080	-0.18567085
161	0xbabe7f1c	-0.0014533731
162	0x3dd11a29	0.10210068
163	0xbe6b2879	-0.22964658
164	0xbc87d4e7	-0.016581012
165	0xbe2d2a14	-0.16910583
166	0x3e14f6f6	0.14547333
167	0xbccd5673	-0.025065636
168	0x3cdc3ea3	0.026885336
169	0x3e9d1a25	0.3068401
170	0xbe98f483	-0.29874048
171	0xbe9a3ca2	-0.30124384
172	0x3d40bd19	0.047055338
173	0x3d431ecd	0.047636796
174	0xbe03a0aa	-0.12854257
175	0x3e10cdb1	0.14140965
176	0x3e0c2e62	0.13689569
177	0xbe6f1233	-0.23346786
178	0x3e986723	0.29766187
179	0x3de2fc2c	0.11083254
180	0x3de7891b	0.11305448
181	0xbe603e77	-0.21898828
182	0xbe8acafc	-0.2710799
183	0xbdba5700	-0.09098625
184	0x3d28970a	0.041159667
185	0xbea13f4f	-0.31493613
186	0x3e90492f	0.28180835
187	0xbe1eeb97	-0.15519558
188	0xbe3c3ac2	-0.1838179
189	0x3ce4b015	0.027915994
190	0xbe25a5d4	-0.1617654
191	0x3df4dce8	0.11956197
192	0x3df81a2f	0.12114369
193	0xbe11b3e1	-0.14228775
194	0xbdd1189d	-0.10209773
195	0xbe31443b	-0.17311184
196	0x3d97beb6	0.07409422
197	0xbddf55dd	-0.10905049
198	0x3dc5ce11	0.09658445
199	0xbcbe86fa	-0.023257721
200	0x3e647229	0.22309174
201	0x3ce0c02b	0.027435383
202	0xbdf42ce3	-0.11922624
203	0xbd1fd059	-0.039017055
204	0x3d59c612	0.05316741
205	0xbe61f032	-0.22064283
206	0x3dc2c52c	0.09510264
207	0xbe36dddb	-0.17858069
208	0xbe59547f	-0.21223639
209	0x3d526dfd	0.051374424
210	0x3dddcdc0	0.10830259
211	0x3e1fcc5f	0.15605305
212	0x3d8bcd53	0.06826272
213	0x3d5bf64d	0.053701688
214	0x3e7510e7	0.23932229
215	0xbd7ef539	-0.06224558
216	0x3dd94e7c	0.10610673
217	0x3cd15fb8	0.025558338
218	0x3e175350	0.14777875
219	0xbe29ba31	-0.16574933
220	0xbe95eb9c	-0.29281318
221	0x3de16960	0.11006427
222	0xbd805b30	-0.06267393
223	0x3e0cb3f5	0.13740523
224	0x3db6dde7	0.08929043
225	0x3c2a494a	0.01039345
226	0xbe21c861	-0.15799095
227	0xbe40ea7f	-0.18839453
228	0xbcb77279	-0.022393452
229	0x3cf9535a	0.030435253
230	0x3e304518	0.17213857
231	0x3d4507f7	0.0481033
232	0xbe8adcb6	-0.27121514
233	0xbd85c535	-0.06531755
234	0x3e2611d0	0.16217732
235	0xbda90c53	-0.08254304
236	0xbd2a7892	-0.04161889
237	0xbe0bf03e	-0.13665864
238	0xbe467a18	-0.19382513
239	0xbc8f9b6f	-0.017530171
240	0xbcfd59b3	-0.030926561
241	0xbe5a7037	-0.21331869
242	0xbe7d4bc7	-0.24735938
243	0xbe6bee28	-0.23040068
244	0xbe770781	-0.24123956
245	0x3d311e2c	0.043241665
246	0x3e981fb3	0.29711685
247	0x3e81cd40	0.25351906
248	0x3e325674	0.17415792
249	0xbddb294f	-0.10701238
250	0x3e29e33c	0.1659059
251	0x3e30c268	0.1726166
252	0x3e73cb41	0.23808004
253	0x3e580cac	0.21098584
254	0xbdb36ba7	-0.087607674
255	0x3e300185	0.1718808

weight_hh_l0 f4 [40, 10]
0	0xbe251613	-0.16121702
1	0xbe044493	-0.12916784
2	0x3dbf8850	0.093521714
3	0xbe51ab06	-0.20475397
4	0x3d8f608c	0.07000837
5	0x3defab66	0.117026135
6	0x3e7cc541	0.24684621
7	0x3e12aac1	0.1432295
8	0xbe63c766	-0.22244033
9	0xbe006098	-0.12536848
10	0xbe62ab34	-0.22135621
11	0x3e672a68	0.2257477
12	0xbe311177	-0.17291819
13	0x3e470f5b	0.19439451
14	0xbe4ff8c7	-0.20309745
15	0x3e4cb89d	0.199923
16	0x3e97a872	0.296207
17	0x3def12bf	0.116734974
18	0x3e85c262	0.26124865
19	0xbc4ffcd2	-0.012694554
20	0xbdffb25b	-0.124851905
21	0xbdd112f6	-0.10208695
22	0x3e94362f	0.2894759
23	0x3dd61194	0.104525715
24	0x3e323db0	0.17406344
25	0xbe846462	-0.25857836
26	0xbe841498	-0.25796962
27	0x3e41f7ee	0.18942234
28	0xbe8e8583	-0.27836236
29	0x3e0064c6	0.12538442
30	0xbe91383d	-0.2836322
31	0xbb066383	-0.002050609
32	0xbe8dfe44	-0.27733052
33	0xbda9ad7a	-0.08285041
34	0x3d610fa5	0.05494656
35	0x3e421885	0.18954666
36	0xbd3ba647	-0.04581287
37	0xbdd27f37	-0.102781706
38	0x3e064b33	0.13114624
39	0xbd91c826	-0.071182534
40	0xbe5184c7	-0.20460807
41	0x3d5c77de	0.05382525
42	0x3ea2f612	0.31828362
43	0xbe29cf62	-0.16583017
44	0xbe84e3f4	-0.25955164
45	0xbe7f2448	-0.24916184
46	0x3e9e2a67	0.30891725
47	0x3d430d1f	0.047619935
48	0x3d73b5c1	0.059499506
49	0xbe246834	-0.16055375
50	0xbd9e041f	-0.0771563
51	0x3e9aae15	0.3021094
52	0x3e2d6052	0.16931275
53	0x3da1a057	0.078919105
54	0x3e68d0fb	0.2273597
55	0xbe339f29	-0.17541184
56	0xbc48dbd8	-0.012259446
57	0xbe8acd80	-0.2710991
58	0xbdcb0948	-0.0991388
59	0xbc6cbbef	-0.014449104
60	0x3e56cc2d	0.20976324
61	0x3c5b4a2e	0.013384385
62	0xbe66abba	-0.22526446
63	0xbd8b25c3	-0.06794312
64	0xbe8886c7	-0.26665327
65	0xbe26b443	-0.16279702
66	0xbd53add4	-0.051679447
67	0x3d8937d6	0.06700103
68	0xbbac735b	-0.005262775
69	0xbde6cc4e	-0.11269437
70	0xbe98f758	-0.29876208
71	0xbe8691a9	-0.26283005
72	0xbe3672f7	-0.17817293
73	0xbe0b3427	-0.13594113
74	0x3e8e89e8	0.2783959
75	0xbe9cf04a	-0.30652076
76	0x3e34ff28	0.1767546
77	0xbe98d1ec	-0.29847658
78	0x3e839f79	0.25707605
79	0xbd8a2ed2	-0.067472115
80	0xbd2c2ef3	-0.04203696
81	0x3d84cddd	0.06484578
82	0x3e05c055	0.1306165
83	0xbe1c44fe	-0.15260693
84	0xbe91f8e7	-0.2851021
85	0x3e8d0b05	0.2754747
86	0xbe860bd4	-0.261809
87	0xbe3e12b3	-0.1856182
88	0xbe8ef88b	-0.27923998
89	0x3e145284	0.14484602
90	0xbe95ad80	-0.29233932
91	0x3e513fd3	0.20434503
92	0x3e7064f5	0.23476012
93	0xbc9ef4cb	-0.019403836
94	0xbd0d8765	-0.03455295
95	0x3e2ed749	0.17074312
96	0x3e673bf6	0.22581467
97	0xbe4fe434	-0.20301896
98	0x3e5f5b34	0.21812135
99	0xbdcf82f7	-0.101324014
100	0xbe3cebfc	-0.18449396
101	0x3d35f940	0.044427156
102	0x3e212d66	0.15739974
103	0x3e6a39a9	0.22873558
104	0xbe8b86b4	-0.27251208
105	0xbd4af22d	-0.049547363
106	0xbe6e7591	-0.23287036
107	0xbde3c8b4	-0.111222655
108	0x3d17f656	0.03710016
109	0x3d2e3125	0.042527337
110	0x3e8e876d	0.27837697
111	0x3e7f12a2	0.24909452
112	0x3c5702cf	0.013123228
113	0x3e1f7686	0.15572557
114	0xbe305fa8	-0.1722399
115	0x3ea04efc	0.3131026
116	0xbe1507e7	-0.14553796
117	0x3e3db5fb	0.18526451
118	0xbe591f49	-0.2120334
119	0x3dff7692	0.12473787
120	0xbe3b48fe	-0.18289563
121	0x3d7682a1	0.06018317
122	0xbdc8fa1e	-0.09813331
123	0xbe1804bf	-0.1484556
124	0xbe14b405	-0.14521797
125	0xbd62e6aa	-0.05539576
126	0xbe24553d	-0.16048141
127	0x3d149d1b	0.03628264
128	0xbe307489	-0.17231955
129	0xbc9dd9e6	-0.019268941
130	0xbe18c98b	-0.14920633
131	0x3d2db45d	0.042408336
132	0xbda64466	-0.08118515
133	0xbe3fc75f	-0.18728398
134	0x3e867845	0.26263633
135	0x3e8a3f84	0.27001584
136	0xbe5fff64	-0.21874768
137	0x3e145db8	0.14488876
138	0xbe6885d9	-0.22707309
139	0x3e985d4c	0.2975868
140	0x3e54e00a	0.20788589
141	0x3e19ba8c	0.15012568
142	0x3daee365	0.08539466
143	0x3e9813f3	0.2970272
144	0x3e8b9c61	0.27267745
145	0xbe1242c0	-0.14283276
146	0x3d73674a	0.059424676
147	0x3c93826b	0.018006524
148	0xbe5d3cf2	-0.2160528
149	0x3d567bf0	0.05236429
150	0x3e862a16	0.26203984
151	0xbe504f78	-0.20342815
152	0xbdf9ca17	-0.12196749
153	0xbde2c929	-0.110735245
154	0xbe8cb10c	-0.27478826
155	0xbd238be1	-0.03992832
156	0xbe3ef4f3	-0.18648128
157	0xbe1c2eac	-0.15252179
158	0xbe21b67a	-0.15792266
159	0xbe9d78e3	-0.30756292
160	0x3e23be15	0.1599048
161	0xbe1025e9	-0.14076962
162	0x3e911cb4	0.2834221
163	0xbcbf324b	-0.023339411
164	0xbcd92c58	-0.026510403
165	0xbcf94874	-0.030430056
166	0xbe47c1dc	-0.19507545
167	0x3e819468	0.25308537
168	0x3d3ab8a7	0.045586254
169	0x3e30ccd6	0.17265639
170	0xbe2a7094	-0.16644508
171	0x3de78cd2	0.11306156
172	0x3e44e410	0.19227624
173	0xbe3190bf	-0.17340373
174	0xbd5375fa	-0.051626183
175	0x3ddeed1b	0.10885068
176	0xbc8e3db2	-0.017363403
177	0xbdd1b3d3	-0.10239377
178	0x3dd892b9	0.1057486
179	0x3e456c22	0.1927953
180	0xbe5295bc	-0.20564932
181	0xbe86d326	-0.26332968
182	0x3e84e4d1	0.25955823
183	0x3d5a3109	0.05326942
184	0xbe8e8937	-0.27839062
185	0x3de1f988	0.110339224
186	0x3e9ed57f	0.3102226
187	0xbe804dad	-0.25059262
188	0x3e990fda	0.29894906
189	0xbe9c7310	-0.30556536
190	0x3d3174ea	0.04332439
191	0x3e6fe593	0.2342742
192	0x3e5569bc	0.20841116
193	0x3e6f9dd1	0.23400046
194	0x3e804041	0.25049022
195	0x3e7b97bf	0.24569605
196	0x3cae6a7b	0.021291008
197	0x3d5d247a	0.053989865
198	0xbb9a38fb	-0.0047064996
199	0x3e43cca2	0.1912103
200	0x3e7c8b8b	0.24662606
201	0x3df6f952	0.12059273
202	0xbe355484	-0.17708021
203	0xbb87ac75	-0.0041404315
204	0xbe69fcb8	-0.22850311
205	0xbceb4f6a	-0.028724391
206	0xbd1a78cd	-0.03771286
207	0xbe6dfba2	-0.23240522
208	0xbddb1cdb	-0.10698863
209	0x3ce34207	0.027741445
210	0x3e44044a	0.19142261
211	0x3e70d02b	0.2351691
212	0x3e7356da	0.237636
213	0x3d99e7b2	0.075148955
214	0xbdefdb6b	-0.117117725
215	0xbe27e0e7	-0.16394387
216	0xbe80c65c	-0.25151336
217	0xbe5f8fd3	-0.21832208
218	0xbd80b148	-0.06283814
219	0xbe183d30	-0.14867091
220	0xbd5efbb9	-0.05443928
221	0xbccd79b3	-0.025082445
222	0x3d503eb6	0.050841056
223	0x3e4e22da	0.20130482
224	0xbe78f819	-0.24313392
225	0x3d12e64c	0.03586416
226	0x3d95b06e	0.07309042
227	0xbe09fe74	-0.13475972
228	0xbda27653	-0.07932725
229	0xbe0c094a	-0.13675418
230	0x3e5529ec	0.20816773
231	0x3d254f47	0.040358808
232	0x3e7f022a	0.2490317
233	0x3e864a20	0.26228428
234	0xbd3163d7	-0.043308105
235	0x3e8e75d0	0.2782426
236	0x3e7cfba5	0.2470537
237	0x3e0f378d	0.13986035
238	0x3d819b79	0.06328482
239	0x3e461c26	0.19346675
240	0x3dab954b	0.08378085
241	0xbdd4744d	-0.10373745
242	0xbd96d02e	-0.07363926
243	0x3d57d18f	0.052690085
244	0xbde46a95	-0.111531414
245	0x3dc67ae9	0.09691412
246	0xbe03b394	-0.12861472
247	0xbc9c60b8	-0.019089088
248	0x3d8e99be	0.06962918
249	0x3e8cac24	0.27475083
250	0x3e96268e	0.2932629
251	0xbe76511b	-0.24054377
252	0x3e97a5f6	0.29618806
253	0xbdbb0026	-0.09130888
254	0x3deec50a	0.11658676
255	0xbe4c0818	-0.19924963

bias_ih_l0 f4 [40]
0	0xbe84b602	-0.2592011
1	0x3e4c94ec	0.19978684
2	0x3e0a9cb7	0.13536344
3	0x3e5531d6	0.20819792
4	0x3e93b0f5	0.28845945
5	0x3b7b4d63	0.0038345687
6	0xbc9d9ba0	-0.019239247
7	0x3df903f1	0.12158955
8	0xbe01be5c	-0.12670273
9	0x3e933ccc	0.28757322
10	0x3d824ff5	0.06362907
11	0xbd71ab18	-0.05900106
12	0x3e7a89a0	0.24466562
13	0x3d183809	0.037162814
14	0x3d5554be	0.05208277
15	0xbe3d1090	-0.1846335
16	0x3deef63d	0.1166806
17	0x3de03742	0.109480396
18	0xbe97b1b5	-0.29627767
19	0xbd863222	-0.06552531
20	0xbe4e75b2	-0.20162085
21	0x3e410436	0.18849263
22	0x3e79b628	0.24385893
23	0xbe2b4299	-0.16724624
24	0x3e83a1a7	0.25709268
25	0xbdf603a0	-0.1201241
26	0xbd60dd89	-0.054898772
27	0xbdbe1a21	-0.092823274
28	0xbe4c9b3b	-0.1998109
29	0xbd97c7e1	-0.07411171
30	0xbdfbae10	-0.12289059
31	0x3b53fb35	0.0032345776
32	0xbbb9e300	-0.0056728125
33	0xbe17c38c	-0.14820689
34	0xbe742e2c	-0.23845738
35	0x3e8df19b	0.27723393
36	0x3e398f67	0.1812111
37	0xbe006108	-0.12537014
38	0xbe868ed3	-0.2628084
39	0xbe91aedf	-0.2845373

bias_hh_l0 f4 [40]
0	0x3e68d69f	0.22738121
1	0x3e9b2c9b	0.3030747
2	0x3e2e13f3	0.16999798
3	0x3e3815b0	0.17977023
4	0xbd9afda0	-0.075679064
5	0xbda35c59	-0.07976598
6	0x3e9edbf9	0.310272
7	0x3e84fee7	0.25975725
8	0xbcb1edec	-0.021719895
9	0x3dc81847	0.097702555
10	0xbe5fdd62	-0.21861795
11	0x3d03e8d1	0.032204453
12	0xbd80e38b	-0.062934004
13	0xbd12239f	-0.035678502
14	0xbe7f091e	-0.24905822
15	0xbd53d642	-0.051718004
16	0xbe8757a1	-0.26434043
17	0xbe1ff5a7	-0.15621053
18	0x3e82e940	0.2556858
19	0xbd9efd84	-0.07763198
20	0x3b5bff2e	0.0033568847
21	0xbe78ffc6	-0.2431632
22	0x3de9359a	0.11387177
23	0x3d8723ad	0.065986015
24	0x3d34c996	0.04413756
25	0xbd0d7c26	-0.034542225
26	0xbcf0c565	-0.029391
27	0xbe8505b4	-0.25980914
28	0x3e363d77	0.17796884
29	0xbd4741a7	-0.048646595
30	0xbe905ad4	-0.28194296
31	0x3e765e4d	0.2405941
32	0x3c7075a6	0.014676487
33	0xbbc8ae0a	-0.0061242627
34	0xbdc9b0ad	-0.09848151
35	0x3e19d78c	0.15023631
36	0xbd59259a	-0.053014375
37	0x3de10e2e	0.10989033
38	0x3e0ff192	0.14056996
39	0x3e72556e	0.23665401

weight f4 [1, 10]
0	0xbe16bfe0	-0.14721632
1	0xbe3f8c6b	-0.18705909
2	0x3e478aee	0.19486591
3	0x3d0e0d1e	0.03468048
4	0x3c8e3e78	0.017363772
5	0x3e7a884a	0.24466053
6	0x3e65a21a	0.22425118
7	0xbe1e2b15	-0.15446122
8	0x3e982523	0.29715833
9	0xbd969cd1	-0.07354129
