competition/result/lstm_win5/trained_model/all_model/actor_num_epoch_2.pth (torch, 8011 bytes, 5 tensors)

weight_ih_l0 f4 [40, 11]
00000000: cb75 89be 9602 293e f230 35be 40ca 1dbe
00000010: f9b3 153e 68da 493d b9cc 8f3d 85ac 2ebe
00000020: d2dd 6bbe a32c 19be 7331 973d 0624 333e
00000030: 1780 b9bd 2c77 3e3e 4c41 15be 86dc 913d
00000040: b201 99be e7fb 973e 25cb f6bd 9e36 29bc
00000050: 1496 8b3e 7da5 47be f7e0 67bc 2b77 9c3c
00000060: 251a 1d3d c5c7 b33d dd3b 52be c958 2ebe
00000070: b268 833b 1d34 9b3e e16f 2bbe 2732 633d
00000080: 6f25 563e 5409 893e 78f4 25be b798 453e
00000090: 5c5e 2a3e 4234 43be 76d9 863e 2aae 483e
000000a0: 3e49 913c 5c58 e1bd 2b0c 44be f940 9a3e
000000b0: 68a8 063e 2ad6 2e3e b6dc 323c 44c8 9ebe
000000c0: 5d1e 583e c8ef 973e 0632 c5bc da8b 86be
000000d0: 5556 8a3e 52eb 643e f4f3 81be 962d 933e
000000e0: a9b4 3bbc 7c18 9c3a 3266 e6bd 0995 babc
000000f0: 6e17 96be 9d08 963e 7fb6 903d b64b 533e
00000100: 8bc3 223d 23d3 94be 38f1 07bd f212 5a3e
00000110: 5ef1 fabd 3118 713e 9dc0 423e ef89 243e
00000120: c36b 90bd f061 853e 595f 8cbe f82a 2ebe
00000130: 3033 853d 50e8 443e d62b 9d3e e742 dcbd
00000140: 7119 54be a1a1 06be 735b df3d 27ac 7cbd
00000150: df19 973e 6c45 4fbe 0a9a 90bd feef ac3d
00000160: 9516 953e a0c1 2fbd 4bfb 74be 4252 8e3e
00000170: 5616 73bd 7740 943e 5095 ccbd a708 7bbb
00000180: ab00 98be 163e 7cbe 091e 8dbe 3208 0bbe
00000190: 3af3 0bbe 5530 8cbe 39a7 96bd 11ca 363e
000001a0: 71ca 0b3e ee85 16be e35d c0bc 7197 0c3e
000001b0: 0af3 5c3e 186d 9ebe 77af 173e 3a07 04bd
000001c0: c0bb 313e 2eca 8c3e 14aa 9fbe 40fb ef3d
000001d0: 0e71 6abd 513c f0bc 2730 143e 8e0f b93d
000001e0: 22ab 2abd d3cd 7ebd 20cb 01be d173 4fbe
000001f0: 3daf 95be cdd9 863e 9944 7d3e 9567 6b3d
00000200: be2b 223d af09 623d 7f88 3cbd 287d 3bbd
00000210: a716 9a3d 7cba 51be 4cbc 91be 6f28 413e
00000220: 6524 9bbe 1969 8f3e d92f 803e 45ef 52be
00000230: cd8b 8b3d 6d8d d73c 7ec9 733e f23e e3bd
00000240: 91e7 0e3e 6fbc 743e 4452 253c eb44 6dbe
00000250: 150d 1d3e 9585 9abe cb73 a23e fef3 7fbe
00000260: 64c1 6dbe f3e8 cabd 7fbf 3ebd 10ff 8bbe
00000270: f233 99be 7a7e 393e c5f8 8fbd 8c53 75be
00000280: ef8b 3abe c5ce cc3a 9498 d43d 9d19 69be
00000290: 0fe0 60bc bdf2 2bbe 8fd5 183e bfae d9bc
000002a0: b2a1 dd3c 3e90 9c3e bf66 99be 15e9 9bbe
000002b0: 2833 343d ed83 3c3d ee8b 05be aa0f 0e3e
000002c0: 121d 0d3e e110 6cbe 6aa2 973e 7984 db3d
000002d0: 4b78 e33d e469 5fbe 82b2 8bbe 271d bdbd
000002e0: a5c8 273d 7846 a1be b8eb 8f3e 577d 20be
000002f0: 1195 3fbe 01a5 e43c 7f9e 25be dfee f73d
00000300: d252 f83d 383e 0fbe 7e2d ccbd 1cfe 2fbe
00000310: 2dcb 9a3d fd8f dabd 8ef6 c93d 3ff7 a2bc
00000320: d746 653e 75b4 ef3c 94ff f6bd 1672 24bd
00000330: adc5 4f3d a354 64be c546 c03d a078 38be
00000340: 81e5 5bbe e11b 4c3d 04c3 d73d a2c2 1f3e
00000350: 9658 8d3d 0382 613d 0008 743e 13ee 75bd
00000360: fe5c de3d c316 dc3c b0e8 183e 945c 27be
00000370: 973a 95be b6ac e83d c018 82bd 4070 0c3e
00000380: ac14 b43d 81b2 223c 0aa4 24be deaf 43be
00000390: 6e3b c3bc 5246 eb3c 1ca7 2d3e 1294 443d
000003a0: 3150 89be be2c 8bbd 3f34 263e b615 a8bd
000003b0: 391c 36bd d19c 0fbe 3b74 49be a6aa 9cbc
000003c0: 3782 06bd 2350 5dbe 5a47 7ebe 6d95 6fbe
000003d0: c06c 75be c2dd 313d 2388 983e ea60 823e
000003e0: 8995 353e 2d34 d5bd 3f7a 2b3e 61a1 323e
000003f0: c786 763e bef5 573e 4f2c babd c16f 323e
-0.2684768 0.16504893 -0.17694452 -0.15409184 0.14619435 0.049280554 0.070214696 -0.17057998
-0.23033836 -0.14958434 0.073824786 0.1749421 -0.09057634 0.18600148 -0.1457569 0.0712214
-0.29884106 0.29684374 -0.120504655 -0.010327963 0.27262938 -0.19496723 -0.014152757 0.019099792
0.03835501 0.087783374 -0.20530649 -0.17026056 0.0040102834 0.30313197 -0.16741897 0.05546775
0.20912717 0.2676493 -0.16206539 0.19296537 0.16637558 -0.19062904 0.26337785 0.19597688
0.01773512 -0.11003181 -0.19145267 0.30127695 0.1315018 0.17073885 0.010916879 -0.31012166
0.21105333 0.29675126 -0.024071705 -0.26278573 0.2701899 0.22355393 -0.25381434 0.28745717
-0.011456647 0.0011909152 -0.11249961 -0.022776144 -0.2931475 0.29303446 0.07066058 0.2063435
0.039737266 -0.29067335 -0.03318903 0.2129629 -0.122530684 0.23544385 0.19018789 0.16068242
-0.07051804 0.26051283 -0.27416494 -0.17008579 0.06503904 0.19229245 0.30697507 -0.10754948
-0.2071283 -0.13147594 0.109061144 -0.061687615 0.29511926 -0.20241326 -0.070606306 0.084442124
0.2911879 -0.042909265 -0.23923986 0.27797133 -0.059347473 0.28955433 -0.099894166 -0.0038304718
-0.2968801 -0.24633059 -0.27561978 -0.13577345 -0.13667002 -0.27380624 -0.07356114 0.1785052
0.13651444 -0.14699528 -0.023482269 0.13729645 0.21577087 -0.30942607 0.14813028 -0.032233454
0.17356777 0.27498 -0.31184447 0.11717844 -0.057236724 -0.029325636 0.14471494 0.0903617
-0.04166711 -0.062208008 -0.12675142 -0.20259024 -0.2923526 0.26338044 0.24733199 0.05747183
0.039592497 0.055185016 -0.04602861 -0.045773655 0.07523852 -0.20481294 -0.28463972 0.1886308
-0.30301204 0.2800987 0.25036505 -0.20599087 0.06813774 0.026312554 0.23807332 -0.1109599
0.13955523 0.23900007 0.010090414 -0.23170821 0.15337022 -0.3018004 0.31728968 -0.2499542
-0.23218304 -0.09907713 -0.046569344 -0.27343035 -0.29922444 0.18114653 -0.07029871 -0.23957652
-0.18217443 0.0015625587 0.103806645 -0.22763677 -0.013725295 -0.16791816 0.14925216 -0.026572583
0.027054641 0.30578798 -0.29961202 -0.30451265 0.0439941 0.04602425 -0.1304166 0.13873163
0.1378062 -0.23053314 0.296161 0.107186265 0.111069284 -0.21817738 -0.27284628 -0.09234076
0.040962834 -0.31499076 0.28109527 -0.15672813 -0.18709208 0.027910711 -0.16173743 0.12106108
0.12125172 -0.13988578 -0.099696144 -0.17186779 0.07558284 -0.10671995 0.0986148 -0.019893287
0.22390305 0.029260853 -0.120604664 -0.040147863 0.050725628 -0.22297911 0.09388498 -0.18014765
-0.21474268 0.049831275 0.10535243 0.1560159 0.06901662 0.05505563 0.23831177 -0.0600415
0.108575806 0.026866322 0.14932513 -0.1634391 -0.29146263 0.11361067 -0.06352377 0.13714695
0.08793005 0.009930254 -0.16078201 -0.19110057 -0.02383205 0.028720055 0.16958278 0.047992773
-0.26818994 -0.06795643 0.16230868 -0.08207266 -0.04446051 -0.14024664 -0.19673245 -0.01912434
-0.032839026 -0.21612601 -0.24831906 -0.23396845 -0.23967266 0.043424375 0.29791364 0.25464565
0.17732824 -0.10410342 0.16745852 0.17444374 0.24074851 0.21089837 -0.090904824 0.17425443

weight_hh_l0 f4 [40, 10]
00000000: 2a81 23be 23b5 05be 9958 bc3d 2e57 50be
00000010: 7990 8b3d a0f7 f23d cf8f 7f3e ff3c 143e
00000020: b341 63be bb03 fdbd c403 65be a8ae 633e
00000030: fb08 2fbe 4d79 453e 480b 4ebe 7cac 4a3e
00000040: 0fae 973e 512a eb3d 0143 843e 91c7 72bc
00000050: 0ebb fcbd 7c15 d4bd 8778 933e 3586 d83d
00000060: e173 303e d59a 83be acbc 82be c66b 433e
00000070: 804f 8ebe 162c 023e 19ad 91be 6b15 16ba
00000080: 8e7f 8dbe a337 abbd 7601 663d ed13 413e
00000090: 137f 44bd 7b64 d4bd 0561 063e d42c 94bd
000000a0: 55a8 4fbe 2f17 5b3d 7c0b a23e 224a 28be
000000b0: b0eb 85be 4227 7dbe bf80 9f3e bc04 4a3d
000000c0: 2c80 763d 8346 22be d968 a0bd b071 9b3e
000000d0: 829b 2e3e b9b5 9f3d 5d53 6a3e 90df 34be
000000e0: c672 6ebc ba66 8bbe 6737 cbbd 7417 82bc
000000f0: ca8d 543e a2c0 483c 0f92 64be 5781 8ebd
00000100: 936d 87be dfd0 28be 113a 5abd 9430 853d
00000110: 0972 eabb e566 ebbd a51f 98be c740 87be
00000120: 881e 38be fbc9 09be 4d8e 8d3e d712 9cbe
00000130: d89f 373e 25ff 97be 6c02 843e 7345 86bd
00000140: bb9d 2ebd b2f1 893d b97b 063e d6e1 1cbe
00000150: e271 91be 7cae 8c3e f477 87be 61cf 3ebe
00000160: 62be 8ebe 2f5e 133e 0dab 94be f63a 503e
00000170: ce67 6e3e 9aa0 91bc 80ca 16bd f1d3 303e
00000180: 2cd9 693e b5e5 4dbe 0b75 603e 830e cbbd
00000190: 7c63 3bbe 75b9 2f3d 8aa3 1f3e cf7e 6b3e
000001a0: c774 8cbe 5292 44bd 0fb8 6bbe 20bd e0bd
000001b0: f3dd 193d e279 353d 82bd 8d3e 7da3 7c3e
000001c0: 615c 6c3c 8549 1e3e 5631 2fbe bf9e 9f3e
000001d0: 819c 13be 2a5d 3c3e f66d 5bbe 56b8 fc3d
000001e0: e9d2 39be fddf 703d 82eb cbbd fdc8 16be
000001f0: fd75 16be 8dcb 5cbd f8bd 21be 155e 1a3d
00000200: bdf6 2fbe f0df 8fbc dcac 19be 7dcc 333d
00000210: e555 a4bd 3288 40be ba11 873e 09c4 893e
00000220: ec19 62be d172 133e db82 68be 04c7 973e
00000230: 1ab8 563e 192d 193e 4745 ab3d 30d5 983e
00000240: 8595 8a3e 7250 10be 8c28 7e3d 4164 a13c
00000250: 028a 5cbe 8def 5e3d e679 853e e6bf 4ebe
00000260: 55fa f6bd f918 e5bd 65d8 8bbe 0033 29bd
00000270: f77e 41be aa91 1dbe 3f00 22be dd4a 9ebe
00000280: 6c16 213e 4267 11be f95e 923e ae30 d0bc
00000290: 098e c4bc d394 06bd 7bb7 49be 295d 803e
000002a0: 3ad8 303d 931b 2e3e 27f0 28be c77b e43d
000002b0: ec67 433e ef57 30be c9a4 5abd 260a e23d
000002c0: 7f17 74bc d1c6 cebd feb0 d93d 7035 473e
000002d0: dfe1 52be 8480 85be 831c 853e 88ea 583d
000002e0: 3e29 8ebe a92e e13d 4e8b 9d3e 5f85 80be
000002f0: 496b 993e 77c5 9cbe d09f 393d 31b6 6e3e
00000300: b262 533e 8657 713e 3f2a 7e3e 669c 7d3e
00000310: 2a38 c43c b440 653d 07c6 6cbb 3110 463e
00000320: a4e8 7a3e 2894 f93d 30b5 33be c4c1 b2bb
00000330: 230f 68be 89d3 f8bc 7d06 25bd 2994 6fbe
00000340: d95b dcbd c4fc d33c 29a1 423e 440b 723e
00000350: 11bd 743e 81a1 973d 8387 ecbd e15a 29be
00000360: 5608 82be d1e9 60be ea43 81bd 3ee8 19be
00000370: 9e6f 58bd 7cb5 d7bc aab0 493d 2182 4f3e
00000380: a8e3 7abe b4a2 193d 28fc 9a3d bd62 08be
00000390: bf3c a1bd ec21 0abe 2e5c 563e 308f 1e3d
000003a0: 9ec5 7d3e 16c8 863e fe7e 37bd 171e 8f3e
000003b0: 5a8f 7f3e c869 103e 2aa3 813d b99c 473e
000003c0: 37df ae3d 4eb0 d5bd 0717 9abd 263c 5d3d
000003d0: 6b2b e8bd 1c0c ca3d a206 01be 4aef 8fbc
000003e0: 2a84 8f3d eba2 8d3e 55de 963e 9bcb 77be
000003f0: 2eec 963e a69c b8bd f64c eb3d 1e86 4abe
-0.15967241 -0.1305738 0.09196586 -0.20345756 0.06814665 0.11863637 0.24957202 0.14476393
-0.22193031 -0.12354227 -0.22364718 0.22234595 -0.1709327 0.19284554 -0.20121491 0.1979236
0.29624984 0.114826806 0.2583237 -0.014818088 -0.12340365 -0.1035566 0.28802893 0.10572473
0.17231704 -0.25704065 -0.2553457 0.19084081 -0.2779503 0.1271213 -0.28452376 -0.00057252374
-0.2763638 -0.08360221 0.056153737 0.18855257 -0.04797275 -0.10370728 0.13122948 -0.07235113
-0.20279057 0.053488906 0.31649387 -0.1643453 -0.26156378 -0.24722007 0.31152913 0.04932092
0.060180828 -0.1584721 -0.07832498 0.30360174 0.17051509 0.07798333 0.22883363 -0.17663407
-0.014553731 -0.27226812 -0.099226765 -0.015880324 0.20757213 0.0122529585 -0.22321342 -0.06958263
-0.26450786 -0.16485928 -0.053278033 0.06503406 -0.0071547073 -0.11494235 -0.29711643 -0.2641661
-0.17980397 -0.13455956 0.2764763 -0.30483124 0.1793207 -0.29686847 0.25783098 -0.06556215
-0.042630892 0.06735553 0.13133134 -0.15320525 -0.28407198 0.2747687 -0.26458704 -0.18633796
-0.27879626 0.14391397 -0.2903675 0.20334992 0.23281786 -0.017776776 -0.036814213 0.17268349
0.22836751 -0.20107158 0.21919648 -0.09914877 -0.18299669 0.042901475 0.15589729 0.22997592
-0.27432844 -0.047991104 -0.23019432 -0.10973573 0.037565183 0.04430569 0.27683645 0.24671741
0.014426322 0.15457733 -0.17108664 0.311758 -0.1441517 0.18394914 -0.21428666 0.12339847
-0.18146862 0.058807362 -0.09957029 -0.14725108 -0.14693446 -0.05390506 -0.15795124 0.03768738
-0.17183967 -0.017562836 -0.15007347 0.043896187 -0.080241956 -0.18801954 0.26380712 0.26907375
-0.22080201 0.14399268 -0.22706167 0.29644024 0.20968667 0.1495861 0.08362823 0.2985015
0.270672 -0.14093187 0.062050387 0.019701125 -0.21537021 0.054427672 0.26069564 -0.20190391
-0.12059466 -0.11186404 -0.27313533 -0.041308403 -0.1889609 -0.15387598 -0.15820406 -0.3091649
0.1573121 -0.14199546 0.28588083 -0.025413837 -0.023993509 -0.032856774 -0.19698898 0.25071076
0.04317496 0.17002706 -0.16497861 0.11156421 0.19082612 -0.17221044 -0.053379808 0.11037092
-0.01489818 -0.10096515 0.10629462 0.19453979 -0.20593975 -0.26074612 0.25998315 0.05295804
-0.2776584 0.10995228 0.30770344 -0.25101754 0.29964665 -0.30619404 0.045318425 0.23311688
0.20643118 0.23568544 0.24820803 0.24766693 0.023952562 0.05596991 -0.0036128776 0.19342114
0.24502808 0.12186462 -0.17549586 -0.0054552276 -0.22662024 -0.030374305 -0.04028939 -0.23396362
-0.10759706 0.025877364 0.1900679 0.2363711 0.23900248 0.07403851 -0.11549284 -0.16538574
-0.25396985 -0.21964194 -0.06311782 -0.1503 -0.05284082 -0.026331656 0.049240746 0.20264484
-0.24500906 0.03750868 0.07567626 -0.13318916 -0.078729145 -0.13489503 0.20933601 0.038710773
0.24782416 0.26324528 -0.044798844 0.27952644 0.24957028 0.14102852 0.06329949 0.19493379
0.085386686 -0.10434018 -0.07523923 0.05401244 -0.11336406 0.09865591 -0.12600186 -0.017570157
0.0700763 0.2766336 0.294665 -0.24198763 0.29477066 -0.09014253 0.114892885 -0.19777724

bias_ih_l0 f4 [40]
00000000: 2695 85be 606d 4e3e 6a02 093e 853e 563e
00000010: f0bc 923e c1c8 a83b 321f 8cbc af5b f53d
00000020: e9f5 00be 9916 923e dffd 7d3d cb96 6cbd
00000030: 14f9 783e ca46 1c3d d7c0 4d3d 6690 3bbe
00000040: 6d0b f43d 9803 dd3d 2373 97be b68d 8abd
00000050: 39af 4cbe b67d 423e e1f7 773e 6695 2cbe
00000060: dac4 823e df16 f9bd deb6 66bd 3a81 babd
00000070: cf39 4ebe 3d4c 93bd 3327 ffbd a0fc a83b
00000080: 2c74 ebbb 8cb7 16be 7812 76be 259a 8e3e
00000090: d6b5 3b3e 3d21 02be 0a1d 86be 37d1 92be
-0.26090354 0.20158911 0.13379827 0.20922287 0.28659773 0.005150885 -0.017104719 0.11980378
-0.12593807 0.28532866 0.06200969 -0.057760995 0.24313766 0.038153447 0.050232735 -0.18316802
0.11916242 0.10791701 -0.2958003 -0.067653105 -0.19988717 0.18993267 0.24215652 -0.16853866
0.2554081 -0.121625654 -0.05632674 -0.09106679 -0.2013924 -0.07192276 -0.124586485 0.0051570684
-0.0071854796 -0.14718455 -0.24030483 0.27851978 0.18331084 -0.12707992 -0.2619403 -0.28675243

bias_hh_l0 f4 [40]
00000000: 3d18 673e c418 9c3e a679 2c3e 5f22 393e
00000010: 2dce 9ebd 36aa a0bd bbf3 9f3e dc14 843e
00000020: 4eaa abbc 6d7f c33d de85 61be 31fd 083d
00000030: cd04 84bd db14 0ebd 0f77 80be 74d5 4dbd
00000040: 5012 86be 948f 21be d227 833e 1859 a3bd
00000050: 1acd a63b 4686 77be 14b9 e53d 337e 843d
00000060: cee2 2d3d 80a2 13bd 1678 fcbc 761f 84be
00000070: e29e 343e 704a 3ebd 2539 91be 4256 783e
00000080: 15ad 573c 3a2c a7bb 3a79 cdbd cc28 1b3e
00000090: a68b 50bd b38d dd3d 30d5 103e 7f10 703e
0.2256784 0.30487645 0.1684328 0.18079518 -0.07754169 -0.07844965 0.3124064 0.25797164
-0.020955231 0.09545789 -0.22023723 0.033444587 -0.06446228 -0.034687858 -0.25090834 -0.050252393
-0.26185846 -0.15777427 0.25616318 -0.07975978 0.005090368 -0.24172315 0.112169415 0.06469383
0.042452626 -0.036043644 -0.03081898 -0.25805253 0.17638734 -0.046457708 -0.2836391 0.24251655
0.013163825 -0.0051017078 -0.10032888 0.15152282 -0.05091443 0.108180426 0.14143825 0.23443793

weight f4 [1, 10]
00000000: 4d34 15be cda7 41be 0c0c 463e aa23 133d
00000010: 4a5c 7f3c d4db 7b3e 6ccc 673e 2d98 1cbe
00000020: 2c8f 983e 341e 93bd
-0.14570732 -0.18911667 0.19340533 0.035922684 0.015585968 0.24595577 0.22636575 -0.15292425
0.2979673 -0.07183495
