competition/result/lstm_win5/trained_model/all_model/critic_num_epoch_1.pth (torch, 28164 bytes, 6 tensors)

weight_ih_l0 f4 [128, 11]
000000 83 c9 fd bd 3e 26 ea 3c f2 bd bf bb b6 c1 22 3b
       -0.12391951 0.028582688 -0.0058515007 0.00248347
000010 90 98 15 be ed 13 77 bd 27 7c 20 3e 60 88 b1 bd
       -0.14608979 -0.060321737 0.1567236 -0.086685896
000020 ef f7 0b 3e 1d 16 6d 3d 66 a8 8d 3d ae cb 38 3e
       0.13668798 0.057882417 0.06916885 0.18046448
000030 7a 65 f5 3d e9 f4 c4 bd 4c 91 33 3c f8 28 8b bd
       0.11982246 -0.096170254 0.010959934 -0.067949235
000040 af 94 83 3c 86 d6 48 bb c5 57 8e bd d6 df b3 3d
       0.016062109 -0.0030645444 -0.069503345 0.08782928
000050 62 1d 78 3d 4b fa 7a 3d 93 72 0c 3e 75 3d 77 3d
       0.060574897 0.061273854 0.13715582 0.060361344
000060 16 fd 24 3b 89 5b b5 3d 5f 29 f2 bd 7b 23 dd 3d
       0.0025175265 0.088553496 -0.11824297 0.10797783
000070 0e fc e4 bd 0f c0 0d be 68 78 47 3b ad f2 2c be
       -0.11180888 -0.13842796 0.0030436758 -0.16889448
000080 28 d8 35 be e5 5d cc bc a5 01 98 bc 32 6f 26 3e
       -0.17758238 -0.024947116 -0.018555472 0.16253355
000090 ec f5 c3 bd 9b ee b8 3d 73 21 b1 bd f8 0c 1c be
       -0.0956839 0.090298854 -0.08648958 -0.15239322
0000a0 cc 7f 03 be b6 ff 3e 3d 4b c1 fb bd dc 8e fd bd
       -0.1284172 0.046630584 -0.12292727 -0.12380764
0000b0 36 e9 ce bc b5 90 13 3e 41 6d 25 3e 49 0d 95 bb
       -0.025257688 0.1441067 0.16154958 -0.004548703
0000c0 42 42 e2 3d cc 5a eb 3d 16 e1 e8 3d d4 7d 25 be
       0.11047794 0.114919275 0.11371057 -0.16161281
0000d0 4c 00 64 bb fc 62 87 37 70 30 f1 3c 78 e2 86 bd
       -0.0034790216 1.6139347e-05 0.029442042 -0.06586164
0000e0 c4 de 9e bd 44 60 24 be 55 3c af bc 25 e0 ce bd
       -0.07757333 -0.16052347 -0.021391073 -0.10101346
0000f0 41 0c 76 bc be 05 f9 bd 5e 09 fb 3d 1a 80 34 3e
       -0.01501757 -0.12159298 0.12257646 0.17626992
000100 12 e4 15 3e b7 47 51 bd 3e 47 45 bd 87 ba fa bd
       0.14637783 -0.051093783 -0.048163645 -0.122426085
000110 b7 48 bc bd dd 71 c8 3d 4d d8 a9 bb 2e 3f c0 3d
       -0.09193557 0.09787343 -0.0051832558 0.093870506
000120 07 0f da 3c d7 7c 61 3d 90 19 3f bd f7 5c e1 bd
       0.026618494 0.055050697 -0.046655238 -0.1100406
000130 24 af ee bd 04 e4 31 bd c4 03 30 bc d3 ee 67 bc
       -0.11654499 -0.043430343 -0.010743085 -0.014156061
000140 c1 e9 63 bd 1a 11 2b be 58 37 9a bd 67 27 d8 bd
       -0.055642847 -0.16705742 -0.07530087 -0.105543904
000150 e3 bf af bd 93 77 2d bd 43 b9 b7 3d 78 c6 10 3e
       -0.08581521 -0.042350363 0.08970883 0.1413821
000160 df 7c 1c 3e 64 fb 0f 3e 1c 99 2d 3e 40 31 c3 3d
       0.1528201 0.14060742 0.16952938 0.09530878
000170 d2 88 46 3d 89 e8 d2 3d 68 d8 ce 3d e5 3e 83 3c
       0.048470326 0.10298259 0.1009987 0.016021201
000180 9d 0d 07 be 66 f2 18 3e 82 44 f4 3d 5b e9 c8 bd
       -0.13188787 0.14936218 0.11927129 -0.09810134
000190 c9 c7 7f bd 65 b4 c2 3d 6e ae c3 3d 30 b1 ae bd
       -0.06244639 0.09507064 0.09554754 -0.085298896
0001a0 dd fd f9 3d f9 9c 1c 3d 1e 10 30 3c cb 67 76 ba
       0.12206624 0.03823564 0.01074603 -0.00093996216
0001b0 bc 3d 25 be 9c 2b 05 3e 0e 54 e3 bd 6b 67 e3 3d
       -0.16136831 0.13004917 -0.111000165 0.1110371
0001c0 4c 91 cd bd 45 9a 0b 3b 00 df 25 3e cf 14 ad bd
       -0.10037479 0.0021301669 0.16198349 -0.084512345
0001d0 28 f4 9c bb fd 50 68 3c 6a f3 b6 bc 54 61 b3 bd
       -0.004789848 0.014179465 -0.022332866 -0.08758798
0001e0 3d 2e c0 3d 0a e5 43 bd 92 32 5b 3d 04 bb a6 bb
       0.09383819 -0.04782585 0.053515024 -0.005088212
0001f0 c7 41 3b 3d 93 ea 9c bd a4 5a d4 3d 09 24 04 3e
       0.045717027 -0.07661929 0.10368851 0.12904371
000200 44 f7 e9 bd f0 8d cb 3d 3d 6b f3 bd c4 3e 28 be
       -0.11424115 0.09939182 -0.118856885 -0.16430193
000210 e4 16 fd ba ba 58 b5 bd bf 90 42 3d 3a 51 f7 bd
       -0.001930919 -0.08854814 0.047501322 -0.120760396
000220 7f 2b 95 bd b4 fe 1d 3e e8 69 0e 3d 0e 0c 20 be
       -0.07283687 0.15429193 0.03476897 -0.15629598
000230 5d 0b 07 3e f8 77 70 bd 53 47 93 3d e4 4e 44 bd
       0.13187928 -0.05870816 0.071913384 -0.0479268
000240 39 9d 4a bd da f0 d8 3d 2d 82 e8 3c 72 32 e4 bc
       -0.049466345 0.10592814 0.028382385 -0.027856085
000250 ce 45 df 3c 48 dc 37 3d 13 30 bd bc d8 1d 3e 3d
       0.027254965 0.04488781 -0.023094213 0.04641518
000260 43 1f 85 bd de d2 bc 3d 94 29 f9 3d 28 b8 09 3e
       -0.06500103 0.09219907 0.121661335 0.13449156
000270 ff a1 35 3e 8d 2f 31 3e 20 fb 40 bd 5b 01 6b 3c
       0.17737578 0.17303295 -0.04711449 0.014343585
000280 c4 de ad 3b d3 d8 21 be ee ae a2 bd c4 5f 19 3e
       0.0053060967 -0.15805368 -0.079435214 0.14977938
000290 de e8 cc bd cc 74 7f 3d ea e8 51 bd 0f 32 76 bd
       -0.100053534 0.062367246 -0.051247515 -0.060106333
0002a0 4f 78 de 3d 7c b3 c6 bd ca be 91 bd 43 48 ec 3d
       0.10862791 -0.09702203 -0.07116468 0.1153722
0002b0 45 01 b2 bd 5d 67 1b 3e 33 ee 2c be 86 fd e5 3d
       -0.086916484 0.15176149 -0.16887741 0.112299964
0002c0 ca 87 f8 3d 07 8e 23 be 51 85 12 3e af c9 21 3e
       0.12135275 -0.15972148 0.14308669 0.15799592
0002d0 68 ca 0b be c7 df e8 3d ea be b6 bc 82 17 fa bd
       -0.1365143 0.11370807 -0.022307832 -0.12211515
0002e0 78 32 7d bc d8 b7 17 be cc b3 36 3e a5 b1 1d be
       -0.015453927 -0.14816225 0.17842025 -0.15399797
0002f0 ad ab 16 3e 44 d5 91 bd 2d fb 6b bd 56 0d b6 bd
       0.14713927 -0.07120755 -0.057612587 -0.088892624
000300 10 5a 33 be 76 c0 6c bd 03 a0 09 bd ab 0b c9 bc
       -0.17514825 -0.057800733 -0.033599865 -0.024541697
000310 b7 d3 e1 3d 0b 15 8b 3d 5c 9c 8a bd 83 15 15 be
       0.110267095 0.06791123 -0.067681044 -0.14558987
000320 d3 d2 a0 3c a8 af f8 3d 6f 37 2a 3d 5f a0 89 bb
       0.019631779 0.12142879 0.04155677 -0.004200026
000330 14 f4 0c 3e f5 f8 1b be 8c 68 cc 3d ba 99 fd bd
       0.13764983 -0.15231688 0.09980878 -0.12382837
000340 89 19 25 bd 34 3e 17 be c6 08 30 3d 8f c4 9e 3d
       -0.040307555 -0.14769822 0.042977117 0.07752334
000350 38 fc 3a 3d 82 01 6d bd 2b be fc bc b2 36 83 3d
       0.04565069 -0.057862766 -0.030852398 0.06406917
000360 3c 3d 26 be e7 f8 de bd a5 0a cf 3d d2 16 c8 3d
       -0.16234297 -0.10887318 0.10109452 0.09769978
000370 8e fe 45 3d 48 52 13 be 22 d6 14 3d 0f 37 a4 3d
       0.048338465 -0.14386857 0.036337025 0.08018314
000380 bc 31 ab bd 09 04 4c 3d be 96 0a 3e b9 e1 1c be
       -0.083590955 0.049808536 0.13534066 -0.15320481
000390 da 46 61 3d 8d da d4 bd 4b 13 0f 3e ce 67 24 3e
       0.05499921 -0.10393248 0.13972203 0.16055223
0003a0 56 72 82 bd 90 bc fb 3c ff 20 3b be 94 20 30 3d
       -0.06369464 0.030729562 -0.18274306 0.04299982
0003b0 84 84 0b 3e 01 1a 9b bc f0 8c 7c bc 4e c1 79 bd
       0.1362477 -0.018933298 -0.0154144615 -0.060975365
0003c0 53 aa ab bd 64 5f 49 bd 80 a2 27 3e f4 70 03 bd
       -0.08382096 -0.049163237 0.16370583 -0.032090142
0003d0 11 2f 1f be 7c bf 88 bd 0d d4 79 bd a6 c5 20 3e
       -0.15545298 -0.06677148 -0.060993243 0.15700397
0003e0 9f b6 8f 3d 9e 66 34 be 83 7e cf bd 04 02 9c 3d
       0.07017254 -0.1761727 -0.10131552 0.07617572
0003f0 82 32 03 3e fe 1a d1 3d c0 1e c2 3d 9b bd 33 be
       0.12812236 0.102102265 0.09478521 -0.17552797

weight_hh_l0 f4 [128, 32]
000000 25 9b b8 bd dd 2e 65 3d 03 b0 8d 3d 74 50 61 bb
       -0.090139665 0.055952895 0.06918337 -0.003438023
000010 b3 a1 7f 3d 08 ee bb bc 74 e5 01 bd bf 60 1a be
       0.062410068 -0.02294065 -0.031712964 -0.15075968
000020 71 2d 00 be fb 1a 4e bd 52 99 f4 bd 8c e6 e3 3d
       -0.12517335 -0.0503187 -0.11943306 0.11127958
000030 43 e6 32 bd 0e f5 c5 3d 19 42 b7 3d 23 85 81 38
       -0.043676626 0.09665881 0.08948154 6.175998e-05
000040 fd cd 07 3e 6a fd 40 3e 9f 37 a9 bd 4d c4 7a bc
       0.13262172 0.1884667 -0.08262562 -0.015305591
000050 aa 79 05 be 67 31 54 3d da c8 d2 bd 00 fc 95 3d
       -0.13034692 0.051804926 -0.10292216 0.07323456
000060 7c 41 12 3e 63 8d 3d 3e ab 3c 31 3e d3 a0 a4 3c
       0.14282793 0.18510966 0.17308299 0.020096218
000070 66 bb 18 be b4 94 39 be 15 b1 04 3e 31 e2 07 3e
       -0.14915237 -0.18123132 0.12958176 0.13269879
000080 44 32 0a 3e 3c c7 23 be 68 e1 d5 b9 28 57 bc bc
       0.13495737 -0.1599397 -0.00040794467 -0.022990778
000090 27 c3 37 be 09 92 d1 bb ac 49 1b 3e 98 d3 ef bc
       -0.17945538 -0.0063955826 0.15164822 -0.0292757
0000a0 d9 25 75 3d 25 c6 10 3e a7 fe 1b 3e fd bb 16 be
       0.059850547 0.14138086 0.15233861 -0.1472015
0000b0 66 fe 34 be 51 03 24 bd 3a 17 9c 3d c5 c5 f7 bd
       -0.1767517 -0.040042225 0.076216176 -0.120982684
0000c0 fd 67 16 3d 22 da 9f 3d 16 ae c9 3d 68 a4 94 bd
       0.036720265 0.078052774 0.098476574 -0.072579205
0000d0 e8 b7 0b be 0a 43 84 3c 0d 6b 22 be 88 0b 7b bc
       -0.13644373 0.016145248 -0.15861149 -0.0153225735
0000e0 96 88 67 bd 06 29 29 be c1 8d 04 be 7b 31 54 3d
       -0.056526743 -0.16519555 -0.129447 0.051805
0000f0 20 1d e1 3d 3c 20 0a 3d 8b 8a 44 bd 6e 22 16 be
       0.10991883 0.033722147 -0.047983687 -0.14661571
000100 d7 e2 14 bd ac 44 1a 3e d4 1a de 3c c5 71 2c 3e
       -0.036349144 0.15065259 0.027112402 0.16840275
000110 4e ed 0c be 43 db cd 3d 0d ca 64 b9 74 c6 19 3e
       -0.137624 0.100515865 -0.00021819044 0.1501711
000120 90 3c 15 3e 93 85 28 3d f9 6c ee 3d 4b 94 3a 3e
       0.14573884 0.04114301 0.11641879 0.18220632
000130 7a 73 6c 3d 9e d2 56 3d 96 84 09 3e ed c1 30 3d
       0.057727315 0.052446954 0.13429484 0.043153692
000140 ba 4f a3 3d d4 89 01 be 67 9c 39 bd 04 61 1c be
       0.07974191 -0.12650234 -0.045315173 -0.15271384
000150 ff 65 2e 3d 2e 6e 3e 3d d3 d8 84 bd 77 b8 97 bc
       0.04257774 0.046491794 -0.064866684 -0.018520577
000160 1d fe c5 3d 83 53 13 3e 3b 31 15 3d 7a 05 1a 3e
       0.09667609 0.14387326 0.036423903 0.15041152
000170 4c 86 f0 bd aa 6c 78 bc 7d 61 a3 3d 75 73 4c bc
       -0.11744365 -0.015162626 0.07977579 -0.012478699
000180 c6 1b db bd b3 05 51 3d 22 bd 1a be fd 5d 8f bd
       -0.10698657 0.051030826 -0.15111211 -0.07000349
000190 31 64 b8 3d af 48 72 ba 8e 15 e4 3d 98 ce c5 bc
       0.09003485 -0.0009242398 0.11136924 -0.024146363
0001a0 ff cf 23 3e d5 6d b9 3d 59 aa d7 bb 51 c3 b4 3b
       0.15997313 0.09054152 -0.0065815863 0.0055164476
0001b0 92 97 a8 bd 65 05 3c bd fb ea 47 bc cb 36 f7 bd
       -0.08232035 -0.045903582 -0.01220202 -0.12070998
0001c0 09 da 56 bd 2b 2b 13 3e 5a 12 13 be 93 2d 14 3e
       -0.05245403 0.14371936 -0.1436247 0.1447051
0001d0 03 47 7c 3d 0c 2c 1e be 32 70 0f be 60 26 c6 bc
       0.06159116 -0.1544649 -0.14007643 -0.02418822
0001e0 de 71 38 be 9e c0 89 3d 1c 59 c3 3d 20 f3 52 3c
       -0.18012187 0.06726192 0.09538481 0.012875348
0001f0 55 67 f4 bd 9d 7e 04 3e 84 6b 0e be 71 d3 d8 3c
       -0.119337715 0.12938924 -0.13908201 0.02646801
000200 cf 70 fb bc a9 50 1d be 71 e2 0c be 51 ce 31 be
       -0.03069344 -0.153628 -0.13758256 -0.1736386
000210 9a 60 07 3e 6b 3e b4 bd 5d 10 c6 3d 84 bb c3 bd
       0.13220444 -0.08800968 0.0967109 -0.0955725
000220 a9 d7 b0 3c a1 ac 23 be 4c 84 da 3d 51 5d 0c be
       0.02158721 -0.15983821 0.10669765 -0.13707472
000230 67 02 e9 bd af f9 e7 3d 53 04 58 bd 8e fc 26 be
       -0.11377411 0.1132692 -0.0527385 -0.1630728
000240 1b ed 88 bd 22 f3 7d bd 51 03 06 3d 24 59 25 bd
       -0.06685849 -0.061999448 0.032718007 -0.040368214
000250 25 c7 ed bd 85 54 2a be db 79 d0 b9 26 22 4a bd
       -0.116102494 -0.16633804 -0.0003976364 -0.049348973
000260 5a 09 38 bd 2a 2c 24 3e 57 33 06 3e f2 25 e4 3d
       -0.044930793 0.16032472 0.13105522 0.1114005
000270 64 0e 16 be 7b 05 23 3e a5 8e 8d 3c a5 41 b3 bd
       -0.14653927 0.1592006 0.017279932 -0.08752755
000280 dc 40 04 be 67 b7 34 3a bb 2a b1 3d 5e 7a cc bd
       -0.12915367 0.0006893784 0.08650728 -0.09984277
000290 30 a5 98 3d 64 a8 df bd c7 26 29 be df 02 a6 bd
       0.07453382 -0.1092079 -0.16518699 -0.08106016
0002a0 d8 e4 1b be c1 d7 0f 3e c8 cf 13 3e d3 57 2a 3e
       -0.15224016 0.14047147 0.14434731 0.16635065
0002b0 85 54 2f 3e 1c f3 a6 3d f1 d4 ab bd 80 f1 9b bd
       0.17122085 0.08151838 -0.08390225 -0.07614422
0002c0 8d 5f 77 3d 14 a4 ea 3d 34 2e 19 be 9c 4c 18 3e
       0.06039386 0.11457077 -0.14959031 0.14872974
0002d0 b4 b6 9e 3a f4 c3 30 be 65 37 e3 3d 84 30 66 3d
       0.0012108893 -0.1726225 0.1109455 0.05619861
0002e0 98 10 78 bb b1 ba 26 3e 05 c1 04 bc 8d 87 5e 3d
       -0.0037851688 0.16282155 -0.00810266 0.05432849
0002f0 96 3c 32 3e 49 cc 37 bd 94 1a e3 3d b4 3b ef 3d
       0.17405924 -0.044872556 0.11089054 0.11681309
000300 bf a3 b8 bd b5 36 40 3e f7 8a ea bd fb a0 7e bd
       -0.09015607 0.18770869 -0.11452287 -0.06216524
000310 fa 68 22 3e 83 a2 a3 3b b9 b5 6f 3b fa b4 eb bd
       0.15860358 0.004993738 0.003657682 -0.11509128
000320 f8 f0 c3 bd 15 e8 e3 bb 63 ad 0d be 2b 8c 11 be
       -0.095674455 -0.0069551566 -0.13835673 -0.14213626
000330 3e 2b f7 3b cd 2b 1d be 86 ac 85 bd 9b 34 cf bd
       0.0075429967 -0.1534874 -0.06527047 -0.101174556
000340 26 7a 12 3e 40 80 1e 3e 64 df ff b9 22 c1 ea bd
       0.14304408 0.15478611 -0.0004880383 -0.114626184
000350 e4 79 02 3e 95 f1 f4 bd c4 16 d3 3d 61 19 45 3e
       0.1274181 -0.119601406 0.103070766 0.19247963
000360 c9 c0 4e bd c3 5f 05 be 98 35 98 3d 08 2a cc 3d
       -0.050476823 -0.13024811 0.07432097 0.09968954
000370 ac e7 b3 bd 43 e0 fc bc a4 0b c2 bc 0e 66 9b 3d
       -0.08784422 -0.030868655 -0.023687191 0.07587825
000380 b9 59 fe bd 4e 99 36 be 38 da 84 3c 79 48 bc 3d
       -0.12419457 -0.17831919 0.016217336 0.091935106
000390 2e b6 28 bd 83 89 7c 3d 1c e4 17 be eb aa d5 bd
       -0.041189365 0.06165458 -0.1483311 -0.10432991
0003a0 54 d2 2c be 02 64 a6 3d 87 ac 1e be 3e 73 1e bd
       -0.16877109 0.08124544 -0.15495501 -0.038684122
0003b0 70 ff 16 be f7 ea 2a 3e f9 61 1a 3e a5 ea 26 3e
       -0.14745879 0.16691194 0.15076436 0.16300447
0003c0 02 ce 26 3d 95 a7 87 bd 77 e4 18 3e f4 1d b7 bd
       0.040723808 -0.066237606 0.14930902 -0.0894126
0003d0 43 da e5 3d 96 bf 18 bd fb e9 ea 3d ed 36 0f be
       0.11223271 -0.037292086 0.114704095 -0.13985796
0003e0 6c 1d c8 3d 92 06 8b bd 43 2a 63 3d d9 22 00 3e
       0.09771237 -0.067883626 0.055460226 0.12513293
0003f0 4b a3 2e 3e ca 6e 5e bc 2d 52 a9 bd f6 ee 02 3c
       0.17054479 -0.013576219 -0.08267627 0.007991543

bias_ih_l0 f4 [128]
000000 ef 96 9f bd de b3 0b be cf 96 3b 3e 9b 0b 1c be
       -0.0779246 -0.13642833 0.18319248 -0.15238802
000010 d3 8f 1e be c5 cf a0 3d 86 9b 2d bd 3b f3 2d be
       -0.15484552 0.07852129 -0.042384647 -0.16987316
000020 41 15 64 3b 2d 37 ec bd 6b d0 14 3d 63 9a 21 bc
       0.0034802707 -0.115339614 0.036331575 -0.009863469
000030 69 7c d7 bd c3 d3 90 bc fe 24 1d be 58 7f 17 3e
       -0.10521776 -0.0176791 -0.15346143 0.14794672
000040 ae 52 0a 3e 5e 66 cf bb e7 17 08 3e 3d 39 d2 bd
       0.13508102 -0.006329342 0.13290368 -0.102648236
000050 71 9a 86 bd 30 ed ec bd 18 4e f3 bd fb bd f7 bd
       -0.06572426 -0.115686774 -0.118801296 -0.12096783
000060 8f 22 43 3e 60 64 de 3d a5 c4 8c 3d f7 41 3a be
       0.19056152 0.10858989 0.068734445 -0.18189226
000070 19 47 04 3e 19 58 73 bd 56 93 0e 3e cb 51 94 3d
       0.12917747 -0.05941019 0.13923392 0.07242163
000080 ff 10 26 be a4 91 15 3c 10 59 38 bd 23 73 39 3e
       -0.16217421 0.009128962 -0.04500681 0.18110327
000090 18 18 1a 3d b7 cf f2 3d ce 4c bc 3d 0a 76 1e 3d
       0.037620634 0.11856025 0.09194337 0.03868679
0000a0 fe 7a 45 bd f2 b4 31 be db 0d 04 3d d0 78 83 3d
       -0.048212998 -0.17354181 0.032239776 0.064195275
0000b0 32 4d 38 be b5 e2 6f bd 16 0a 13 3e 84 89 a4 bd
       -0.17998198 -0.058565814 0.14359316 -0.080340415
0000c0 09 a4 23 bd c8 3a 13 be fe 73 12 be 04 c1 e0 bc
       -0.039951358 -0.14377892 -0.1430206 -0.027435787
0000d0 d1 e3 37 3e 7b d1 60 3d 23 ec b5 bc 76 0a 15 3e
       0.17957999 0.054887276 -0.022207325 0.14554772
0000e0 22 17 21 3e 25 1b 07 3e ca 5a c7 bd db 60 41 be
       0.1573148 0.13193949 -0.097341135 -0.18884604
0000f0 a9 e2 33 3d 45 50 d8 bd 21 4c cb 3c fd 76 03 be
       0.04391733 -0.10562185 0.024816575 -0.12838359
000100 7b 9f cf bc 85 fd 46 bd 40 6a 96 bd 87 d0 73 bd
       -0.0253446 -0.04858162 -0.07344484 -0.05952504
000110 a2 9b 0c 3d 96 94 f6 3d 0f 96 36 be 40 e3 13 bd
       0.03432811 0.12040059 -0.1783068 -0.036105394
000120 4c 2f 1d 3e 92 05 25 be e0 22 59 bd dd 05 09 3e
       0.15350074 -0.16115406 -0.053011775 0.13381143
000130 fe 64 18 be d2 24 72 bd 4d 92 97 3c 33 5b c2 bc
       -0.14882275 -0.059117146 0.018502379 -0.023725128
000140 f4 50 68 3d 44 70 0b be 6c 49 30 3e 4e a3 cb 3d
       0.056717828 -0.13617045 0.17215508 0.09943257
000150 97 ce f5 bc 36 3f f5 3d c2 40 18 be 76 37 18 3c
       -0.030005736 0.11974947 -0.14868453 0.009290567
000160 fb 96 29 be 5b 97 af bd b9 8f a0 3d 0f 08 1c 3e
       -0.165615 -0.08573791 0.07839913 0.15237449
000170 a7 43 30 be 72 e4 60 3c 2e c5 26 be b5 bc da bd
       -0.17213307 0.013726341 -0.16286156 -0.10680524
000180 11 ff 8a bd 49 18 29 3e 0f 47 7d 3d 1b 03 0f bd
       -0.06786931 0.1651317 0.061835345 -0.03491507
000190 24 6d 1a be 13 96 bd bd 95 b6 85 bd 50 c9 f5 bc
       -0.15080696 -0.0925714 -0.065289654 -0.03000322
0001a0 f6 0d 09 be 74 98 ee bd 71 6f ff bd 56 bd c5 bd
       -0.13384232 -0.11650172 -0.12472428 -0.096552536
0001b0 b2 94 61 bc 24 97 2b 3d 9e 5b d9 3d 73 ae 5f 3d
       -0.013768362 0.041892186 0.10613178 0.054609727
0001c0 9d cf be 3b 5b e9 d2 bc 4c 0e 05 3e 16 c3 df bd
       0.0058230893 -0.025746038 0.12993735 -0.109258816
0001d0 6b 11 58 3d 7a 41 27 3e 39 9e 85 bd a4 ad 95 3d
       0.052750986 0.16333571 -0.06524319 0.0730851
0001e0 d8 cc 05 be 3c b2 08 b9 c6 c1 42 3e d3 d2 ac 3d
       -0.13066423 -0.00013036368 0.19019231 0.08438649
0001f0 b2 f2 8d 3d 6e 8a 1f 3d 91 7c 30 bd 2a f0 31 bc
       0.06931056 0.038950376 -0.043087546 -0.010860482

bias_hh_l0 f4 [128]
000000 e7 a0 3d be cf 8f 16 3e cc 62 1a bb 2b e4 11 be
       -0.1851841 0.14703296 -0.0023557423 -0.14247195
000010 ed df 27 be 7a c4 88 3b 5f 4d 30 bd 72 02 6d bd
       -0.16394015 0.0041738125 -0.043042537 -0.05786366
000020 98 93 9e 3d 33 9a 16 be 5a 67 b2 3d 11 b2 2c bd
       0.07742995 -0.1470726 0.08711119 -0.042162005
000030 3c 2a 46 3d 57 3b 03 be 9d da 2c bd b8 7a 2c 3e
       0.04838012 -0.12815605 -0.042200673 0.16843688
000040 78 5b 0e 3e 12 3d 20 be a9 33 15 bd 06 13 12 3e
       0.1390208 -0.15648296 -0.03642622 0.1426507
000050 fe 01 11 be f9 fe 06 bc 1a f2 52 bd fc d5 e1 3d
       -0.14160916 -0.008239501 -0.051500417 0.110271424
000060 1e 28 b4 3d 74 9d ae bd 29 db b3 bd 79 86 0d bd
       0.08796714 -0.085261256 -0.08782036 -0.03455207
000070 81 c1 9d 3c 26 52 26 3e 1f 29 8e bd 89 85 0d 3e
       0.019257309 0.16242275 -0.06941437 0.13820471
000080 96 83 fc bd d7 d8 43 bd 1b fd 78 bc 24 ff 25 3d
       -0.123297855 -0.047814216 -0.015197064 0.040526524
000090 e7 c8 a0 bd 10 bf a3 bd 6d 8d 21 3e 06 54 71 bd
       -0.07850819 -0.07995427 0.15776606 -0.05891802
0000a0 10 ca b8 3c 57 6c 03 3e 1d a7 ab bd 92 97 09 be
       0.022557288 0.12834297 -0.08381484 -0.13436726
0000b0 cb 66 83 bd f2 66 d9 bd 2e 94 35 3d 56 e5 fd bc
       -0.064160906 -0.106153384 0.04433077 -0.030993145
0000c0 3a 80 35 3b 95 f3 02 3e 80 cf f7 3c 19 f3 c0 bd
       0.0027694837 0.12788232 0.03025031 -0.09421367
0000d0 06 c0 84 3d 74 94 f9 3d 57 7e 42 bd 4d 9f 85 bc
       0.06481938 0.12186518 -0.04748377 -0.016311312
0000e0 77 06 1f bc 91 20 49 3c 7e f0 f3 bb 5f f3 1d 3e
       -0.009706131 0.012275831 -0.0074444404 0.1542487
0000f0 2e 74 52 bc b0 7d 92 3d 29 a7 ad 3d 6e 93 70 3d
       -0.012845082 0.07152879 0.08479149 0.05873435
000100 36 26 1d bd 80 86 bd 3d 5c 11 ac 3d 4f a8 df 3d
       -0.03836652 0.092541695 0.084017485 0.10920774
000110 8e c5 d0 bd 6b f5 db bc 3c 3f 41 be fe 4f a0 bb
       -0.101939306 -0.026850423 -0.18871778 -0.0048923483
000120 83 f1 00 be 16 be 24 3e 4b 57 de bd 60 35 89 bd
       -0.1259213 0.16088137 -0.108564936 -0.066996336
000130 2b ed 86 bd 5b 5a b6 3d 3c cf fa bd ae ff c0 3d
       -0.06588205 0.08903953 -0.12246558 0.09423767
000140 99 0a 0c 3e 83 e1 b6 bd 1a 56 83 3d e3 f8 39 bd
       0.13675918 -0.08929732 0.06412907 -0.045403372
000150 f7 59 a5 ba 60 f8 0a bd ff 98 0b 3d 5b 73 5c 3d
       -0.0012615313 -0.033928275 0.034081455 0.05382095
000160 30 81 ec bd ae 28 8e bd 06 8c f1 bd 4d 2a 1b 3d
       -0.11548078 -0.06941353 -0.117942855 0.037882138
000170 eb 0d 4f bd 7d 46 05 3e 2e de a0 bd 0d 3d 1e 3e
       -0.050550383 0.1301517 -0.078548774 0.15452977
000180 a3 4f 3c be 4d 59 21 be 59 ca f2 3d 98 3c b7 3b
       -0.18389754 -0.15756722 0.11855001 0.00559194
000190 d9 ee 1f be e0 2c 6c bc f1 eb 37 3e 1b 4b 31 3d
       -0.15618457 -0.014414996 0.17961098 0.043284517
0001a0 82 68 2f 3c b8 be bd 39 99 9a a6 3d 30 6b 0f be
       0.010706069 0.00036190986 0.08134956 -0.14005733
0001b0 f8 42 c0 bd 86 18 3e 3e 82 57 08 be fc 91 1d 3e
       -0.09387773 0.18564042 -0.13314632 0.1538772
0001c0 e3 13 66 bd da 61 12 bd ca 65 28 3e f2 02 93 bd
       -0.05617131 -0.03573785 0.1644508 -0.07178296
0001d0 d7 52 04 3e e4 4c ac bd 7c 25 94 3d 44 c2 a4 bd
       0.12922226 -0.08413103 0.07233712 -0.08044866
0001e0 82 8d 56 3d d2 f7 02 be 6c 84 f9 bd 00 e5 92 3d
       0.052381046 -0.12789848 -0.121834606 0.071725845
0001f0 a4 b3 c5 bd 24 c6 d2 3d 5d 51 35 3d d6 af 03 3e
       -0.09653404 0.102916986 0.044267047 0.12860045

weight f4 [1, 32]
000000 0a 08 27 be 8c 5c 24 be 4a 46 99 3d 02 56 65 bd
       -0.1631166 -0.16050929 0.0748411 -0.055990227
000010 cb f1 00 be f2 c3 6a 3d 49 58 33 3e 4c 01 1d bd
       -0.12592237 0.057315774 0.17514147 -0.038331315
000020 b8 61 b1 3c 26 5e d9 bd 1c 8d 11 3e e4 d4 18 bb
       0.021653041 -0.106136605 0.14213985 -0.0023320252
000030 c9 58 86 bd 61 9f 36 3e 80 25 6a bd b5 76 2c be
       -0.06559903 0.17834236 -0.05716467 -0.16842158
000040 22 55 03 3e fa d7 15 3e 91 3e 66 bd 15 81 82 3d
       0.12825444 0.1463317 -0.05621201 0.06372277
000050 06 d8 22 3e 1f 26 97 bc 6d 6a 30 3e ac e9 13 be
       0.15902719 -0.018450795 0.17228098 -0.14444607
000060 05 9c 10 3e 00 4e 9e 3b 99 1a 1d be 9f 4e 1c 3d
       0.14122017 0.0048310757 -0.15342177 0.038160916
000070 43 51 20 3e a8 03 f2 3c 97 4b b6 3d c6 47 03 3e
       0.15655999 0.029542759 0.08901136 0.12820348

weight f4 [1, 32]
000000 9d 91 2d be 3f 93 19 be c0 0b 22 bb bc 85 18 3d
       -0.16950078 -0.14997576 -0.0024726242 0.037236914
000010 15 04 23 be 52 e1 fe 3d a7 7d 25 3e 63 eb c4 bd
       -0.15919526 0.1244532 0.16161214 -0.09615209
000020 b6 08 bb 3d e0 96 4b bd a6 a5 ac 3d e5 ec 0f 3e
       0.09132521 -0.049704432 0.084300324 0.14055212
000030 f1 80 15 3e 76 cc 26 be 05 af d9 bd 70 dd 19 be
       0.14599968 -0.16288933 -0.106290855 -0.15025878
000040 be 7b d4 3d 8e 70 8c 3d dc 30 d4 bd b0 b5 c7 bc
       0.103751644 0.068574056 -0.10360882 -0.024378628
000050 33 1c 0a be 71 c9 0e be a0 a7 47 bd 38 04 5f bd
       -0.1348732 -0.13944031 -0.048743844 -0.054447383
000060 3e c1 f8 bd 20 b4 59 bc 56 01 cf 3d 50 62 1b 3c
       -0.12146233 -0.013287574 0.10107677 0.009483889
000070 80 d8 8f bb 9f ff 15 3e 5c 42 14 be 97 1f 2e 3e
       -0.0043898225 0.14648293 -0.14478439 0.17004238
