competition/result/lstm_win3_noStandardized_1layer_16hidden_0.99g/trained_model/all_model/critic_num_epoch_9.pth (torch, 12484 bytes, 6 tensors)

weight_ih_l0 f4 [64, 11]
0.13951261 0.02914685 -0.082570285 0.009583399 0.1649365 -0.25395578 -0.067730784 0.001172007
-0.16360421 -0.2741449 -0.22556417 -0.09115087 0.019870233 0.2068722 -0.233322 0.15179715
-0.046675015 -0.14282851 0.14991605 0.107815295 -0.031666897 0.1286235 0.2000667 -0.082268625
-0.13876796 0.036750045 -0.18554968 0.21634768 0.15387823 -0.09401734 -0.07078115 0.11769073
-0.10957856 0.0739584 0.09062942 0.20527965 -0.25752646 0.010951378 0.16739565 -0.20688818
-0.016983436 0.10269841 0.072775416 0.09697231 0.12659173 0.092789784 -0.32575428 -0.05718019
0.15911534 0.23346595 0.16144148 -0.23123237 0.025625495 -0.18372163 -0.16001251 -0.22790118
0.35036832 -0.3240779 0.09718025 0.08264591 -0.06547244 -0.23257634 0.16806622 -0.0068515316
0.16670161 -0.17024998 0.17546427 0.18065685 0.07876325 0.038241994 -0.081673704 -0.07978507
-0.026959954 0.031442072 -0.115975976 0.18088709 -0.21448281 -0.20589168 0.23142606 0.0019611947
-0.11469087 0.0024250145 0.16654825 0.2018061 -0.26688337 0.0024197276 0.010828519 -0.13072641
0.15366216 0.23935115 0.09962835 -0.11087459 0.05038438 -0.14938249 0.14598374 -0.025072712
-0.18870276 0.03193122 0.2050607 -0.17324834 0.18864156 0.04804757 0.028885055 -0.20883474
-0.17334314 -0.20540008 0.087668404 -0.21970218 -0.07985224 -0.11456629 -0.21457505 -0.011521297
-0.25631186 0.022675002 0.09167442 0.014448692 0.17518485 -0.2583197 0.18908134 0.17333978
0.14523448 0.13851857 0.0075962 0.036374435 -0.11463479 -0.094760574 -0.20434202 -0.00866197
0.09048096 -0.21533589 -0.027848689 -0.21895017 -0.13716249 -0.11643021 0.09152683 -0.07950453
-0.17682971 -0.07848762 0.19945046 -0.20220402 0.10691194 -0.23722787 0.09087452 -0.054637346
-0.12991263 0.07939985 0.116392136 -0.10436033 0.09622951 0.053763907 -0.17724065 0.2239617
0.0018735379 0.1141735 0.16610165 -0.07001901 0.09506538 -0.21430928 0.15745458 -0.11650916
0.07213607 -0.17299867 0.028417578 0.052331366 -0.1875226 -0.2083551 0.32912388 0.09920715
-0.018309975 -0.017264705 0.22639395 -0.1842002 -0.20414977 0.069367655 -0.26450256 -0.03701276
0.12761135 0.28902394 -0.23318894 -0.18172134 -0.18609768 -0.00061443885 -0.04656973 -0.14037831
0.21336804 0.2098662 0.07903027 0.12352022 -0.14365038 0.19868325 -0.012277691 0.19049254
-0.013389722 -0.15876591 -0.12938802 0.0025279035 0.16754669 -0.0397188 0.005474136 -0.05984883
-0.22757606 -0.33803317 0.18281816 0.008187801 2.067712e-05 -0.06917416 0.21271051 -0.060080137
-0.25284746 0.16990153 0.21649411 -0.03499095 -0.19692978 0.23240331 -0.0863306 0.022922115
0.06641069 0.060158726 -0.21886471 -0.16488963 0.0006230377 0.09863465 0.087982215 -0.22489482
-0.056312546 0.08587987 -0.18536493 -0.021366814 0.09855567 0.02477235 -0.23582646 0.19489795
0.09671057 -0.24944414 -0.34885272 0.06360129 0.006719566 -0.033993665 0.19672158 0.12685177
0.11319008 0.17320348 -0.20773621 -0.04809212 0.09186273 -0.04318676 -0.16549826 0.1320934
0.09374136 -0.25150022 -0.16397314 -0.119308054 0.07819946 -0.08824988 0.31324604 -0.31672508
00000000: 65dc 0e3e 60c5 ee3c 9c1a a9bd b003 1d3c
00000010: 1de5 283e 7e06 82be 70b6 8abd 079e 993a
00000020: dd87 27be b85c 8cbe 4bfa 66be 4fad babd
00000030: e6c6 a23c 4ed6 533e f6eb 6ebe b670 1b3e
00000040: 4d2e 3fbd a341 12be 9883 193e 44ce dc3d
00000050: 26b5 01bd e1b5 033e 49de 4c3e 747c a8bd
00000060: 3019 0ebe 3787 163d bc00 3ebe 3f8a 5d3e
00000070: 4192 1d3e 2a8c c0bd b5f5 90bd d607 f13d
00000080: b96a e0bd 8077 973d eb9b b93d d434 523e
00000090: 82da 83be 696d 333c c469 2b3e 7fda 53be
000000a0: d920 8bbc 8b53 d23d 470b 953d 6b99 c63d
000000b0: 43a1 013e 9208 be3d 44c9 a6be c635 6abd
000000c0: 22ef 223e b311 6f3e ea50 253e 2ec8 6cbe
000000d0: 8fec d13c 8621 3cbe 52da 23be ed5e 69be
000000e0: 7a63 b33e 8aed a5be 7006 c73d 4242 a93d
000000f0: 6a16 86bd 7e28 6ebe 8d19 2c3e d082 e0bb
00000100: d4b3 2a3e 0356 2ebe e8ac 333e 1cfe 383e
00000110: a04e a13d a3a3 1c3d 8b44 a7bd 5b66 a3bd
00000120: 1fdb dcbc 67c9 003d d084 edbd 773a 393e
00000130: 62a1 5bbe 45d5 52be f4fa 6c3e 6387 003b
00000140: 0ce3 eabd feec 1e3b a08b 2a3e 42a6 4e3e
00000150: f0a4 88be 4b94 1e3b 1a6a 313c 25dd 05be
00000160: 9d59 1d3e 7818 753e f309 cc3d 3812 e3bd
00000170: da5f 4e3d b9f7 18be c37c 153e 4a65 cdbc
00000180: 4c3b 41be 50ca 023d 6ffb 513e 0368 31be
00000190: 412b 413e 87cd 443d 5aa0 ec3c c6d8 55be
000001a0: dd80 31be 6654 52be 7e8b b33d 9cf9 60be
000001b0: 9289 a3bd bba1 eabd 90b9 5bbe d2c3 3cbc
000001c0: 4f3b 83be edc0 b93c ccbf bb3d 35ba 6c3c
000001d0: a863 333e 7b42 84be 8a9e 413e fc7f 313e
000001e0: 59b8 143e d0d7 0d3e 8be9 f83b 5cfd 143d
000001f0: a5c5 eabd d511 c2bd 093f 51be efea 0dbc
00000200: 154e b93d 0381 5cbe ef22 e4bc 7934 60be
00000210: 5374 0cbe f672 eebd 6b72 bb3d 45d3 a2bd
00000220: d912 35be 1ebe a0bd be3c 4c3e 920e 4fbe
00000230: a6f4 da3d ddeb 72be 6c1c ba3d 69cb 5fbd
00000240: d107 05be 639c a23d 005f ee3d deba d5bd
00000250: fa13 c53d 8b37 5c3d 937e 35be 3756 653e
00000260: 8091 f53a ccd3 e93d 8d16 2a3e 2066 8fbd
00000270: a3b1 c23d e473 5bbe c63b 213e 5b9c eebd
00000280: 13bc 933d 9026 31be fbcb e83c 6a59 563d
00000290: ed05 40be 0a5b 55be ed82 a83e 1e2d cb3d
000002a0: cdfe 95bc b66e 8dbc d1d3 673e fa9e 3cbe
000002b0: a30c 51be a110 8e3d e16c 87be b19a 17bd
000002c0: 8dac 023e f2fa 933e 15c9 6ebe 2915 3abe
000002d0: 6490 3ebe 4b12 21ba e7bf 3ebd 55bf 0fbe
000002e0: 277d 5a3e 2ae7 563e 9fda a13d 2bf8 fc3d
000002f0: 1619 13be 9f73 4b3e 5e28 49bc 7a10 433e
00000300: 9160 5bbc 8893 22be 4b7e 04be 2fab 253b
00000310: 5c91 2b3e 2eb0 22bd 6260 b33b 0c24 75bd
00000320: b309 69be af12 adbe af34 3b3e 2026 063c
00000330: c773 ad37 2fab 8dbd c9d0 593e 9716 76bd
00000340: 3975 81be abfa 2d3e a2b0 5d3e ac52 0fbd
00000350: f6a7 49be 22fb 6d3e 19ce b0bd 29c7 bb3c
00000360: 5402 883d ff68 763d 121e 60be d4d8 28be
00000370: 5a53 233a f700 ca3d 0530 b43d d44a 66be
00000380: fca7 66bd c9e1 af3d 4ed0 3dbe 7509 afbc
00000390: 8ed7 c93d 62ef ca3c 7e7c 71be 5493 473e
000003a0: 3110 c63d 496e 7fbe d39c b2be 6541 823d
000003b0: ce2f dc3b f13c 0bbd 6271 493e 6ee5 013e
000003c0: 33d0 e73d 415c 313e cdb8 54be 3efc 44bd
000003d0: 8722 bc3d 9ae4 30bd 6078 29be 7e43 073e
000003e0: 78fb bf3d a3c4 80be 93e8 27be c857 f4bd
000003f0: 0a27 a03d 5abc b4bd c961 a03e ca29 a2be

weight_hh_l0 f4 [64, 16]
-0.05175183 0.2953292 -0.029921714 0.23424631 0.25717628 0.09198226 -0.07658371 0.28211796
0.0057425923 -0.3766745 0.098615706 0.003046929 -0.0415396 0.11059053 -0.12337704 0.40240777
0.035345033 -0.14530577 -0.07308913 -0.14803572 -0.17387614 0.21166047 -0.07006796 0.15708269
-0.21392876 -0.1667311 -0.022430388 0.0010681031 0.12907349 -0.09103547 -0.11085814 0.0295396
0.32261586 0.27615714 -0.084675595 -0.0016544325 0.2299667 0.115287594 0.15381321 0.33866256
-0.34995246 -0.3229113 -0.10020901 0.12890722 0.009460739 0.27646568 0.049210217 0.09129517
0.19209686 0.031638168 -0.12174274 -0.14867382 0.18933159 0.056332175 0.21748139 0.24810308
-0.065123275 0.20635521 -0.050909802 -0.2664338 -0.018333463 -0.13201815 -0.11537302 0.23169386
0.3175908 -0.11073125 0.20274895 0.20783085 0.31847975 0.29032817 0.13042438 0.36879897
-0.021510316 -0.21352014 0.24451837 -0.02574677 0.31177205 0.33646065 -0.40377414 0.30421245
0.39175388 0.03443838 0.00013240831 0.18659277 0.0412366 0.22189955 -0.025838427 0.2639864
0.061677463 0.02660244 -0.06558593 -0.18007745 0.11217388 0.31408828 -0.1171486 -0.09515623
0.38424063 0.14403425 0.14290063 0.27395388 0.061211348 0.35426766 0.2734781 -0.0405291
-0.36940017 -0.013422669 0.0667686 -0.0021053702 -0.11501934 0.04065532 -0.35630772 -0.06456656
0.09034886 0.3248373 0.028643833 0.3569776 -0.024178112 0.0106087895 -0.01402543 0.28297845
-0.3302848 -0.2245267 0.18319781 0.10242913 0.27379537 0.19135265 0.043122713 -0.048360415
0.30215544 -0.09492672 0.3586896 0.28822353 0.18344091 -0.009126606 0.04834324 -0.0063749426
-0.36058772 -0.007838159 0.13531373 0.049771383 0.13934356 0.010763348 -0.20133218 0.070674315
-0.10178746 -0.12592168 -0.15885179 -0.011521295 -0.18501988 -0.19445384 0.033326115 -0.10132543
0.104069196 0.17463787 0.15901907 0.08014395 0.07677432 -0.13238628 -0.19853304 -0.10124486
0.25807732 0.33270958 -0.05073301 -0.02369483 0.35716477 0.17219467 0.046840694 0.13464342
-0.10982062 -0.28687316 0.35959384 0.11718625 0.19609074 0.014032691 -0.20629431 0.18946394
-0.19363728 0.22827834 -0.07424555 0.018798986 0.18659632 0.16196121 0.13766707 0.07584714
0.1024749 0.089707024 0.15736546 -0.052231953 0.2869347 0.0047068293 -0.049503565 -0.0823027
-0.020271372 -0.024364827 0.10466179 0.0685716 -0.023856616 0.0331527 0.092481464 0.29061735
-0.23810726 -0.33293298 0.16609986 -0.092576824 -0.007112339 -0.10027482 -0.25534296 -0.061471336
0.366064 0.1634583 0.076248966 0.086301446 0.38048542 0.25429305 -0.07732052 0.24289411
0.0256192 -0.29271063 0.27133092 0.09590372 0.37191212 0.32642335 -0.31811023 0.2510673
0.28851232 0.3498733 0.2675887 0.015508261 0.10895727 -0.0010809895 0.20538631 0.056723498
-0.3963006 0.005459888 0.115433194 0.07666223 0.37780875 0.39970225 -0.25988817 0.22016215
0.08695844 0.23127313 0.40392444 -0.07762783 0.26635247 0.3089564 -0.069222786 0.38085523
-0.31262514 -0.17184564 0.304128 -0.04963811 -0.014217932 0.19782028 -0.25820914 0.3675254
00000000: baf9 53bd 6435 973e 621e f5bc 44de 6f3e
00000010: 9cac 833e 3261 bc3d ecd7 9cbd c471 903e
00000020: 5b2c bc3b 7bdb c0be 08f7 c93d fcae 473b
00000030: 6d25 2abd 4a7d e23d 1aad fcbd 6408 ce3e
00000040: f4c5 103d 09cb 14be c1af 95bd ad96 17be
00000050: 960c 32be 86bd 583e ca7f 8fbd 49da 203e
00000060: 2410 5bbe 8fbb 2abe efbf b7bc 98ff 8b3a
00000070: d72b 043e ce70 babd 9809 e3bd 08fd f13c
00000080: e82d a53e 7864 8d3e 666a adbd 8bd9 d8ba
00000090: 647c 6b3e e71b ec3d 3681 1d3e 2e65 ad3e
000000a0: f82c b3be a154 a5be 623a cdbd 4100 043e
000000b0: 3701 1b3c e98c 8d3e a790 493d f6f8 ba3d
000000c0: 0ab5 443e 0697 013d 4254 f9bd f33d 18be
000000d0: 24e0 413e 91bc 663d 71b3 5e3e bc0e 7e3e
000000e0: 5a5f 85bd c84e 533e cc86 50bd 036a 88be
000000f0: 0f30 96bc c42f 07be b148 ecbd 2841 6d3e
00000100: 439b a23e 11c7 e2bd 6c9d 4f3e 9cd1 543e
00000110: c70f a33e e5a5 943e f88d 053e 38d3 bc3e
00000120: 6736 b0bc 06a5 5abe 0663 7a3e e4ea d2bc
00000130: 96a0 9f3e 9244 ac3e 7cbb cebe bcc1 9b3e
00000140: f793 c83e 420f 0d3d 16d7 0a39 2d12 3f3e
00000150: b6e7 283d a339 633e 1cab d3bc 3a29 873e
00000160: 82a1 7c3d 5ced d93c eb51 86bd 3966 38be
00000170: 6bbb e53d 2ed0 a03e 9beb efbd 45e1 c2bd
00000180: 30bb c43e b77d 133e 8b54 123e af43 8c3e
00000190: c0b8 7a3d 9262 b53e 5205 8c3e d701 26bd
000001a0: 0522 bdbe c1ea 5bbc fabd 883d 40fa 09bb
000001b0: 428f ebbd 3186 263d f76d b6be 793b 84bd
000001c0: d308 b93d 1351 a63e 79a6 ea3c c5c5 b63e
000001d0: 2d11 c6bc 7dd0 2d3c ebca 65bc 8de2 903e
000001e0: 171b a9be 54ea 65be 3598 3b3e 5dc6 d13d
000001f0: e82e 8c3e f3f1 433e 71a1 303d 9215 46bd
00000200: 1eb4 9a3e f168 c2bd 2aa6 b73e 0992 933e
00000210: efd7 3b3e c387 15bc 9003 463d e5e4 d0bb
00000220: f49e b8be 9f6b 00bc af8f 0a3e 14dd 4b3d
00000230: 14b0 0e3e c158 303c 062a 4ebe b2bd 903d
00000240: f275 d0bd 9df1 00be 0baa 22be d0c3 3cbc
00000250: da75 3dbe e81e 47be f780 083d b583 cfbd
00000260: 3b22 d53d 45d4 323e e5d5 223e 8322 a43d
00000270: db3b 9d3d 4590 07be 3f4c 4bbe 7759 cfbd
00000280: b622 843e e958 aa3e 6bcd 4fbd a91b c2bc
00000290: 4dde b63e cd53 303e 07dc 3f3d f7df 093e
000002a0: a2e9 e0bd 0ae1 92be af1c b83e 58ff ef3d
000002b0: 03cc 483e 5fe9 653c d13e 53be d602 423e
000002c0: da48 46be ccc1 693e 0d0e 98bd 5500 9a3c
000002d0: 1b13 3f3e 29d9 253e 99f8 0c3e bf55 9b3d
000002e0: 5cde d13d 51b8 b73d 6924 213e 2cf1 55bd
000002f0: 1be9 923e bf3b 9a3b 40c4 4abd 518e a8bd
00000300: 2610 a6bc bf98 c7bc ec58 d63d 446f 8c3d
00000310: f36e c3bc 20cb 073d ec66 bd3d cccb 943e
00000320: 64d2 73be 3176 aabe 1516 2a3e eb98 bdbd
00000330: a00e e9bb e35c cdbd 50bc 82be 5ec9 7bbd
00000340: be6c bb3e 9d61 273e 6b28 9c3d d0be b03d
00000350: fcce c23e b332 823e 395a 9ebd 3cb9 783e
00000360: 5bdf d13c 2bde 95be e3eb 8a3e 2b69 c43d
00000370: 446b be3e f620 a73e 58df a2be e58b 803e
00000380: e3b7 933e 9822 b33e 6301 893e 5c16 7e3c
00000390: fd24 df3d fdaf 8dba ca50 523e e656 683d
000003a0: eae7 cabe dce8 b23b 3d68 ec3d 1601 9d3d
000003b0: 2670 c13e c6a5 cc3e 1010 85be 3072 613e
000003c0: 4417 b23d ddd2 6c3e 2fcf ce3e 57fb 9ebd
000003d0: 5a5f 883e 892f 9e3e adc4 8dbd 75ff c23e
000003e0: 6710 a0be 4ef8 2fbe aab6 9b3e 5551 4bbd
000003f0: 54f2 68bc 6691 4a3e fd33 84be 4a2c bc3e

bias_ih_l0 f4 [64]
0.14390607 -0.16431923 0.32940474 0.11437304 0.007845099 0.12171946 0.33736742 -0.032426752
0.14814596 0.042998772 0.050056536 0.22487986 0.20073773 0.26658314 0.38518953 0.065705106
0.3653032 -0.06352196 -0.04405437 -0.054262687 0.34773165 0.2763008 0.35000986 0.0032712484
0.12336075 -0.08656194 0.18728887 -0.07786726 0.049704783 0.08177532 0.07123012 0.11289373
-0.002092356 0.05614203 0.17364763 0.2689751 0.15640819 0.35387018 0.16336356 -0.04943656
-0.3389921 -0.104199864 0.1850967 -0.053657614 0.34499165 0.1902219 -0.1649225 0.36686885
0.24389495 0.07059553 0.29610583 0.25378588 0.099041745 0.20611387 0.0037214556 0.3952882
0.092177846 -0.18538111 0.32739377 0.17815831 -0.077589676 0.108710185 0.20349224 -0.06402217
00000000: 1d5c 133e 4d43 28be bda7 a83e 6a3c ea3d
00000010: bb88 003c 0d48 f93d 6cbb ac3e ead1 04bd
00000020: 93b3 173e 7b1f 303d 1508 4d3d e846 663e
00000030: 318e 4d3e 967d 883e 9037 c53e 6690 863d
00000040: 0509 bb3e cd17 82bd 5b72 34bd 8d42 5ebd
00000050: e209 b23e 4c77 8d3e 7e34 b33e 7162 563b
00000060: 90a4 fc3d 6347 b1bd a7c8 3f3e df78 9fbd
00000070: 3e97 4b3d d279 a73d 19e1 913d d434 e73d
00000080: e91f 09bb 2ff5 653d afd0 313e 1bb7 893e
00000090: 7829 203e 792e b53e c748 273e fe7d 4abd
000000a0: 5f90 adbe bd66 d5bd fd89 3d3e 16c8 5bbd
000000b0: bfa2 b03e 88c9 423e 72e1 28be 3cd6 bb3e
000000c0: 99bf 793e 6494 903d 2f9b 973e 39f0 813e
000000d0: 66d6 ca3d 840f 533e aae3 733b 3763 ca3e
000000e0: bdc7 bc3d 8cd4 3dbe 28a0 a73e 226f 363e
000000f0: 56e7 9ebd 72a3 de3d 4560 503e 0e1e 83bd

bias_hh_l0 f4 [64]
0.24405114 -0.16056043 0.37307754 -0.17792128 -0.05380743 0.23705153 0.35983843 0.039060682
0.023295468 0.1901065 -0.13713095 -0.1279768 0.031930175 0.20519873 0.29455265 0.035091065
0.032595225 -0.15757953 -0.1258279 0.21407342 0.059047025 -0.11371975 -0.109618574 -0.0010126461
0.09795627 -0.21579683 0.06434145 0.15958135 0.0016220581 0.15708849 0.253573 -0.09533779
0.33762205 0.11328371 0.1059457 0.112329684 0.29013458 0.21320304 0.039560273 0.28692994
-0.10307631 -0.23125307 -0.03577543 0.0019720583 0.23382135 0.28347364 -0.15862238 0.13621816
-0.09247684 0.021402322 -0.048707902 -0.10773267 0.31726405 0.020634592 0.038602512 0.34504923
-0.0913375 0.23044086 0.107740626 -0.05089033 -0.025909998 -0.009594657 0.0544833 0.36071098
00000000: 8be8 793e f469 24be 0504 bf3e ff30 36be
00000010: 2e65 5cbd a3bd 723e be3c b83e 18fe 1f3d
00000020: 23d6 be3c 47ab 423e 0e6c 0cbe 5a0c 03be
00000030: 37c9 023d 9e1f 523e 9bcf 963e a6bb 0f3d
00000040: 9282 053d 875c 21be 07d9 00be 1036 5b3e
00000050: 4bdb 713d e6e5 e8bd b47f e0bd c4ba 84ba
00000060: 4c9d c83d d8f9 5cbe 73c5 833d 4b69 233e
00000070: 3d9b d43a cedb 203e 52d4 813e 7640 c3bd
00000080: ccdc ac3e 4a01 e83d 0ffa d83d 1b0d e63d
00000090: 858c 943e e651 5a3e f409 223d 7be8 923e
000000a0: ac19 d3bd 9bcd 6cbe 4289 12bd a63d 013b
000000b0: dd6e 6f3e 7523 913e e86d 22be c67c 0b3e
000000c0: 7f64 bdbd ec53 af3c f081 47bd f2a2 dcbd
000000d0: 6f70 a23e e009 a93c ab1d 1e3d 4baa b03e
000000e0: 280f bbbd b0f8 6b3e 1ea7 dc3d 6172 50bd
000000f0: 3441 d4bc e932 1dbc e129 5f3d 1caf b83e

weight f4 [1, 16]
-0.3726673 0.019697273 -0.0955165 0.046241354 -0.16635025 -0.25882748 -0.34548542 -0.28398466
0.2637572 -0.033458356 -0.25364748 0.15893859 -0.10529182 -0.20607907 0.18640357 -0.15364884
00000000: 40ce bebe 2d5c a13c 289e c3bd 9367 3d3d
00000010: b857 2abe 0985 84be 77e3 b0be 7066 91be
00000020: 2f0b 873e a10b 09bd 15de 81be ccc0 223e
00000030: 3da3 d7bd 6406 53be 94e0 3e3e 1f56 1dbe

weight f4 [1, 32]
-0.08103817 -0.11595359 -0.07216002 -0.15979029 0.16191725 -0.025850996 0.14166065 -0.036978155
0.17536412 0.11401017 -0.116667576 -0.06823682 -0.14534968 -0.008139312 -0.08958782 0.063653946
0.056298852 -0.12448385 -0.11440808 -0.084733665 -0.022473752 -0.11754897 0.032366037 -0.106572434
-0.055329457 -0.08941797 0.16847993 0.09557532 0.10178684 0.10831176 -0.004082009 -0.11440315
00000000: 57f7 a5bd 1379 edbd a2c8 93bd 11a0 23be
00000010: a3cd 253e 78c5 d3bc 7d0f 113e 6876 17bd
00000020: a792 333e 2a7e e93d 69ef eebd bfbf 8bbd
00000030: 8cd6 14be c05a 05bc d279 b7bd 005d 823d
00000040: a099 663d 64f1 febd c94e eabd d888 adbd
00000050: e01a b8bc 84bd f0bd 4092 043d a642 dabd
00000060: 24a1 62bd c520 b7bd 0186 2c3e febc c33d
00000070: 9e75 d03d 8ed2 dd3d 60c2 85bb 334c eabd
