competition/result/lstm_win3_noStandardized_2layer_32hidden_0.99g/trained_model/all_model/actor_num_epoch_7.pth (torch, 62206 bytes, 9 tensors)

weight_ih_l0 f4 [128, 11]
0	0x3d7a60ed	0.061127592
1	0x3d92033e	0.07129525
2	0xbcae2657	-0.021258516
3	0x3d8bc5a8	0.06824809
4	0x3d961e04	0.07329944
5	0xbcd51e95	-0.02601556
6	0x3d2ed525	0.04268374
7	0x3da18d3d	0.07888267
8	0xbd84ccee	-0.064844
9	0xbc2c0664	-0.0104995705
10	0x3c2f4f25	0.010700022
11	0x3d8086c0	0.062757015
12	0xbc81aba4	-0.015828915
13	0x3e1b1bbe	0.15147302
14	0xbe1da17f	-0.15393637
15	0xbd5fbc8f	-0.054623183
16	0xbd86a72a	-0.06574853
17	0x3e14af4c	0.14519995
18	0xbe3bec88	-0.18351948
19	0xbdb28416	-0.087166
20	0xbd7b23f3	-0.06131358
21	0xbd71c6d7	-0.05902752
22	0x3d118e39	0.035536025
23	0xbd06c618	-0.03290376
24	0x3d03b215	0.032152254
25	0xbb0aedce	-0.0021198872
26	0xbc1e89e2	-0.0096764285
27	0xbc1f5061	-0.009723754
28	0xbdc917f6	-0.09819023
29	0x3d2de5b4	0.04245539
30	0xbe1e3df8	-0.15453327
31	0xbdb1a445	-0.0867391
32	0xbdc923f4	-0.09821311
33	0xbd0adeff	-0.033904072
34	0xbe30c1b1	-0.17261387
35	0xbddc6566	-0.10761528
36	0xbde6bdb5	-0.112666525
37	0xbe04b99c	-0.1296143
38	0xbddb0434	-0.10694161
39	0xbe11610f	-0.14197181
40	0xbc26fa9c	-0.010191586
41	0x3ccd399b	0.025051882
42	0x3dbac85f	0.09120249
43	0xbd9a30cd	-0.07528839
44	0x3d92334c	0.0713869
45	0x3dcc0b29	0.09963066
46	0xbdf47b62	-0.11937596
47	0xbd4d09fe	-0.050058357
48	0x3e23fe65	0.16015013
49	0x3dbfb327	0.093603425
50	0xbde76dc3	-0.11300232
51	0xbe33d222	-0.17560628
52	0xbdda257b	-0.1065168
53	0x3da7f715	0.08201424
54	0xbd97a842	-0.074051395
55	0xbe2039c2	-0.15647033
56	0x3da7028b	0.08154782
57	0xbd94736e	-0.07248579
58	0x3da5a9ec	0.08089051
59	0xbe14514b	-0.14484136
60	0x3d606d33	0.05479164
61	0xbd6ba1b7	-0.05752727
62	0x3decd46f	0.11563956
63	0xbe2e8992	-0.17044666
64	0x3db982e2	0.09058167
65	0x3e147c4c	0.1450054
66	0x3d10656b	0.03525297
67	0xbd73e780	-0.059546947
68	0xbbd1d515	-0.006403575
69	0xbd828c47	-0.06374412
70	0x3e15e512	0.14638165
71	0xbc8cbf77	-0.017181141
72	0xbe125156	-0.1428884
73	0xbd03a86a	-0.032143034
74	0xbd961257	-0.07327717
75	0xbc925ba8	-0.01786597
76	0xbd08b3cb	-0.03337459
77	0x3e26d39a	0.16291657
78	0x3e0b0428	0.13575804
79	0x3d177873	0.036980104
80	0xbdcc360c	-0.09971246
81	0x3e1513a8	0.1455828
82	0xbceac242	-0.028657082
83	0x3d91f1af	0.071261756
84	0x3e24648c	0.1605398
85	0xbe147d42	-0.14500907
86	0xbcc7063f	-0.02429497
87	0x3dd12fab	0.1021417
88	0xbd8370fe	-0.06418036
89	0x3e2bb480	0.16768074
90	0x3deabe35	0.1146206
91	0xbd552f32	-0.052046962
92	0xbd10d031	-0.035354797
93	0x3d322348	0.043490678
94	0x3bc99917	0.006152283
95	0x3df81a80	0.121144295
96	0x3e273a7e	0.16330907
97	0x3cdfdb88	0.02732636
98	0xbd877af0	-0.06615245
99	0xbd2b5c1f	-0.0418359
100	0xbe14bd61	-0.14525367
101	0xbe147f1e	-0.14501616
102	0xbdaa462d	-0.08314166
103	0x3dad6bd8	0.08467835
104	0x3c5e9d42	0.013587298
105	0xbda63630	-0.08115804
106	0x3e0e5ffe	0.13903806
107	0x3e1056ec	0.14095658
108	0x3cac9a3d	0.02106964
109	0xbdfc0c06	-0.12306981
110	0x3cf74696	0.030185025
111	0x3ddb72dd	0.10715268
112	0x3d2eb945	0.042657156
113	0x3e2132a5	0.15741976
114	0xbdb0b300	-0.086278915
115	0x3a85e57c	0.0010215486
116	0x3e17769c	0.1479134
117	0x3d3062d2	0.043062992
118	0xbd9664e9	-0.07343466
119	0xbe10f5e2	-0.14156297
120	0xbdb6ce2e	-0.089260444
121	0x3cdcd0b2	0.026954982
122	0xbdf968f4	-0.12178221
123	0xbcb875c7	-0.022517098
124	0x3ce0bda6	0.027434181
125	0x3e20d273	0.1570528
126	0xbd9181c5	-0.0710483
127	0x3d23a5fe	0.039953224
128	0x3e17c0e2	0.14819673
129	0x3d9d783e	0.0768895
130	0xbc88e5e8	-0.01671119
131	0xbd95713a	-0.07296987
132	0x3ddc73cf	0.10764276
133	0xbe3984b9	-0.18117036
134	0x3d1a6ce3	0.0377015
135	0x3dad2833	0.08454933
136	0xbdd8ed4a	-0.10592134
137	0x3d25a246	0.04043796
138	0x3c319f53	0.0108412085
139	0x3dd69353	0.104773186
140	0xbdc544f6	-0.09632294
141	0xbd8f1879	-0.0698709
142	0x3e1dd144	0.1541186
143	0xbcf2dd0e	-0.029646423
144	0x3e314d50	0.17314649
145	0x3d52b2b3	0.051439952
146	0xbc5b3d7a	-0.013381356
147	0x3c0b525a	0.008503521
148	0x3ce40296	0.027833264
149	0x3d5f2d76	0.054486714
150	0xbcc42004	-0.023941047
151	0xbd89ddcf	-0.0673176
152	0xbdbd2ab4	-0.092366606
153	0xbe248890	-0.1606772
154	0xbd979ed0	-0.07403338
155	0x3d8bde9a	0.06829567
156	0x3d9b6cdc	0.07589123
157	0x3c3f5926	0.0116789695
158	0x3d97679f	0.07392811
159	0xbe1ab0ae	-0.1510646
160	0xbba8bda1	-0.0051495587
161	0x3cf5a407	0.02998544
162	0xbda18525	-0.078867234
163	0x3df80c0a	0.12111671
164	0xbdf75fff	-0.12078857
165	0xbdff4396	-0.12464063
166	0xbda53128	-0.080660164
167	0xbe011769	-0.12606587
168	0x3d86dc35	0.0658497
169	0x3ccad00c	0.024757408
170	0xbd725638	-0.059164256
171	0x3cdf8aad	0.027287805
172	0xbde2dba0	-0.110770464
173	0xbe24ec50	-0.16105771
174	0x3e23a377	0.15980326
175	0x3e0bdaa4	0.13657624
176	0x3ca0d0fd	0.019630903
177	0xbe2558ba	-0.16147128
178	0xbdcb07aa	-0.09913571
179	0x3d6a19a9	0.057153378
180	0xbdf3a843	-0.11897328
181	0xbcdb434e	-0.026765492
182	0xbdd36ecf	-0.103238694
183	0x3dfc64c9	0.12323911
184	0xbe17f121	-0.14838077
185	0x3c8ce47f	0.0171988
186	0x3d8c7fa7	0.06860285
187	0xbdac88a6	-0.08424501
188	0xbdea4df7	-0.11440652
189	0xbdbbed03	-0.09176066
190	0xbd4c8c95	-0.049938757
191	0xbd06a643	-0.032873403
192	0x3d6a24d8	0.057164043
193	0xbd690479	-0.05688903
194	0xbd94e8d7	-0.07270973
195	0xbda688ba	-0.08131547
196	0xbdbb2ed6	-0.091397926
197	0xbdf32737	-0.11872714
198	0xbd3d4dd4	-0.0462168
199	0xbe015cfa	-0.12633124
200	0xbde8606b	-0.11346515
201	0x3e0dee82	0.13860515
202	0xbdf92416	-0.12165086
203	0x3dd731e7	0.10507565
204	0xbd07eac2	-0.033182867
205	0xbd97db2c	-0.074148506
206	0xbdc010db	-0.09378215
207	0xbb84243e	-0.0040326407
208	0x3d89787e	0.06712435
209	0xbe22ef04	-0.1591149
210	0xbe03d424	-0.12873894
211	0x3dcd21ad	0.10016189
212	0x3e0e9628	0.13924468
213	0xbdfad7e9	-0.12248213
214	0x3e06a7e4	0.13149983
215	0xbad5539a	-0.0016275526
216	0x3db5fd7d	0.0888624
217	0xbd34ee1c	-0.04417239
218	0xbd71b0ac	-0.059006378
219	0xbd0e280d	-0.034706164
220	0x3cdefafc	0.027219288
221	0x3e2bb6d4	0.16768962
222	0xbd920360	-0.0712955
223	0xbe08ba08	-0.13352215
224	0x3df0b1d1	0.11752666
225	0x3ddf04d0	0.1088959
226	0x3ddbd6c0	0.1073432
227	0xbde08cb1	-0.10964335
228	0x3d4a8a27	0.04944816
229	0xbe181acc	-0.14853972
230	0x3c83d7b5	0.016094068
231	0xbd524552	-0.05133564
232	0x3db84a4a	0.089985445
233	0xbe07e3ef	-0.13270544
234	0xbe1684fc	-0.14699167
235	0x3e1f30e0	0.15545988
236	0x3dd2e5df	0.10297751
237	0x3da7116e	0.08157621
238	0x3db5a05f	0.08868479
239	0x3de0a42f	0.109688155
240	0xbde69a2b	-0.11259874
241	0xbd288504	-0.04114248
242	0x3c87d035	0.016578773
243	0xbd8a5a59	-0.06755514
244	0x3dbc57e2	0.0919645
245	0x3d863d17	0.06554621
246	0xbd6455f8	-0.05574605
247	0x3e19e9d6	0.15030608
248	0x3e177667	0.1479126
249	0x3c701e77	0.014655701
250	0x3e20b847	0.15695296
251	0x3da72197	0.08160704
252	0xbdc3c6d0	-0.09559405
253	0xbd83896d	-0.06422696
254	0xbdd86e58	-0.105679214
255	0xbe2c4417	-0.16822849

weight_hh_l0 f4 [128, 32]
0	0xbd9055ac	-0.070475906
1	0xbe365505	-0.1780587
2	0xbe136b04	-0.14396292
3	0xbdde5499	-0.108559795
4	0x3df12fde	0.11776708
5	0xbe31f12f	-0.1737716
6	0xbd74a8a6	-0.05973115
7	0x3d5ca59c	0.053868875
8	0x3e11eb07	0.14249812
9	0xbe1592ad	-0.14606734
10	0x3d7967c2	0.060889967
11	0xbd245a02	-0.0401249
12	0x3d5b0b03	0.0534773
13	0x3d9b7e37	0.07592433
14	0x3c584af5	0.013201465
15	0xbe0c3749	-0.13692965
16	0xbdaf6956	-0.08565013
17	0x3df8b5a1	0.12144018
18	0xbda9a899	-0.082841106
19	0xbc368383	-0.011139753
20	0x3deb7b81	0.11498166
21	0x3d74e817	0.05979165
22	0xbe114e07	-0.14189921
23	0x3d8b9967	0.068163686
24	0xbdc02ffa	-0.09384151
25	0x3e2b7816	0.16745028
26	0x3d1295e5	0.03578748
27	0xbb31d80a	-0.0027136826
28	0xbddd52a9	-0.10806782
29	0xbe2a5d35	-0.16637118
30	0xbd7b3869	-0.061333094
31	0x3e298114	0.16553146
32	0xbdf23cd7	-0.118280105
33	0xbe39b61d	-0.18135877
34	0x3e181ff7	0.14855944
35	0x3dfcfe19	0.12353153
36	0xbd2268b2	-0.039650626
37	0x3e07ae7e	0.13250157
38	0x3d08b9af	0.033380207
39	0x3e2c7427	0.16841184
40	0xbb26cccc	-0.0025451658
41	0xbe20c652	-0.15700653
42	0x3e12a88a	0.14322105
43	0xbdf9a598	-0.121897876
44	0xbd49066f	-0.0490784
45	0xbbe673e3	-0.0070328577
46	0x3cfe4dd6	0.031042974
47	0xbdb2a339	-0.087225385
48	0x3e27f2ac	0.16401166
49	0xbd7aa425	-0.061191697
50	0x3d001328	0.03126827
51	0x3e20da5a	0.15708295
52	0x3def59ff	0.11687087
53	0xbd6c1594	-0.057637766
54	0x3e276c5e	0.16349933
55	0xbd0fce1a	-0.035108663
56	0xbe40f7c1	-0.1884451
57	0x3d46df88	0.04855302
58	0x3d2b0251	0.041750256
59	0xbe31a664	-0.17348629
60	0x3c9d953e	0.019236203
61	0x3ca1db6d	0.01975795
62	0x3e1b411f	0.1516156
63	0xbd32c306	-0.04364302
64	0xbcf43f5e	-0.029815372
65	0xbd70e018	-0.058807462
66	0xbe09d6c3	-0.13460831
67	0xbd6f685d	-0.058449138
68	0x3d2853a4	0.04109539
69	0x3d05b5d2	0.0326441
70	0xbd15aad1	-0.036539856
71	0xbddaf178	-0.10690588
72	0xbe264460	-0.1623702
73	0x3d29c0e8	0.041443735
74	0x3da1010c	0.07861528
75	0xbcd00426	-0.025392603
76	0x3db7914b	0.08963259
77	0xbe237073	-0.15960865
78	0xbde3608e	-0.11102401
79	0xbd02ea69	-0.031961832
80	0xbdb1c62a	-0.08680375
81	0x3bb1d8d8	0.005427461
82	0x3d80d9de	0.06291555
83	0x3c823f9f	0.015899478
84	0x3e159548	0.14607728
85	0x3ca3b530	0.019983858
86	0x3da502f5	0.08057205
87	0xbe201948	-0.15634644
88	0x3e275ff8	0.16345203
89	0x3d014fe8	0.031570345
90	0x3e31c054	0.17358524
91	0x3d4f9799	0.050681684
92	0x3d1915eb	0.03737442
93	0x3ca41987	0.020031704
94	0x3e33245c	0.17494339
95	0x3bf17c5a	0.00736956
96	0xbe197fb9	-0.14990129
97	0xbd2e1d24	-0.04250826
98	0xbd9c8ef4	-0.07644454
99	0xbe00706f	-0.1254289
100	0x3cadf187	0.021233333
101	0x3c5c6e09	0.013453969
102	0x3dfb4c1e	0.122703776
103	0x3d969959	0.073534675
104	0xbcc02988	-0.023457304
105	0xbe14a976	-0.14517769
106	0xbba2ded1	-0.0049704094
107	0x3dbda535	0.09260026
108	0xbdab43f3	-0.0836257
109	0x3e2105c1	0.15724851
110	0x3cd92d1a	0.026510764
111	0x3d4b8db5	0.04969569
112	0xbe2897bc	-0.16464132
113	0x3d8796ec	0.06620583
114	0xbe243663	-0.16036372
115	0xbe02a03d	-0.12756439
116	0xbe0f0ecf	-0.13970493
117	0x3d94f549	0.07273347
118	0xbdebfc14	-0.115226895
119	0x3d140b89	0.036143813
120	0x3de6df84	0.11273101
121	0x3e2bcb0c	0.16776675
122	0xbe2ddea8	-0.16979468
123	0xbd4e3ada	-0.050349094
124	0x3cf46bba	0.029836524
125	0xbd9be686	-0.07612328
126	0xbdbc6b00	-0.09200096
127	0xbd1d7232	-0.038438983
128	0xbcbe2d66	-0.023215007
129	0x3c97998b	0.018505832
130	0x3e0ac115	0.13550217
131	0xbe1c7da6	-0.15282306
132	0xb9ddd924	-0.00042314187
133	0x3c1cba1a	0.009565854
134	0xbe1694d8	-0.14705217
135	0xbe262fae	-0.16229126
136	0x3e35972d	0.1773345
137	0xbdf2cf53	-0.1185595
138	0x3e1165d0	0.14198995
139	0xbd11ee99	-0.035627935
140	0xbe126ce6	-0.14299354
141	0xbe1b1290	-0.151438
142	0xbd0a0e53	-0.033705067
143	0x3d83c570	0.064341426
144	0xbe095da0	-0.13414621
145	0xbd06584c	-0.03279905
146	0x3d55ac71	0.052166406
147	0xbd4b35d0	-0.049611866
148	0x3dee600e	0.11639415
149	0xbe3a7a92	-0.1821082
150	0xbdf425e7	-0.11921292
151	0x3d6a4492	0.0571943
152	0x3dcba835	0.09944192
153	0x3dc03d7c	0.09386727
154	0xbd8f2048	-0.06988579
155	0xbb8a5d62	-0.004222558
156	0x3e00ece2	0.12590364
157	0x3e40bf50	0.1882298
158	0x3ca0c433	0.019624805
159	0xbdcbe1dd	-0.099551894
160	0x3dec0533	0.11524429
161	0x3dffbd1c	0.124872416
162	0x3daa4648	0.08314186
163	0x3ba21a82	0.0049470076
164	0x3dbd9291	0.09256471
165	0x3c39df5d	0.011344758
166	0xbd1b51f9	-0.037919972
167	0xbe12a8ad	-0.14322157
168	0xbd03fe51	-0.032224957
169	0x3d187e81	0.03723002
170	0xbe062599	-0.1310028
171	0x3de67b61	0.112540014
172	0xbdc55fd8	-0.09637421
173	0xbbf82bd1	-0.0075735827
174	0x3e02eadf	0.12784909
175	0x3e2b1475	0.16707022
176	0x3dfa733c	0.122290105
177	0x3d657844	0.056022897
178	0x3d3a2a77	0.045450654
179	0x3dd7f626	0.10544996
180	0x3df1664f	0.11787092
181	0x3e100c55	0.14067204
182	0xbe015691	-0.12630679
183	0xbdc730b6	-0.09726088
184	0x3accf5c0	0.0015637204
185	0x3dbd9594	0.092570454
186	0xbe28d5a4	-0.16487747
187	0xbd654692	-0.055975504
188	0x3e06cfec	0.13165253
189	0x3d9f0369	0.07764322
190	0x3cffb567	0.031214429
191	0xbdabcd5a	-0.08388777
192	0x3d437299	0.04771671
193	0xbc8374e9	-0.016046958
194	0x3ba5f9dc	0.005065186
195	0x3c1910a2	0.0093423445
196	0x3d8bf65a	0.06834097
197	0xbdd2538a	-0.1026984
198	0x3d23305d	0.039841045
199	0xbe13560b	-0.14388292
200	0xbde46982	-0.111529365
201	0x3e3c8fcb	0.18414228
202	0x3cd0b19a	0.025475312
203	0x3da6a148	0.08136231
204	0xbddd5648	-0.108074725
205	0xbd35d181	-0.04438925
206	0xbe138f1b	-0.14410059
207	0x3dd0c606	0.1019402
208	0x3e1b2990	0.15152574
209	0xbcf57e0e	-0.029967334
210	0xbd0ac9b7	-0.033883777
211	0xbd2c8c55	-0.04212602
212	0x3d85db2c	0.06535944
213	0xbdac3e40	-0.08410311
214	0x3e13ea00	0.14444733
215	0xbd1d8f86	-0.038466953
216	0xbdd4969c	-0.10380289
217	0xbd64bf65	-0.05584659
218	0xbe0d5b3e	-0.13804337
219	0x3dc7d713	0.09757819
220	0x3e1ffc88	0.15623677
221	0xbdc002bd	-0.09375522
222	0x3d98e04d	0.07464657
223	0xbd88028c	-0.06641111
224	0xbe41d7ec	-0.18930024
225	0x3d413a1f	0.04717457
226	0x3d887039	0.0666203
227	0x3da9028e	0.082524404
228	0x3e278711	0.16360117
229	0xbb87665e	-0.004132076
230	0xbe260907	-0.16214381
231	0x3e1d98b9	0.1539029
232	0x3dc74d84	0.09731582
233	0x3d7419ef	0.059595045
234	0x3e0318b8	0.12802398
235	0x3de4ef00	0.11178398
236	0xbd0b7699	-0.03404865
237	0xbe22eb2b	-0.15910022
238	0xbd757e5b	-0.059934955
239	0xbdd748a9	-0.10511906
240	0xbd3b0013	-0.045654368
241	0xbe07ef72	-0.13274935
242	0x3c7eefc2	0.015560092
243	0xbd46b440	-0.048511744
244	0x3d88c334	0.06677857
245	0xbd9ad7d0	-0.07560694
246	0x3d3dd6a2	0.046347268
247	0xbe20018a	-0.15625587
248	0x3becc863	0.0072260364
249	0x3d52ea76	0.05149313
250	0x3d503a78	0.05083701
251	0xbd6b4916	-0.057442747
252	0xbd89a02a	-0.06720002
253	0xbd3545bb	-0.044255953
254	0xbd99909f	-0.074982874
255	0xbdacd563	-0.08439138

bias_ih_l0 f4 [128]
0	0xbda7261d	-0.081615664
1	0x3da9a57b	0.08283516
2	0xbe0e2bfb	-0.13883965
3	0x3d9e822f	0.07739674
4	0xbbce93a3	-0.0063042208
5	0x3db13f32	0.08654632
6	0xbdb19c5c	-0.08672401
7	0x3e2dfc6f	0.16990827
8	0x3e38c906	0.18045434
9	0xbc1e7d30	-0.009673402
10	0xbe2886c4	-0.16457659
11	0xbe25ce31	-0.16191937
12	0x3e1bd9d2	0.1521981
13	0xbd66c8f2	-0.05634398
14	0xbe167191	-0.1469176
15	0xbda92ad5	-0.08260123
16	0x3cd4036e	0.025880542
17	0xbc930b49	-0.017949717
18	0xbda17039	-0.07882733
19	0x3e124c05	0.14286812
20	0xbb269d5d	-0.0025423386
21	0x3de60150	0.11230719
22	0x3e007165	0.12543257
23	0xbdd7d113	-0.105379246
24	0xbddc50d7	-0.107576065
25	0xbc83390b	-0.016018411
26	0xbdfcf1ba	-0.12350793
27	0x3d8e3912	0.06944479
28	0xbdb6143c	-0.08890578
29	0x3d42ea34	0.047586635
30	0x3e1036c0	0.14083385
31	0x3dce8487	0.10083871
32	0x3e05df72	0.13073519
33	0x3df6974a	0.12040575
34	0xbd977b41	-0.07396556
35	0x3e1f4dd7	0.15557037
36	0x3dd2dacd	0.10295639
37	0x3e32e903	0.174717
38	0x3d6a36ae	0.057181053
39	0xbd17f74b	-0.03710107
40	0xbda95df7	-0.082698755
41	0x3d403a49	0.046930585
42	0x3db684d8	0.08912057
43	0x3e3961e2	0.18103746
44	0xbe287c49	-0.16453661
45	0x3db467cd	0.08808861
46	0xbdc8dec2	-0.09808113
47	0xbe1f0ce0	-0.15532255
48	0x3cb3d640	0.021952748
49	0x3cdb0fcb	0.02674093
50	0xbd0096df	-0.031393882
51	0x3d89d984	0.06730941
52	0xbc67d267	-0.014149285
53	0xbd6026ea	-0.05472461
54	0x3de15b7c	0.110037774
55	0x3e2226a8	0.15835059
56	0xbd931314	-0.07181373
57	0xbda1cfec	-0.07900986
58	0x3c6a0f37	0.014285854
59	0xbe12deb6	-0.1434277
60	0xbdb18436	-0.08667795
61	0x3d5c7c03	0.053829204
62	0x3e251e64	0.16124874
63	0x3d494cce	0.049145512
64	0x3dc1a6bd	0.09455631
65	0xbdd07e57	-0.101803474
66	0xbdff4291	-0.124638684
67	0x3dbf1b8a	0.093314245
68	0xbcc51455	-0.024057547
69	0x3d135e67	0.0359787
70	0x3d39206e	0.045196943
71	0xbda939c6	-0.082629725
72	0xbd44870c	-0.047980353
73	0x3d509760	0.050925612
74	0x3e1e5965	0.15463789
75	0xbd8f349d	-0.06992457
76	0x3d940f3c	0.07229468
77	0x3e0adef5	0.13561614
78	0x3db0ad4f	0.08626806
79	0xbca0159f	-0.01954156
80	0xbd882c24	-0.06649044
81	0x3c3b34f4	0.011426199
82	0x3e0698a1	0.13144161
83	0x3d311e03	0.043241512
84	0x3dddaacf	0.10823595
85	0xbd0fd025	-0.03511061
86	0x3e113f2f	0.14184259
87	0x3d60dbbb	0.05489705
88	0xbd9494c6	-0.07254939
89	0xbe4181aa	-0.18897119
90	0x3ca89ab4	0.02058158
91	0xbc70fca4	-0.014708672
92	0xbd47d3a1	-0.04878581
93	0x3e015de3	0.12633471
94	0xbe10f08c	-0.14154261
95	0x3e07fed7	0.13280807
96	0x3db04278	0.08606428
97	0x3ceae67b	0.028674355
98	0xbde9b838	-0.1141209
99	0xbe125dac	-0.14293545
100	0xbdf248c8	-0.11830288
101	0xbd4c8199	-0.04992828
102	0xbdba83ea	-0.09107192
103	0x3e23148e	0.1592581
104	0x3c0f0254	0.008728582
105	0x3e0cc1e7	0.13745843
106	0x3d1e3223	0.038622033
107	0x3d908a85	0.070576705
108	0xbe3d1ed7	-0.18468796
109	0xbe07f3fc	-0.13276666
110	0xbb009f30	-0.0019626133
111	0x3cc5ff20	0.024169505
112	0x3d5763fc	0.052585587
113	0x3e213c78	0.15745723
114	0xbdc7cfa5	-0.09756402
115	0xbdb1751c	-0.08664915
116	0x3e3d8030	0.18505931
117	0x3d3a6456	0.045505844
118	0x3e1bc331	0.15211178
119	0x3d3731c2	0.044725187
120	0xbdfe8abd	-0.12428806
121	0xbddaba94	-0.10680118
122	0xbd812dcb	-0.063075624
123	0x3d67288c	0.056435153
124	0x3e01b56a	0.1266686
125	0x3d2577bb	0.040397387
126	0x3d666a51	0.056253735
127	0xbd9a1b66	-0.07524757

bias_hh_l0 f4 [128]
0	0xbdb45d2a	-0.08806832
1	0xbdb584bd	-0.088632084
2	0xbb1d7d37	-0.0024030933
3	0x3e287a15	0.1645282
4	0xbe1ce7ca	-0.15322796
5	0xbdde1a9c	-0.10844919
6	0xbda62626	-0.08112745
7	0x3e1e4f07	0.15459834
8	0x3e30ff22	0.17284825
9	0xbdf27667	-0.1183899
10	0xbdd4a63e	-0.10383271
11	0x3de9a199	0.114077754
12	0x3d803c6c	0.062615246
13	0xbdc2db49	-0.095144816
14	0xbd8c977b	-0.0686483
15	0x3d842ed2	0.06454243
16	0xbe00a21e	-0.12561843
17	0x3c590083	0.013244751
18	0xbdfc443e	-0.12317704
19	0xbe00190f	-0.12509559
20	0xbd48f87d	-0.049065102
21	0x3dec34b9	0.115334935
22	0x3d7cfb84	0.0617633
23	0xbcfe0253	-0.031006968
24	0x3e327438	0.17427146
25	0x3e22b615	0.15889771
26	0xbe14b42f	-0.1452186
27	0x3dab65b2	0.08369006
28	0xbda7e323	-0.0819762
29	0x3d572b45	0.0525315
30	0x3d4587c3	0.048225176
31	0x3d170420	0.03686917
32	0x3bd6d0cf	0.0065556536
33	0x3d569ade	0.052393787
34	0x3e216c67	0.15764008
35	0xbe2b7ca3	-0.16746764
36	0xbd30777e	-0.043082707
37	0x3e37c756	0.17947134
38	0xbdf821b7	-0.121158056
39	0x3e26fa64	0.16306454
40	0x3dd8a7dc	0.10578892
41	0xbd8487c7	-0.0647121
42	0xbcaa34f2	-0.0207772
43	0xbdd6a3c2	-0.10480453
44	0xbdb69788	-0.08915621
45	0x3d6934c7	0.056935098
46	0xbd8af5d8	-0.06785172
47	0x3da5b749	0.080915995
48	0x3d7e1e1a	0.062040426
49	0x3d2f736a	0.042834677
50	0x3d57e782	0.052711017
51	0x3deb81cd	0.11499367
52	0x3e420b3b	0.18949597
53	0x3d8f2053	0.06988587
54	0xbddb0504	-0.10694316
55	0xbd03470e	-0.032050185
56	0x3de26306	0.110540435
57	0x3d06458d	0.032781173
58	0x3d880c23	0.0664294
59	0x3e05c6f7	0.1306418
60	0x3e020383	0.12696652
61	0xbe19256b	-0.1495568
62	0x3d79c561	0.06097925
63	0xbe0baaed	-0.13639422
64	0xbe12c91f	-0.14334534
65	0xbe2338c3	-0.15939622
66	0x3ddeb92f	0.10875165
67	0x3d2aaaa2	0.041666634
68	0xbd223593	-0.039601874
69	0x3d398461	0.045292262
70	0xbc3578d4	-0.011076171
71	0x3e2b8b8c	0.16752452
72	0x3e1de89f	0.15420769
73	0xbd123afc	-0.035700783
74	0xbd8164c2	-0.06318046
75	0xbd2b1e8d	-0.041777182
76	0xbdd148af	-0.102189414
77	0xbdb1a9e3	-0.086749814
78	0xbd116781	-0.0354991
79	0x3e3f66c6	0.18691549
80	0xbc69c2a4	-0.014267597
81	0xbe28dbb5	-0.16490062
82	0x3dec6cb7	0.11544173
83	0xbe07da3d	-0.13266845
84	0xbe4240eb	-0.18970077
85	0xbe1afb1e	-0.15134856
86	0xbca7a58f	-0.020464687
87	0xbe027061	-0.12738182
88	0xbc7ee232	-0.015556859
89	0x3dd8a1cc	0.10577735
90	0xbdf880f3	-0.1213397
91	0xbcab0561	-0.020876588
92	0x3dda36a2	0.10654952
93	0x3dfe7b3f	0.12425851
94	0x3e0b0613	0.13576536
95	0x3e2980cc	0.16553038
96	0xbcfa9bc2	-0.03059185
97	0x3d94a848	0.072586596
98	0x3e0d0e1d	0.13774915
99	0x3c0d1feb	0.008613567
100	0xbe151145	-0.14557369
101	0x3d7e2ce7	0.06205454
102	0x3d270a03	0.040781032
103	0xbd7a4b77	-0.061107125
104	0xbc8e1726	-0.017345022
105	0xbd42a8f0	-0.047524393
106	0x3e21e5c2	0.15810302
107	0xbd4fd974	-0.05074449
108	0xbde1e901	-0.1103077
109	0xbd6aaa3e	-0.05729126
110	0x3e2b3e91	0.16723086
111	0xbdcc4c48	-0.09975487
112	0xbe275eae	-0.16344711
113	0xbb98228a	-0.0046427893
114	0xbcbd23fc	-0.023088448
115	0xbd69a0fb	-0.05703829
116	0x3d4657a6	0.04842343
117	0x3d6d375c	0.057914123
118	0x3e1d3c7e	0.15355107
119	0xbbf6f78d	-0.0075368346
120	0xbc0a3a2b	-0.00843672
121	0xbcc43511	-0.023951085
122	0xbdfe3caa	-0.124139145
123	0x3dff17f4	0.124557406
124	0xbdada597	-0.084788494
125	0x3dd00f9f	0.101592295
126	0xbe055b3e	-0.13023087
127	0xbd3ed22c	-0.046587154

weight_ih_l1 f4 [128, 32]
0	0x3c40d973	0.011770594
1	0xba189b1e	-0.0005821454
2	0xbdd9606e	-0.10614096
3	0x3d84c914	0.06483665
4	0x3dd99cdc	0.10625622
5	0xbd934f95	-0.071929134
6	0xbd2bef2c	-0.04197614
7	0x3daf2ee4	0.085538656
8	0xbdfbc7ac	-0.12293944
9	0x3c878848	0.016544476
10	0xbd8aa595	-0.067698635
11	0xbd2f6647	-0.04282215
12	0xbe02b5b8	-0.12764633
13	0x3e1537c3	0.14572053
14	0x3e0946c5	0.13405903
15	0x3dc9ff91	0.098631985
16	0xbc67e3c4	-0.014153425
17	0xbe1521e8	-0.14563715
18	0xbe0a322a	-0.13495699
19	0xbd896418	-0.067085445
20	0xbcb6f79c	-0.022334866
21	0xbe0124c9	-0.12611689
22	0xbe1ee84c	-0.15518302
23	0xbddc401e	-0.10754417
24	0x3d0e9f54	0.034819916
25	0x3e37290e	0.17886755
26	0xbcdccffb	-0.026954642
27	0xbd7fce2d	-0.062452484
28	0x3e03f402	0.1288605
29	0xbe0e2d6a	-0.13884512
30	0xbd890e29	-0.06692154
31	0xba6d3d82	-0.0009049998
32	0x3d8b8ed8	0.06814355
33	0x3d5e00aa	0.054199852
34	0x3d9f7737	0.0778641
35	0x3d9db5c3	0.07700684
36	0xbcb91d11	-0.022596868
37	0xbd49a501	-0.049229626
38	0xbd85e008	-0.06536871
39	0xbd1f7fdd	-0.0389403
40	0xbd9f7aed	-0.07787118
41	0xbcd713a0	-0.026254475
42	0x3e371fb5	0.17883189
43	0xbdfd9935	-0.123827375
44	0x3db73665	0.08945922
45	0xbdd3b4a7	-0.10337191
46	0x3e261f63	0.1622291
47	0x3c64e8fe	0.013971565
48	0xbe2233e4	-0.15840107
49	0xbe0f0f93	-0.13970785
50	0xbdb6e350	-0.08930075
51	0xbda413e4	-0.08011606
52	0xbbeb6502	-0.007183672
53	0xbce6d5a0	-0.028178036
54	0x3d816ced	0.06319604
55	0x3e177737	0.1479157
56	0x3e0f90d2	0.14020088
57	0xbe33e8a7	-0.17569219
58	0xbe15536c	-0.14582604
59	0xbe3555bf	-0.17708491
60	0x3e067a7c	0.13132662
61	0xbe07bd6e	-0.13255855
62	0xbe2ca70d	-0.168606
63	0xbe0191dd	-0.12653299
64	0xbde7bb41	-0.11315013
65	0x3d78e404	0.060764328
66	0xbd51861d	-0.05115329
67	0x3e1b6609	0.15175642
68	0x3d7c84fe	0.06165027
69	0x3d9c306a	0.07626422
70	0x3e1a3222	0.15058187
71	0xbe2b847e	-0.1674976
72	0xbdce68e6	-0.100786015
73	0x3db92162	0.090395704
74	0xbc185189	-0.009296783
75	0x3d6d2f3b	0.05790637
76	0xbcc254f0	-0.023722142
77	0xbdb54893	-0.08851733
78	0xbde74258	-0.11291951
79	0xbe16aeee	-0.14715168
80	0xbc7378d1	-0.014860348
81	0xbd58865f	-0.05286252
82	0xbdb54f5b	-0.088530265
83	0x3e14af36	0.14519963
84	0xbe052369	-0.13001789
85	0xbe1c6520	-0.15272951
86	0xbdb8bc2e	-0.090202674
87	0x3e2e8acf	0.17045139
88	0x3e16417a	0.14673415
89	0xbba1bf6b	-0.004936149
90	0x3d58209f	0.052765485
91	0xbe164761	-0.14675666
92	0xbcaf7789	-0.021419303
93	0x3e310753	0.1728795
94	0xbd2c46ff	-0.042059895
95	0x3d86623c	0.065617055
96	0x3da5429b	0.080693446
97	0xbda1b7e2	-0.07896401
98	0x3c8d4d1b	0.01724868
99	0xbd8327a3	-0.064040445
100	0xbdd8dc07	-0.10588842
101	0xbe3a80e9	-0.18213238
102	0x3d9559d1	0.07292522
103	0x3d952e28	0.07284194
104	0x3d80a504	0.06281474
105	0xbda5931a	-0.08084698
106	0xbd4ad27d	-0.049517144
107	0xbdb041dc	-0.08606312
108	0xbdf84a1f	-0.121235125
109	0x3da1b079	0.078949876
110	0xbdc7cfb5	-0.09756414
111	0xbcf39a9c	-0.02973681
112	0x3d7de79a	0.06198845
113	0xbdc6ee84	-0.09713462
114	0xbaf688b3	-0.001880905
115	0xbe237888	-0.15963948
116	0x3d3e2b9a	0.0464283
117	0xbc0244e1	-0.007950992
118	0xbe116929	-0.14200272
119	0xbd1ca5c0	-0.03824401
120	0xbe00f6ec	-0.12594193
121	0xbe03fd94	-0.12889701
122	0x3ccf1927	0.025280548
123	0x3dd39ddd	0.103328444
124	0x3c4ba268	0.012428857
125	0x3e1f70c5	0.15570362
126	0x3c7e27cc	0.015512418
127	0x3def12ff	0.11673545
128	0xbe1634ac	-0.1466853
129	0xbe1e87e1	-0.15481521
130	0x3d55e5a0	0.05222094
131	0xbe28b55c	-0.16475433
132	0x3d3d4ee3	0.04621781
133	0x3cb005ae	0.021487083
134	0xbdc10aa1	-0.094258554
135	0x3debf082	0.115204826
136	0x3e2f3b46	0.17112455
137	0x3d11f714	0.035636023
138	0x3dcc4acb	0.09975203
139	0x3dce1f0a	0.10064514
140	0xbc52741f	-0.012845068
141	0x3d9b55e0	0.07584739
142	0x3e15c392	0.14625385
143	0xbe22db01	-0.15903856
144	0x3e151608	0.14559186
145	0x3d651bb1	0.05593461
146	0xbdcbbb7f	-0.099478714
147	0x3d12920f	0.035783824
148	0xbe1791fa	-0.1480178
149	0xbd188a5a	-0.037241317
150	0xbe2bb777	-0.16769205
151	0xbd94125a	-0.07230063
152	0x3db7e32e	0.08978878
153	0x3e01a19e	0.12659308
154	0x3d14e09d	0.03634702
155	0xbdb59936	-0.08867113
156	0xbe20421f	-0.15650223
157	0xbdc385c8	-0.09547001
158	0xbdf1cfdf	-0.118072264
159	0xbc07e1d5	-0.008293589
160	0xbe17630b	-0.14783876
161	0x3de64d90	0.112452626
162	0xbe00f3ab	-0.12592952
163	0xbe0a05c2	-0.13478759
164	0x3dca836c	0.09888348
165	0xbe0e46f4	-0.13894254
166	0x3d86fd8e	0.065913305
167	0x3d7f7251	0.06236488
168	0xbc205ff3	-0.009788501
169	0xbdc5cb7d	-0.09657953
170	0xbda19f71	-0.07891739
171	0xbca74f42	-0.020423535
172	0xbde5884b	-0.112076364
173	0x3daaa20f	0.083316915
174	0x3e22fc18	0.15916479
175	0x3e0da22e	0.13831398
176	0xbdf337b9	-0.11875863
177	0xbd1f248c	-0.038853213
178	0xbdba8cf1	-0.09108914
179	0xbc87a3fc	-0.016557686
180	0x3de2f8a4	0.11082581
181	0x3e00f772	0.12594393
182	0xbdc03ec4	-0.093869716
183	0xbe270348	-0.16309845
184	0x3c6978e5	0.014250015
185	0xbcb185d2	-0.021670256
186	0x3d1eb0e4	0.038742915
187	0x3c878ab5	0.016545633
188	0xbe1af492	-0.15132359
189	0x3de627a8	0.112380326
190	0x3dbd82c3	0.092534564
191	0x3e05dac6	0.13071737
192	0xbba379ae	-0.0049888706
193	0x3df29f77	0.11846822
194	0xbdeb90a9	-0.11502201
195	0xbd71edc0	-0.059064627
196	0x3e290e6d	0.16509409
197	0x3c9a278f	0.018817691
198	0x3cd4219a	0.025894929
199	0xbd43d9d7	-0.04781517
200	0xbd4569ae	-0.048196487
201	0x3dba0bcd	0.09084282
202	0xbd1749b2	-0.036935516
203	0xbe20ff6c	-0.15722436
204	0xbd28597b	-0.04110096
205	0xbde9a203	-0.114078544
206	0x3c97e19b	0.018540194
207	0xbde43c6d	-0.11144338
208	0x3e11850c	0.1421091
209	0xbdf568dc	-0.11982891
210	0x3d6d2837	0.05789968
211	0xbd95dee0	-0.07317901
212	0x3dc3e1f9	0.09564585
213	0x3e014eb6	0.12627682
214	0xbbbb00e1	-0.005706892
215	0x3de284d6	0.11060493
216	0x3ba626e5	0.0050705546
217	0x3dfdbb9e	0.12389301
218	0x3d6d00aa	0.05786196
219	0x3dc7fe69	0.09765322
220	0xbd996fd4	-0.07492033
221	0x3dc718ad	0.097215034
222	0xbe008d55	-0.12553914
223	0xbd24768f	-0.04015213
224	0xbd4c4188	-0.049867183
225	0x3d370890	0.0446859
226	0xbde5e722	-0.11225726
227	0xbdb1c529	-0.086801834
228	0xbdc9bd46	-0.09850554
229	0x3d46a77a	0.04849956
230	0xbde022fb	-0.10944172
231	0x3d2409f7	0.040048566
232	0xbdae9498	-0.08524436
233	0x3dffe227	0.12494307
234	0x3d256d3a	0.04038737
235	0x3df0e572	0.11762513
236	0x3dc61b0a	0.09673126
237	0x3dff3f5b	0.12463256
238	0xbdf8dec9	-0.12151868
239	0xbe143832	-0.14474562
240	0xbca2b058	-0.019859478
241	0x3e1367e5	0.14395101
242	0xbd64856e	-0.05579131
243	0x3d06b86b	0.03289072
244	0xbd475e4d	-0.048673917
245	0xbbf09430	-0.007341884
246	0x3d7b1554	0.061299637
247	0x3e320c0c	0.17387408
248	0x3d083fbf	0.033263918
249	0xbc1a803d	-0.009429988
250	0x3ce67c88	0.028135553
251	0x3b4a12e7	0.003083402
252	0xbe466c17	-0.1937717
253	0x3c7f97d8	0.015600167
254	0x3d382f1c	0.044966802
255	0xbe3192a9	-0.17341103

weight_hh_l1 f4 [128, 32]
0	0xbdb830de	-0.08993696
1	0x3e3a5a4e	0.18198511
2	0x3d1a82b2	0.037722297
3	0xbce96cf3	-0.028494334
4	0xbcff7375	-0.031182984
5	0xbe2316f1	-0.1592672
6	0x3e182467	0.14857636
7	0x3df4e7c0	0.11958265
8	0xbca61250	-0.020272404
9	0x3c8b166f	0.01697847
10	0x3dde0e58	0.108425796
11	0xbe16b372	-0.1471689
12	0xbdf04aea	-0.11733039
13	0x3dbf2b23	0.093343996
14	0x3e050847	0.12991439
15	0x3dd5c13a	0.10437246
16	0x3d4a7e30	0.049436748
17	0x3d9b4be8	0.07582837
18	0x3d3c5833	0.04598255
19	0x3e2fe238	0.1717614
20	0x3e36280c	0.17788714
21	0x3d373128	0.044724613
22	0x3de4a381	0.111639984
23	0x3df9753b	0.12180563
24	0x3d7832de	0.060595386
25	0x3d29f9b2	0.041497894
26	0x3deaacbf	0.1145873
27	0xbcb75661	-0.022380056
28	0x3c7d6021	0.015464813
29	0xbd098465	-0.033573527
30	0x3ab74051	0.001398096
31	0xbd2adcdd	-0.041714538
32	0x3d4c6296	0.049898706
33	0x3d2a0f1e	0.041518323
34	0xbe287f74	-0.1645487
35	0xbdfe876e	-0.12428175
36	0x3e1a6505	0.15077598
37	0x3e0eae4d	0.13933678
38	0xbdf20590	-0.11817467
39	0x3da3c06c	0.07995686
40	0x3c850820	0.016239226
41	0x3b32abfb	0.0027263153
42	0x3d6ccab6	0.057810508
43	0xbcae70e3	-0.021294063
44	0x3d909549	0.07059724
45	0x3df70b4b	0.12062701
46	0xbe1c2520	-0.15248537
47	0xbe239c1a	-0.15977517
48	0x3d635789	0.055503402
49	0xbd1d6f7b	-0.038436394
50	0xbe19d121	-0.15021183
51	0x3e121671	0.14266373
52	0x3e0d6815	0.13809235
53	0xbd27ea24	-0.04099478
54	0x3e0aff23	0.1357389
55	0xbe2724b9	-0.16322602
56	0xbe30b5bd	-0.17256828
57	0x3d7e4aa5	0.062082905
58	0xbdf12474	-0.11774531
59	0x3d2204f1	0.039555494
60	0xbe1aad4b	-0.15105169
61	0x3e2d3b09	0.16917051
62	0x3e0261ab	0.1273257
63	0xbd97e4db	-0.074166976
64	0xbdb99773	-0.0906209
65	0x3d753c97	0.059872236
66	0xbda5cc81	-0.08095647
67	0x3d67c2f0	0.05658239
68	0xbceab83f	-0.028652309
69	0x3d79f634	0.061025813
70	0xbd260c2b	-0.040538948
71	0xbd439c24	-0.04775633
72	0xb8cff368	-9.915867e-05
73	0x3da37124	0.07980564
74	0xba34a4f9	-0.0006891038
75	0xbe150188	-0.14551365
76	0xbde5ed31	-0.11226881
77	0xbde03676	-0.109478876
78	0x3d489ec7	0.048979547
79	0xbd808ce4	-0.06276873
80	0x3dca0b27	0.098654084
81	0xbdf796a0	-0.12089276
82	0xbd256d2b	-0.040387314
83	0xbd85d678	-0.06535047
84	0x3d848281	0.06470204
85	0x3b4040b9	0.0029335453
86	0xbdd714bb	-0.10502001
87	0xbd1898cc	-0.037255093
88	0x3e0a5215	0.13507874
89	0xbe289d61	-0.16466285
90	0x3dbc2f70	0.091887355
91	0xbde3c67d	-0.11121843
92	0x3daa0715	0.08302132
93	0x3d4d5ed6	0.05013927
94	0xbdcbfb6a	-0.09960063
95	0x3cbd5f32	0.023116682
96	0x3e10d8f4	0.14145261
97	0x3e2b0350	0.16700482
98	0xbe23c4e8	-0.15993083
99	0xbdb2f8c4	-0.087388545
100	0xbe1f3d09	-0.15550627
101	0xbe29caf9	-0.16581334
102	0x3c30f7d3	0.010801273
103	0x3daf8a98	0.085713565
104	0xbe1e999e	-0.15488288
105	0xbdba0481	-0.0908289
106	0x3e4158bf	0.1888151
107	0xbd9923cf	-0.07477533
108	0xbe08221c	-0.13294262
109	0x3d76198f	0.06008297
110	0xbbe6649c	-0.0070310365
111	0xbdc844f1	-0.097787745
112	0x3cfa3b76	0.030545931
113	0xbe28509c	-0.16437
114	0xbe3f0e4a	-0.18657795
115	0xbd98c469	-0.07459337
116	0xbe009ab9	-0.12559022
117	0x3d1dae0a	0.038496055
118	0x3deecffa	0.11660762
119	0x3dd4cb59	0.10390348
120	0x3e24274b	0.16030614
121	0xbd11ff84	-0.03564407
122	0xbe23eb61	-0.16007759
123	0x3e272b72	0.16325167
124	0xbdeeb45a	-0.11655493
125	0x3db210cc	0.0869461
126	0x3e0dc2a8	0.13843787
127	0x3c193356	0.009350618
128	0xbd2bd916	-0.041955076
129	0x3e127493	0.14302282
130	0xbda2d3df	-0.079505675
131	0xbaf4ec81	-0.0018686206
132	0xbdaa3a08	-0.0831185
133	0x3c611483	0.0137378005
134	0xbe20c35c	-0.15699524
135	0x3a0e29a4	0.0005423075
136	0x3e23c50e	0.15993139
137	0xbe2935e7	-0.16524468
138	0xbdab0580	-0.083506584
139	0x3d97e5da	0.074168876
140	0x3e368484	0.17823988
141	0xbdc14941	-0.094378
142	0xbd8724ca	-0.06598814
143	0xbdcf0cdd	-0.10109875
144	0x3c070a38	0.008242182
145	0xbdde654b	-0.10859164
146	0xbdcfdff9	-0.10150141
147	0xbd4f2441	-0.050571684
148	0x3e0e7e7f	0.13915442
149	0x3d8eb53e	0.06968163
150	0xbdc12c6e	-0.094323024
151	0xbdf0cc2c	-0.11757693
152	0x3d0bc056	0.034118973
153	0xbdb7ad44	-0.08968595
154	0xbcaf5dc7	-0.021407021
155	0x3cc14744	0.023593552
156	0x3e21d2db	0.15803091
157	0xbd93adf8	-0.07210916
158	0xbd8f0e90	-0.069851995
159	0xbe11e124	-0.1424604
160	0x3e203b2d	0.15647574
161	0xbdeebf7c	-0.116576165
162	0xbde7450c	-0.112924665
163	0xbd8b4421	-0.06800104
164	0xbe246605	-0.16054542
165	0x3dd1ca13	0.10243621
166	0x3daffc76	0.08593075
167	0xbd2444e4	-0.04010476
168	0xbd28a554	-0.041173294
169	0x3e138df9	0.14409627
170	0x3c9ecee6	0.019385766
171	0xbded31df	-0.11581778
172	0x3de9af86	0.114104316
173	0x3d2f212f	0.042756256
174	0xbe15d3fe	-0.1463165
175	0xbdb441fa	-0.088016465
176	0xbdfe14de	-0.12406324
177	0x3dc2f82a	0.0951999
178	0xbd2b4b67	-0.041819956
179	0x3e2c003b	0.16796963
180	0x3e06c718	0.13161886
181	0x3d07aac2	0.03312183
182	0x3db0fa09	0.086414404
183	0xbe1b1d16	-0.15147814
184	0xbd1caf56	-0.03825315
185	0xbd0afebc	-0.03393434
186	0xbd3743ba	-0.044742323
187	0xbe2400ed	-0.16015978
188	0xbe0a9bdb	-0.13536017
189	0xbe101732	-0.14071348
190	0xbcf0c1f8	-0.029389367
191	0xbd1c53d9	-0.0381659
192	0x3df62a81	0.12019826
193	0x3dfdd832	0.123947516
194	0xbe135b0e	-0.14390203
195	0xbba20c6b	-0.004945328
196	0xbda9b8b0	-0.082871795
197	0x3c9ded6a	0.019278247
198	0xbdc48784	-0.0959616
199	0x3d9d8f3a	0.07693334
200	0xbd6bda66	-0.057581328
201	0x3e1f3ea6	0.15551242
202	0x3e1209cf	0.14261554
203	0xbc10f061	-0.008846373
204	0xbe17c712	-0.14822033
205	0x3ccfbfd0	0.025360018
206	0xbb97e7a9	-0.0046357703
207	0xbd9b5527	-0.07584601
208	0xbc6c13da	-0.01440903
209	0x3c2d84d9	0.010590755
210	0x3d1c4b63	0.038157832
211	0x3ca6cb89	0.020360725
212	0xbe01155a	-0.12605801
213	0x3d480faf	0.048843082
214	0xbdc3c23b	-0.09558531
215	0x3ca48436	0.020082574
216	0x3e2d1aeb	0.169048
217	0xbc8537fd	-0.016262049
218	0x3e2805b9	0.16408433
219	0xbd99188a	-0.074753836
220	0x3de4d67b	0.111737214
221	0xbe255166	-0.16144332
222	0x3d04bb81	0.03240538
223	0x3e292f13	0.16521864
224	0xbdce8a27	-0.10084944
225	0x3b889910	0.004168637
226	0x3dd571bd	0.104220845
227	0x3e40c4ac	0.18825024
228	0x3dac8318	0.08423442
229	0x3e161886	0.14657792
230	0xbda5cb57	-0.080954246
231	0xbcbb42cf	-0.022859005
232	0xbd4f185e	-0.050560348
233	0xbde90a34	-0.11378899
234	0x3e2ac74d	0.1667759
235	0xbc5e7e41	-0.013579906
236	0xbd1777a7	-0.036979344
237	0x3e1246a1	0.14284755
238	0x3d2901be	0.041261427
239	0x3d7566b0	0.059912384
240	0x3c4e6f37	0.012599758
241	0x3cd2d666	0.025736999
242	0x3e0c5292	0.13703373
243	0x3d7e4ea7	0.062086727
244	0x3ddecab7	0.108785085
245	0x3e0e9863	0.13925318
246	0x3df918ed	0.12162957
247	0xbdbbddb1	-0.09173144
248	0x3cbd4adf	0.02310699
249	0x3e1fb185	0.15595062
250	0xbe097538	-0.13423622
251	0xbe049d60	-0.12950659
252	0x3cbec49f	0.023287116
253	0x3e21ee96	0.1581367
254	0x3e384891	0.17996432
255	0xbdb0017d	-0.08594034

bias_ih_l1 f4 [128]
0	0x3c176219	0.009239697
1	0xbd95fa42	-0.073231235
2	0x3dab32b0	0.08359277
3	0xbd6f2ad1	-0.058390442
4	0x3dd41a1a	0.10356541
5	0x3e25f6f9	0.16207494
6	0x3bf1ed2c	0.0073830094
7	0xbdd81164	-0.10550192
8	0x3dd0d376	0.10196583
9	0xbd2d6aa8	-0.042338043
10	0xbdeef8dc	-0.1166856
11	0xbd8ed465	-0.06974105
12	0x3dd77d15	0.105219044
13	0xbbd6e402	-0.0065579424
14	0x3de01691	0.10941804
15	0x3d2ae60d	0.0417233
16	0xbc5bc15f	-0.0134128025
17	0xbdafc192	-0.085818425
18	0xbd997d7a	-0.07494636
19	0xbdae0fa9	-0.08499081
20	0xbe20e4ea	-0.15712324
21	0x3e13e226	0.14441738
22	0x3b8b74c3	0.0042558624
23	0xbbbf404b	-0.0058365217
24	0xbe0fb7a1	-0.14034893
25	0xbda22c13	-0.07918563
26	0x3dc22c97	0.09481161
27	0x3d30fd50	0.043210328
28	0xbd3aac86	-0.045574687
29	0x3c98b653	0.018641626
30	0xbdd1ccc4	-0.10244134
31	0x3d2a47a4	0.041572228
32	0x3e1311d3	0.14362268
33	0xbdfaf3c6	-0.12253527
34	0x3dc9b2af	0.09848534
35	0x3c27cf66	0.010242319
36	0x3e0dcf67	0.13848649
37	0xb9fdbcb1	-0.00048396506
38	0xbd10e230	-0.03537196
39	0xbd98dc3f	-0.074638836
40	0xbd559e20	-0.052152753
41	0x3ce7be71	0.028289052
42	0xbd9a7c17	-0.075431995
43	0xbcbccafb	-0.023046007
44	0xbe3a0ff6	-0.18170151
45	0xbdf22d64	-0.11825064
46	0xbd5dffdb	-0.05419908
47	0xbdd21988	-0.10258776
48	0x3e05283d	0.13003631
49	0x3d9b1388	0.07572085
50	0x3d880df6	0.06643288
51	0xbdff79b3	-0.12474384
52	0xbdea3cee	-0.11437403
53	0xbe38265a	-0.1798338
54	0xbd567424	-0.052356854
55	0x3d034fcd	0.032058526
56	0x3b484d2c	0.0030563576
57	0xbe1655c3	-0.14681153
58	0xbc2310fb	-0.009952779
59	0xbe1edead	-0.15514632
60	0x3e239462	0.15974572
61	0xbba69807	-0.005084041
62	0xbdab2bb4	-0.08357945
63	0xbe1e8dc0	-0.15483761
64	0x3d260df8	0.040540665
65	0xbd8b95c9	-0.068156786
66	0x3ddc62fa	0.10761066
67	0x3dd91f01	0.10601617
68	0x3da367e5	0.07978801
69	0x3c1a5682	0.009420039
70	0x3e076645	0.13222606
71	0x3dc36509	0.09540755
72	0x3dd979fe	0.10618971
73	0x3c29326a	0.010326961
74	0xbe031d83	-0.12804227
75	0xbe0a53a0	-0.13508463
76	0xbe01c4e6	-0.12672767
77	0xbe2e786c	-0.17038125
78	0xbde377ac	-0.1110681
79	0xbb139c9a	-0.0022523762
80	0x3dbd9b19	0.09258098
81	0x3db879c5	0.09007601
82	0xbbf2bf42	-0.0074080536
83	0x3b49a358	0.0030767526
84	0x3d249ff5	0.04019161
85	0x3dd04944	0.10170224
86	0xbdb3c56b	-0.08777889
87	0xbde6f2a1	-0.112767465
88	0xba826f5a	-0.0009951398
89	0xbd731428	-0.059345394
90	0xbe00f93a	-0.12595072
91	0xbe370b14	-0.1787532
92	0x3bfc8a1b	0.007706893
93	0xbde22949	-0.11043031
94	0x3d5459a4	0.0518433
95	0xbe0cf005	-0.13763435
96	0x3d7a391f	0.06108963
97	0xbe299c7e	-0.16563603
98	0x3cc3554f	0.02384439
99	0xbda7f597	-0.082011394
100	0xbd639bde	-0.05556857
101	0xbd26cd1b	-0.040722948
102	0x3b6c2e18	0.0036038216
103	0x3d68b084	0.056808963
104	0x3dd5e86c	0.104447216
105	0xbe276823	-0.16348319
106	0xbd454609	-0.048162494
107	0x3e29bb4f	0.16575359
108	0xbd970c14	-0.073753506
109	0xbd812be4	-0.063071996
110	0x3e430ca3	0.1904779
111	0xbe03122d	-0.12799902
112	0xbdae792a	-0.08519204
113	0xbdf31fcb	-0.118712984
114	0x3e219ee8	0.15783274
115	0x3c8a0613	0.0168486
116	0xbe285871	-0.16439988
117	0xbd91995d	-0.0710933
118	0xbdc5ed19	-0.096643634
119	0xbd222e82	-0.039595135
120	0xbdc3efbf	-0.09567212
121	0xbccf848c	-0.025331758
122	0x3e04849b	0.1294121
123	0xbddf1da1	-0.10894323
124	0x3d2a10b2	0.04151983
125	0x3dd4632d	0.10370479
126	0x3e003459	0.12519969
127	0xbdf0ab0d	-0.11751375

bias_hh_l1 f4 [128]
0	0x3dbb766b	0.09153446
1	0xbe0c07e8	-0.13674891
2	0x3dff1eb5	0.12457029
3	0x3dd42096	0.10357778
4	0x3e04013f	0.128911
5	0xbdfa374c	-0.12217578
6	0x3dd44d6b	0.10366329
7	0xbd36c50c	-0.044621512
8	0xbddf81db	-0.1091344
9	0x3dcf1f2a	0.10113366
10	0xbe2b9220	-0.16754961
11	0xbdda877c	-0.10670373
12	0xbdd3350a	-0.10312851
13	0x3e097e4f	0.13427089
14	0x3dfe1f94	0.12408367
15	0x3d453efc	0.04815577
16	0xbe1ac4db	-0.15114157
17	0x3d21cb3d	0.039500464
18	0xbbeda9ba	-0.007252899
19	0x3dc4eeda	0.0961587
20	0x3e13b25a	0.14423504
21	0xbda853da	-0.082191184
22	0xbe3a290f	-0.18179725
23	0x3d81ccd6	0.063378975
24	0xbd092897	-0.033485975
25	0x3db49a09	0.088184424
26	0x3e18963e	0.14901063
27	0x3e0e36d9	0.1388811
28	0x3c101f48	0.0087965205
29	0xbe1f0362	-0.15528634
30	0x3da83129	0.082125016
31	0xbd1cfed7	-0.03832897
32	0xbe261bd7	-0.16221558
33	0xbdfbb2e6	-0.122899815
34	0xbbe29b31	-0.006915473
35	0x3db1ee8c	0.08688077
36	0xbe344992	-0.1760619
37	0x3d93513c	0.071932286
38	0x3da47422	0.08029963
39	0xbe39ff9d	-0.18163915
40	0x3e2330b0	0.15936542
41	0xbe0e9073	-0.1392229
42	0xbdc54a88	-0.09633356
43	0x3ca34afa	0.019933213
44	0xbdd094d2	-0.10184635
45	0x3d34ebde	0.044170253
46	0x3d9b52d6	0.07584159
47	0x3d1fd523	0.039021622
48	0xbd92da34	-0.07170525
49	0xbd3b04cc	-0.04565887
50	0xb9b2f767	-0.00034135135
51	0xbdaf3978	-0.08555883
52	0x3e175fda	0.14782658
53	0x3cb0d66e	0.021586623
54	0x3db31d64	0.0874584
55	0xbdc8829a	-0.09790535
56	0x3e22ff96	0.15917811
57	0xbe01674e	-0.12637064
58	0x3e09cd91	0.13457324
59	0x3cc01496	0.023447316
60	0xbdf4cf60	-0.11953616
61	0xbe2e27c4	-0.17007357
62	0x3d24bf1c	0.04022132
63	0x3e1a073f	0.15041827
64	0x3da60a4d	0.081074335
65	0x3ba732a6	0.0051024733
66	0x3e04a278	0.12952602
67	0xbe140ce8	-0.14458048
68	0x3dad3ab5	0.08458463
69	0x3e327aca	0.17429653
70	0x3db7436d	0.08948407
71	0x3d33dff0	0.043914735
72	0x3da17c03	0.078849815
73	0x3dc34766	0.095351025
74	0xbc7c84ba	-0.015412504
75	0xbdd6ae35	-0.10482446
76	0x3dab31c2	0.083591
77	0xbe3027fd	-0.17202754
78	0xbe4324fc	-0.19057077
79	0xbdf30836	-0.118668005
80	0x3dea08f0	0.11427486
81	0xbd70098d	-0.05860286
82	0x3ddf30a0	0.10897946
83	0x3c34cae7	0.011034704
84	0xbe06335f	-0.13105534
85	0x3da54a15	0.08070771
86	0x3dda886b	0.10670551
87	0x3ceaf73f	0.02868235
88	0xbe1faf48	-0.15594208
89	0x3d7b1a7d	0.061304558
90	0x3e36334e	0.17793009
91	0xbdc040c1	-0.09387351
92	0x3cb4b1a9	0.022057371
93	0xbd72cc19	-0.059276674
94	0xbe22fcbf	-0.15916727
95	0x3e3b2e2e	0.18279335
96	0xbd88c392	-0.06677927
97	0xbd9eab33	-0.077474974
98	0x3e326d14	0.17424423
99	0x3e00d7db	0.12582342
100	0x3dab5a01	0.08366776
101	0xbdf9a1f2	-0.12189092
102	0xbd841a56	-0.06450336
103	0x3c8c99ef	0.017163245
104	0x3d0edee3	0.03488053
105	0xbd584143	-0.052796613
106	0xbe3e0e69	-0.18560185
107	0xbd077196	-0.03306731
108	0x3d7745c5	0.06036927
109	0xbe10f270	-0.14154983
110	0x3dff920c	0.12479028
111	0x3df1e324	0.11810902
112	0x3d4fabd0	0.050700963
113	0x3e266b5d	0.16251893
114	0x3e2331f6	0.15937027
115	0xbdac5f3c	-0.08416602
116	0x3ce56bee	0.028005566
117	0xbe206b3b	-0.15665905
118	0x3d54ee11	0.05198485
119	0x3e00beeb	0.1257283
120	0xbdea46ea	-0.11439307
121	0x3da4320d	0.08017359
122	0xbddb8a0b	-0.10719689
123	0x3e41f7ef	0.18942235
124	0x3e127b09	0.14304747
125	0xbe366f8c	-0.1781599
126	0xbd53dcc2	-0.051724203
127	0xbd71f011	-0.059066836

weight f4 [1, 32]
0	0x3e168f0a	0.14703003
1	0x3d33efdf	0.04392993
2	0xbc7cdab3	-0.015433001
3	0xbd59c1b2	-0.053163238
4	0x3bff285a	0.0077867927
5	0xbe3463f6	-0.17616257
6	0xbc0bc03a	-0.008529717
7	0x3df32d66	0.118738934
8	0xbc991102	-0.018684868
9	0x3e0611b2	0.13092688
10	0xbda2d0f9	-0.079500146
11	0x3dd3893b	0.10328909
12	0xbdae8b0f	-0.08522617
13	0x3e00dec9	0.12584986
14	0x3ce12129	0.027481632
15	0xbdfb6e2b	-0.12276872
16	0x3db92f41	0.09042216
17	0xbe13948f	-0.1441214
18	0x3c0376d9	0.008023941
19	0xbe1379d3	-0.14401941
20	0xbd331ae4	-0.043726817
21	0x3e14b34d	0.14521523
22	0x3bb87dfe	0.005630254
23	0xbcbc0e93	-0.022956168
24	0x3d26fd91	0.040769164
25	0xbd799976	-0.060937367
26	0xbceeb260	-0.02913779
27	0x3cecb9b7	0.02889715
28	0xbd8cc028	-0.068725884
29	0xbe16d723	-0.14730506
30	0x3ca9cdd6	0.020728033
31	0xbd86056c	-0.06544003
