competition/result/lstm_win3_noStandardized_2layer_32hidden_0.99g/trained_model/all_model/critic_num_epoch_9.pth (torch, 63096 bytes, 10 tensors)

weight_ih_l0 f4 [128, 11]
-0.16259164 0.1158749 0.11705665 -0.029111862 0.12497036 0.12604849 -0.13373998 -0.110234894
-0.12431474 0.103944674 -0.061213262 -0.1603414 -0.04767336 -0.14520925 0.13014577 0.07061945
0.082233 -0.050170302 -0.060015827 -0.05803162 0.025850981 0.0002490282 -0.056785226 -0.1011427
-0.01956056 0.12354694 0.05297458 0.0059194863 0.08481781 0.098547265 0.056831986 0.11257945
0.0641678 0.034901425 0.07582365 0.07626499 -0.06440422 0.09454225 -0.0070093125 0.013245046
0.022913769 -0.119612984 0.05319324 -0.03265807 0.12750266 -0.06758064 0.04250212 0.07855417
-0.16015115 0.049984083 -0.006491795 -0.09944279 -0.031538352 -0.17609881 0.08285917 -0.019605279
-0.122042924 -0.024868667 0.024786115 0.14826967 0.111048535 -0.07572876 0.033283055 -0.04835616
0.07797666 -0.06714301 0.0027208328 -0.09050722 0.16951774 -0.030093625 0.12286039 0.066010505
-0.16330974 -0.052478895 -0.15676762 0.12921943 -0.10439357 0.12168892 0.0028373897 0.06698489
0.11800377 -0.0058617145 -0.043142527 0.06351705 -0.07906378 0.17184924 0.13628899 0.13215338
-0.16078767 0.12348233 0.025254011 -0.06410451 0.1480747 0.13407917 0.13953324 0.11414589
0.026243553 0.16403745 -0.109692864 0.16123806 -0.15928526 0.16522758 0.17496373 0.048439205
0.008384839 0.07041708 -0.031141877 -0.1264646 -0.14133024 -0.16866231 -0.06436871 -0.050871715
-0.0815332 0.091342166 -0.04983808 -0.10744595 0.07648395 0.0030652583 0.03792812 -0.04566449
-0.09981971 0.1247908 -0.14383541 0.052114025 -0.1491587 0.024861082 0.03628473 0.12029441
-0.08889059 0.11935066 -0.17515713 -0.07368957 0.05670686 -0.013109714 0.038311407 -0.14852579
-0.08951333 -0.04026796 0.000741601 0.11546533 -0.035218313 -0.033334464 -0.06276119 0.026771218
-0.13193929 -0.14986669 -0.16535115 -0.11755295 0.1514356 -0.02726908 -0.16793251 0.13657285
-0.055609733 -0.03268802 -0.16861148 -0.0382632 -0.17295311 0.110727355 0.074285105 0.11064549
-0.095018275 -0.015587702 -0.09317865 -0.13251552 0.1556213 0.12381671 -0.09634316 -0.026286855
-0.16071093 0.030752346 -0.028948441 -0.071919255 0.07430945 -0.113506265 -0.024780154 -0.118249744
0.12823434 -0.15748864 0.006080419 -0.042538196 -0.033283457 0.08053969 0.13315438 -0.08676173
-0.05114919 -0.065800756 -0.1332748 0.10525049 0.0677975 0.020140857 0.0032942444 0.16892765
-0.10039335 -0.08660065 -0.12598301 -0.02216366 -0.067925505 -0.12047306 0.09432472 -0.044433087
0.067206666 -0.040335074 0.019129336 0.15878965 -0.098587885 0.12283464 -0.1179426 -0.05553469
0.12830739 -0.08131257 -0.033834547 0.013078719 0.16756587 -0.09015386 -0.15363346 -0.10391666
-0.02821143 -0.020798162 -0.010297999 -0.1358288 -0.064047955 -0.017722353 0.088984355 0.097487554
0.07006557 -0.17007202 0.093204364 0.09814753 -0.1443056 -0.15500167 -0.16383696 0.06348997
0.0062678456 0.095430955 -0.04376535 0.12437804 -0.068449914 0.081440285 -0.06475895 -0.10125869
-0.0075349957 -0.13683823 0.14204542 0.063413784 0.02156043 0.13393016 -0.0777309 0.0023581833
0.09239085 -0.08297197 -0.08082216 -0.13813093 0.07036397 -0.12725516 -0.07853547 -0.105529785
00000000: 6c7e 26be d24f ed3d 66bb ef3d 007c eebc
00000010: 76f0 ff3d db12 013e 22f3 08be d5c2 e1bd
00000020: ba98 febd f2e0 d43d c2ba 7abd 8930 24be
00000030: 2445 43bd bcb1 14be ef44 053e eea0 903d
00000040: c669 a83d 607f 4dbd 28d3 75bd 90b2 6dbd
00000050: 70c5 d33c 0090 8239 a097 68bd e723 cfbd
00000060: 783d a0bc 2e06 fd3d e0fb 583d 40f8 c13b
00000070: f6b4 ad3d 26d3 c93d a8c8 683d 0e90 e63d
00000080: 686a 833d ccf4 0e3d 6e49 9b3d d230 9c3d
00000090: 5ce6 83bd 5e9f c13d 60ae e5bb c001 593c
000000a0: a8b5 bb3c a7f7 f4bd 28e1 593d 78c4 05bd
000000b0: 0f90 023e b867 8abd b416 2e3d 02e1 a03d
000000c0: aafe 23be 1cbc 4c3d 20b9 d4bb a9a8 cbbd
000000d0: 5c2e 01bd 3f53 34be 12b2 a93d 409b a0bc
000000e0: a4f1 f9bd 60b9 cbbc 400c cb3c 01d4 173e
000000f0: 6a6d e33d ae17 9bbd d053 083d 1c11 46bd
00000100: 3ab2 9f3d 4682 89bd 0050 323b d95b b9bd
00000110: 0f96 2d3e e886 f6bc 3a9e fb3d 8430 873d
00000120: ab3a 27be 1cf4 56bd b187 20be 1952 043e
00000130: 4ccc d5bd 0a38 f93d 80f3 393b 602f 893d
00000140: f6ab f13d a013 c0bb 38b6 30bd 3a15 823d
00000150: 31ec a1bd 3ff9 2f3e 578f 0b3e 3753 073e
00000160: 86a5 24be 4ee4 fc3d 80e1 ce3c 3a49 83bd
00000170: e5a0 173e 0d4c 093e cde1 0e3e 52c5 e93d
00000180: b8fc d63c 6ff9 273e a7a6 e0bd 971b 253e
00000190: ad1b 23be 6b31 293e b129 333e 3068 463d
000001a0: 9060 093c d436 903d 401d ffbc f07f 01be
000001b0: e0b8 10be d0b5 2cbe bed3 83bd dc5e 50bd
000001c0: e1fa a6bd 9a11 bb3d 0423 4cbd 9f0c dcbd
000001d0: 9ea3 9c3d 80e2 483b 845a 1b3d b00a 3bbd
000001e0: 476e ccbd 5292 ff3d 9749 13be 8475 553d
000001f0: 0fbd 18be 78a9 cb3c 4c9f 143d ea5c f63d
00000200: 450c b6bd 1e6e f43d 645c 33be 8fea 96bd
00000210: 7445 683d 20ca 56bc 6cec 1c3d 2517 18be
00000220: c452 b7bd 04f0 24bd 0068 423a 1679 ec3d
00000230: 1441 10bd b889 08bd f088 80bd 504f db3c
00000240: 181b 07be a776 19be d051 29be 9abf f0bd
00000250: ef11 1b3e 6863 dfbc 80f6 2bbe c1d9 0b3e
00000260: 08c7 63bd e0e3 05bd 7da8 2cbe e0b9 1cbd
00000270: 9f1a 31be 06c5 e23d ca22 983d 1a9a e23d
00000280: f198 c2bd 9063 7fbc 73d4 bebd 26b2 07be
00000290: 315b 1f3e 9e93 fd3d 904f c5bd 8857 d7bc
000002a0: 6891 24be 58ec fb3c 4825 edbc 674a 93bd
000002b0: 8e2f 983d f975 e8bd c0ff cabc ec2c f2bd
000002c0: dd4f 033e b444 21be 403e c73b 883c 2ebd
000002d0: 3c54 08bd fef1 a43d 9f59 083e 22b0 b1bd
000002e0: d081 51bd 8cc2 86bd 3079 08be 928d d73d
000002f0: 6ad9 8a3d 70fe a43c 40e4 573b 5ffb 2c3e
00000300: 079b cdbd ae5b b1bd b101 01be 9090 b5bc
00000310: 871c 8bbd 94ba f6bd 522d c13d 78ff 35bd
00000320: a6a3 893d 6436 25bd 20b5 9c3c c199 223e
00000330: 72e8 c9bd ba90 fb3d e48b f1bd 5878 63bd
00000340: 0363 033e 3487 a6bd 1896 0abd 2048 563c
00000350: 6396 2b3e 96a2 b8bd 1752 1dbe 42d2 d4bd
00000360: a81b e7bc e860 aabc f0b8 28bc b416 0bbe
00000370: 932b 83bd 782e 91bc 6e3d b63d 8ea7 c73d
00000380: 8a7e 8f3d 5c27 2ebe eee1 be3d 9201 c93d
00000390: d9c4 13be c2b8 1ebe e0c4 27be 0807 823d
000003a0: 8062 cd3b 4e71 c33d 4c43 33bd eab9 fe3d
000003b0: 782f 8cbd 2aca a63d 57a0 84bd b760 cfbd
000003c0: 20e8 f6bb 521f 0cbe 5b74 113e 16df 813d
000003d0: 809f b03c fd24 093e 6131 9fbd c08b 1a3b
000003e0: 6a37 bd3d 35ed a9bd 1786 a5bd 3272 0dbe
000003f0: fc1a 903d 2d4f 02be 34d7 a0bd 0020 d8bd

weight_hh_l0 f4 [128, 32]
-0.09353768 -0.074230544 0.16629283 -0.17359357 -0.0531822 0.15349643 -0.0063565075 0.04938875
0.13169791 -0.14499593 0.08380304 0.033734336 0.048483923 0.12897418 0.14981385 -0.15904333
0.12933718 0.11178137 0.06749657 -0.058311515 -0.02322565 0.04845071 -0.1432662 0.14875863
-0.030555308 -0.07371781 -0.050324112 -0.060924344 0.13925816 -0.1090803 -0.01604651 -0.12943162
-0.12569164 0.09911983 0.042078733 0.014560729 0.096961394 0.15574764 0.15185042 0.12150867
0.17061655 0.11554195 -0.015845194 0.16350238 0.1121168 -0.1294412 0.086044595 -0.14435184
-0.06704518 0.13984795 -0.025673747 -0.022383913 0.0146069825 0.010192841 0.078557566 0.009755328
-0.13063148 0.12311624 -0.09133492 0.011738196 0.098743215 0.06835921 0.003846109 0.07547869
0.14008231 -0.1749016 -0.15474911 -0.0012626946 -0.1733465 0.1430657 0.16483743 -0.106376685
0.15450378 -0.1446863 -0.16286257 -0.17339876 -0.06640603 0.08042087 -0.05600939 -0.1509139
0.008992374 0.028510198 -0.12289871 -0.16865721 -0.121855535 -0.14234295 0.04484749 0.07573412
-0.049518928 0.05433047 0.03391923 -0.1608496 -0.108074546 0.08467899 -0.035568565 -0.034239486
0.10296188 -0.02711536 0.056272358 0.09664683 -0.10183466 0.009355485 0.1765262 0.14149998
-0.043669403 -0.036509827 -0.06454527 0.13302456 0.059971318 0.024650946 0.052848145 -0.15550637
0.050915077 -0.10649358 -0.007942006 -0.16598919 0.035938412 -0.07886044 0.084903285 0.05678776
0.13305147 0.16682027 0.017032325 0.05108717 0.08317144 -0.021814153 -0.16823454 0.046657488
0.02546528 0.04033558 -0.09999485 0.10314186 -0.124024436 -0.058918342 -0.10299918 0.17010857
-0.10761913 0.15014745 0.17503472 0.15847738 0.1050259 0.04176694 -0.000887841 0.014382407
-0.16247879 -0.019668147 -0.16653201 0.17347534 -0.13464853 0.106106415 0.06505579 -0.13731003
0.079605 0.112717554 0.11485563 -0.07070309 0.035039455 -0.13412368 0.113875225 -0.09447169
-0.1743054 -0.017622396 -0.11843626 0.067781314 0.13296445 -0.121122375 0.06908549 -0.031419635
0.02832885 -0.047715843 -0.006899655 0.013859108 -0.0072778165 0.15517922 0.12784131 -0.101499304
0.13310178 0.09567995 0.17258914 0.13539226 0.031661764 0.10909198 -0.15500565 -0.13466609
0.08349176 -0.05477242 -0.16712376 0.14078583 0.14758365 -0.13697848 0.09617509 -0.12296758
0.08748676 -0.15802109 0.037472084 -0.0062660724 0.016487747 -0.054269902 0.1615362 0.0013110191
-0.14254758 0.115492895 -0.0509329 -0.071922034 -0.120326005 -0.002311319 0.11140998 0.014799282
0.16808988 -0.028302297 0.10118981 -0.1489846 -0.06900556 -0.15519468 -0.077452816 0.0835671
-0.0682273 -0.08997376 0.034204766 -0.17449604 0.08424087 -0.1089972 0.09879111 -0.013535887
0.16150336 -0.060413584 0.11678021 0.010538906 0.1334279 0.039594546 -0.11329798 0.14340858
-0.13074023 -0.119530395 0.16511776 0.1408812 -0.07091011 -0.11466421 -0.105069794 0.0658201
-0.09938455 -0.009502709 0.11384316 -0.1065768 -0.078690164 0.14072554 -0.12364448 -0.013663381
-0.01539056 -0.10127586 -0.04224907 0.17203988 -0.07019325 -0.041128173 -0.10970422 -0.07344995
00000000: af90 bfbd 2f06 98bd ab48 2a3e 83c2 31be
00000010: 94d5 59bd 2b2e 1d3e 404a d0bb dc4b 4a3d
00000020: d1db 063e d079 14be eea0 ab3d 042d 0a3d
00000030: 1497 463d cf11 043e cd68 193e 41dc 22be
00000040: f770 043e a2ed e43d a43b 8a3d 0ed8 6ebd
00000050: b843 bebc 4074 463d 60b4 12be 2f54 183e
00000060: 204f fabc 5df9 96bd a820 4ebd ce8b 79bd
00000070: b199 0e3e 7e65 dfbd f873 83bc b989 04be
00000080: 4fb5 00be 56ff ca3d c05a 2c3d 2090 6e3c
00000090: b293 c63d 4f7c 1f3e ad7e 1b3e 8ad9 f83d
000000a0: 1bb6 2e3e 42a1 ec3d c8cd 81bc 2b6d 273e
000000b0: 7e9d e53d 3c8c 04be 2638 b03d f8d0 13be
000000c0: fc4e 89bd 4d34 0f3e c051 d2bc 785e b7bc
000000d0: 2052 6f3c e0ff 263c cae2 a03d d0d4 1f3c
000000e0: 42c4 05be 5e24 fc3d cd0d bbbd 9051 403c
000000f0: e239 ca3d eaff 8b3d 000f 7c3b 9294 9a3d
00000100: bd71 0f3e 6819 33be 8d76 1ebe 0081 a5ba
00000110: bf81 31be d17f 123e 25cb 283e 05dc d9bd
00000120: 3d36 1e3e a528 14be 72c5 26be 728f 31be
00000130: e2ff 87bd b2b3 a43d 1a6a 65bd 2c89 1abe
00000140: c054 133c 388e e93c 52b2 fbbd 7ab4 2cbe
00000150: 658f f9bd 5ac2 11be 00b2 373d 7e1a 9b3d
00000160: 5cd4 4abd a089 5e3d e4ee 0a3d c2b5 24be
00000170: 3056 ddbd 2e6c ad3d 58b0 11bd b43e 0cbd
00000180: aedd d23d 0821 debc d87d 663d c6ee c53d
00000190: b18e d0bd c047 193c 49c3 343e 5fe5 103e
000001a0: b0de 32bd 548b 15bd 4f30 84bd 9737 083e
000001b0: 7ca4 753d c8f0 c93c 4c77 583d 103d 1fbe
000001c0: 548c 503d 4e19 dabd 301f 02bc 12f9 29be
000001d0: 2834 133d 9581 a1bd c6e1 ad3d 489a 683d
000001e0: a53e 083e efd2 2a3e 6087 8b3c c840 513d
000001f0: ca55 aa3d 98b3 b2bc ad45 2cbe ec1b 3f3d
00000200: 909c d03c ec36 253d 1aca ccbd 0a3c d33d
00000210: 8600 febd 5c54 71bd 3cf1 d2bd f130 2e3e
00000220: 6b67 dcbd 41c0 193e 4d3c 333e e547 223e
00000230: d217 d73d d013 2b3d 00be 68ba 30a4 6b3c
00000240: d760 26be 181f a1bc 5e87 2abe 85a3 313e
00000250: 4ee1 09be 524e d93d f83b 853d 009b 0cbe
00000260: f207 a33d 76d8 e63d 6e39 eb3d c8cc 90bd
00000270: 8885 0f3d b857 09be 6a37 e93d 607a c1bd
00000280: 1d7d 32be d85c 90bc b68e f2bd eed0 8a3d
00000290: d527 083e 020f f8bd b27c 8d3d e0b1 00bd
000002a0: e811 e83c b071 43bd 8016 e2bb 5011 633c
000002b0: c07a eebb 4de7 1e3e d5e8 023e dede cfbd
000002c0: d54b 083e daf3 c33d 35bb 303e 45a4 0a3e
000002d0: c4af 013d 9e6b df3d cdb9 1ebe e8e5 09be
000002e0: bafd aa3d 0c59 60bd 7e22 2bbe 292a 103e
000002f0: 2b20 173e 1644 0cbe 72f7 c43d 6dd6 fbbd
00000300: 422c b33d 48d0 21be 547c 193d a053 cdbb
00000310: 5011 873c 1e4a 5ebd bf69 253e 80d6 ab3a
00000320: fef7 11be 8a87 ec3d 049f 50bd dc4b 93bd
00000330: 7b6d f6bd 8079 17bb ea2a e43d b078 723c
00000340: c11f 2c3e 38da e7bc 9a3c cf3d 6b8f 18be
00000350: c952 8dbd 5beb 1ebe 959f 9ebd 3a25 ab3d
00000360: c1ba 8bbd 2a44 b8bd 4c1a 0c3d 17af 32be
00000370: 7a86 ac3d ed39 dfbd fe52 ca3d a0c5 5dbc
00000380: 2361 253e 3c74 77bd 762a ef3d 60ab 2c3c
00000390: 53a1 083e e42d 223d c508 e8bd b3d9 123e
000003a0: c4e0 05be 5acc f4bd a114 293e 2943 103e
000003b0: 5239 91bd 12d5 eabd d52e d7bd b0cc 863d
000003c0: 208a cbbd 40b1 1bbc 9a26 e93d f044 dabd
000003d0: 4f28 a1bd 5b1a 103e 5139 fdbd 60dc 5fbc
000003e0: b028 7cbc b869 cfbd 5c0d 2dbd 392b 303e
000003f0: 7bc1 8fbd 0476 28bd 9bac e0bd ed6c 96bd

bias_ih_l0 f4 [128]
0.14966248 0.0022942573 0.090856984 -0.029237494 -0.118115254 -0.07064391 -0.08679545 -0.08823297
-0.004573226 0.08475323 -0.062892035 -0.15909952 0.035393253 -0.029661715 -0.12449698 -0.022895321
-0.102452286 -0.13398317 0.022758186 0.14991166 -0.16280158 -0.15773816 0.1741706 -0.09907314
-0.15401322 -0.059637725 -0.106305875 -0.16773227 0.11680733 0.07035652 0.08228694 -0.14036769
-0.06327521 0.15822916 -0.09310399 0.057057038 0.1307426 -0.16587809 -0.14412656 0.14391099
0.0046284646 -0.15090314 -0.063359566 0.1703491 -0.13119358 -0.13784845 0.030787423 0.022701785
0.03424804 -0.11745846 0.108239666 -0.06756213 -0.15341495 0.07794218 -0.13370931 0.10297172
-0.05532305 0.09393482 -0.017461225 0.10392706 0.05322352 0.020001665 -0.052133963 0.04320526
0.12454046 0.08967374 0.045038253 0.098547116 0.012042642 -0.012110978 -0.06697404 -0.17200306
-0.08606431 0.051173523 -0.09340848 -0.061814778 -0.107210204 -0.16986743 -0.14209387 0.10194169
0.07755144 -0.016788438 0.03543736 -0.02893491 -0.02860254 -0.10629547 -0.062091455 0.16618098
-0.0017075986 -0.046024173 0.11255525 0.111027226 -0.0343069 -0.06619765 -0.01750572 0.0057602674
-0.10511938 0.064749524 0.16459818 0.010096744 -0.05685152 0.10828553 0.041864112 0.008561924
-0.11093897 0.15754883 -0.017407611 0.074277684 -0.07494906 0.010146961 0.07588895 0.17162944
0.16374962 0.17312388 0.111595735 -0.12905872 -0.072895505 0.0072618127 0.11743213 -0.075570814
-0.09986622 0.03051053 0.08370505 0.13437022 -0.03289184 0.17032759 0.034918576 -0.043114185
00000000: 1f41 193e 405b 163b 3a13 ba3d 7883 efbc
00000010: 69e6 f1bd c1ad 90bd d0c1 b1bd 7db3 b4bd
00000020: 00db 95bb 1a93 ad3d 8acd 80bd fcea 22be
00000030: 84f8 103d 20fd f2bc 46f8 febd f88e bbbc
00000040: 81d2 d1bd e232 09be 606f ba3c 7182 193e
00000050: 75b5 26be 1d86 21be c759 323e dce6 cabd
00000060: a4b5 1dbe b046 74bd e5b6 d9bd 02c2 2bbe
00000070: ae38 ef3d 1417 903d 0e86 a83d 8cbc 0fbe
00000080: 6f96 81bd d306 223e 4ead bebd a4b4 693d
00000090: 63e1 053e f2db 29be ea95 13be 675d 133e
000000a0: 60aa 973b 5a86 1abe a9c2 81bd ff6f 2e3e
000000b0: 9c57 06be 2528 0dbe e835 fc3c 18f9 b93c
000000c0: ac47 0c3d 108e f0bd c2ac dd3d 045e 8abd
000000d0: cf18 1dbe 26a0 9f3d 18eb 08be d6e2 d23d
000000e0: 6c9a 62bd e660 c03d d80a 8fbc b6d7 d43d
000000f0: e800 5a3d 88da a33c 6c8a 55bd 00f8 303d
00000100: 120f ff3d dea6 b73d 087a 383d 12d3 c93d
00000110: 804e 453c 206d 46bc af29 89bd 9221 30be
00000120: 7c42 b0bd 549b 513d f24c bfbd 7e31 7dbd
00000130: 0691 dbbd baf1 2dbe 0e81 11be cec6 d03d
00000140: 4ad3 9e3d e887 89bc c426 113d e808 edbc
00000150: e04f eabc 70b1 d9bd 9c53 7ebd 592b 2a3e
00000160: 80d1 dfba d883 3cbd 5e83 e63d 3e62 e33d
00000170: 6485 0cbd a292 87bd 2868 8fbc a0c0 bc3b
00000180: d448 d7bd 669b 843d 6d8c 283e d06c 253c
00000190: 24dd 68bd cec4 dd3d b479 2b3d 5047 0c3c
000001a0: f933 e3bd 7b54 213e 689a 8ebc e61e 983d
000001b0: e57e 99bd 703f 263c aa6b 9b3d a1bf 2f3e
000001c0: fbad 273e 6347 313e 4e8c e43d f827 04be
000001d0: 3d4a 95bd 80f4 ed3b 4280 f03d dfc4 9abd
000001e0: a986 ccbd 38f1 f93c 8e6d ab3d 5998 093e
000001f0: 98b9 06bd 5b6a 2e3e c806 0f3d 8098 30bd

bias_hh_l0 f4 [128]
0.103062704 -0.1684064 -0.043593854 0.111822054 -0.090479925 0.056267917 -0.11258955 0.14502926
-0.06585538 -0.102738656 -0.15500371 -0.10745925 0.06237249 0.08566211 0.028948084 0.0811059
0.12694983 -0.12876041 0.070829585 -0.060353063 -0.048993155 0.1355166 -0.14753887 -0.009155244
-0.027071089 0.05069752 0.13272677 -0.024766013 -0.0902199 -0.1610393 -0.025631443 0.05164464
0.105722114 -0.17050868 -0.0033111423 -0.012225866 0.13624339 -0.024162352 0.155266 -0.12928066
0.10169764 0.1449172 -0.16407688 -0.016392127 -0.0026186705 -0.13934395 -0.05654008 -0.014982909
0.14966966 0.15559776 -0.06678056 -0.13229965 -0.04771775 -0.1344934 -0.16655457 0.114310935
0.09415384 0.15219788 0.07037018 -0.055805862 -0.17577341 0.1341434 -0.14397573 -0.07450844
-0.14601944 0.098726556 0.118325874 0.1414539 -0.043943793 0.11202897 -0.114152774 -0.1515972
0.062725276 0.17251618 -0.15299737 -0.059238195 -0.08626956 -0.064362764 -0.07052683 0.17038937
0.07887067 0.00331451 0.14642747 0.03795442 0.06563811 0.09344061 -0.10212202 0.13233326
-0.05322624 -0.14246406 -0.15680368 0.09514128 -0.0052737445 -0.08144874 0.00886552 0.06589934
0.12956603 0.06316951 -0.14490694 -0.11722474 0.045371592 -0.068343155 0.061414763 0.12405445
0.13483094 -0.13638887 0.040872544 0.070364416 0.0047885627 0.08680265 0.021552458 -0.10023907
-0.018125191 -0.14786863 0.054118007 -0.04294905 0.045984715 -0.1456595 0.077295706 -0.015445933
0.16952027 0.029815316 -0.15300743 -0.10234799 0.09855731 -0.14140712 -0.016620636 -0.1294161
00000000: 8a12 d33d ba72 2cbe 788f 32bd f602 e53d
00000010: 8a4d b9bd 3079 663d 5a95 e6bd 8d82 143e
00000020: 2fdf 86bd a568 d2bd 4bb9 1ebe 9813 dcbd
00000030: 4c7a 7f3d 9e6f af3d 8824 ed3c da1a a63d
00000040: 23ff 013e c5d9 03be 1a0f 913d c634 77bd
00000050: 0cad 48bd ddc4 0a3e 6e14 17be e0ff 15bc
00000060: 30c4 ddbc 34a8 4f3d 87e9 073e 18e2 cabc
00000070: 36c5 b8bd 7ce7 24be 08f9 d1bc 5489 533d
00000080: d684 d83d d499 2ebe c0ff 58bb 004f 48bc
00000090: 6383 0b3e 20f0 c5bc 0dfe 1e3e 2662 04be
000000a0: da46 d03d 2d65 143e c503 28be c848 86bc
000000b0: 009e 2bbb 2eb0 0ebe 9296 67bd e07a 75bc
000000c0: 0143 193e 0555 1f3e 3fc4 88bd 8f79 07be
000000d0: b073 43bd a3b8 09be 488d 2abe da1b ea3d
000000e0: bad3 c03d c3d9 1b3e 3e1e 903d b094 64bd
000000f0: f2fd 33be e35c 093e 606e 13be e297 98bd
00000100: 1f86 15be 2631 ca3d d654 f23d 4bd9 103e
00000110: 68fe 33bd 726f e53d eec8 e9bd 4c3c 1bbe
00000120: 1c76 803d 15a8 303e 58ab 1cbe c0a3 72bd
00000130: 18ae b0bd a0d0 83bd 5f70 90bd 8d7a 2e3e
00000140: f286 a13d 4038 593b 15f1 153e 1876 1b3d
00000150: 466d 863d ca5d bf3d 5a25 d1bd 5f82 073e
00000160: c203 5abd 19e2 11be 2591 20be 6ed9 c23d
00000170: 60cf acbb 99ce a6bd b040 113c 3cf6 863d
00000180: f5ac 043e 045f 813d 7c62 14be 8613 f0bd
00000190: 90d7 393d 7ff7 8bbd 0c8e 7b3d 4210 fe3d
000001a0: 1f11 0a3e 86a9 0bbe f869 273d 381b 903d
000001b0: 60e9 9c3b 96c5 b13d c88e b03c 244a cdbd
000001c0: 487b 94bc e06a 17be d8aa 5d3d 58eb 2fbd
000001d0: 785a 3c3d c427 15be 364d 9e3d f010 7dbc
000001e0: b996 2d3e 403f f43c fbad 1cbe d39b d1bd
000001f0: 6ad8 c93d 07cd 10be 0028 88bc a785 04be

weight_ih_l1 f4 [128, 32]
0.05768466 -0.077971354 -0.14320067 0.10272716 0.09569992 -0.06124066 -0.17631006 -0.17285174
0.021915302 0.17623855 -0.16663273 0.043904036 0.0029662102 0.15097238 0.14471985 0.073724434
-0.160566 0.006071776 -0.030667052 0.099385515 0.08507399 -0.13413617 0.12986241 -0.13929409
-0.095797464 -0.028875336 0.085364655 -0.1665582 0.0065871477 0.08767979 0.043932498 0.003228262
-0.09736408 0.1352907 0.0812117 0.12649374 -0.16371599 -0.011489838 -0.03949547 -0.029188022
0.08195306 0.16359912 0.011000976 0.07687451 -0.04897532 -0.14239533 -0.09289077 0.016484916
0.16521959 0.011923999 0.1042244 0.17569305 0.09354727 0.019835934 0.15902276 0.16597448
-0.12713067 0.13107349 0.097916886 -0.041410312 0.10688843 -0.13628875 0.13411652 -0.116964
0.16303714 -0.06471988 0.12011425 -0.0075562596 -0.011198372 -0.08014634 -0.15132189 0.17527385
-0.061880738 -0.13128826 -0.079715095 -0.06282125 -0.020909533 -0.009613484 0.073517725 0.01792343
0.012432605 0.028057367 0.11762582 0.059248433 0.10748555 0.10847409 -0.14495188 0.16590522
0.1640578 -0.16889724 0.05182205 0.14255784 -0.08562347 -0.06801589 0.093813315 0.105911866
0.0022744387 0.04932022 -0.07458953 -0.120907106 -0.0019821525 -0.041384056 -0.03280376 -0.1371578
0.13855435 0.046665356 -0.172528 0.08324878 0.13384129 -0.06276378 -0.1726604 0.15926988
-0.060638018 0.03460136 0.15050574 -0.014271274 -0.066254616 0.068271965 -0.105008766 0.16788821
-0.020498663 0.13696678 0.14154337 0.14496447 0.038150966 -0.04242049 -0.14822741 0.15740569
0.032015994 0.09869684 0.14929117 -0.05362624 -0.15402448 -0.060118854 -0.14722298 0.095055535
-0.10782179 0.008735687 0.029890075 0.09616338 0.002763003 0.16299866 0.027746603 -0.05581463
0.026496455 -0.14643124 0.037821963 -0.005328059 -0.099832796 -0.16802545 0.034251988 -0.16319227
0.16893084 0.020397112 -0.1418834 0.069968596 -0.16104636 0.17334045 0.03661503 0.055418402
-0.12380989 0.03972292 0.13064523 0.13774799 0.14873792 -0.13958514 -0.15400231 -0.16211079
0.07521464 -0.0032194704 -0.085812986 -0.08550156 0.01651588 0.13485529 -0.06303784 0.17071874
0.13751762 0.132491 -0.018224671 0.09153725 0.15043153 0.15232126 0.0064531416 -0.09049725
-0.17653316 0.1498533 -0.013639942 0.16224317 -0.045688868 -0.029688552 0.09302576 0.027064785
0.010974571 -0.080864 0.053341493 0.0067110807 0.014732406 0.16774528 -0.010910109 0.08562477
-0.074048094 0.08234589 -0.07086758 -0.032419205 -0.072478816 -0.057768747 -0.15862352 0.095051035
-0.06742604 -0.0932875 -0.040344402 0.12136389 0.15575497 0.108993396 0.03341174 0.12911601
0.15528126 0.050504044 -0.10062486 -0.1507464 0.03885722 -0.15581208 0.055939004 0.12965982
-0.11564686 -0.06082201 0.15347232 -0.16600138 -0.11932215 -0.145529 -0.06785105 -0.16858535
-0.091962084 0.074586734 0.144884 0.10485174 -0.13201682 0.1070361 0.13374029 -0.108021356
0.16995506 -0.093816794 0.027388796 0.02499272 0.0980268 0.03393112 -0.04235539 0.10998134
0.09398885 0.039964944 0.120882794 0.09706558 -0.070850745 -0.07826994 -0.029975995 -0.04333821
00000000: c046 6c3d 72af 9fbd 32a3 12be 9e62 d23d
00000010: 52fe c33d 7cd7 7abd a08a 34be 0c00 31be
00000020: b887 b33c e177 343e c5a1 2abe b8d4 333d
00000030: c064 423b 8198 1a3e 7131 143e d6fc 963d
00000040: 6a6b 24be c0f5 c63b 7839 fbbc a28a cb3d
00000050: 463b ae3d fe5a 09be a7fa 043e 1ca3 0ebe
00000060: 7631 c4bd f88b ecbc aad3 ae3d 3c8e 2abe
00000070: 00d9 d73b 7691 b33d 90f2 333d 4091 533b
00000080: d266 c7bd a589 0a3e 5252 a63d 9387 013e
00000090: 2aa5 27be e03f 3cbc 00c6 21bd b81b efbc
000000a0: 02d7 a73d 8786 273e 703d 343c 6270 9d3d
000000b0: 589a 48bd 15d0 11be 843d bebd 600b 873c
000000c0: 532f 293e e05c 433c 9a73 d53d e1e8 333e
000000d0: b695 bf3d f87e a23c ddd6 223e 37f5 293e
000000e0: 8b2e 02be 2138 063e a688 c83d dc9d 29bd
000000f0: 52e8 da3d 478f 0bbe d755 093e d28a efbd
00000100: 35f3 263e db8b 84bd 76fe f53d 809a f7bb
00000110: 6079 37bc c423 a4bd 20f4 1abe fd7a 333e
00000120: a876 7dbd 6e70 06be ab41 a3bd 6da8 80bd
00000130: 784a abbc e081 1dbc 7690 963d 28d4 923c
00000140: 20b2 4b3c 90d8 e53c cee5 f03d 7cae 723d
00000150: 6221 dc3d aa27 de3d 446e 14be 0fe3 293e
00000160: c5fe 273e 66f3 2cbe 5c43 543d affa 113e
00000170: 5c5b afbd ea4b 8bbd 3221 c03d 52e8 d83d
00000180: c00e 153b 0004 4a3d 65c2 98bd 259e f7bd
00000190: 00e7 01bb 5482 29bd 3c5d 06bd 1873 0cbe
000001a0: 31e1 0d3e 2c24 3f3d 2eab 30be 567e aa3d
000001b0: b10d 093e 4c8a 80bd e3cd 30be a517 233e
000001c0: 925f 78bd 28ba 0d3d 2d1e 1a3e 10d2 69bc
000001d0: 80b0 87bd 2cd2 8b3d d60e d7bd e3ea 2b3e
000001e0: d0ec a7bc 0541 0c3e bff0 103e 9171 143e
000001f0: 3044 1c3d 1cc1 2dbd edc8 17be f52e 213e
00000200: 3423 033d 9221 ca3d c9df 183e 30a7 5bbd
00000210: 98b8 1dbe 303f 76bd 9fc1 16be 7aac c23d
00000220: acd1 dcbd 2020 0f3c 08dc f43c 4ef1 c43d
00000230: 8013 353b 1fe9 263e d84c e33c e29d 64bd
00000240: 180f d93c 12f2 15be 34eb 1a3d 0097 aebb
00000250: 2375 ccbd dd0e 2cbe d04b 0c3d e01b 27be
00000260: 35fc 2c3e d817 a73c e249 11be b24b 8f3d
00000270: 56e9 24be 2980 313e a4f9 153d 68fe 623d
00000280: 0a90 fdbd 80b4 223d ddc7 053e cf0d 0d3e
00000290: c14e 183e 68ef 0ebe c8b2 1dbe 5f00 26be
000002a0: 220a 9a3d c0fd 52bb b8be afbd 711b afbd
000002b0: 504c 873c 8117 0a3e fc19 81bd e5d0 2e3e
000002c0: 6bd1 0c3e b9ab 073e e84b 95bc e277 bb3d
000002d0: b90a 1a3e 1bfa 1b3e e074 d33b 9f56 b9bd
000002e0: 1cc5 34be 2573 193e 107a 5fbc 1323 263e
000002f0: 4024 3bbd 6835 f3bc 4a84 be3d f8b6 dd3c
00000300: b0ce 333c 069c a5bd 9c7c 5a3d a0e8 db3b
00000310: 3060 713c 6bc5 2b3e 50c0 32bc 0a5c af3d
00000320: 87a6 97bd f6a4 a83d 0623 91bd 00ca 04bd
00000330: c66f 94bd ec9e 6cbd 346e 22be 1eaa c23d
00000340: aa16 8abd 840d bfbd 2c40 25bd a28d f83d
00000350: 3b7e 1f3e ee37 df3d c0da 083d fd36 043e
00000360: 0d02 1f3e 54dd 4e3d 6814 cebd 445d 1abe
00000370: c028 1f3d 348d 1fbe 4c20 653d 8bc5 043e
00000380: 43d8 ecbd 8020 79bd d927 1d3e 44fc 29be
00000390: 2c5f f4bd 8e05 15be 7ef5 8abd a3a1 2cbe
000003a0: 9e56 bcbd eec0 983d 795c 143e 82bc d63d
000003b0: 6b2f 07be be35 db3d 37f3 083e 4d3a ddbd
000003c0: b308 2e3e 0523 c0bd 785e e03c 88bd cc3c
000003d0: 46c2 c83d 5cfb 0a3d d87c 2dbd e63d e13d
000003e0: 3a7d c03d 48b2 233d 6691 f73d 52ca c63d
000003f0: 321a 91bd fe4b a0bd 3890 f5bc 6883 31bd

weight_hh_l1 f4 [128, 32]
0.14828931 0.071040645 0.110618815 -0.02323781 -0.09374296 -0.006592378 -0.11676845 0.15606149
0.16444276 0.17434357 -0.15684193 0.0729654 -0.08472789 -0.17098682 -0.08236849 -0.0013433248
0.0635843 0.09471087 -0.11637838 -0.057646118 -0.1151583 -0.117147475 0.05890563 0.122124866
-0.14292943 -0.14987543 -0.006320536 -0.00011470914 0.17641126 0.0358852 -0.0020582378 0.13894214
-0.057995602 0.066433504 -0.15822847 0.042295694 -0.084545694 0.17372479 0.058790296 0.08014469
0.04899761 -0.04752715 -0.10214187 -0.1485255 0.014119193 -0.015080482 0.17251705 0.044891387
-0.09835188 -0.004223287 0.12399848 -0.072787456 0.11978759 -0.022987798 0.17328002 -0.07029426
-0.054784097 0.13294406 0.1157365 0.15155305 0.1046512 -0.09978614 -0.068609044 0.13597678
-0.05699767 -0.054104753 0.03652355 -0.10785273 0.03215687 0.020533487 0.1743796 0.17419665
-0.06201169 -0.048576415 -0.13971868 0.10220723 0.07140514 0.016216487 0.15812401 0.019467846
0.017504573 0.027117848 -0.10513272 0.048000515 0.12643681 -0.13984731 0.09138806 0.13046275
0.06460716 0.11052926 -0.13593262 0.05219373 0.021508858 -0.12902468 -0.13008426 0.1679026
-0.1272277 -0.14555359 0.14530914 0.08998151 0.1445073 -0.147678 -0.16135265 0.10943456
0.04212317 0.029714882 -0.056183964 0.1697224 -0.008521587 -0.17551294 0.08333628 -0.005298823
0.13412692 0.15780856 0.13179742 -0.008774832 -0.07451356 -0.16243343 0.1238033 -0.04320699
0.0040294677 -0.008253217 -0.02297832 0.012125522 0.0912527 0.17613108 0.057442322 -0.1531164
0.042487115 0.0059494674 -0.14984916 0.00065630674 0.0059913993 -0.044972435 -0.12369316 -0.040273756
-0.08378827 -0.024194464 0.04919465 -0.037815064 -0.12235883 0.03404227 0.095806405 -0.17327935
0.12815584 0.14804088 0.023653954 0.08324917 -0.059810318 -0.033429787 0.07517876 -0.022489771
0.1366 -0.13383564 -0.0018476546 -0.07250916 -0.057696126 0.15928386 0.12237023 0.07602106
0.124354705 0.014054388 0.07394315 -0.123311244 -0.073317684 -0.17254256 -0.012657434 0.035126954
0.15359063 -0.11247573 -0.07100728 0.15613498 0.12850137 0.17404772 -0.062059633 0.026337728
-0.15767986 -0.115938835 0.08979006 0.17271627 0.14580967 -0.17574927 -0.14236581 0.166849
0.046928048 -0.011308774 -0.15913507 -0.015652388 0.048740044 0.13998477 -0.02897948 0.14414667
0.033798933 0.14837278 0.02684392 -0.16967522 0.08526306 -0.072954446 0.092066005 0.035244122
-0.105911344 -0.11857976 0.09347613 -0.13011217 0.0015925467 0.051668406 0.16052164 -0.09532907
-0.06073883 0.16185395 -0.17588478 -0.021020487 -0.16374838 0.12266122 -0.013193101 0.0022241473
-0.13366503 -0.03287503 -0.1577319 -0.059841253 -0.08064295 0.10970555 0.03170766 -0.1358734
0.16891389 0.1355405 0.020986095 -0.030145466 -0.03818454 -0.12351751 -0.08273076 -0.06586893
0.00573422 0.11218183 0.12156524 -0.1741115 -0.0071772784 0.14436449 0.019813403 0.03472586
-0.0005835444 -0.14064331 -0.090711124 0.10496436 0.011901259 0.14599757 -0.14359808 -0.07463916
0.03934619 0.002114609 0.08520852 -0.0796064 0.07517408 0.12033214 0.10633956 0.03839241
00000000: 27d9 173e c27d 913d 1e8c e23d 385d bebc
00000010: 4ffc bfbd e004 d8bb 4c24 efbd 95ce 1f3e
00000020: af63 283e 1f87 323e 2c9b 20be e26e 953d
00000030: d185 adbd 2b17 2fbe d0b0 a8bd 8012 b0ba
00000040: 7c38 823d c6f7 c13d ca57 eebd 561e 6cbd
00000050: 1dd8 ebbd 04eb efbd 0847 713d 9a1c fa3d
00000060: 185c 12be f278 19be 801c cfbb 0090 f0b8
00000070: 27a5 343e 5cfc 123d 80e3 06bb d946 0e3e
00000080: cc8c 6dbd 4a0e 883d a506 22be 403e 2d3d
00000090: 4b26 adbd e9e4 313e 18ce 703d e622 a43d
000000a0: b8b1 483d d4ab 42bd c22f d1bd 1217 18be
000000b0: 3054 673c 2014 77bc 4fa8 303e 08e0 373d
000000c0: b66c c9bd 8063 8abb eaf2 fd3d 9711 95bd
000000d0: 3253 f53d e850 bcbc 5170 313e 70f6 8fbd
000000e0: 4a65 60bd 7d22 083e 4207 ed3d b930 1b3e
000000f0: 5e53 d63d ad5c ccbd e682 8cbd 7f3d 0b3e
00000100: 6476 69bd f29c 5dbd b899 153d e4e1 dcbd
00000110: ecb6 033d d835 a83c 9190 323e 9b60 323e
00000120: f8ff 7dbd 10f8 46bd 6a12 0fbe 0652 d13d
00000130: dc3c 923d 70d8 843c 43eb 213e 087b 9f3c
00000140: c065 8f3c 4026 de3c d34f d7bd 309c 443d
00000150: a778 013e 2234 0fbe aa29 bb3d 0798 053e
00000160: c250 843d 2a5d e23d ec31 0bbe 18c9 553d
00000170: 5833 b03c 0c1f 04be cf34 05be a9ee 2b3e
00000180: fa47 02be 000c 15be ebcb 143e 3a48 b83d
00000190: b9f9 133e e738 17be a139 25be 3a1f e03d
000001a0: 5889 2c3d a06c f33c 2821 66bd b5cb 2d3e
000001b0: 209e 0bbc aab9 33be 36ac aa3d c0a1 adbb
000001c0: 9158 093e 9198 213e e7f5 063e 50c4 0fbc
000001d0: 919a 98bd f354 26be 968c fd3d d0f9 30bd
000001e0: a009 843b 8038 07bc 083d bcbc 20aa 463c
000001f0: b2e2 ba3d b55b 343e a448 6b3d 8cca 1cbe
00000200: f806 2e3d c0f3 c23b 0f72 19be 000c 2c3a
00000210: 8053 c43b 0435 38bd d752 fdbd 18f6 24bd
00000220: 2f99 abbd 7833 c6bc 5480 493d f8e3 1abd
00000230: 4497 fabd e86f 0b3d 2636 c43d 2470 31be
00000240: 493b 033e 0798 173e f0c5 c13c 8a7e aa3d
00000250: aafb 74bd aced 08bd 52f7 993d 783c b8bc
00000260: dfe0 0b3e 360c 09be 002d f2ba af7f 94bd
00000270: c652 6cbd 4f1b 233e 3e9d fa3d eeb0 9b3d
00000280: aead fe3d 6044 663c 826f 973d 9b8a fcbd
00000290: 9527 96bd ffae 30be 2061 4fbc 48e1 0f3d
000002a0: dd46 1d3e ad59 e6bd 446c 91bd d9e1 1f3e
000002b0: dd95 033e 9139 323e 3e32 7ebd 38c2 d73c
000002c0: d476 21be 5771 edbd dae3 b73d 89dc 303e
000002d0: 214f 153e 9ef7 33be 58c8 11be 77da 2a3e
000002e0: a037 403d 7048 39bc 4ef4 22be 7039 80bc
000002f0: a4a3 473d 2b58 0f3e 6066 edbc 2f9b 133e
00000300: c070 0a3d 09ef 173e c8e7 db3c 57bf 2dbe
00000310: 669e ae3d 2469 95bd 1a8d bc3d 245c 103d
00000320: 0ce8 d8bd f2d9 f2bd 6a70 bf3d 203c 05be
00000330: 00bd d03a 40a2 533d c95f 243e e33b c3bd
00000340: 48c9 78bd 0bbd 253e 241b 34be 2833 acbc
00000350: a8ad 27be ce35 fb3d e027 58bc 00c3 113b
00000360: 7cdf 08be f8a7 06bd 7984 21be 1a1c 75bd
00000370: 2228 a5bd 4ead e03d e4df 013d 6622 0bbe
00000380: c3f7 2c3e 21cb 0a3e 08eb ab3c a0f3 f6bc
00000390: 6467 1cbd c0f6 fcbd bf6e a9bd 4ae6 86bd
000003a0: 20e6 bb3b 96bf e53d 32f7 f83d 494a 32be
000003b0: 602f ebbb 49d4 133e b84f a23c b43c 0e3d
000003c0: 00f9 18ba cd04 10be c1c6 b9bd 8ef7 d63d
000003d0: 80fd 423c 6380 153e 600b 13be 6adc 98bd
000003e0: 7829 213d 4095 0a3b ce81 ae3d ae08 a3bd
000003f0: def4 993d b270 f63d 8ec8 d93d 5c41 1d3d

bias_ih_l1 f4 [128]
0.008628741 -0.0663274 -0.038902864 0.15664361 0.13595782 0.14042576 0.05125299 -0.038410887
-0.17231806 0.15469314 -0.09211067 0.022054806 -0.10427842 -0.017842278 -0.04283662 -0.03716424
-0.014761105 0.12633039 0.17016612 -0.100665405 0.039712444 0.14432536 0.14759235 0.15990491
0.037408724 0.028190464 -0.06062188 0.11253743 -0.08416654 0.060155734 -0.05721251 0.017565146
-0.066511706 -0.04763563 0.058177084 0.16702218 0.15385692 0.15925823 0.14798008 0.14277308
-0.13338614 0.085854694 -0.1623731 0.10689114 0.055400476 0.13772012 0.005628139 -0.061211318
-0.027121976 -0.014806911 -0.06413524 -0.14096719 -0.05012493 -0.10375587 -0.1540276 0.016188607
-0.07542042 0.06652677 -0.085243225 0.09636624 -0.17413704 0.067476824 -0.11149662 0.020419478
0.04358469 -0.08852899 -0.13081335 -0.1525437 0.048230633 -0.104032435 0.12221624 -0.09655209
0.077978805 0.069103494 -0.0808715 0.058847725 0.03839703 -0.063454464 -0.11835612 0.11837579
-0.032214522 -0.092499584 0.16829081 0.14364831 -0.12144871 -0.061813302 0.013105631 -0.0146999955
-0.005543992 -0.15364568 0.03033407 -0.0096992105 0.048533946 0.081174925 -0.074348725 -0.16222511
-0.09585342 -0.12290636 -0.013853401 -0.07171242 -0.06542333 0.12658785 0.12698759 -0.080268145
0.0005416125 -0.004156038 0.08916591 -0.064933896 -0.13466999 0.13034157 0.11856644 0.07144371
-0.0026732832 0.0967104 -0.13079977 0.079632804 0.13884689 -0.16148111 -0.08784626 -0.09944045
0.11625527 0.15826084 0.12098543 -0.1318667 -0.14456217 0.17269562 -0.14409685 -0.14059204
00000000: 905f 0d3c a9d6 87bd 9c58 1fbd 2f67 203e
00000010: 8738 0b3e c5cb 0f3e a8ee 513d bc54 1dbd
00000020: 2574 30be e167 1e3e 85a4 bcbd 48ac b43c
00000030: ed8f d5bd f829 92bc 7475 2fbd 8839 18bd
00000040: 90d8 71bc c15c 013e 0740 2e3e aa29 cebd
00000050: 84a9 223d 07ca 133e 7322 173e 1dbe 233e
00000060: e439 193d b0ef e63c a64e 78bd 067a e63d
00000070: 825f acbd dc65 763d aa57 6abd c8e4 8f3c
00000080: 4a37 88bd 941d 43bd 184b 6e3d dd07 2b3e
00000090: ab8c 1d3e 9714 233e 1788 173e 1b33 123e
000000a0: 6096 08be 96d4 af3d 2245 26be bee9 da3d
000000b0: 9ceb 623d 8106 0d3e 406c b83b b8b8 7abd
000000c0: e82e debc b098 72bc 5659 83bd b459 10be
000000d0: cc4f 4dbd f57d d4bd 69b9 1dbe f89d 843c
000000e0: 0576 9abd 303f 883d 0094 aebd aa5b c53d
000000f0: fb50 32be 4a31 8a3d 5758 e4bd c046 a73c
00000100: dc85 323d b04e b5bd eff3 05be 6a34 1cbe
00000110: 7c8d 453d f50e d5bd 824c fa3d 1abd c5bd
00000120: 5ab3 9f3d 2286 8d3d f59f a5bd 500a 713d
00000130: 3446 1d3d 6af4 81bd b264 f2bd 026f f23d
00000140: 60f3 03bd 6c70 bdbd 6d54 2c3e 8b18 133e
00000150: 1aba f8bd f22f 7dbd 00b9 563c 40d8 70bc
00000160: 60aa b5bb 4b55 1dbe 287f f83c 70e9 1ebc
00000170: 88cb 463d 0a3f a63d 2544 98bd 571e 26be
00000180: cc4e c4bd 54b6 fbbd 60f9 62bc f6dd 92bd
00000190: abfc 85bd 3fa0 013e 0909 023e a063 a4bd
000001a0: 00fb 0d3a 602f 88bb 9e9c b63d 10fc 84bd
000001b0: eee6 09be 4378 053e f6d2 f23d 1451 923d
000001c0: 4032 2fbb 1a10 c63d 60f0 05be 8616 a33d
000001d0: e12d 0e3e 4e5b 25be bde8 b3bd 6fa7 cbbd
000001e0: 3e17 ee3d 210f 223e 36c7 f73d 1008 07be
000001f0: 1b08 14be 1fd7 303e 208e 13be 5cf7 0fbe

bias_hh_l1 f4 [128]
-0.022197232 0.11684434 0.02134101 -0.123444214 -0.03552784 0.080941305 0.14247547 0.17103003
0.15756004 -0.04001397 0.09128882 0.017949283 -0.06438557 -0.08672633 -0.17538774 0.018110305
-0.051142424 -0.16479088 0.031269312 -0.093716234 0.0019060224 0.120842144 -0.09902476 0.16126709
0.16612117 -0.072064534 0.020483598 0.08573918 -0.11656159 -0.031518847 -0.048078537 0.15221713
-0.10073282 0.03415583 0.102953926 -0.07708376 -0.13536103 0.11038996 0.13406704 -0.10595787
-0.14698757 -0.04714127 -0.16870369 0.072708175 0.09639181 -0.16613303 0.045017853 -0.029419452
-0.116482735 -0.0955606 0.15654944 0.15013303 0.073011026 0.08949737 0.069763675 0.050125137
0.05355577 0.090321615 0.07409988 0.008189008 -0.124771714 -0.12456436 0.08204658 -0.03135474
0.070665196 -0.008745581 -0.093302645 -0.0028228462 -0.048910126 -0.055535764 0.020473778 0.08868943
-0.14495763 0.089920536 -0.10082358 0.1242667 -0.021024853 -0.016137645 -0.07089203 0.072539255
0.03853412 0.15645204 -0.17025855 -0.03728789 -0.107769236 0.13470863 -0.14869201 0.11563288
-0.04300414 0.045472637 0.054827005 -0.11166925 0.0013336986 -0.06808572 -0.12875146 -0.0027158111
-0.0508634 0.16502993 -0.034542233 -0.07011095 0.0033828914 0.060594052 -0.14139825 0.036283404
-0.042305186 -0.01899609 0.17311184 -0.053433903 -0.15777276 -0.10229725 -0.143872 0.08631094
0.17610897 0.05071108 0.123542085 0.11060016 0.062520355 0.043033108 -0.013385326 0.11953066
0.06674841 -0.05167088 0.033140987 -0.1068376 0.054093137 -0.12653963 -0.17549966 0.074072614
00000000: f8d6 b5bc 164c ef3d 58d3 ae3c 52d0 fcbd
00000010: a485 11bd 8ec4 a53d 17e5 113e 7f22 2f3e
00000020: 6b57 213e b0e5 23bd a2f5 ba3d 600a 933c
00000030: 95dc 83bd 939d b1bd d898 33be 105c 943c
00000040: b87a 51bd f1be 28be 4014 003d 4cee bfbd
00000050: 80d3 f93a 167c f73d 7ecd cabd 3323 253e
00000060: ab1b 2a3e 9296 93bd 38cd a73c 0698 af3d
00000070: d8b7 eebd e819 01bd 00ee 44bd cfde 1b3e
00000080: 024d cebd fce6 0b3d 82d9 d23d 17de 9dbd
00000090: 159c 0abe 2214 e23d df48 093e 7100 d9bd
000000a0: e983 16be 3417 41bd a9c0 2cbe 06e8 943d
000000b0: 1269 c53d c71e 2abe a464 383d 1001 f1bc
000000c0: 808e eebd 47b5 c3bd 7f4e 203e 79bc 193e
000000d0: ce86 953d 664a b73d 42e0 8e3d 0450 4d3d
000000e0: 4c5d 5b3d 8afa b83d aec1 973d 302b 063c
000000f0: 5088 ffbd 991b ffbd 0a08 a83d d46d 00bd
00000100: eab8 903d a049 0fbc 7515 bfbd 80ff 38bb
00000110: fc55 48bd 7879 63bd a0b8 a73c cea2 b53d
00000120: c66f 14be 4228 b83d 987c cebd 8a7f fe3d
00000130: 503c acbc 1833 84bc d72f 91bd 768f 943d
00000140: f4d5 1d3d f734 203e 4258 2ebe 30bb 18bd
00000150: 1eb6 dcbd 0ff1 093e b842 18be eed0 ec3d
00000160: 1c25 30bd 8441 3a3d 4892 603d d9b2 e4bd
00000170: 80cf ae3a 8770 8bbd 6cd7 03be c0fb 31bb
00000180: 2456 50bd 9bfd 283e 287c 0dbd 5496 8fbd
00000190: 80b3 5d3b 7831 783d b4ca 10be e89d 143d
000001a0: 3448 2dbd b09d 9bbc 3b44 313e 82dd 5abd
000001b0: 2f8f 21be 3881 d1bd 2e53 13be cac3 b03d
000001c0: e955 343e 6cb6 4f3d a203 fd3d 5682 e23d
000001d0: ac0a 803d 7c43 303d 204e 5bbc 7ecc f43d
000001e0: 64b3 883d d8a4 53bd d8be 073d accd dabd
000001f0: c490 5d3d 9b93 01be 2fb6 33be 62b3 973d

weight f4 [1, 32]
-0.034015357 0.061315596 0.089394316 0.025167808 -0.059964955 0.017055526 -0.14560929 -0.17377715
-0.14349358 -0.065783665 0.090451345 0.020956129 -0.14821148 -0.14113076 -0.14167199 0.045977026
0.07914664 -0.06544325 -0.10965708 -0.010808513 -0.07581889 -0.12185092 0.16244091 0.12370558
-0.08330392 0.10100068 0.033825293 -0.04110658 0.011076197 0.16963951 0.07408635 -0.14335306
00000000: b053 0bbd 1026 7b3d 5e14 b73d b82c ce3c
00000010: d09d 75bd 08b8 8b3c 9a1a 15be a3f2 31be
00000020: fbef 12be 96b9 86bd 8e3e b93d 30ac ab3c
00000030: c0c4 17be 9584 10be 7612 11be 6852 3c3d
00000040: a217 a23d 1c07 86bd e493 e0bd 3016 31bc
00000050: ef46 9bbd fa8c f9bd e956 263e 5a59 fd3d
00000060: 3f9b aabd 72d9 ce3d 648c 0a3d 605f 28bd
00000070: f078 353c fbb5 2d3e 96ba 973d 25cb 12be

weight f4 [1, 32]
-0.14170298 0.100357994 0.16251619 -0.17295848 0.07592331 0.019769758 0.073814586 -0.030398205
-0.0046791434 -0.082960315 -0.016252875 0.06766383 -0.04748717 -0.15971377 -0.06299692 -0.13136345
0.09424479 0.12967606 0.10281335 0.017291278 -0.11139909 -0.073446885 -0.008248091 0.15373696
-0.027994975 -0.010360882 -0.07222604 -0.14053775 -0.067756556 -0.035319105 -0.0005027503 0.021009758
00000000: 961a 11be 7e88 cd3d a56a 263e 071c 31be
00000010: ae7d 9b3d 30f4 a13c 1a2c 973d a805 f9bc
00000020: 8053 99bb 19e7 a9bd c024 85bc 5693 8a3d
00000030: e881 42bd 028c 23be 8704 81bd 2484 06be
00000040: 6a03 c13d cdc9 043e ce8f d23d 70a6 8d3c
00000050: 3525 e4bd 526b 96bd 0023 07bc 396d 1d3e
00000060: b855 e5bc b0c0 29bc 3feb 93bd 21e9 0fbe
00000070: f3c3 8abd c4aa 10bd 00cb 03ba a81c ac3c
