competition/result/no_params/trained_model/all_model/actor_num_epoch_1.pth (torch, 21438 bytes, 9 tensors)

weight_ih_l0 f4 [64, 11]
0	0xbe662b50	-0.2247746
1	0xbda707e0	-0.08155799
2	0xbd3ce134	-0.046113208
3	0x3e5d7d2b	0.21629779
4	0x3c1e005e	0.009643642
5	0xbe5e6360	-0.21717596
6	0xbcfc78d2	-0.03081933
7	0x3e2704bd	0.16310401
8	0xbc997124	-0.018730707
9	0x3e583ff3	0.21118145
10	0x3e55ef6f	0.20892118
11	0xbd8f6256	-0.07001178
12	0xbe38840c	-0.18019122
13	0xbdd02828	-0.10163909
14	0x3c885012	0.016639743
15	0xbd9b7881	-0.07591344
16	0x3e10dc8d	0.14146633
17	0x3e58d714	0.21175796
18	0x3d19af0d	0.037520457
19	0xbe1740a7	-0.14770757
20	0xbe371f31	-0.17882992
21	0xbe203258	-0.15644205
22	0x3c87141c	0.016489081
23	0xbe33c2e5	-0.17554815
24	0x3c966f81	0.018363716
25	0xbe6afa92	-0.22947147
26	0x3e0b377d	0.13595386
27	0xbcb18a23	-0.021672314
28	0xbc1c8aa7	-0.009554542
29	0xbe56266c	-0.20913094
30	0x3ca31a15	0.019909898
31	0xbddf9adb	-0.10918208
32	0x3de7dbd4	0.11321226
33	0xbdc37d5e	-0.09545396
34	0x3e4be43e	0.19911286
35	0xbcc6f8e6	-0.024288606
36	0xbd16a072	-0.036774106
37	0xbdc761d1	-0.09735454
38	0xbe03a9c3	-0.12857728
39	0xbe1cf821	-0.15329029
40	0xbd78f05b	-0.060776096
41	0xbc726212	-0.01479389
42	0xbe29a877	-0.1656817
43	0x3dd1492d	0.10219035
44	0x3e13f972	0.14450625
45	0x3e06efee	0.13177463
46	0x3b599148	0.0033198167
47	0xbe674ac4	-0.22587115
48	0xbd42d963	-0.047570597
49	0xbc942354	-0.018083252
50	0xbe507842	-0.20358375
51	0xbe6b9c6d	-0.2300889
52	0xbe44baf9	-0.1921195
53	0xbe3958ad	-0.18100233
54	0x3dcacf9b	0.09902879
55	0x3e16b5e3	0.14717822
56	0x3e2a970d	0.16659184
57	0xbe2b441a	-0.16725197
58	0x3ce6c70f	0.02817109
59	0xbe219f72	-0.1578348
60	0xbe6ac152	-0.22925308
61	0x3c06b90f	0.008222832
62	0x3d209767	0.03920689
63	0x3df2fb0e	0.11864291
64	0x3c8b2e0d	0.016989732
65	0x3cc016a8	0.023448303
66	0xbc4d7b0e	-0.012541546
67	0x3e43f74e	0.19137308
68	0xbe5132ec	-0.20429581
69	0x3e4c3279	0.19941129
70	0xbe0c86b0	-0.13723254
71	0xbe10ded0	-0.14147496
72	0x3e2cc694	0.16872627
73	0xbce83b1e	-0.028348502
74	0xbd81ccaa	-0.06337865
75	0xbe37bae3	-0.17942385
76	0x3e19af4b	0.15008275
77	0xbda3a1ac	-0.07989821
78	0xbd29b82e	-0.041435413
79	0xbce00dc8	-0.027350321
80	0xbdb3fe35	-0.087887205
81	0xbe015c5a	-0.12632886
82	0x3e28b5f7	0.16475664
83	0x3e6afc87	0.22947894
84	0x3c8ddc9a	0.017317105
85	0xbdf69723	-0.12040546
86	0x3c7ec7cc	0.015550565
87	0x3e28cfd1	0.16485526
88	0xbdd2926d	-0.10281835
89	0xbc01f9a8	-0.007933058
90	0xbe533d55	-0.20628865
91	0xbd7ff458	-0.062488884
92	0x3d41f57c	0.047353253
93	0xbc1bc3d9	-0.009507143
94	0xbdc73677	-0.09727185
95	0xbdf26a3e	-0.1183667
96	0xbe522c17	-0.20524631
97	0x3e15aee7	0.14617501
98	0x3e67d83d	0.22641082
99	0x3dc9e621	0.09858347
100	0xbd5b60d6	-0.053559147
101	0xbd8b106c	-0.067902416
102	0xbe059e20	-0.13048601
103	0x3ceca9cf	0.028889565
104	0xbca7ddd9	-0.020491527
105	0x3dbc95bd	0.09208248
106	0xbe6f4055	-0.23364384
107	0xbe00bd18	-0.12572134
108	0x3e595f2d	0.21227713
109	0x3e204e90	0.15654969
110	0xbc2e2551	-0.010629014
111	0x3de93dfb	0.11388775
112	0xbe5898eb	-0.21152084
113	0xbdf10d91	-0.11770166
114	0x3e53fa7e	0.20701024
115	0xbe28d938	-0.16489112
116	0xbdc4048c	-0.0957118
117	0xbe608314	-0.21925002
118	0xbe7cc9f4	-0.24686414
119	0xbdf67978	-0.12034887
120	0xbde3831c	-0.111089915
121	0x3e504195	0.20337518
122	0x3e056592	0.13027027
123	0x3e410a81	0.18851663
124	0xbbe744b8	-0.0070577525
125	0x3deca8cb	0.11555632
126	0xbe37d08d	-0.1795065
127	0xbdfab7a0	-0.12242055
128	0xbe21747e	-0.15767094
129	0xba61cd1b	-0.0008613632
130	0x3d0106a0	0.03150046
131	0xbdabd217	-0.08389681
132	0x3e2a32f4	0.16621
133	0xbe4d10e4	-0.20025975
134	0x3e2487e1	0.16067459
135	0xbe261545	-0.16219051
136	0x3e119679	0.14217557
137	0xbd7158dc	-0.058922634
138	0xbc5ce0b1	-0.013481305
139	0xbdf0dec0	-0.11761236
140	0x3cdc2d8e	0.02687719
141	0x3e57618d	0.21033306
142	0xbe0f8cdb	-0.14018576
143	0xbe1637c4	-0.1466971
144	0x3e30c382	0.1726208
145	0x3b96cfe2	0.0046024183
146	0xbde89784	-0.11357024
147	0x3df639f8	0.120227754
148	0x3c11d09a	0.008899832
149	0x3c152762	0.009103628
150	0x3bffeb70	0.0078100488
151	0x3d9f569d	0.07780192
152	0x3e4ef070	0.20208907
153	0xbe4a697e	-0.19766805
154	0x3da2e9eb	0.079547726
155	0x3deb378a	0.114852026
156	0xbe70169d	-0.23446126
157	0xbd0b798e	-0.03405147
158	0x3d7bce07	0.06147578
159	0xbd40036d	-0.046878267
160	0x3e665471	0.2249315
161	0x3d51475c	0.051093444
162	0xbe3286af	-0.1743419
163	0xbe41f43d	-0.18940826
164	0xbc83d523	-0.016092842
165	0xbdba1bd2	-0.090873376
166	0xbe1beb84	-0.15226561
167	0x3e134b2a	0.14384142
168	0x3bad3b31	0.005286597
169	0x3c38927a	0.0112653915
170	0xbe682724	-0.22671181
171	0xbe5fa81d	-0.21841474
172	0xbd930cda	-0.071801856
173	0xbe7b808a	-0.24560753
174	0x3c29b303	0.010357621
175	0xbe2cccca	-0.16874996
176	0x3e5447ee	0.20730564
177	0x3e098b8e	0.13432142
178	0x3e0ba2c4	0.13636309
179	0x3bf435ad	0.0074526877
180	0x3d5fa2bf	0.054598566
181	0x3e3fc66f	0.1872804
182	0x3d09230d	0.033480693
183	0xbe68186a	-0.22665563
184	0xbde784fe	-0.11304663
185	0xbe1c72c6	-0.15278158
186	0xbe06fae5	-0.13181646
187	0x3d68a478	0.056797475
188	0x3d44c131	0.048035804
189	0xbd815e76	-0.06316845
190	0xbdb4f21a	-0.0883524
191	0xbdf5a129	-0.119936295
192	0xbe5a0a8f	-0.2129309
193	0x3d98d883	0.07463171
194	0x3e0cc31a	0.137463
195	0xbda44529	-0.08021004
196	0xbd298c0e	-0.041393332
197	0xbe2cd6b2	-0.16878775
198	0x3e6c83ca	0.23097149
199	0xbe629c53	-0.22129945
200	0x3d4ceedf	0.050032493
201	0xbd4f7136	-0.050645076
202	0xbd20aee0	-0.039229274
203	0xbd362153	-0.044465374
204	0x3e4b4ff0	0.19854712
205	0xbdfdc292	-0.12390627
206	0x3e7ab1c1	0.2448187
207	0xbe392ea5	-0.180842
208	0xbe4abfef	-0.1979978
209	0xbe265667	-0.16243897
210	0xbd0b8af3	-0.03406806
211	0xbad29a03	-0.0016067628
212	0x3e80697c	0.25080478
213	0xbdebca0a	-0.11513145
214	0xbe39116f	-0.18073057
215	0x3d97023d	0.07373474
216	0x3e6c047d	0.23048587
217	0xbde084b4	-0.10962811
218	0x3dcbeac9	0.09956891
219	0x3dae34d0	0.08506167
220	0x3ca14832	0.019687746
221	0xbe629197	-0.2212585
222	0xbe5617e0	-0.20907545
223	0x3dd892fb	0.10574909
224	0xbe4d0028	-0.20019591
225	0xbd20143c	-0.039081797
226	0x3e3afdd7	0.18260895
227	0xbe6e29b7	-0.232581
228	0xbb3fbd3e	-0.0029257084
229	0x3e46c2b7	0.19410215
230	0x3de81efd	0.113340355
231	0xbc21d820	-0.009878188
232	0xbe3625bb	-0.1778783
233	0x3e00ff3f	0.12597369
234	0x3e6821c8	0.22669137
235	0xbe1903fa	-0.14942923
236	0x3dea30cb	0.11435088
237	0xbdfce089	-0.12347514
238	0x3e0ef6da	0.13961354
239	0xbe43a4ed	-0.19105883
240	0x3d3db0b6	0.046311103
241	0x3e726727	0.23672162
242	0xbe6fbb70	-0.23411345
243	0x3d73591f	0.059411164
244	0x3e0891a9	0.13336815
245	0x3caae06f	0.020858971
246	0xbdc95fe7	-0.09832745
247	0xbe74dfb2	-0.23913458
248	0x3e01b284	0.12665755
249	0x3e2095dd	0.15682168
250	0xbda6439c	-0.08118364
251	0xbe1b775d	-0.15182252
252	0x3e34b2cf	0.17646335
253	0xbdbcc73f	-0.09217691
254	0xbe79fcfe	-0.24412915
255	0xbdc31d92	-0.095271245

weight_hh_l0 f4 [64, 16]
0	0x3e6dc526	0.23219737
1	0xbe82b12e	-0.25525802
2	0x3e500233	0.20313339
3	0xbe4071a3	-0.18793349
4	0x3e2f0c30	0.17094493
5	0xbe3c2ee8	-0.18377268
6	0x3e15f1bb	0.14642994
7	0x3e49502f	0.19659494
8	0xbdf856c4	-0.12125924
9	0xbd99c53f	-0.07508325
10	0xbda1d762	-0.07902409
11	0xbd24606b	-0.040131014
12	0xbe024033	-0.12719803
13	0x3e5f1c74	0.21788198
14	0xbe4676ee	-0.19381306
15	0x3e5423d6	0.20716795
16	0x3e729eca	0.23693386
17	0xbd93ecc0	-0.07222891
18	0x3e1688a6	0.14700565
19	0xbe630429	-0.22169556
20	0x3e48aad7	0.1959642
21	0x3d6f1e8d	0.058378745
22	0xbe6293cc	-0.22126693
23	0xbc6af338	-0.014340214
24	0xbdc236bb	-0.09483095
25	0xbd3722ae	-0.044710808
26	0xbdd52047	-0.10406547
27	0x3e0a6bef	0.13517736
28	0x3ddf287e	0.10896395
29	0xbe2fd6d6	-0.17171797
30	0x3e3035e5	0.17208059
31	0x3e628958	0.22122705
32	0xbd9d2ee9	-0.07674963
33	0xbaa371a1	-0.0012469777
34	0xbd7ff4d0	-0.06248933
35	0xbe5ff158	-0.21869409
36	0xbe3514da	-0.17683735
37	0xbcd8db5e	-0.02647179
38	0x3e42102d	0.18951483
39	0x3d601fc8	0.05471781
40	0x3e2f899f	0.17142342
41	0x3dafb809	0.08580024
42	0x3e76ded6	0.24108443
43	0xbd9c598f	-0.076342694
44	0xbb685702	-0.0035452251
45	0x3e2dae31	0.1696098
46	0xbd5f5ca3	-0.054531705
47	0xbca827ab	-0.020526728
48	0xbe4d9f69	-0.20080341
49	0xbd24ca6b	-0.040232103
50	0x3d9098d1	0.070603974
51	0xbe4608d8	-0.19339311
52	0xbe4fd264	-0.20295101
53	0x3e2d90c5	0.16949756
54	0x3e1f36b7	0.15548216
55	0x3ddf951d	0.10917113
56	0xbe27f54d	-0.16402169
57	0xbc9c10f9	-0.019051062
58	0x3e44f859	0.19235362
59	0xbe3cd2fb	-0.18439858
60	0x3e70990a	0.2349588
61	0x3e190f5b	0.14947264
62	0xbc6a73fa	-0.0143098775
63	0x3e5bb2be	0.21454903
64	0xbd826d29	-0.06368477
65	0xbe0932d7	-0.133983
66	0xbddf1f7f	-0.10894679
67	0xbe443b22	-0.19163182
68	0xbc3e3161	-0.011608453
69	0xbc07a1e9	-0.0082783485
70	0x3d0be1ca	0.034150876
71	0x3d229c3e	0.039699785
72	0xbe63c657	-0.2224363
73	0xbd5f3f95	-0.054503996
74	0xbe779fce	-0.24182054
75	0x3e7ccc14	0.24687225
76	0x3e5ac2c6	0.21363363
77	0xbd80acc0	-0.062829494
78	0x3df6926c	0.120396465
79	0x3e4f2a57	0.20230995
80	0x3e2cab8d	0.16862316
81	0x3e692df5	0.22771437
82	0xbe52f63b	-0.20601742
83	0xbe1dd85a	-0.15414563
84	0x3b410722	0.0029453714
85	0xbdf52a91	-0.119710095
86	0xbe61df6f	-0.2205789
87	0x3ccec763	0.02524156
88	0x3daf5c82	0.08562566
89	0xbd990e1c	-0.07473394
90	0xbe6a2276	-0.22864708
91	0xbdd6504d	-0.10464535
92	0xbe118601	-0.14211275
93	0xbd965f04	-0.073423415
94	0x3e25ec13	0.16203336
95	0x3dfab12a	0.122408226
96	0xbd00387e	-0.031303875
97	0x3e1370b0	0.14398456
98	0x3e22e0fc	0.15906137
99	0x3e744d24	0.23857552
100	0x3d3c854b	0.046025556
101	0x3dcc9e37	0.099911146
102	0x3da9a243	0.08282902
103	0xbe62a5b0	-0.22133517
104	0x3e5ce4fc	0.21571726
105	0x3b5f64fb	0.0034087289
106	0x3e4da155	0.20081075
107	0xbd815bde	-0.063163504
108	0x3d74357b	0.059621315
109	0xbbc076b9	-0.005873528
110	0xbe34d22b	-0.17658298
111	0xbd549b09	-0.051905666
112	0x3bbe4545	0.0058065974
113	0xbe3c1f9e	-0.18371436
114	0x3dac5c98	0.08416098
115	0xbc964a7f	-0.01834607
116	0x3e121d22	0.14268926
117	0x3daa5db5	0.083186544
118	0xbdd368cb	-0.10322722
119	0x3d05fbcb	0.03271083
120	0x3dc6e7d4	0.097121865
121	0xbc77b3b6	-0.01511853
122	0xbe5a8a29	-0.21341766
123	0x3d6836ac	0.056692764
124	0x3daefa75	0.08543865
125	0x3d8e171b	0.06938001
126	0xbe0527c0	-0.13003445
127	0x3e121bcf	0.1426842
128	0xbcb9391b	-0.022610238
129	0xbe5aeeed	-0.21380205
130	0x3a986acb	0.0011628506
131	0x3dcb593a	0.09929128
132	0x3e32130a	0.17390075
133	0xbe58dc9f	-0.2117791
134	0xbe583435	-0.21113665
135	0x3e11e2f6	0.14246735
136	0xbc551fc2	-0.01300806
137	0x3e598e28	0.21245635
138	0x3e2c83bb	0.16847126
139	0xbd9f6b7f	-0.07784175
140	0x3dac79dd	0.08421681
141	0xbe3cfb9e	-0.1845536
142	0x3e2c2130	0.16809535
143	0x3e143be2	0.14475968
144	0xbe6338a1	-0.22189571
145	0xbcdace12	-0.02670959
146	0x3df125f9	0.11774821
147	0x3df315ef	0.11869418
148	0xbe47899e	-0.1948609
149	0x3de149bf	0.11000394
150	0xbddf032f	-0.10889279
151	0x3d29b051	0.041427914
152	0xbe773421	-0.2414098
153	0x3d576054	0.0525821
154	0x3e398642	0.18117622
155	0x3e6d7485	0.2318898
156	0x3dd84c05	0.105613746
157	0xbe7b751b	-0.24556391
158	0xbca713bd	-0.020395154
159	0x3b706ec2	0.003668711
160	0x3e247202	0.16059116
161	0xbd5d3178	-0.054002255
162	0x3e62f912	0.22165325
163	0xbd7ad3fc	-0.06123732
164	0xbdf95e22	-0.121761575
165	0xbdec40bd	-0.11535785
166	0x3e71a691	0.23598696
167	0x3e5bfec7	0.21483909
168	0xbc380560	-0.01123175
169	0x3e729870	0.23690963
170	0xbd9a2f3b	-0.0752854
171	0x3e65c96a	0.22440115
172	0x3e1a12e7	0.15046273
173	0x3e7699fc	0.24082178
174	0x3e704e72	0.23467425
175	0x3e04752f	0.12935327
176	0xbd02a156	-0.031892143
177	0xbd3abff5	-0.04559322
178	0xbaec18e4	-0.0018012789
179	0x3cce9307	0.025216592
180	0x3d92eaeb	0.07173713
181	0x3d1f62ef	0.03891271
182	0xbd00a1d2	-0.031404324
183	0xbe2f4e94	-0.17119819
184	0x3da4e5be	0.08051632
185	0xbc66d5d0	-0.014089063
186	0x3e519cf8	0.20470035
187	0x3e04c8e6	0.12967262
188	0x3b8882bb	0.004165975
189	0x3e677c57	0.22606026
190	0xbe307fe3	-0.17236285
191	0x3df50462	0.119637266
192	0xbe412ee4	-0.18865544
193	0x3d727eb0	0.05920285
194	0xbe1ac613	-0.15114622
195	0x3d14d78c	0.036338374
196	0xbc80f04b	-0.01573958
197	0xbdd2988f	-0.102830045
198	0x3e4a4cb2	0.1975582
199	0xbe52f229	-0.2060019
200	0x3d451fa3	0.048125874
201	0xbe44831d	-0.19190641
202	0xbd7e20d9	-0.062043045
203	0xbd703b23	-0.058650147
204	0xbe6f8d7e	-0.23393819
205	0x3d3a5e8f	0.045500334
206	0x3d455e91	0.04818589
207	0xbe0b896e	-0.13626644
208	0x3e1e2efd	0.15447612
209	0xbe49af11	-0.19695689
210	0x3db15ddf	0.086604826
211	0x3db71b71	0.08940781
212	0xbe46194f	-0.19345592
213	0xbe0f16fc	-0.13973612
214	0x3c33e1c9	0.010979124
215	0x3e6c1b31	0.23057248
216	0x3e5228b0	0.20523334
217	0xbe69ccfa	-0.22832099
218	0xbe66294f	-0.22476695
219	0x3d8c61a3	0.0685456
220	0x3db7b2eb	0.08969673
221	0x3e7393e0	0.23786879
222	0x3e74cb34	0.23905641
223	0xbe61ee7e	-0.22063634
224	0xbe5ee314	-0.21766311
225	0x3e08e191	0.13367297
226	0x3dd335b3	0.10312977
227	0x3dc7b1ed	0.097507335
228	0xbd5b9eda	-0.05361829
229	0xbcce2e46	-0.02516855
230	0x3d1bf6d8	0.038077205
231	0xbdbdde41	-0.09270907
232	0xbd45ccf6	-0.04829117
233	0x3e2714ea	0.16316572
234	0x3d009c56	0.031399094
235	0xbe34e2d2	-0.1766465
236	0x3e600468	0.21876681
237	0xbe2885aa	-0.16457239
238	0x3e3e8e1d	0.186089
239	0x3e064ada	0.13114491
240	0x3e7442d4	0.23853618
241	0x3e3813ae	0.17976257
242	0xbe6aacc8	-0.22917473
243	0xbe022f1a	-0.1271328
244	0xbe58c6e7	-0.21169625
245	0x3d95bb27	0.07311087
246	0xbc681a9b	-0.0141664995
247	0xbcee871c	-0.02911716
248	0x3d411446	0.047138475
249	0x3e085c50	0.13316464
250	0xbe18186b	-0.14853065
251	0x3dd0700c	0.10177621
252	0x3cac24a7	0.021013571
253	0xbe5275d9	-0.20552768
254	0x3e2623af	0.1622455
255	0x3c24001d	0.010009793

bias_ih_l0 f4 [64]
0	0x3d291599	0.041280363
1	0xbd38f712	-0.0451575
2	0x3e42448b	0.1897146
3	0x3e57ec40	0.21086216
4	0xbe5fde36	-0.2186211
5	0xbd484b1b	-0.04889975
6	0x3e423ed1	0.18969275
7	0xbd59439a	-0.053042985
8	0x3e0c9abb	0.137309
9	0xbe323d9f	-0.17406319
10	0xbe075056	-0.1321424
11	0x3c004955	0.007829984
12	0xbe139c8c	-0.14415187
13	0x3e559dfd	0.20861049
14	0xbe5bb005	-0.21453865
15	0xbdeed6c8	-0.1166206
16	0x3e44fbfd	0.19236751
17	0x3d72a084	0.05923511
18	0x3caa2453	0.020769274
19	0xbdd98285	-0.10620598
20	0x3d3edcba	0.04659722
21	0x3c459ed6	0.012061795
22	0xbe0fac3e	-0.14030549
23	0xbe5a74a2	-0.21333554
24	0xbd98874a	-0.07447679
25	0x3cf570d7	0.029961033
26	0x3e557aa1	0.2084756
27	0x3d9c9343	0.076452754
28	0x3d383fbc	0.044982657
29	0xbe48a104	-0.19592673
30	0x3e8275ec	0.25480592
31	0x3ca9774d	0.02068677
32	0xbdef2d1d	-0.116785266
33	0xbe2bbe7c	-0.16771883
34	0xbe4dfb90	-0.20115495
35	0xbe14de81	-0.14538004
36	0x3e5b43ac	0.21412534
37	0xbdbd03e1	-0.092292555
38	0xbe0b63e8	-0.1361233
39	0x3e27b7e8	0.16378748
40	0x3d3c1109	0.045914683
41	0xbdd3d688	-0.10343653
42	0x3e3d3008	0.18475354
43	0xbca14c45	-0.019689688
44	0x3e25caa8	0.16190588
45	0xbde51c02	-0.11186983
46	0x3e7740af	0.24145769
47	0x3e42f613	0.19039182
48	0xbd675d1f	-0.05648529
49	0x3e6e0e87	0.23247729
50	0xbdb6b18a	-0.08920582
51	0xbc8ecd11	-0.017431768
52	0xbdde0ec8	-0.10842663
53	0xbdc472dc	-0.0959222
54	0x3dff05b4	0.1245226
55	0x3db7d071	0.08975304
56	0xbc5c68ba	-0.013452703
57	0xbe63e55d	-0.22255464
58	0xbccedc72	-0.0252516
59	0xbd48d590	-0.049031794
60	0x3dd89f08	0.10577208
61	0xbe232f61	-0.15936042
62	0xbe485120	-0.19562197
63	0xbdb3f6d5	-0.08787314

bias_hh_l0 f4 [64]
0	0x3d528da8	0.051404625
1	0xbd80c03d	-0.062866665
2	0x3d650518	0.05591306
3	0x3d4a84dc	0.04944311
4	0xbcbdf290	-0.023186952
5	0x3de5fad3	0.112294815
6	0x3e42875a	0.18996945
7	0x3ccd20c4	0.025040038
8	0xbe5c2b31	-0.21500851
9	0x3dc4a72a	0.096021965
10	0x3e11b2f4	0.14228421
11	0xbdf2904d	-0.118439294
12	0xbe687a0f	-0.22702812
13	0x3e3c4391	0.1838515
14	0x3dd853ba	0.105628446
15	0xbcc0f17c	-0.023552649
16	0xbb87f9cd	-0.0041496516
17	0xbe386aac	-0.18009442
18	0x3e055544	0.13020808
19	0x3e2cc6f5	0.16872771
20	0x3d36a713	0.04459293
21	0xbda18f95	-0.07888714
22	0xbdb7b34a	-0.089697435
23	0x3c326441	0.01088816
24	0x3e4c12fa	0.19929114
25	0xbc289f56	-0.010291895
26	0xbe15c2f1	-0.14625145
27	0xbe054b15	-0.13016923
28	0xbe22ec04	-0.15910345
29	0x3e036098	0.12829816
30	0xbe411c4e	-0.18858454
31	0x3e7022be	0.23450753
32	0xbe1175d3	-0.14205103
33	0xbe37cfc4	-0.1795035
34	0x3df68cac	0.1203855
35	0xbd2d3644	-0.04228808
36	0x3c972a24	0.018452711
37	0x3dc456fa	0.09586902
38	0xbe452c56	-0.19255194
39	0xbd77e639	-0.06052229
40	0x3e20a124	0.1568647
41	0xbd0ff3fc	-0.03514479
42	0xbdc890f7	-0.09793275
43	0xbe52b39c	-0.20576328
44	0x3d160358	0.036624283
45	0xbc377ec7	-0.01119966
46	0x3e52c62e	0.20583412
47	0xbe39e1ff	-0.18152617
48	0xbe18731b	-0.14887659
49	0x3d84bfb6	0.064818785
50	0x3dd09a86	0.10185723
51	0xbe18ea22	-0.14933065
52	0xbe32f0b0	-0.17474627
53	0x3e01a95f	0.12662266
54	0x3d8d3392	0.06894602
55	0x3b3d95ca	0.0028928393
56	0xbd0834b6	-0.033253394
57	0x3e40583f	0.18783663
58	0x3e5fc1f7	0.21851335
59	0x3da2c4b0	0.079476714
60	0x3e329ddb	0.1744303
61	0xbce90ddf	-0.028448997
62	0xbdc60bb8	-0.09670204
63	0xbe656ca0	-0.22404718

weight_ih_l1 f4 [64, 16]
0	0xbdee4916	-0.11635034
1	0x3e23c0a9	0.15991463
2	0x3e1e1f94	0.15441734
3	0xbe3f93d0	-0.1870873
4	0xbe013c39	-0.1262063
5	0x3e23a24c	0.1597988
6	0x3dafd10b	0.08584794
7	0x3d79e50a	0.061009444
8	0x3e49e10f	0.1971476
9	0x3e17abd4	0.14811641
10	0x3e4844b3	0.19557457
11	0x3c86e1bd	0.016465062
12	0x3e5406f7	0.20705782
13	0xbe36d6d0	-0.17855382
14	0xbe5a2e9f	-0.21306847
15	0xbe4aa66f	-0.19790052
16	0xbe072028	-0.1319586
17	0xbe0a463a	-0.13503352
18	0xbe6fbc88	-0.23411763
19	0x3e126b75	0.14298804
20	0x3b0ce012	0.002149586
21	0xbc805400	-0.015665054
22	0x3cfd809f	0.03094512
23	0x3c9f9d45	0.019484172
24	0xbe75d621	-0.24007465
25	0x3e783e41	0.24242498
26	0x3e7819f0	0.24228644
27	0x3e80d4a9	0.25162247
28	0xbe39cd2c	-0.18144673
29	0x3dd46e90	0.103726506
30	0xbded06f4	-0.11573592
31	0x3e3b97e3	0.18319659
32	0x3e28f70f	0.16500495
33	0x3e6fbed8	0.23412645
34	0x3d6f54b8	0.058430403
35	0xbba60fc5	-0.005067798
36	0xbe3dcee2	-0.18535951
37	0x3e365331	0.17805173
38	0x3e424a58	0.18973672
39	0x3d713c4b	0.05889539
40	0x3e63b8f6	0.22238526
41	0x3e285ce3	0.16441683
42	0x3d84800b	0.06469735
43	0x3deccc0f	0.115623586
44	0x3e0c910f	0.1372721
45	0x3c820c43	0.015874987
46	0x3e439b70	0.19102263
47	0x3e6dd1c5	0.23224552
48	0xbdd920d1	-0.10601962
49	0x3e42f879	0.19040097
50	0x3daa5dac	0.08318648
51	0x3df11fc6	0.117736384
52	0xbe59a948	-0.21255982
53	0x3e77da8e	0.24204466
54	0xbd8461f5	-0.06463996
55	0x3e747ad3	0.23874979
56	0x3e395a20	0.18100786
57	0x3db4e089	0.08831889
58	0x3ddb26f4	0.10700789
59	0x3e21a397	0.15785061
60	0x3de6abef	0.112632625
61	0xbe0b0061	-0.13574363
62	0xbe80061e	-0.25004667
63	0x3dab7ff1	0.08374012
64	0xbde0ef9a	-0.109832
65	0xbe8454ce	-0.2584595
66	0x3c7ca8ed	0.015421134
67	0xbd016851	-0.031593625
68	0x3e26376c	0.1623208
69	0xbe4e005c	-0.20117325
70	0x3dfa64f8	0.122262895
71	0xbe70ea6d	-0.23526926
72	0x3dc5efc0	0.09664869
73	0x3c2ceb8c	0.010554206
74	0xbdd44d8d	-0.10366354
75	0x3dea3151	0.114351876
76	0x3d91d05f	0.07119822
77	0xbd3f0947	-0.046639707
78	0x3e6059fe	0.2190933
79	0x3c2ff6a4	0.010739956
80	0x3e66e0f0	0.22546744
81	0xbd732eee	-0.059370928
82	0xbe1a7546	-0.15083799
83	0xbe3cbba2	-0.18430951
84	0xbe755700	-0.23958969
85	0x3e689fb2	0.22717169
86	0x3e806e64	0.2508422
87	0xbe690a89	-0.22757925
88	0xbe761c74	-0.24034292
89	0x3dd06173	0.10174837
90	0x3dec7543	0.115458034
91	0xbd8cab90	-0.068686604
92	0x3e1bb24a	0.1520473
93	0x3ce87221	0.028374733
94	0x3e57d25f	0.21076344
95	0xbe017c69	-0.12645115
96	0xbe34104a	-0.17584339
97	0x3d3cc0bc	0.046082243
98	0xbc2c0a66	-0.010500526
99	0xbc1aa6f2	-0.009439217
100	0xbe332092	-0.17492893
101	0x3e2f33ab	0.17109554
102	0x3e5ebffb	0.21752922
103	0xbe3ff9b6	-0.18747601
104	0xbe6e7f41	-0.23290731
105	0x3e0a0d42	0.1348162
106	0xbe3c7c34	-0.18406755
107	0xbe173992	-0.14768055
108	0xbe303d0a	-0.17210785
109	0xbdcf5a63	-0.10124662
110	0xbdf18c96	-0.11794393
111	0x3d6e4153	0.058167767
112	0xbd966cc8	-0.07344967
113	0xbd95a1d4	-0.07306257
114	0x3df02114	0.11725059
115	0x3d942cc2	0.072350994
116	0x3bdf7749	0.00681964
117	0xbdbb7b02	-0.09154321
118	0x3d782896	0.06058558
119	0x3cb58096	0.022156041
120	0xbda21388	-0.079138815
121	0x3cd8c0aa	0.026459057
122	0x3dc0110c	0.093782514
123	0x3e2c44bd	0.16823097
124	0x3d9ca3bb	0.076484166
125	0xbd8f701e	-0.070038065
126	0xbd03b5fa	-0.03215597
127	0xbe584dfd	-0.211235
128	0x3d8c2a6b	0.06844028
129	0x3c815a6d	0.015790189
130	0xbd812d89	-0.06307513
131	0xbe6ad859	-0.22934093
132	0xbdde5973	-0.10856905
133	0x3d7249ab	0.059152286
134	0xbce40d85	-0.027838478
135	0x3e058f6e	0.13042995
136	0x3e2429dc	0.16031593
137	0x3c248835	0.01004224
138	0x3dddae5d	0.10824273
139	0xbe004b1c	-0.12528652
140	0x3df0a556	0.11750285
141	0x3e725720	0.23666048
142	0xbe0f85fb	-0.14015953
143	0xbe6efc05	-0.23338325
144	0xbe259d50	-0.16173291
145	0xbdc09d9b	-0.09405061
146	0x3e4a38d2	0.19748238
147	0x3e5a0b4d	0.21293373
148	0x3e573f37	0.21020208
149	0x3ddac5a8	0.10682231
150	0x3e704600	0.23464203
151	0x3e1edee9	0.15514721
152	0xbe3071bb	-0.17230885
153	0x3dc52cbe	0.096276745
154	0xbbe313d6	-0.006929855
155	0xbd882fd6	-0.06649749
156	0xbe61ea04	-0.22061926
157	0x3cbb5718	0.022868678
158	0x3d85854f	0.06519567
159	0xbe61cfb0	-0.22051883
160	0x3db29aa0	0.08720899
161	0xbe491323	-0.19636206
162	0xbca02c56	-0.019552391
163	0x3e47cd9b	0.19512026
164	0xbdeb0ad9	-0.114766784
165	0x3dcede08	0.10100943
166	0xbdcd8b3d	-0.10036323
167	0xbe3abc64	-0.18235928
168	0xbe5bb8a2	-0.2145715
169	0x3e296cf4	0.16545469
170	0x3dd3e863	0.103470586
171	0x3da3156c	0.0796307
172	0xbcd98506	-0.026552688
173	0x3e8289bf	0.25495717
174	0xbe18d9f3	-0.14926891
175	0x3e2eab41	0.17057516
176	0x3e1c5254	0.1526578
177	0x3dc9602d	0.09832797
178	0xbe11a3a5	-0.14222582
179	0x3d15626b	0.03647081
180	0xbdce297d	-0.10066507
181	0xbe356ca6	-0.17717227
182	0xbe61ef8a	-0.22064033
183	0x3d797ed7	0.06091198
184	0x3c5d725f	0.013516038
185	0x3e71ef2a	0.2362639
186	0xbe5b24f6	-0.21400818
187	0x3c8411d4	0.016121782
188	0xbe0d7e70	-0.13817763
189	0xbe3f4bef	-0.1868131
190	0x3e506a27	0.20352994
191	0xbe33300d	-0.17498799
192	0xbc33a77e	-0.010965226
193	0x3cab5b9f	0.020917712
194	0xbdb4aacf	-0.08821642
195	0x3e439607	0.191002
196	0x3d932192	0.071841374
197	0xbc3cdd24	-0.011527333
198	0x3de5e17b	0.112246476
199	0x3e7ae204	0.2450028
200	0x3e57435c	0.2102179
201	0xbdf64253	-0.12024369
202	0xbdf0d128	-0.117586434
203	0x3e4ef443	0.20210366
204	0xbe31167f	-0.17293738
205	0x3e6a2d79	0.22868909
206	0x3dfffef5	0.12499801
207	0xbc9cefa2	-0.019157235
208	0xbd90c0b7	-0.070680074
209	0xbc80e0ad	-0.015732134
210	0x3dd0e517	0.101999454
211	0x3c36b000	0.01115036
212	0x3e4f31f4	0.202339
213	0xbd80c668	-0.06287843
214	0xbe1dcbb1	-0.15409733
215	0x3c2a8ce1	0.010409565
216	0x3e439883	0.19101147
217	0x3c4aacf5	0.012370338
218	0x3e2a4438	0.16627586
219	0x3e809ab3	0.25118026
220	0xbe17d883	-0.14828686
221	0xbe0bf26f	-0.136667
222	0xbe5f4693	-0.21804266
223	0x3dc75ad8	0.09734124
224	0x3db51562	0.08841969
225	0x3df889a3	0.12135627
226	0x3dba41d5	0.09094588
227	0x3e67770e	0.2260401
228	0x3e18f3c8	0.14936745
229	0xbdc181a4	-0.09448555
230	0x3c9e7ae1	0.019345703
231	0x3da42cc3	0.0801635
232	0xbdae8b18	-0.08522624
233	0x3e63953a	0.22224894
234	0xbdbe53a9	-0.09293301
235	0xbe70e16d	-0.23523493
236	0xbd99459a	-0.074839786
237	0x3e11c81a	0.14236489
238	0xbe703d89	-0.23460974
239	0xbc894c2a	-0.01675995
240	0x3e5f0146	0.2177783
241	0x3dadc851	0.08485473
242	0x3e850775	0.25982252
243	0x3e1466bf	0.1449232
244	0xbdee593d	-0.116381146
245	0xbdf0943a	-0.11747022
246	0x3cde35db	0.02712529
247	0x3c840eaf	0.016120283
248	0xbe155e7f	-0.14586829
249	0xbe1ceae5	-0.1532398
250	0x3d8c3a34	0.06847039
251	0xbab91ee2	-0.0014123584
252	0xbe4ee8c8	-0.20205986
253	0xbe04d2ed	-0.12971087
254	0x3d46931d	0.048480142
255	0xbe0f2e28	-0.13982451

weight_hh_l1 f4 [64, 16]
0	0xbe5e94b6	-0.21736416
1	0xbe400256	-0.18750891
2	0xbe0ef393	-0.13960104
3	0x3e456cf7	0.19279848
4	0xbd460877	-0.048347916
5	0x3e59c154	0.21265155
6	0x3daf4270	0.08557594
7	0x3e8173b4	0.25283587
8	0x3da99735	0.082807936
9	0x3d9bdbac	0.076102585
10	0x3d059923	0.032616746
11	0xbcf425c4	-0.029803164
12	0xbca054a5	-0.019571612
13	0x3e3d07c3	0.18459992
14	0x3e3b1513	0.18269758
15	0xbbdf95fa	-0.0068232985
16	0xbcadf624	-0.021235533
17	0xbe7b46e2	-0.24538758
18	0xbd7dd4b5	-0.06197043
19	0x3e0d04b9	0.13771333
20	0xbdd21463	-0.10257795
21	0x3cb23fe9	0.02175899
22	0xbc8fe4a5	-0.01756508
23	0x3e37d742	0.17953208
24	0xbdb45977	-0.088061266
25	0xbe51ecd8	-0.20500505
26	0x3e0ea439	0.13929833
27	0xbd3de52f	-0.046361145
28	0xbe4c48a4	-0.19949585
29	0x3dcfde17	0.10149782
30	0x3b3b9acb	0.00286262
31	0x3e15e51b	0.14638178
32	0xbdd1788d	-0.10228071
33	0x3e7e8a52	0.24857453
34	0x3db195d9	0.08671159
35	0x3e2f0edb	0.1709551
36	0xbe048779	-0.12942304
37	0xbd6126ee	-0.054968767
38	0x3e468f87	0.19390689
39	0x3e77ea6a	0.24210516
40	0x3c5fe35c	0.013665047
41	0xbdd17ea8	-0.10229236
42	0xbd674819	-0.056465242
43	0xbdf3ca01	-0.119037636
44	0xbd2b0a3d	-0.04175781
45	0x3cd055a0	0.025431454
46	0xbe512b51	-0.2042668
47	0x3e644670	0.22292495
48	0xbe2fc808	-0.1716615
49	0x3ddf07e9	0.108901806
50	0xbe4dc42d	-0.20094366
51	0xbc8d43d0	-0.01724425
52	0x3dffd0ab	0.12490972
53	0x3e5f67fc	0.2181701
54	0xbe13c2c9	-0.14429773
55	0x3e6459fa	0.22299948
56	0x3db3a9b6	0.08772604
57	0xbe3a4cec	-0.18193406
58	0xbc8da490	-0.017290384
59	0xbe0614d7	-0.13093887
60	0x3e036238	0.12830436
61	0xbe43401f	-0.19067429
62	0xbdb21526	-0.0869544
63	0x3e5196b8	0.20467651
64	0xbda0d904	-0.078538924
65	0x3e4698ea	0.1939427
66	0x3ddb8571	0.10718811
67	0xbcd96b58	-0.026540443
68	0xbe3b39ff	-0.18283843
69	0xbe4c519a	-0.19953004
70	0xbde3f088	-0.11129862
71	0x3e07ebeb	0.1327359
72	0x3e5b6f40	0.21429157
73	0xbe3cdbaa	-0.1844317
74	0x3e535563	0.20638041
75	0xbe331159	-0.17487086
76	0x3dea155f	0.114298575
77	0x3c4f781b	0.012662913
78	0xbda23090	-0.07919419
79	0x3e28f8d2	0.16501167
80	0xbe52f68d	-0.20601864
81	0xbe3a7914	-0.1821025
82	0xbd5775f4	-0.052602723
83	0x3e6cdb5c	0.23130554
84	0x3e10b09d	0.14129873
85	0x3dffdd00	0.12493324
86	0x3d88944a	0.06668909
87	0x3ddba903	0.10725596
88	0x3e500c89	0.20317282
89	0x3e0d160c	0.13777941
90	0xbdfef9e4	-0.124500066
91	0xbe591f0f	-0.21203254
92	0x3c4119cb	0.011785935
93	0x3a9acf1c	0.0011810991
94	0xbda72fe9	-0.08163435
95	0xbdb0d65f	-0.08634638
96	0x3de371c0	0.111056805
97	0xbe7dae13	-0.24773435
98	0xbe783c03	-0.24241643
99	0x3e1dba9d	0.15403219
100	0xbdf155fa	-0.11783977
101	0x3e1e38b0	0.15451312
102	0xbe718496	-0.23585734
103	0xbdc06360	-0.09393954
104	0xbe674a94	-0.22587043
105	0xbd8f429a	-0.06995125
106	0x3e447196	0.19183955
107	0x3da54ca7	0.08071261
108	0xbd3b074a	-0.04566125
109	0x3e6f615e	0.23376986
110	0x3df77f27	0.12084799
111	0xbe76aa7b	-0.2408847
112	0x3e5b0d3f	0.21391772
113	0xbd6c867e	-0.05774545
114	0xbdf78b77	-0.12087148
115	0xbe571fca	-0.2100822
116	0x3e1aa0e4	0.15100437
117	0xbe721a1d	-0.23642774
118	0xbcba3426	-0.022729944
119	0x3e3c9dd6	0.18419585
120	0x3e1334de	0.14375636
121	0xbe5603b0	-0.20899844
122	0xbe2ffdc3	-0.17186646
123	0xbd4245d1	-0.047429863
124	0x3e19c3e4	0.15016133
125	0xbdacdcb9	-0.08440537
126	0x3e562e30	0.20916057
127	0xbe417651	-0.1889279
128	0xbe40316b	-0.18768851
129	0xbe07b0da	-0.13251057
130	0xbcba97fb	-0.022777548
131	0x3e118e5d	0.14214464
132	0x3e33642d	0.17518683
133	0xbc93465d	-0.017977888
134	0x3e3c6f6a	0.18401876
135	0x3e2c1520	0.16804934
136	0x3e7f59a5	0.2493654
137	0xbe2def32	-0.16985777
138	0x3dd8d4ec	0.105874866
139	0x3e790452	0.24318054
140	0x3df6000b	0.12011727
141	0xbe3d0ae8	-0.18461192
142	0x3e475234	0.19464952
143	0x3e3d7d44	0.18504816
144	0x3ceb41ca	0.028717894
145	0xbe51ac49	-0.20475878
146	0xbbc08289	-0.005874936
147	0x3df63a06	0.12022786
148	0x3c3d5160	0.011555046
149	0xbe2acd5b	-0.166799
150	0x3d9dce5e	0.07705377
151	0xbc268066	-0.0101624485
152	0x3c1fcdd1	0.00975366
153	0x3e518e77	0.20464502
154	0xbe6de6a7	-0.23232518
155	0xbc789868	-0.015173055
156	0x3e259805	0.16171272
157	0x3e424334	0.18970948
158	0xbe318451	-0.17335631
159	0x3e248b31	0.16068722
160	0x3e78aac9	0.242839
161	0xbd32ddba	-0.043668486
162	0x3def94a2	0.11698271
163	0x3cad1495	0.021127978
164	0x3e24be19	0.16088142
165	0xbe45ae0b	-0.19304673
166	0x3e7081b9	0.23486985
167	0xbc6568eb	-0.014002065
168	0x3dd42c12	0.10359968
169	0x3e3e1dac	0.18566006
170	0xbe613471	-0.21992661
171	0xbd803bed	-0.0626143
172	0x3d492cef	0.049115118
173	0x3c5a0aef	0.013308271
174	0xbe13828a	-0.14405265
175	0xbde62a7e	-0.112385735
176	0xbd552bdc	-0.05204378
177	0x3dd2a44e	0.10285245
178	0x3e17b6e6	0.14815864
179	0xbd5657e2	-0.052329905
180	0x3e2eab62	0.17057565
181	0xbccf50a1	-0.025307002
182	0xbd9dbcfc	-0.077020615
183	0xbd0d15ed	-0.03444474
184	0x3e081aba	0.13291445
185	0x3e6114af	0.21980546
186	0x3ce67c7f	0.028135536
187	0x3e6f923f	0.23395632
188	0x3e3e72d2	0.18598488
189	0xbe3d02de	-0.18458125
190	0x3e458a62	0.1929107
191	0x3e239574	0.1597498
192	0xbe80f843	-0.2518941
193	0xbde41808	-0.11137396
194	0xbdcdda71	-0.1005143
195	0xbcd767d4	-0.026294626
196	0x3e1d5864	0.1536575
197	0x3e1dbce4	0.15404087
198	0x3b88fad5	0.004180292
199	0x3e5c8e25	0.21538599
200	0x3e440bfd	0.19145198
201	0x3e55f34d	0.20893593
202	0x3e64555c	0.22298187
203	0xbd5aae72	-0.05338902
204	0x3c9a07ea	0.018802602
205	0x3e523f8a	0.2053205
206	0xbd0ff6d5	-0.035147507
207	0x3e755131	0.23956753
208	0xbe07694b	-0.1322376
209	0x3dfb7af4	0.12279311
210	0x3df82442	0.12116291
211	0x3e65c5c0	0.22438717
212	0xbe7fa8ac	-0.24966687
213	0x3c8c95a5	0.0171612
214	0xbe2fe4c7	-0.17177115
215	0xbe0da2be	-0.13831612
216	0xbe4e62fa	-0.20154944
217	0xbd583dc9	-0.052793298
218	0xbd690c1e	-0.05689632
219	0xbe73dfc7	-0.23815833
220	0xbe17d422	-0.14827016
221	0xbd85902e	-0.06521641
222	0x3dabe539	0.0839333
223	0x3d8de311	0.06928075
224	0xbe46a2dc	-0.19398063
225	0xbe1ee8ee	-0.15518543
226	0xbc07e876	-0.008295169
227	0xbe70925f	-0.23493336
228	0xbdf2995f	-0.118456595
229	0x3e077b04	0.1323052
230	0x3dc78e90	0.097439885
231	0x3dde48ea	0.10853751
232	0x3debef84	0.11520293
233	0x3e51c565	0.20485456
234	0x3d8b80c5	0.0681167
235	0xbd01e03d	-0.03170799
236	0xbe25e3c2	-0.16200164
237	0xbe6dbe94	-0.23217231
238	0xbc7ddaa4	-0.0154940225
239	0x3e23b0a8	0.15985358
240	0x3cd9e17a	0.026596773
241	0xbe66cef9	-0.22539891
242	0xbd2f3265	-0.04277267
243	0xbdca9122	-0.09890963
244	0xbc0c115d	-0.008549062
245	0xbdfe4038	-0.124145925
246	0xbdcc8f74	-0.09988299
247	0xbd89e1ae	-0.06732498
248	0xbe73bdc6	-0.23802862
249	0xbdc94655	-0.09827868
250	0xbddc5cd1	-0.10759891
251	0xbc7d8f92	-0.015476124
252	0x3e40fbfa	0.18846121
253	0x3e46e726	0.19424114
254	0xbd823cd8	-0.06359261
255	0xbe6d150b	-0.23152559

bias_ih_l1 f4 [64]
0	0x3e5d572c	0.21615285
1	0xbcfb84b9	-0.030702936
2	0xbe2ea353	-0.17054491
3	0xbe5dbabc	-0.21653265
4	0x3e7b77fb	0.24557488
5	0xbdb5e05a	-0.08880682
6	0x3e3e3560	0.18575048
7	0xbcee58f9	-0.02909516
8	0x3dc39dc9	0.095515795
9	0x3e15e5ad	0.14638396
10	0xbe223310	-0.15839791
11	0x3d513dc3	0.05108429
12	0x3d8d9868	0.06913835
13	0x3e7bfba1	0.24607708
14	0x3e247f23	0.16064124
15	0xbd12b23a	-0.0358145
16	0x3e2b8a85	0.1675206
17	0x3de5341a	0.11191578
18	0xbe79de2f	-0.24401163
19	0x3d2a4f2f	0.04157942
20	0xbe0f2409	-0.1397859
21	0x3e1dd7db	0.15414374
22	0x3e763c35	0.24046405
23	0x3d859d21	0.065241106
24	0xbb985671	-0.0046489765
25	0x3c6481dc	0.0139469765
26	0x3d885d5d	0.06658433
27	0x3d90bea6	0.07067613
28	0x3d91cd3a	0.07119222
29	0xbdf44ee0	-0.11929107
30	0x3db0136a	0.08597453
31	0x3dade158	0.084902465
32	0x3d488017	0.04895028
33	0xbd9af454	-0.07566133
34	0xbe725c1c	-0.2366795
35	0x3d4c9306	0.0499449
36	0xbe4af939	-0.19821633
37	0xbdc9921b	-0.098423205
38	0x3e37b236	0.17939076
39	0xbdd70a07	-0.104999594
40	0x3d5f6ef9	0.05454919
41	0xbb0b5942	-0.0021262919
42	0x3de35220	0.110996485
43	0xbe5b96df	-0.21444272
44	0x3ca61ea7	0.020278288
45	0xbe7b7ef9	-0.24560155
46	0x3c8daf84	0.017295606
47	0xbce8d8da	-0.028423715
48	0xbdd8afb6	-0.10580389
49	0xbd3a8f3b	-0.04554675
50	0x3e1a515d	0.150701
51	0xbe532bc1	-0.2062216
52	0x3e2fb5a6	0.17159137
53	0xbe42ec3a	-0.19035426
54	0xbe1389a7	-0.14407979
55	0xbe19127f	-0.14948462
56	0x3e509af4	0.2037161
57	0x3c5c5845	0.0134487795
58	0x3e74beee	0.23900959
59	0x3db12920	0.08650422
60	0x3e40b830	0.18820262
61	0x3d82deee	0.06390177
62	0xbe742e8b	-0.2384588
63	0xbdbe5fd2	-0.0929562

bias_hh_l1 f4 [64]
0	0xbe43dd67	-0.19127427
1	0xbd9ea993	-0.077471875
2	0xbe4ea917	-0.2018169
3	0x3e14da60	0.14536428
4	0x3de3633a	0.1110291
5	0xbe535390	-0.20637345
6	0x3e0e5a55	0.13901646
7	0xbe68af1b	-0.22723047
8	0xbd3a2f3c	-0.045455202
9	0x3ca1814d	0.019714976
10	0xbe34c959	-0.17654933
11	0x3e0e6bd5	0.13908322
12	0x3dd06dc1	0.10177184
13	0x3e465a4e	0.19370386
14	0xbe4dd821	-0.20101978
15	0xbd54d195	-0.051957686
16	0x3cac0cef	0.021002261
17	0x3e061e5d	0.1309752
18	0xbe390327	-0.18067609
19	0x3e66c1c2	0.2253485
20	0x3dad2290	0.08453858
21	0xbde9a274	-0.114079386
22	0x3e3f037f	0.18653677
23	0xbba35fe8	-0.004985798
24	0x3e6ef451	0.23335387
25	0xbe38fc54	-0.18065006
26	0x3e162f7c	0.14666551
27	0xbda7533b	-0.08170172
28	0x3b41679a	0.0029511214
29	0x3e388940	0.18021107
30	0x3dc05a6b	0.09392246
31	0x3e686d19	0.22697867
32	0xbe1962b8	-0.14979064
33	0x3d2ab6f2	0.041678376
34	0x3db5cbc9	0.088767596
35	0x3e08c65f	0.13356923
36	0x3e2c3a90	0.16819215
37	0x3dc5ba5a	0.09654684
38	0x3e2f1009	0.1709596
39	0xbd93e756	-0.07221858
40	0xbc1dd9ed	-0.009634477
41	0x3df43213	0.119236134
42	0xbe54eaf0	-0.20792747
43	0xbdd3c90a	-0.103410795
44	0x3e195724	0.14974648
45	0xbe278d1e	-0.16362426
46	0x3c82f1e4	0.015984483
47	0xbe740208	-0.238289
48	0x3dc23fae	0.09484802
49	0xbe0c2138	-0.13684547
50	0x3e2ab75a	0.16671506
51	0xbe03a7a7	-0.12856923
52	0x3d3defcf	0.046371277
53	0xbe748174	-0.23877507
54	0xbd12f94e	-0.035882287
55	0xbc6c9dca	-0.014441917
56	0xbe3d6696	-0.18496165
57	0xbe4b6d82	-0.19865993
58	0x3d6d4c49	0.05793408
59	0xbdfc1015	-0.12307755
60	0x3e3c77d4	0.18405086
61	0xbe3edffc	-0.18640131
62	0xbe381bdf	-0.17979382
63	0xbdfba809	-0.122879095

weight f4 [1, 16]
0	0xbdd9e34d	-0.10639057
1	0x3e190a9f	0.14945458
2	0x3e240d61	0.16020729
3	0x3dd6eb9e	0.10494159
4	0xbdccc864	-0.09999159
5	0x3e1330ee	0.14374134
6	0x3e06ebae	0.13175842
7	0x3e4fed26	0.20305309
8	0x3e400b72	0.18754366
9	0xbe345da2	-0.17613843
10	0xbe0de463	-0.13856654
11	0xbda78513	-0.08179679
12	0xbd0bb1a5	-0.034104962
13	0xbe0a2c75	-0.13493522
14	0xbd1cdebb	-0.03829835
15	0x3cceab32	0.025228117
