competition/result/no_params/trained_model/all_model/critic_num_epoch_1.pth (torch, 22264 bytes, 10 tensors)

weight_ih_l0 f4 [64, 11]
00000000: 1491 f1bd b80b c4bd 185e ec3d b4a0 053e
00000010: 8a77 0dbe f034 03be 08cc 09be 8849 27be
00000020: 6071 21bd eafb 063e c0b5 683e 0076 fdbd
00000030: 7e55 30be b2f0 2e3e 80fd 09bd 942a 7c3e
00000040: f07d b6bd d67a 3cbe 6078 f6bd c065 15bd
00000050: 6e70 333e 68de 103e aed0 6bbe e0eb c0bd
00000060: a8ed 523d d25d 3b3e 787b 153d 923e 53be
00000070: d462 173e c036 273d 2491 0b3e da32 76be
00000080: 985e 85bd b859 13bd 0837 673d 0435 f0bd
00000090: 8c38 7ebe 888d 20bd b0fc ccbd 2c2d 863d
000000a0: 3022 763e d0f4 9abc 68f0 3ebe d07f 9e3c
000000b0: 169b 683e 7c8f c83d 2c5a 5e3e 5c60 133e
000000c0: b65a 193e b45a 013e 80ee c53b 48b8 fcbd
000000d0: c06e 17bc 0048 c23b c07d 233c 667d 633e
000000e0: 90ba 953c a099 073d 3860 7fbe f0aa b03c
000000f0: 5a53 01be a02d 89bd 7886 993d e8c5 2ebe
00000100: 18d4 353d 2c8d cb3d 7c49 15be 188e 6d3e
00000110: 7ce9 963d d831 953d 64bb d1bd d0f8 ae3c
00000120: 081a 363d 8855 813d a028 ffbc fc04 e33d
00000130: 5093 133d 70f7 293e f0fa 6d3d 0011 0a3c
00000140: 5457 323e f8c3 62bd 045f 97bd ca46 4bbe
00000150: bc46 e83d 0064 ccbc f078 b53d 9481 f83d
00000160: d4b3 133e a0dd e03d 20c5 97bc 6c40 b23d
00000170: d835 553e 0488 a7bd a00e 10bd 84ac 9bbd
00000180: 48ce 4bbd 9670 0dbe baf1 3e3e f8e9 44bd
00000190: f81e 4ebd a60a 423e 262d 2dbe 7e4c 11be
000001a0: 90e5 48be 8019 60bd 2010 753c 8033 de3b
000001b0: d674 733e fc29 6d3e ced3 63be eced febd
000001c0: a83f 563e f8b2 06bd a8b2 efbd 0088 093d
000001d0: 8ca7 24be aa11 55be 56ab 693e 1091 3bbd
000001e0: 0e6a 413e 88c2 073d 485c ea3d acb6 a8bd
000001f0: 9eae 53be 3880 1fbd 14a4 053e c010 56be
00000200: c069 973c aa08 13be 98b5 7b3e 9001 b0bc
00000210: 0caa 2abe 4e9f 4b3e 90a3 b63c 5869 303d
00000220: 32ef 083e e412 1ebe 3455 c63d 8cf0 d8bd
00000230: 82e8 29be 3c8f 413e f0fd 683d d0cf 95bc
00000240: 1c81 c13d 4c7d 4e3e 2000 2d3c 28cc 54bd
00000250: 12aa 623e fce5 cdbd fc0e 9e3d 90af d23c
00000260: 06f2 1b3e e054 0c3e b0f0 bb3d 36be 08be
00000270: b0c3 cb3d c675 273e a221 3fbe fc5f e43d
00000280: 00ff b6ba 3c51 113e 7697 0d3e 3087 e63c
00000290: 6a77 313e d86d bc3d 605c 5c3e 864d 583e
000002a0: b69d 33be 5ce0 f8bd a881 14be 3246 143e
000002b0: 6020 aebc 4eaf 08be 8eab 563e 8255 783e
000002c0: d0eb 24bd a8ac 4b3e fca2 23be 4030 fabc
000002d0: 54ec 2ebe fc27 8d3d 0688 3d3e 9466 7e3e
000002e0: 4860 293d 88a6 7e3d c0d2 733e f891 06be
000002f0: 4221 4abe 988f 49be ee9a 4e3e 6074 5d3c
00000300: c864 62be a8b5 e0bd b8b8 513e f81d 0f3e
00000310: c0fc 39bc ac31 433e 9819 523e 8072 713e
00000320: d04b 8fbc e887 1a3e ba73 3d3e f8a4 7a3e
00000330: f466 23be 80d0 d6bb 72b2 43be c484 a8bd
00000340: f04e 073e ac1e e5bd 60e3 59bc 46a2 363e
00000350: 9087 883d d09f 5b3e a4d1 d9bd b828 e53d
00000360: 8c66 7bbe b42d e83d b4c6 89bd d047 acbc
00000370: 1426 713e 9861 003e 2c65 143e 0e19 453e
00000380: 78f3 a83d 14f3 e83d 2694 3f3e 90ac 1b3e
00000390: d0a4 40be c034 433e 9896 3e3e 300f f73d
000003a0: 6860 e4bd 90a7 c5bd 00a0 a2bd 40bf 3dbe
000003b0: c8a2 dcbd d4a1 553e 6096 5d3d 4285 583e
000003c0: 0884 0f3e f8e6 3e3e 76ac 353e 50a5 943c
000003d0: 803b 8fbb 0612 17be 88c0 46bd 4c74 e53d
000003e0: 8a3b 6a3e 3cbd 82bd 00bd 7c3d f69a 343e
000003f0: 8643 133e 906b cfbc dc00 7dbe 1824 b1bd
-0.117952496 -0.09572548 0.115413845 0.13049585 -0.13815132 -0.12813163 -0.13456738 -0.16336644
-0.039414763 0.13182035 0.22725582 -0.12376022 -0.17220113 0.17084005 -0.033689022 0.24625617
-0.089107394 -0.18406233 -0.120346785 -0.03647399 0.17523357 0.14147341 -0.23028824 -0.094199896
0.051496178 0.18297508 0.036494702 -0.20629337 0.14783794 0.040823698 0.13629586 -0.24042836
-0.06512183 -0.035974234 0.056448966 -0.11728862 -0.24826258 -0.039197475 -0.10009134 0.065515846
0.24036479 -0.018915564 -0.18646395 0.019348055 0.2271541 0.097929925 0.21714085 0.14392227
0.1497601 0.12632257 0.0060403943 -0.12339836 -0.009242713 0.005928993 0.009978712 0.22215804
0.018277436 0.033105493 -0.24939048 0.021565884 -0.12629452 -0.066981554 0.07496351 -0.17067683
0.04439172 0.09939036 -0.14578813 0.23198736 0.07368752 0.072848976 -0.1024082 0.021358877
0.04445842 0.06315142 -0.031147301 0.11084935 0.03602916 0.16598296 0.05810064 0.008426905
0.17416126 -0.05536267 -0.0739117 -0.19851223 0.113416165 -0.024950027 0.088609576 0.1213409
0.14424068 0.109797716 -0.018526614 0.08703694 0.20821321 -0.0818024 -0.035170197 -0.07601264
-0.049757272 -0.1381248 0.18646899 -0.048074692 -0.050322503 0.18949375 -0.16911754 -0.14189336
-0.19618821 -0.05471182 0.014957458 0.0067810416 0.23775038 0.23160547 -0.22248766 -0.12447724
0.2092272 -0.03288552 -0.11703998 0.033576965 -0.16079539 -0.2080752 0.22819266 -0.04579264
0.18888113 0.033144504 0.114433825 -0.08237967 -0.2067208 -0.03894064 0.13050872 -0.20904827
0.018483043 -0.14358774 0.24580991 -0.02148512 -0.1666643 0.19884989 0.02229479 0.043069214
0.13372496 -0.15436894 0.0968422 -0.10592756 -0.16592601 0.18902296 0.0568828 -0.01828757
0.09448454 0.20164984 0.010559112 -0.05195251 0.22135189 -0.10053632 0.07717702 0.02571848
0.15229043 0.13704252 0.09176767 -0.1335381 0.09949434 0.16353521 -0.18665174 0.1115112
-0.0013961494 0.14191145 0.13827309 0.028140634 0.17330709 0.092006385 0.21519613 0.21123323
-0.1754063 -0.12152168 -0.14502585 0.14479902 -0.021255672 -0.13348123 0.2096388 0.24251369
-0.04026395 0.19890082 -0.15980142 -0.030540586 -0.1708234 0.06892392 0.1850892 0.24843818
0.041351587 0.062170535 0.23810863 -0.1314162 -0.1973925 -0.19683683 0.20176288 0.0135165155
-0.22108757 -0.10972148 0.20480621 0.13976276 -0.011351764 0.19061917 0.20517576 0.23578835
-0.017492205 0.15090907 0.18501177 0.24476993 -0.15957242 -0.006555617 -0.1911104 -0.08228448
0.13213706 -0.11187491 -0.013298839 0.1783534 0.066664815 0.21447682 -0.10635689 0.11189407
-0.24550837 0.11336842 -0.06727353 -0.021030337 0.23549682 0.12537229 0.14491719 0.19247839
0.08249563 0.113744885 0.18708858 0.15202546 -0.18812871 0.19063091 0.18612134 0.12063444
-0.111512005 -0.09651101 -0.07940674 -0.18529987 -0.107732356 0.20862514 0.054098487 0.21144584
0.1401521 0.18642795 0.1774157 0.018145233 -0.0043711066 -0.14752969 -0.048523456 0.112038225
0.22874275 -0.0638375 0.061703682 0.17637238 0.14381227 -0.025319844 -0.24707359 -0.086494625

weight_hh_l0 f4 [64, 16]
00000000: 0a54 0a3e bc5b c53d f0a0 6dbe d0c3 45bd
00000010: 944d 1d3e c8c1 343e 12dc 60be f051 983d
00000020: 5ca0 f9bd 4881 003d 389d 42be e4c3 f1bd
00000030: f2d8 163e 7a89 223e a860 313e f0c4 c5bc
00000040: c063 b73b 9e52 0f3e b4b5 36be 9640 653e
00000050: c4c4 60be a6c0 0cbe fabd 30be 8660 69be
00000060: 00e7 dcba 1aaf 233e 3683 74be fcf5 93bd
00000070: 8cf1 8bbd 4034 d53c c04d 26bd 502c b43d
00000080: 20b4 a83d 44b5 fdbd 605d 403e 0675 04be
00000090: 88cb c0bd 70b4 0cbe 804d 953d c860 5ebd
000000a0: b867 d5bd 4039 6c3d 1819 0d3e 3660 29be
000000b0: 10e0 903c e0cb ff3c 40b7 c93b 6042 373d
000000c0: 08eb 3cbe b8cd 13be d098 903d a8eb 71be
000000d0: c8ba e83d a05a b5bd f828 593e cec7 2bbe
000000e0: b85f 3ebe 2e10 2bbe 701a 52bd fcec b0bd
000000f0: 00b5 c03c e421 ad3d 341d c93d 2279 08be
00000100: 12bc 153e 2e74 153e b0fe a53c 3022 ed3c
00000110: b01a 3d3d d804 7e3e 06ab 7d3e aafe 303e
00000120: 5899 3b3e 5af4 7abe 1cd7 e5bd 92db 663e
00000130: a874 0bbe 64f7 f73d dc2d 913d 4809 15bd
00000140: 0067 27bc 9aec 18be a6ef 6abe 2a20 29be
00000150: d03f f73d 60ce 36be 5443 6f3e f444 3abe
00000160: 4652 26be c0e9 3f3d 602c 523c 7cec 613e
00000170: 6a6a 353e bc60 4cbe 706f 8fbc 4042 e73b
00000180: 1ca5 333e 30aa a43d f094 5abd c67b 77be
00000190: aede 453e 0455 f0bd 10fe 0a3e 0ec8 62be
000001a0: 7ca4 363e 681b 3dbd 3c3c 723e b6d0 4e3e
000001b0: e0df 6f3c a252 6ebe a627 5fbe 2822 d3bd
000001c0: e000 6a3c 581f a1bd 1eb6 0cbe 52d7 3e3e
000001d0: 88fd 763e 5475 b13d aeab 54be c068 ddbc
000001e0: 8040 36be e05f ed3c aee3 36be 987a 243d
000001f0: 2c10 28be 80b9 f83d 2207 4c3e 28d3 503e
00000200: c8d4 77be 2883 eabd 5a57 493e ec4a ff3d
00000210: 3a0b 53be 30fc 493d b4b5 e03d 0ae7 343e
00000220: 001c abba dcc8 ccbd 449b 5f3e 32d0 5cbe
00000230: d8b5 42be e0ab 59bd 6603 653e 3c46 0f3e
00000240: 38eb 823d 6091 c4bc 7c7a a4bd 3446 2b3e
00000250: 0445 aebd f48a 753e 48bc a8bd a6c7 5bbe
00000260: 7836 c63d a093 f9bd 0689 02be 6477 7fbe
00000270: 60ba c4bd 541b b7bd 008b 1a3e d06a 6b3d
00000280: 9e65 2e3e ee15 3ebe 3a7d 0ebe 307f f83c
00000290: a4c5 61be 44dd 7fbe e8ce 2dbe 6c40 bb3d
000002a0: 868d 66be a004 453e 34bb 64be f0a8 1e3e
000002b0: c0a7 9bbc d860 7bbd 0cea c63d 009a d0ba
000002c0: eab4 58be 9c00 63be d8b1 b6bd 2c13 e6bd
000002d0: 8456 aa3d f871 3f3e 1056 86bc 40b0 47be
000002e0: 7cbc 46be 3e05 11be 16da 2cbe 343b a63d
000002f0: d84e 08bd 78d6 32be 9042 db3d 503c f73c
00000300: 90fc f3bc 62a5 4ebe 1024 663e 800d fd3d
00000310: 1813 46bd 006a 2dba b8f0 04be e0e0 513c
00000320: 50ac eb3d 809d 233d f852 d63d ac8a c43d
00000330: 8061 863c e001 4fbc d09b b13c 109e 29bd
00000340: 3808 7a3d 90b3 0a3e 004e aabd 9292 313e
00000350: 767f 6cbe 8626 713e 28d1 8d3d 148d e43d
00000360: 2401 8a3d a423 453e 38a9 09be 76f3 783e
00000370: 3803 f93d a85e abbd d870 e23d 7076 bebc
00000380: 607f 24be 30ee 17be 3a5c 7d3e 98d3 40be
00000390: 40d7 18bc 4ebf 4e3e d484 aa3d f095 903c
000003a0: a81d 1c3d 5839 d5bd e0e0 d63c d874 943d
000003b0: ca87 5d3e 18f0 553e d05e 6c3d 0019 ecbd
000003c0: 7cf5 c6bd 383c 59be baba 283e 402b ff3c
000003d0: fe76 163e 44d6 213e d269 473e 7845 12be
000003e0: c0f0 b7bc acb9 2bbe 6025 40bd b0f6 5c3d
000003f0: 7c81 af3d e82b 9b3d 441e d0bd 7c16 d8bd
0.13508621 0.096366376 -0.23205924 -0.048282444 0.15361625 0.17652047 -0.2195895 0.07437503
-0.12188789 0.031373292 -0.19005287 -0.11804941 0.14731196 0.15872756 0.17322028 -0.024141759
0.005596608 0.1399636 -0.17842752 0.22387919 -0.2195006 -0.13745365 -0.1725997 -0.22790727
-0.0016853511 0.15984765 -0.23878178 -0.07224652 -0.06833181 0.026025891 -0.040601492 0.087975144
0.08237481 -0.12388089 0.1878562 -0.12935266 -0.094138205 -0.13740706 0.072901726 -0.054291517
-0.104201734 0.057671785 0.13779104 -0.16540608 0.017684966 0.031225145 0.0061558783 0.044741035
-0.18449032 -0.14433944 0.07060397 -0.23625052 0.11363751 -0.08855176 0.21207035 -0.16775438
-0.18591201 -0.16705391 -0.051294744 -0.08638951 0.023523808 0.0845373 0.09820023 -0.13327459
0.14622524 0.145951 0.020263046 0.028946966 0.04616803 0.24806535 0.24772272 0.17284647
0.18320215 -0.24507275 -0.112226695 0.22544697 -0.1361872 0.12107733 0.07088825 -0.036385804
-0.010217428 -0.14934006 -0.22942981 -0.16516176 0.12072718 -0.17852163 0.23365527 -0.18190366
-0.16242322 0.04685378 0.012827963 0.22062868 0.17716375 -0.19958776 -0.017509192 0.007057458
0.17543453 0.08040273 -0.053364694 -0.2416831 0.19323227 -0.117349654 0.1357348 -0.22146627
0.17836183 -0.046168715 0.2365579 0.20196804 0.014640778 -0.2327371 -0.21792468 -0.10309249
0.014282435 -0.078673065 -0.13741347 0.18636826 0.24120152 0.08664957 -0.20768616 -0.027027488
-0.17798042 0.02897638 -0.1786029 0.040155977 -0.16412419 0.12144756 0.19924596 0.2039305
-0.24202263 -0.11450797 0.19662228 0.12465462 -0.20609751 0.04931277 0.10972157 0.1766626
-0.0013054609 -0.099992484 0.21836573 -0.21563795 -0.1901468 -0.05314243 0.22364578 0.13991636
0.06392521 -0.023995101 -0.080311745 0.16725999 -0.085092574 0.23978788 -0.08239037 -0.21462879
0.09678358 -0.1218636 -0.12747583 -0.24947888 -0.09605861 -0.08940759 0.15092087 0.05747491
0.17030951 -0.18563053 -0.13914958 0.030334085 -0.2204805 -0.2498675 -0.1697346 0.09143147
-0.22514924 0.19240046 -0.22337037 0.15494132 -0.019000888 -0.061371654 0.0971261 -0.0015915036
-0.21162763 -0.22168201 -0.0892064 -0.112341255 0.08317283 0.1869582 -0.01639846 -0.19500828
-0.19407839 -0.14162156 -0.16880068 0.08116761 -0.033278316 -0.17464626 0.10706055 0.030180126
-0.029783517 -0.20180276 0.22474694 0.123560905 -0.048358053 -0.00066152215 -0.12982452 0.012809962
0.115074754 0.039945126 0.10465044 0.09596762 0.016403913 -0.012634724 0.021680743 -0.041410506
0.061042994 0.1354506 -0.083156586 0.17341068 -0.23095497 0.23549852 0.06924659 0.11159721
0.06738499 0.19251877 -0.13443458 0.24311623 0.12158817 -0.083676636 0.110566795 -0.023249835
-0.16064215 -0.14836955 0.24742213 -0.18830717 -0.009328663 0.20190164 0.08326116 0.01764962
0.03811422 -0.10411328 0.026230276 0.07248849 0.2163383 0.2089237 0.057707608 -0.11528206
-0.09714791 -0.21214378 0.1647748 0.031148553 0.1469383 0.15804392 0.19473961 -0.14284313
-0.022453666 -0.16770047 -0.046910644 0.053946197 0.08569619 0.07576734 -0.10162023 -0.105511636

bias_ih_l0 f4 [64]
00000000: beaf 5cbe 908d 7abe fea7 193e d698 38be
00000010: 5c0a f23d 3e19 7c3e 2005 3a3c 0445 21be
00000020: 80f0 39bd 78fc ab3d 1c28 f73d f8f1 20bd
00000030: e2a2 7a3e 3a3f 2fbe 6055 643d f043 ef3c
00000040: 90cd bf3c 9897 1b3e 84a6 023e a00c 5d3d
00000050: 7ac5 593e 9adf 3abe c4c8 423e 4ece 443e
00000060: eea8 70be 9c3b bf3d 1e72 243e a839 173e
00000070: 3407 0cbe 0c26 6dbe 3462 103e b481 043e
00000080: 2cb7 823d d870 4bbd 8842 3e3d e02e 713c
00000090: 3cb8 49be c8ce 3fbd 529c 043e 7c1b 45be
000000a0: 1cc4 d9bd d0a5 7e3e d05b bdbc 381f f0bd
000000b0: 3eb2 52be fc68 cb3d 0472 60be 70a7 033d
000000c0: cc65 44be e04a 7fbc 100c c2bc 2e83 0cbe
000000d0: 34bb 213e 688d 67be e840 ac3d 88df 3abe
000000e0: 2ee0 1a3e d039 da3d 9684 52be 181b 5fbd
000000f0: 5c42 ba3d a0e2 5d3c 082c 54bd 84ff 49be
-0.21551415 -0.24468064 0.1500549 -0.18027052 0.11818382 0.24619004 0.011353761 -0.15748984
-0.045395374 0.08397764 0.12068197 -0.03929326 0.24476197 -0.17113963 0.055745482 0.0292072
0.02341345 0.15194547 0.12758833 0.05396712 0.21266738 -0.1824936 0.19021899 0.19219324
-0.23501942 0.093375415 0.16059157 0.14768088 -0.13674623 -0.23159045 0.14099962 0.12940103
0.063825935 -0.049668163 0.046450168 0.0147206485 -0.19699186 -0.04682806 0.12950256 -0.19248766
-0.10633108 0.2486794 -0.023115069 -0.117247045 -0.20575806 0.099321336 -0.21918494 0.032142103
-0.19179457 -0.015581816 -0.023687392 -0.13721916 0.15794069 -0.22612536 0.084108174 -0.18249333
0.1512458 0.10655558 -0.2055839 -0.054469198 0.09094688 0.013542801 -0.051799804 -0.19726378

bias_hh_l0 f4 [64]
00000000: f05c 39be 30ea c1bc f6d6 153e fa3c 153e
00000010: 86c4 1abe c0b5 193d 3095 aabd 803c af3b
00000020: a20f 2f3e 84da aebd 40c7 f83d 6eff 063e
00000030: 10f9 90bc 50ec af3d c238 1e3e a4bb 2cbe
00000040: d0aa fdbc 6ae3 3cbe 4845 4abe 9050 56bd
00000050: 684d 39bd 9c34 4bbe f037 aa3c 2052 a13d
00000060: aa90 063e 00d7 e5bc 54aa 0b3e f8a0 6cbe
00000070: 16d1 243e ecc5 253e c026 5ebe 7643 063e
00000080: 90f0 dbbc cafb 38be b06a 6abd c034 613d
00000090: 804e a2bc 38fb 683d 6846 75bd 0042 b0bd
000000a0: e877 5bbd 50ae 58be 2621 2b3e 346e f33d
000000b0: 10f0 91bd a0dc 2a3e 948e f5bd 38e9 87bd
000000c0: 5ef1 2e3e f2e4 16be 3617 34be 006a 4dbb
000000d0: 7a06 73be 08d8 f5bd f42c 283e 645d 12be
000000e0: 7406 cb3d 6063 783d 944f abbd a0c2 a4bd
000000f0: 20e8 71be 2498 ee3d 2ea3 643e dafc 193e
-0.18101859 -0.02367124 0.14632782 0.14574042 -0.1511403 0.037526846 -0.083292365 0.0053477883
0.17095807 -0.08537772 0.12147379 0.13183376 -0.017696887 0.08589995 0.15451339 -0.16868454
-0.030965239 -0.18446127 -0.19752991 -0.052322924 -0.045239836 -0.19844288 0.020778626 0.07876992
0.13141122 -0.028056622 0.13639194 -0.2310828 0.16095385 0.16188782 -0.2169447 0.13111672
-0.026848108 -0.180648 -0.05723065 0.054981947 -0.019812822 0.056880206 -0.059881598 -0.086063385
-0.05358115 -0.21160245 0.16711864 0.11886254 -0.071258664 0.16685724 -0.11990085 -0.0663628
0.17084262 -0.14735773 -0.1758698 -0.0031343699 -0.2373294 -0.12004095 0.16423398 -0.14293438
0.0991334 0.060641646 -0.08364788 -0.08044934 -0.23623705 0.11650112 0.22327873 0.15037861

weight_ih_l1 f4 [64, 16]
00000000: 7ae1 79be 8041 cfbd 008c 383b 8073 933d
00000010: e463 45be 8837 673e 1c9c 0d3e f8bd 11bd
00000020: 98fa 563d 8096 4c3c b0a6 35bd 3619 74be
00000030: 1010 57be 4233 163e a0e9 68bd b833 e13d
00000040: 74ee b5bd 2aad 0cbe 2407 c6bd 1899 debd
00000050: c054 97bb e82f b4bd 3885 06be 2c19 b6bd
00000060: d426 e03d 6eed 03be 90e3 cc3c 74ea fe3d
00000070: 76ee 2cbe e869 17be 6cb6 203e 5801 dcbd
00000080: 205c d93d 146b 3d3e 4029 11bc 22dc 3d3e
00000090: c0af c3bc 8656 62be c054 f6bc e0f8 dbbc
000000a0: 9a76 583e a8cf 0dbd e8c9 28be d0c5 b03c
000000b0: 3087 343d 96e7 233e 5456 d83d c829 0fbe
000000c0: 5026 aabc de20 21be 607d 40bc 0635 7c3e
000000d0: 1e29 3e3e b22a 2c3e 7cee 523e ec04 4ebe
000000e0: 8835 1a3e 3008 debc 8414 b93d 54db e03d
000000f0: 2257 4cbe 26b9 19be caea 113e 4094 bbbc
00000100: 9469 56be c46e 3fbe e0a6 fe3d 0ce1 4c3e
00000110: 8024 5d3d d63b 0f3e 00f0 203d b873 7f3d
00000120: f050 c13d dc74 60be 1023 bc3c 38f3 453e
00000130: 424a 193e 08e8 19be 0045 1bbb 3c97 4a3e
00000140: 54af c73d e834 413e fcef a33d c807 743d
00000150: 98a6 cfbd f252 0e3e 70e2 e3bd a670 4dbe
00000160: c872 09bd 3c60 713e f633 65be 1cb6 0e3e
00000170: 80c9 683b e0c2 383e 926f 7a3e 54b2 c73d
00000180: 00c9 bc3c 20a9 49be 4213 533e e4ed 203e
00000190: 0084 ac3a 205c c3bc 6212 133e f870 8d3d
000001a0: b00c 283d 9070 cf3d 5853 47be be89 5b3e
000001b0: 80f4 97bc 3438 903d 442e a33d 2a81 2e3e
000001c0: 807e 723b 1060 8f3c 7ef6 0fbe 18f3 153d
000001d0: 60e6 8e3d 506c 44bd 58a1 9dbd 6c88 e73d
000001e0: 9cc2 d53d e8ff bd3d 10f7 563d 9c97 75be
000001f0: 0a47 51be 10ff c2bc 4c90 433e 74e6 f33d
00000200: 1aa1 58be 9457 343e a0f8 fbbd a4d3 fdbd
00000210: 5608 03be 3841 733d c0d6 06bc 10e1 b4bc
00000220: 5030 c93d 2e37 5fbe ba3f 61be c0a4 f4bd
00000230: 9827 6cbe 1003 5f3d 2c92 5abe dc74 593e
00000240: d06d 9c3c 8a8f 0fbe 1259 153e 5250 06be
00000250: 285c 773e eade 6d3e 248a bbbd 58ae 093e
00000260: a8ad 98bd b6af 013e e8de 403d 58cf afbd
00000270: f8ca 033e cea3 683e f09e 0cbd 4c28 50be
00000280: 840a 5a3e bc59 3f3e 5438 b4bd 8c87 a23d
00000290: 0074 cdbb 28da 4b3d 20ad 91bc 38dc 353e
000002a0: 0c81 84bd cc69 643e 807d c33c 3c04 fdbd
000002b0: 1840 56bd b08a 5fbd b436 21be 343a 02be
000002c0: c660 103e 46fb 2dbe 2059 f0bc 5804 5e3d
000002d0: ec8e bbbd e805 173e b02b 4dbd 20f4 f3bd
000002e0: e8a3 00bd 1218 33be 7664 7e3e 88c0 05be
000002f0: 724c 2dbe 3208 4bbe 008f a6bc 980c 343e
00000300: feed 49be 4009 94bb 68ff 5a3e 2061 8fbd
00000310: 3654 153e c247 013e 8ea0 74be aeb1 303e
00000320: 00e4 8939 e42e 8c3d a025 21be f822 36bd
00000330: f476 acbd e07e dd3d 5423 8f3d 00c2 3cbd
00000340: f07c 15bd 903e bd3c 76b6 73be 2808 c63d
00000350: 02a3 06be e06a 56bc 8487 c1bd 9e6e 363e
00000360: c0dc 8ebd 4e84 22be 2e3d 75be f43f 7f3e
00000370: 347a 083e 909b cdbd 4098 70bd c01e 6f3d
00000380: 42cd 3ebe 8c91 3bbe c0f2 0c3d 4ebe 58be
00000390: 14a8 1c3e 3c61 eebd 3832 f33d bedd 543e
000003a0: 3491 8dbd a6dd 5dbe a07e e93c 28fd df3d
000003b0: 106f 873d 8e62 523e 701a 4f3d 0697 01be
000003c0: 7033 783e 986f 953d 48a3 2ebe 96d0 0fbe
000003d0: 3ce7 3b3e 46c0 033e bca1 5a3e 3695 7cbe
000003e0: 000c 3e3d 92af 56be a675 143e 3e45 7bbe
000003f0: b05a 19bd e686 6e3e 446d 32be 806e f1bb
-0.24402419 -0.10119915 0.0028159618 0.07199764 -0.19276386 0.22579777 0.13829082 -0.03558156
0.05248508 0.012487054 -0.04434842 -0.23837742 -0.21002221 0.14667991 -0.056863427 0.10996193
-0.08883372 -0.13737932 -0.09669331 -0.10869044 -0.0046182573 -0.087982 -0.13136756 -0.0889152
0.10944906 -0.12883541 0.025010854 0.12447062 -0.1688784 -0.14786494 0.15694588 -0.10742444
0.106132746 0.18497878 -0.008859932 0.18541005 -0.023887515 -0.22103319 -0.030069709 -0.026852071
0.21138993 -0.034621865 -0.16483271 0.0215787 0.044074237 0.16006312 0.10563341 -0.13980782
-0.020770222 -0.15735194 -0.011748642 0.24629602 0.18570372 0.16813162 0.20598787 -0.20119065
0.15059483 -0.027103513 0.09037116 0.109793335 -0.19955114 -0.15012035 0.14249721 -0.02289784
-0.20938712 -0.18694597 0.12434173 0.20007724 0.053989887 0.1398767 0.03929138 0.062366217
0.09439266 -0.21919578 0.022965938 0.19331062 0.14969733 -0.15029919 -0.002369225 0.19784254
0.09750238 0.18867838 0.08004758 0.059577733 -0.10139197 0.13898829 -0.11127174 -0.20062503
-0.03355673 0.23571867 -0.22383103 0.13936657 0.0035520494 0.18043089 0.24456623 0.0975081
0.023045063 -0.19693422 0.20612815 0.15715748 0.0013161898 -0.02384764 0.14362481 0.06906313
0.041027725 0.101288915 -0.19465387 0.21439263 -0.018549204 0.0704197 0.07967809 0.1704146
0.003700167 0.01750186 -0.14058873 0.036608785 0.06977534 -0.047954857 -0.076967895 0.11305317
0.104375094 0.09277326 0.05248171 -0.23983616 -0.20437256 -0.023803264 0.19098014 0.1190919
-0.21155205 0.17611533 -0.12303281 -0.12393883 -0.12796149 0.05938837 -0.008229911 -0.022079974
0.09823668 -0.21798393 -0.21996966 -0.11945486 -0.23061979 0.05444628 -0.21344823 0.21235985
0.019095331 -0.140196 0.14584759 -0.13116577 0.24156249 0.23229566 -0.091572076 0.13445413
-0.07454997 0.12664685 0.04708758 -0.085844696 0.12870395 0.22718737 -0.034331262 -0.20327872
0.21293074 0.18686575 -0.08799806 0.0793601 -0.006269932 0.049768597 -0.017782748 0.17759788
-0.06469926 0.22305983 0.023863554 -0.12354323 -0.05230722 -0.054575622 -0.15743524 -0.12717515
0.14099416 -0.16990384 -0.029339373 0.05420336 -0.091581196 0.14748347 -0.05009049 -0.119117975
-0.031406313 -0.17489651 0.2484301 -0.13061726 -0.16923693 -0.19827345 -0.02033186 0.17582929
-0.19719693 -0.0045177042 0.21386492 -0.07000947 0.14582905 0.1262503 -0.23889372 0.1725528
0.0002630055 0.06844881 -0.15737009 -0.044466943 -0.08421126 0.10815215 0.0698916 -0.04608345
-0.036496103 0.023101121 -0.23800072 0.096695244 -0.1314812 -0.013087004 -0.09449676 0.17815635
-0.069756985 -0.15870783 -0.2394912 0.2492674 0.13327867 -0.10039437 -0.058738947 0.058378935
-0.18632987 -0.1831724 0.034411192 -0.21166345 0.15298492 -0.1163964 0.11874813 0.20787713
-0.06912461 -0.21666583 0.028502762 0.109369576 0.0661298 0.20545408 0.050562322 -0.12655267
0.24238372 0.072966754 -0.17054474 -0.14044413 0.18349928 0.12866315 0.2135076 -0.24666294
0.046398163 -0.20965412 0.14498004 -0.24538133 -0.037440002 0.23293647 -0.17424494 -0.007367909

weight_hh_l1 f4 [64, 16]
00000000: ec10 acbd 5858 33bd 4e8f 603e 6019 0b3e
00000010: d83d 21bd d059 343d 4073 213c b81c 47be
00000020: 2097 eebc dc68 9fbd 5200 23be d034 17be
00000030: 54c4 68be e01a a7bd f865 363e 9ef8 023e
00000040: 4019 1cbd 5c8c 1bbe 44f1 8bbd 7036 c5bd
00000050: 60a3 ddbc a820 033d d0e4 96bd 009b 0f3c
00000060: be08 143e 2c21 db3d 602f d1bd 4cf0 3fbe
00000070: 78b5 7abd 3e40 28be 8476 9d3d 98a6 4d3d
00000080: 1e77 73be a01a 3c3d 8249 61be 385d 7fbd
00000090: e4bb 2e3e a8b5 6f3d 5466 90bd 1244 0f3e
000000a0: 1022 c9bc d6bd 533e c0ba 203e 70ac e6bc
000000b0: b624 263e d838 233d e06e ee3c 6045 f43c
000000c0: f868 b43d 38ba 5dbe 125b 3f3e 5258 63be
000000d0: 18a2 44bd fa1d 493e 0031 fc3a 8842 a4bd
000000e0: d473 fe3d 60da 743e c41f 35be fa78 63be
000000f0: 0659 7fbe 280f 4fbe 1a1a 4c3e c8c5 1e3d
00000100: bc16 8ebd 68eb 143e 803c 51be 4a07 693e
00000110: b4c8 76be beaa 0ebe 783e 52be b425 59be
00000120: 2c42 fc3d e42d afbd 847f b5bd 1442 ecbd
00000130: eaad 063e 40ca d0bd eabd 703e 1055 b23c
00000140: ea62 60be 445e e63d 48fb 113e 12ba 33be
00000150: 00e0 ad39 ec4e 92bd 702e 42bd 1261 17be
00000160: 2a36 583e 4e1f 513e 90a6 c63d b4d3 3a3e
00000170: b682 143e 181e f53d e069 eb3d 3c44 6e3e
00000180: 9416 c73d e0ec 603c d088 c53d 186e 253e
00000190: 02d9 3dbe f01d fe3c 3c9c 10be 7483 5a3e
000001a0: 686e 59be f49c 153e 62c5 53be c8c1 3c3d
000001b0: 904f 21bd 2486 7bbe 70f4 093e e0ad 203c
000001c0: 4055 c73b d8e2 6b3e 9c9a c23d 9aa9 7b3e
000001d0: ac21 b8bd dc39 a9bd 90a2 4bbd 0841 713e
000001e0: 686f 05be 809c 0dbb 2820 3dbe 403e 97bb
000001f0: f0c8 bcbd 2a34 37be f029 7bbe d08f f83c
00000200: 983c 023e dc8e eebd 3003 ef3d 2857 2cbd
00000210: d47c 733e 5e87 0f3e e425 e1bd bc6a fe3d
00000220: 0818 64be b832 98bd 3879 f2bd a023 5abd
00000230: 387f df3d 3444 dc3d a0d8 78bc c6c0 52be
00000240: c08d 3cbd b4e1 a3bd a081 853c ae98 743e
00000250: 50f3 523d 2025 a0bc 0492 aabd 48dc 3cbd
00000260: 487c 6abe c0bc ee3d 5887 763e 0c7b 62be
00000270: b663 0e3e 3057 08bd 9811 00bd fc39 a63d
00000280: 6e10 133e 3865 2abd c0de 1fbc 82b5 1e3e
00000290: 481b b2bd 6818 bd3d b03a 1ebe 729d 6c3e
000002a0: 8089 903d c473 cf3d 589d 2f3e 1402 aebd
000002b0: 108c 4d3e cc7f 2e3e 3826 333d c027 2ebd
000002c0: f02c 89bc cea6 4e3e be92 26be f0ed 9abc
000002d0: ce75 6cbe 70bb 073d b86c 4c3e 3892 57bd
000002e0: e8ef 45bd 502f e2bd 647c 143e 3453 51be
000002f0: 962a 1b3e ac9d b2bd a8eb 3c3e dcc0 2bbe
00000300: 9892 66bd 3e0e 773e d0c6 db3c 9460 953d
00000310: 50d6 8a3d d803 ce3d 20e7 193e d0e9 8ebc
00000320: b0de 7a3d c847 b9bd a47d 743e 4c36 07be
00000330: c062 1cbe a06d 963d 6e9e 4b3e 3c7c 513e
00000340: 92f1 1ebe f4cf d5bd 8ea3 78be 34ae e53d
00000350: 40ab 71bc 9cf2 bd3d 2017 3abc 5427 8bbd
00000360: f0ad 953c 1678 7ebe d64e 47be 682c 29be
00000370: f625 79be d425 663e 1eaa 3cbe eed1 773e
00000380: 8059 603b 923b 173e 40ef 2bbc bc4f 363e
00000390: 28e0 493d 1670 233e cc89 a33d 00ad d7bc
000003a0: 20f9 59bd a0ab 3c3e ced2 133e 2831 343e
000003b0: e005 b03c a8b1 393d 8055 1bbc 70a6 533d
000003c0: 4e1e 023e d466 77be 8045 663b 8496 9c3d
000003d0: e095 773c 488f 9abd 56f5 033e 8053 96bc
000003e0: 8064 863d eede 11be 28ad ec3d 9469 91bd
000003f0: 3c72 863d 3ee8 4e3e 409d f3bb 50d4 66bd
-0.08401665 -0.043785423 0.21929666 0.13583899 -0.03936562 0.044030964 0.009854138 -0.19444549
-0.029124796 -0.07783672 -0.15918091 -0.1476624 -0.22731143 -0.08159423 0.17812335 0.12790152
-0.038110018 -0.15190262 -0.06833127 -0.09629524 -0.027055442 0.032013565 -0.07367861 0.008764982
0.1445646 0.106996864 -0.10214114 -0.1874401 -0.06120822 -0.16430756 0.07688621 0.050207704
-0.23775908 0.04592383 -0.22000697 -0.06234476 0.17063862 0.05852285 -0.070507675 0.1399081
-0.024552375 0.20677885 0.1569624 -0.028158396 0.16224942 0.039849132 0.029105604 0.029818237
0.08809084 -0.21653068 0.18687084 -0.2220166 -0.048006147 0.19640341 0.0019240677 -0.08020502
0.12424436 0.23911428 -0.17687899 -0.22214118 -0.24936303 -0.20220625 0.19931832 0.038762838
-0.0693793 0.14542925 -0.20433235 0.22756687 -0.241 -0.1393232 -0.20531642 -0.21205789
0.12317309 -0.08553675 -0.08862212 -0.11536041 0.1315228 -0.10194826 0.23509946 0.021769077
-0.21912733 0.112484485 0.14256012 -0.17551449 0.00033164024 -0.071439594 -0.047407568 -0.14783123
0.21114412 0.20422098 0.09699738 0.18244821 0.14502987 0.119686306 0.114948034 0.23268217
0.09721103 0.01372835 0.096452355 0.16155279 -0.18539813 0.031020135 -0.14122099 0.21339208
-0.21233523 0.14610654 -0.20680764 0.04608324 -0.039382517 -0.2456289 0.13472152 0.00980708
0.0060831606 0.23035753 0.09502146 0.24576417 -0.089907974 -0.08262989 -0.04971558 0.23559964
-0.1303078 -0.0021608174 -0.18469298 -0.004615575 -0.09218013 -0.17890993 -0.24527717 0.030342013
0.12718427 -0.11648342 0.1167053 -0.042075306 0.23778087 0.14016482 -0.10993555 0.12422702
-0.22274792 -0.07431549 -0.11839527 -0.05325663 0.10912937 0.10755196 -0.015188366 -0.2058135
-0.04603362 -0.08002034 0.016297162 0.23886368 0.051501572 -0.019548953 -0.083286315 -0.046108514
-0.22898972 0.11657095 0.24075067 -0.22117251 0.13905224 -0.033286273 -0.03126678 0.081165284
0.14361736 -0.041600436 -0.009757698 0.15498927 -0.0869661 0.09233171 -0.15452075 0.23106936
0.07057476 0.101295024 0.17149866 -0.0849649 0.20072961 0.17040938 0.04373762 -0.042518377
-0.01674506 0.20180818 -0.16266915 -0.018912286 -0.23091814 0.03313774 0.19963348 -0.05262968
-0.048324496 -0.110441804 0.14500576 -0.20441896 0.15152964 -0.0872148 0.1844927 -0.16772789
-0.056292146 0.24126527 0.0268282 0.072938114 0.06779158 0.10059327 0.15029573 -0.017445475
0.061247528 -0.09046894 0.23876053 -0.13204306 -0.15272045 0.07345128 0.19884655 0.20457548
-0.1552184 -0.104400545 -0.24281141 0.11214867 -0.014750302 0.0927479 -0.0113580525 -0.067946106
0.018271416 -0.24850497 -0.19463667 -0.16520846 -0.24330887 0.22475368 -0.1842427 0.24201176
0.0034233034 0.14768818 -0.010494053 0.17803854 0.049286038 0.15960726 0.07985267 -0.02632761
-0.0532161 0.18424845 0.14435884 0.17596877 0.021487176 0.04533544 -0.009480834 0.0516724
0.12706873 -0.2416032 0.003513664 0.07645896 0.015111417 -0.0754686 0.12886557 -0.018350363
0.065621376 -0.14245197 0.115564644 -0.071002156 0.06564757 0.20205781 -0.007434517 -0.05635482

bias_ih_l1 f4 [64]
00000000: 303a 8a3d 0c83 35be aaa4 7cbe 80e8 fa3d
00000010: 089d 423d f881 213e 08e9 48bd beb9 39be
00000020: a02f 1f3e 4232 17be 80d7 56bc 7ab5 173e
00000030: ca2c 78be a24c 14be 069f 51be a82d 373e
00000040: 3052 d7bc ac98 b63d b437 443e 9093 923c
00000050: a85d 063e ea31 393e 8e26 023e 14cd 2ebe
00000060: 14c7 833d e0d1 7e3d b46c 4abe 6c91 26be
00000070: 5837 58be 3400 94bd 503b ed3c faec 3c3e
00000080: 70a1 74bd 861b 20be fc6f 683e 0aee 12be
00000090: a05e f3bc 008d dbbd 6cbb 83bd c0f2 49be
000000a0: 0096 6cbd e47b 713e 3c9e 3abe 00fd e53d
000000b0: facc 3ebe 40cf 8abd b680 5a3e bce3 3e3e
000000c0: 02ba 6d3e 26a6 283e bc52 3dbe d62e 47be
000000d0: b298 01be f459 8b3d b245 783e 4695 7abe
000000e0: 18e6 63bd 3048 c8bd 8085 df3d 66b0 10be
000000f0: 32d4 5ebe 88be 34bd c8c3 03bd 58ce 19bd
0.0674938 -0.17725772 -0.2467219 0.12251377 0.047513038 0.15772235 -0.04905036 -0.18137261
0.15545511 -0.14765266 -0.013112903 0.14815322 -0.24235836 -0.14482358 -0.20470819 0.1788851
-0.026284307 0.089158386 0.19161874 0.017892629 0.13121665 0.18085447 0.1271002 -0.17070419
0.064344555 0.06221187 -0.1976803 -0.16266412 -0.21114862 -0.07226601 0.028958946 0.18449774
-0.05972427 -0.156355 0.22698969 -0.14348617 -0.029708207 -0.10720253 -0.06432232 -0.19721508
-0.05776024 0.23582417 -0.18224424 0.112298965 -0.1863288 -0.06777811 0.21338162 0.18641561
0.23215488 0.1646963 -0.18488592 -0.1945146 -0.12655905 0.068042666 0.24245337 -0.24471006
-0.055639356 -0.09779394 0.10914135 -0.1412979 -0.21760634 -0.044127017 -0.032169133 -0.0375503

bias_hh_l1 f4 [64]
00000000: b66f 3c3e 24b1 8bbd 0887 62be 02cf 29be
00000010: 1c6a bcbd 2c08 3fbe ac47 0e3e 9c1e b2bd
00000020: 7822 ddbd 781f 5c3d d299 1abe 5072 1d3e
00000030: 742c 353e 00a6 043b f4e9 dabd a8f0 eabd
00000040: 2a8b 063e 5c98 efbd a8c9 e73d 74e1 dcbd
00000050: c0b1 663e c864 1abe d415 843d a0db 22bd
00000060: c000 cb3c d07a e0bd a8f7 0bbd 0083 963c
00000070: 1008 05bd 56ce 773e 60d1 763d a81b 823d
00000080: 706c 06be 72f0 20be 8ed7 43be 6e2c 713e
00000090: fca8 0e3e d0cb 653e 08d8 01be 2c26 89bd
000000a0: 101b 64bd b4d5 5e3e 8677 47be c072 7fbe
000000b0: a89b abbd f084 a63d 7a2b 383e 20aa 093d
000000c0: a89a 283e 52d9 1e3e 5c64 313e c0e3 d63d
000000d0: a03c e3bc 98ed 25be a893 4bbe 80c4 aebd
000000e0: 7871 0c3e 0610 043e b451 803d 7680 7e3e
000000f0: d4c4 9dbd 70d3 873d d86d 3d3d fc2e 65be
0.1840199 -0.06820896 -0.22121823 -0.16582873 -0.09199926 -0.18655461 0.13894528 -0.086972445
-0.1079759 0.05374095 -0.1509774 0.15375638 0.17692739 0.0020240545 -0.10689154 -0.11471683
0.13139024 -0.11698982 0.1131776 -0.10785189 0.22528744 -0.15077507 0.06449476 -0.039760232
0.024780631 -0.109609246 -0.03417173 0.018373013 -0.032478392 0.24199805 0.06025827 0.06352931
-0.13127303 -0.15716723 -0.19125196 0.23552105 0.1393165 0.2244103 -0.12680066 -0.06696734
-0.05568987 0.21761209 -0.19479188 -0.24946117 -0.083792984 0.081308246 0.17985335 0.03360951
0.16465247 0.15512589 0.1732344 0.104926586 -0.02773887 -0.16203916 -0.19880545 -0.08533573
0.1371516 0.12896737 0.06265584 0.24853691 -0.077035576 0.066321254 0.046247333 -0.22381204

weight f4 [1, 16]
00000000: e671 75be 70db 713e 2e63 263e 8622 1d3e
00000010: e004 d2bd 4a57 063e 905f 24be 0803 1b3d
00000020: 4c8b d53d dcce 32be 54b1 d13d f065 e73c
00000030: caf4 57be 8ac1 74be 3c9c fd3d 8040 e4bb
-0.2396923 0.23618865 0.16248772 0.15345201 -0.10254836 0.13119236 -0.16052079 0.037844688
0.104269594 -0.17461723 0.10238901 0.02824685 -0.21089473 -0.23901954 0.12383315 -0.006965697

weight f4 [1, 31]
00000000: f550 aebd 983c 3fbd da59 153e b5cf 13be
00000010: ec0f 0b3e b895 6d3d 74a0 c03d 9858 493d
00000020: 7272 7fbd 1cd7 51bd 80f5 7cbb 081e 173e
00000030: 7435 973d 34d4 993d 3cd7 233e 849a 8d3d
00000040: 3f99 a6bd 5a35 1d3e 74f5 cb3d 00df 003b
00000050: 30eb 323e 0444 223e 28a2 713d 4d87 d3bd
00000060: 9e8d 283e e313 91bd 6e94 25be 1470 2f3e
00000070: 005d 45ba 4041 e23d d819 16be
-0.08511535 -0.046688646 0.14585057 -0.14434703 0.13580292 0.05800411 0.09405604 0.049156755
-0.062365003 -0.051230535 -0.0038598478 0.1475755 0.07383242 0.07511178 0.16000074 0.06914237
-0.08134698 0.15352383 0.09958926 0.0019664168 0.1747253 0.15846258 0.058992535 -0.10328541
0.16460273 -0.07083871 -0.16169903 0.17132598 -0.00075288117 0.11047602 -0.14658296
