competition/result/lstm_win3_noStandardized_2layer_32hidden_0.98g/trained_model/all_model/critic_num_epoch_0.pth (torch, 63096 bytes, 10 tensors)

weight_ih_l0 f4 [128, 11]
-0.07396877 0.05821544 -0.051659793 -0.050378487 -0.043153152 0.1526718 -0.029488951 -0.01252082
0.07502757 -0.12571946 -0.1673547 0.028696671 -0.10657446 -0.17381592 -0.17339203 0.061408594
0.16135694 -0.092031054 -0.08848061 0.14924012 0.1224968 -0.012528971 -0.13862124 0.011257529
0.11221437 0.1015643 -0.09212858 -0.015115932 -0.12075028 -0.1144551 0.12047888 0.09169553
0.10830431 -0.06107013 -0.13548595 0.08374022 0.17137326 0.03194499 -0.14585012 -0.014261484
-0.02693732 -0.03274207 -0.07929459 0.054038852 0.16356163 -0.021496683 -0.1167777 -0.10463653
-0.012665451 0.16694571 0.038254127 -0.065537274 -0.14984603 -0.17215642 -0.018059567 0.15232415
0.10158609 -0.028165594 0.080600455 -0.037198618 0.051438227 -0.041760385 -0.02158393 0.16988693
-0.15335278 0.011784211 -0.1407114 -0.14957225 0.012690231 0.07154192 0.124324426 -0.0709692
0.16370226 0.13554953 0.09700857 -0.041917145 0.0099867135 0.044243976 -0.09839253 -0.17524634
-0.028079256 0.14623766 0.09906475 -0.08541516 -0.03384897 0.16924553 0.0007852614 0.11214875
0.09502785 -0.063828535 0.044816658 0.16827019 0.05825706 0.048951685 0.06247291 0.1744241
0.1124617 -0.00387761 0.11644207 -0.1528635 0.028377533 -0.17057727 0.08197801 0.04561086
0.06657106 0.036429435 0.022616193 0.04863186 0.16021718 0.15731888 0.07465957 0.14690165
0.0858985 0.018562287 0.15525226 -0.17446056 -0.09971188 0.086674646 0.10701151 -0.015195146
0.15355821 0.17314158 0.030104995 0.10656296 -0.03145826 0.10761444 -0.17022522 0.11854373
0.09531088 0.1732652 0.03839609 0.022515163 0.098399565 0.14401929 0.012136549 -0.14050832
0.16102864 -0.17178473 -0.091592856 0.01797624 0.08134042 0.099301204 -0.070895486 -0.11371502
0.0755579 0.0840234 -0.07323106 0.06865281 0.036385223 0.15581547 0.040577278 -0.1520472
0.14825611 0.0619981 0.14172192 -0.04527569 -0.14133248 -0.16235092 0.17592348 0.0012820661
-0.03731568 0.020865634 -0.10619212 0.07611023 -0.1666167 -0.09682878 0.008501098 -0.0088792
0.06774086 -0.16416407 0.049422115 0.09813978 -0.074369736 0.030433625 0.025183842 -0.048336223
0.13404022 0.13612516 -0.041220233 0.09624888 0.10769142 0.16997369 -0.1713889 -0.043130517
0.04655689 -0.15397376 0.14346637 -0.08735826 -0.079256624 -0.030380964 -0.005152598 0.094077125
-0.12839073 -0.142519 0.10305031 0.1463887 0.115241125 0.11031683 0.13431822 -0.125335
0.16659354 0.11169742 -0.1180616 0.035636127 0.14928593 0.06649089 -0.031581923 0.054717273
-0.17293645 -0.059505112 0.020910487 0.13177823 0.025410771 0.1305599 0.10617928 -0.010345668
-0.032489404 0.112230346 -0.06399333 -0.1606983 0.051735952 0.10803391 0.12287967 0.13904841
0.056438148 -0.14307283 -0.06906699 -0.048305318 0.14502622 0.096370324 -0.14135623 -0.16790779
0.06542811 -0.11619781 -0.08789238 0.05057946 -0.11443257 -0.1567256 -0.14259416 0.15651791
-0.08821763 -0.02793099 0.027580902 -0.07409211 -0.042259365 -0.06657506 0.06462939 -0.0061261654
-0.15458655 0.10708259 0.14037563 -0.1466243 -0.13545462 0.005197659 0.039234728 -0.1414392
00000000: f07c 97bd 5073 6e3d 3899 53bd ac59 4ebd
00000010: 5cc1 30bd ff55 1c3e d092 f1bc 2024 4dbc
00000020: 0ea8 993d 9abc 00be 085f 2bbe 4815 eb3c
00000030: b643 dabd cdfc 31be ae8d 31be 9487 7b3d
00000040: c13a 253e c77a bcbd 5235 b5bd 67d2 183e
00000050: 9adf fa3d 5046 4dbc baf2 0dbe 8071 383c
00000060: a6d0 e53d f200 d03d e9ad bcbd d0a8 77bc
00000070: ec4b f7bd 6f67 eabd a2bd f63d deca bb3d
00000080: a6ce dd3d ac24 7abd d4bc 0abe fe7f ab3d
00000090: 797c 2f3e c0d8 023d bc59 15be 00a9 69bc
000000a0: a8ab dcbc 8c1c 06bd 3465 a2bd d857 5d3d
000000b0: b37c 273e d019 b0bc 2629 efbd ad4b d6bd
000000c0: c082 4fbc d1f3 2a3e 5cb0 1c3d 6838 86bd
000000d0: 3d71 19be c649 30be a8f1 93bc ddfa 1b3e
000000e0: 5e0c d03d 88bb e6bc da11 a53d 945d 18bd
000000f0: e4b0 523d f00c 2bbd c8d0 b0bc d7f6 2d3e
00000100: 8308 1dbe 9012 413c a616 10be 7829 19be
00000110: b0ea 4f3c 9284 923d ce9d fe3d 4d58 91bd
00000120: 91a1 273e 7fcd 0a3e 6eac c63d 50b1 2bbd
00000130: 509f 233c 2c39 353d 0682 c9bd c773 33be
00000140: 7806 e6bc 53bf 153e 76e2 ca3d 25ee aebd
00000150: 38a5 0abd b34e 2d3e 00da 4d3a 3eae e53d
00000160: f69d c23d 89b8 82bd ac91 373d 054f 2c3e
00000170: f49e 6e3d 9081 483d 98e3 7f3d 3b9c 323e
00000180: 5252 e63d 801f 7ebb 2e79 ee3d 4088 1cbe
00000190: 0078 e83c cfab 2ebe 16e4 a73d 74d2 3a3d
000001a0: 6856 883d 0837 153d 9845 b93c 3432 473d
000001b0: f90f 243e 3318 213e 1ee7 983d 636d 163e
000001c0: 8eeb af3d f00f 983c 73fa 1e3e caa5 32be
000001d0: be35 ccbd 7a82 b13d da28 db3d 10f5 78bc
000001e0: 5d3e 1d3e 074c 313e c09e f63c ae3d da3d
000001f0: 60da 00bd f664 dc3d 854f 2ebe 0ec7 f23d
00000200: 5a32 c33d 6f6c 313e 3845 1d3d b871 b83c
00000210: b685 c93d cb79 133e 60d8 463c 6ae1 0fbe
00000220: b1e4 243e 56e8 2fbe 0995 bbbd e842 933c
00000230: ce95 a63d 6e5e cb3d a731 91bd 6ce3 e8bd
00000240: 1abe 9a3d 7614 ac3d 2afa 95bd d899 8c3d
00000250: ac08 153d 178e 1f3e 5c34 263d 43b2 1bbe
00000260: 73d0 173e b8f1 7d3d 8d1f 113e 0073 39bd
00000270: 76b9 10be 523f 26be 4925 343e 000b a83a
00000280: 54d8 18bd 68ee aa3c 417b d9bd aedf 9b3d
00000290: 919d 2abe 2b4e c6bd 3048 0b3c 107a 11bc
000002a0: b8bb 8a3d a01a 28be d86e 4a3d 82fd c83d
000002b0: 294f 98bd f04f f93c 584e ce3c 34fc 45bd
000002c0: d741 093e 6564 0b3e 8cd6 28bd 221e c53d
000002d0: 528d dc3d 950d 2e3e 9280 2fbe a0a9 30bd
000002e0: 70b2 3e3d 4cab 1dbe d9e8 123e e3e8 b2bd
000002f0: 4c51 a2bd 80e1 f8bc 20d7 a8bb 82ab c03d
00000300: dc78 03be 80f0 11be 0a0c d33d ebe6 153e
00000310: 8a03 ec3d caed e13d b78a 093e d157 00be
00000320: 7f97 2a3e 9ec1 e43d 48ca f1bd 30f7 113d
00000330: 69de 183e 602c 883d 0c5c 01bd 381f 603d
00000340: 4116 31be a2bb 73bd 784c ab3c dff0 063e
00000350: 402a d03c 7fb1 053e 8674 d93d e080 29bc
00000360: 9c13 05bd 06d9 e53d ef0e 83bd 188e 24be
00000370: 14e9 533d e240 dd3d 56a8 fb3d b562 0e3e
00000380: b02b 673d af81 12be fe72 8dbd ccdb 45bd
00000390: c181 143e ce5d c53d b0bf 10be 05f0 2bbe
000003a0: 2cff 853d 1ef9 edbd ec00 b4bd 682c 4f3d
000003b0: a05b eabd ad7c 20be 3404 12be 3b46 203e
000003c0: 72ab b4bd 88cf e4bc 58f1 e13c 9bbd 97bd
000003d0: 2818 2dbd 8158 88bd 6a5c 843d 00be c8bb
000003e0: f04b 1ebe 1e4e db3d a1be 0f3e ae24 16be
000003f0: 9eb4 0abe 2051 aa3b 98b4 203d 70d5 10be

weight_hh_l0 f4 [128, 32]
-0.049087614 -0.09464174 0.12815277 0.14066999 -0.0995108 -0.10374287 -0.08886854 0.031884357
0.1517065 0.011204734 0.038424686 0.060035765 -0.119508 0.016096339 0.16391595 -0.1416117
0.09089835 -0.06936298 0.052298024 0.12866615 0.10867517 0.12765239 0.009101257 -0.10133403
0.023936853 -0.13886139 -0.07551638 0.08710201 -0.056484155 0.0075913817 0.12180723 0.011257261
0.12486519 0.06845763 -0.03542468 -0.089797735 -0.045542434 0.15292327 0.0006699264 0.1754214
0.06782892 0.098339036 -0.14565167 -0.12420933 -0.12510392 0.018026024 0.044457167 0.059981644
-0.009267777 -0.13383445 -0.12187543 0.14600192 -0.012366816 -0.114832394 -0.04908158 -0.16302477
-0.1518365 -0.11945397 -0.037467226 0.020148486 0.17306672 -0.015226603 -0.07936627 0.15961795
0.13739355 0.021520197 0.09365322 0.0007657856 0.08496781 -0.0045895576 -0.09923256 0.04633245
0.11190759 0.0023646504 -0.014516741 0.05630438 -0.03397575 0.066691 -0.14475161 -0.009545818
-0.15050024 0.11636467 0.05235067 -0.084838025 0.12442307 -0.14523786 0.051325798 -0.01243113
-0.15230577 -0.043062508 0.0031915456 -0.11978469 0.12766235 0.008858502 -0.037964568 0.11597504
0.091468915 -0.13456863 -0.07754459 -0.14908686 -0.09408527 -0.1022574 -0.13901666 -0.12350112
-0.07111297 0.11244123 0.009627625 0.11076705 -0.003942251 -0.0749545 -0.116234094 -0.13368005
-0.02582337 -0.068985224 0.13684358 0.026682973 -0.109846294 -0.15849307 -0.13548788 0.09073453
-0.07218803 0.11053489 -0.052349716 0.106074646 -0.045442015 0.05264257 -0.12694493 0.113783345
-0.1479579 -0.10941577 -0.14614676 0.085457966 0.14925914 0.06913482 -0.08773589 0.010713533
-0.0728762 -0.12157667 0.14024006 -0.11699076 -0.024086878 0.14038844 0.14473964 -0.10790309
0.128729 0.12730451 0.048330188 -0.045090616 0.15755697 0.099156395 -0.17383698 0.109436736
-0.10568794 -0.15012336 0.06596798 -0.06907508 -0.08937477 0.013862714 -0.06539808 -0.14211956
0.16662146 0.019808337 -0.0056227893 -0.0720148 -0.13054815 -0.0922852 -0.048239365 0.12378453
0.079169676 0.009302795 0.07260129 -0.031292826 -0.09091003 -0.08034407 0.06407297 -0.10877322
0.068876565 0.09048204 -0.008016378 -0.020641208 0.10122888 -0.15168238 0.14574154 0.10033505
0.08356722 0.15464108 -0.13406874 0.10969941 -0.092574984 0.1447029 -0.12046023 0.14618419
0.08433257 0.099738434 -0.109531716 0.092632964 0.046005726 -0.08128998 -0.12547852 -0.07884744
0.13440825 -0.015023246 -0.15801243 0.035289153 -0.1649201 -0.12547675 -0.059723787 -0.0818084
0.08717041 -0.07690042 0.039481774 0.09770279 0.11943294 -0.16319165 -0.095166676 0.0057827234
-0.0007632226 -0.017546177 -0.17238145 -0.12167774 0.07393576 0.07828514 0.1167392 0.025630832
-0.008850381 0.07383801 0.008248672 -0.11326839 0.16655914 0.07214096 0.08762564 -0.04551387
0.12231888 0.0077942163 0.079309 -0.048962906 -0.057426028 0.1556003 -0.06415604 -0.06412987
-0.026932657 -0.1658395 0.00808771 -0.00091195107 -0.022312686 -0.1328386 -0.0927316 -0.08845024
-0.12120224 0.13877185 -0.16357529 -0.16653776 -0.13396063 -0.114850774 -0.047667995 0.0971223
00000000: 1810 49bd 87d3 c1bd 7b3a 033e cb0b 103e
00000010: 51cc cbbd 2477 d4bd b600 b6bd 2c99 023d
00000020: f358 1b3e 1094 373c 3463 1d3d 10e8 753d
00000030: 9cc0 f4bd 78dc 833c 95d9 273e a802 11be
00000040: ea28 ba3d 2e0e 8ebd 7436 563d 0fc1 033e
00000050: 1691 de3d 4fb7 023e 701d 153c 3788 cfbd
00000060: 3817 c43c ae31 0ebe 55a8 9abd 8a62 b23d
00000070: ee5b 67bd 20c1 f83b 1276 f93d 6070 383c
00000080: 52b9 ff3d 8433 8c3d 7819 11bd e0e7 b7bd
00000090: b48a 3abd eb97 1c3e 009e 2f3a aba1 333e
000000a0: e4e9 8a3d fa65 c93d b625 15be 7661 febd
000000b0: 3e1b 00be 50ab 933c b818 363d 50af 753d
000000c0: e0d7 17bc e60b 09be d399 f9bd 8781 153e
000000d0: 309e 4abc 3f2d ebbd c409 49bd f7ef 26be
000000e0: 077b 1bbe 48a4 f4bd 3c77 19bd 700e a53c
000000f0: 6738 313e 0079 79bc c88a a2bd e372 233e
00000100: e5b0 0c3e 204b b03c 42cd bf3d 00bf 483a
00000110: 9a03 ae3d 0064 96bb 713a cbbd 18c7 3d3d
00000120: ce2f e53d 40f8 1a3b a0d7 6dbc 6c9f 663d
00000130: 282a 0bbd 4a95 883d c439 14be 1066 1cbc
00000140: bc1c 1abe 9a50 ee3d a86d 563d 8fbf adbd
00000150: 86d1 fe3d 3cb9 14be 003b 523d f0ab 4bbc
00000160: 0bf6 1bbe 5062 30bd 4029 513b ad51 f5bd
00000170: ebb9 023e 4023 113c bc80 1bbd 5284 ed3d
00000180: 0e54 bb3d 5ccc 09be b3cf 9ebd 3aaa 18be
00000190: c7af c0bd 546c d1bd 625a 0ebe 28ee fcbd
000001a0: ada3 91bd 9647 e63d 30bd 1d3c d6d9 e23d
000001b0: 002e 81bb bf81 99bd 240c eebd 6ce3 08be
000001c0: 888b d3bc 2048 8dbd b920 0c3e 4096 da3c
000001d0: 18f7 e0bd 024c 22be 56bd 0abe 06d3 b93d
000001e0: 51d7 93bd 1e60 e23d a86c 56bd aa3d d93d
000001f0: 6821 3abd bc9f 573d dafd 01be 3e07 e93d
00000200: 4782 17be 6015 e0bd 7fa7 15be 9604 af3d
00000210: 63d7 183e 8e96 8d3d e0ae b3bd d087 2f3c
00000220: 1e40 95bd 30fd f8bd 179b 0f3e da98 efbd
00000230: d851 c5bc fdc1 0f3e a136 143e 4cfc dcbd
00000240: 89d1 033e 1d5c 023e e0f5 453d f0b0 38bd
00000250: 9d56 213e 8212 cb3d 5202 32be 5e20 e03d
00000260: eb72 d8bd f0b9 19be 381a 873d 3c77 8dbd
00000270: 1f0a b7bd 7020 633c 6eef 85bd ca87 11be
00000280: d19e 2a3e 1845 a23c 603f b8bb 7f7c 93bd
00000290: 6aae 05be 0600 bdbd a496 45bd be82 fd3d
000002a0: b623 a23d c06a 183c fcaf 943d e82c 00bd
000002b0: 0a2f babd 6f8b a4bd b038 833d 7ec4 debd
000002c0: 280f 8d3d a64e b93d 2057 03bc c017 a9bc
000002d0: 1651 cf3d a052 1bbe 453d 153e 767c cd3d
000002e0: 4a25 ab3d 3b5a 1e3e 5149 09be 16aa e03d
000002f0: f497 bdbd ff2c 143e dab3 f6bd 4fb1 153e
00000300: 8eb6 ac3d aa43 cc3d 2a52 e0bd 5ab6 bd3d
00000310: 8070 3c3d 5c7b a6bd 717d 00be c47a a1bd
00000320: 51a2 093e 1024 76bc 03ce 21be 5c8b 103d
00000330: d1e0 28be fa7c 00be eea0 74bd 2a8b a7bd
00000340: 6686 b23d f87d 9dbd a4b7 213d 6618 c83d
00000350: 4299 f43d b61b 27be bfe6 c2bd 007d bd3b
00000360: 0013 48ba 00bd 8fbc c384 30be 2e32 f9bd
00000370: a26b 973d f653 a03d f614 ef3d c0f7 d13c
00000380: 3001 11bc 6238 973d 7025 073c 42f9 e7bd
00000390: 7b8e 2a3e a4be 933d 1275 b33d c06c 3abd
000003a0: 5282 fa3d a066 ff3b c26c a23d 548d 48bd
000003b0: 8e37 6bbd af55 1f3e 3e64 83bd 8556 83bd
000003c0: e0a1 dcbc d4d1 29be 5082 043c 0010 6fba
000003d0: 18c9 b6bc d806 08be 11ea bdbd 6625 b5bd
000003e0: e138 f8bd 351a 0e3e 4880 27be e088 2abe
000003f0: fa2c 09be e236 ebbd 843f 43bd 0ee8 c63d

bias_ih_l0 f4 [128]
-0.03357172 -0.066387415 -0.08063366 -0.064502 -0.017486662 0.17574714 0.07386805 -0.14922874
-0.12675926 -0.0451328 0.049029663 0.064046055 -0.10214421 -0.12189245 0.1342163 0.068507895
-0.008773178 -0.03904739 0.13619347 -0.06594102 0.107528225 -0.15788637 0.041854367 -0.14627907
-0.017506436 0.14241992 0.104847774 -0.072392456 0.08600406 0.09533493 0.123735294 0.10359226
-0.1641038 -0.027543515 0.113175616 0.055927977 -0.044354588 -0.11662433 -0.05836837 -0.07042675
-0.103344746 -0.09035671 0.13240974 0.009611547 -0.03304985 -0.13306262 -0.006672859 0.08588387
-0.008503526 -0.15324242 0.074634895 -0.012570679 0.10383995 -0.021943018 0.06126046 -0.029716581
0.17352368 0.060039744 0.1406404 -0.034925997 0.10610907 -0.049680933 0.110664085 -0.10863066
0.09674631 0.030998096 0.048471525 0.029171601 0.095584646 0.093397364 0.091196224 -0.08817367
-0.066434056 0.037979513 -0.12442662 -0.08938175 -0.082816325 -0.021679133 -0.08353081 -0.04122314
0.13240714 0.0924478 0.13096265 0.028337747 -0.091494314 -0.07095148 -0.10437412 -0.07794874
-0.17132297 0.068703786 0.10167344 -0.1592299 -0.15415591 0.12696521 0.07526375 0.16956611
-0.024424061 0.08432545 -0.15889798 0.16611256 -0.14418286 -0.0352488 0.010961324 -0.04770343
-0.08688779 -0.15499187 -0.098100856 -0.10145623 -0.1377881 -0.07183551 -0.15283555 0.031928957
-0.16547978 -0.14963016 0.07258113 0.1766289 0.07124391 -0.10333887 -0.029974148 -0.011982456
-0.076522805 0.0484069 0.0053613484 -0.035276517 -0.08289419 -0.012855232 -0.037069708 -0.15733895
00000000: 8082 09bd 20f6 87bd 4323 a5bd a019 84bd
00000010: 3040 8fbc 0ff7 333e 2248 973d 6bcf 18be
00000020: 2ecd 01be 2cdd 38bd 54d3 483d 942a 833d
00000030: fc30 d1bd c0a2 f9bd ff6f 093e de4d 8c3d
00000040: 60bd 0fbc 28f0 1fbd 4d76 0b3e 160c 87bd
00000050: c237 dc3d f7ac 21be 7c6f 2b3d 2eca 15be
00000060: a869 8fbc 87d6 113e 6eba d63d 7f42 94bd
00000070: e622 b03d f63e c33d ee68 fd3d 2e28 d43d
00000080: d40a 28be f0a2 e1bc 9ec8 e73d bc14 653d
00000090: 28ad 35bd bdd8 eebd ac13 6fbd e63b 90bd
000000a0: 69a6 d3bd f00c b9bd 6b96 073e c079 1d3c
000000b0: 485f 07bd 9141 08be 00a8 dabb e2e3 af3d
000000c0: 6052 0bbc 95eb 1cbe 2eda 983d 40f5 4dbc
000000d0: 0aaa d43d d8c1 b3bc 40ec 7a3d 3070 f3bc
000000e0: 31b0 313e 3cec 753d 0904 103e 900e 0fbd
000000f0: b64f d93d 3c7e 4bbd daa3 e23d c079 debd
00000100: ee22 c63d b8ef fd3c 148a 463d 48f9 ee3c
00000110: e2c1 c33d 1e47 bf3d 16c5 ba3d 6694 b4bd
00000120: 940e 88bd 6890 1b3d 62d3 febd c70d b7bd
00000130: 9b9b a9bd 7098 b1bc 3412 abbd 98d9 28bd
00000140: bd95 073e 4655 bd3d 131b 063e 9024 e83c
00000150: 5f61 bbbd 024f 91bd 19c2 d5bd 97a3 9fbd
00000160: 4a6f 2fbe 92b4 8c3d 2a3a d03d 2a0d 23be
00000170: 0cdb 1dbe 2b03 023e e223 9a3d bda2 2d3e
00000180: f814 c8bc d2b2 ac3d 27b6 22be 6919 2a3e
00000190: aca4 13be 0c61 10bd 2097 333c ac64 43bd
000001a0: 3af2 b1bd 30b6 1ebe 1ae9 c8bd 49c8 cfbd
000001b0: 5318 0dbe 7f1e 93bd ec80 1cbe f0c7 023d
000001c0: 8873 29be a638 19be 6aa5 943d 35de 343e
000001d0: 54e8 913d 54a3 d3bd 588c f5bc 1052 44bc
000001e0: fdb7 9cbd 5046 463d 40ae af3b 1c7e 10bd
000001f0: 6ec4 a9bd c09e 52bc 68d6 17bd 761d 21be

bias_hh_l0 f4 [128]
-0.09576253 -0.100185 -0.07328237 -0.14750122 -0.13220842 -0.040646657 -0.064738885 0.08586319
0.05051452 -0.008433968 -0.022294119 0.020116895 0.03543164 -0.0060289353 -0.11431919 0.15237786
-0.021062315 -0.04607469 -0.13163978 0.097385004 -0.038534865 0.01609072 0.06055832 -0.085390165
-0.11036202 0.0519512 0.04460807 0.17080553 0.11160116 0.12170173 -0.093572386 -0.035766408
-0.110781685 0.037414774 -0.0103523135 0.1232409 0.061529726 -0.021692261 0.11572118 -0.07038869
-0.11778708 0.073422715 -0.17570041 0.009211361 -0.12822968 -0.04597433 -0.17287783 0.05633597
-0.16436672 -0.04050982 0.036635667 0.021054894 -0.07284796 0.07229404 -0.06523934 -0.06389888
0.05347666 -0.0870392 -0.04730645 -0.0662709 0.07541485 0.08467014 0.12940346 -0.13991138
0.09319197 -0.023926198 -0.12495603 0.1611057 0.10507552 0.05443263 0.035027787 0.13028024
-0.02480866 0.1416171 -0.10241937 -0.049443543 -0.1342986 0.10311948 0.14496244 -0.13629039
0.09222911 -0.17601746 0.0038368404 -0.12215394 -0.13005958 0.035283104 0.17089574 0.038578883
0.046174124 -0.031177178 0.14679591 0.16592433 -0.14169577 0.1358196 0.13085265 0.16472389
-0.054450713 0.0042237043 0.08737253 0.05515276 0.09283562 0.061422765 0.0933242 -0.14630379
-0.15461405 0.14962192 0.0690514 0.05673316 -0.07517405 0.028048784 -0.100322455 -0.03458029
-0.13020264 -0.024577498 -0.013943821 0.15475844 -0.03884001 0.047485128 -0.13063647 -0.10920354
0.1501153 -0.10138721 -0.087089166 0.14303733 0.14257796 -0.11662461 0.0893812 0.07138622
00000000: 251f c4bd cb2d cdbd 1115 96bd 8f0a 17be
00000010: a561 07be 1c7d 26bd d295 84bd 0ad9 af3d
00000020: 50e8 4e3d a02e 0abc 28a2 b6bc 30cc a43c
00000030: c420 113d 608e c5bb 2e20 eabd f108 1c3e
00000040: e08a acbc d0b8 3cbd 94cc 06be ca71 c73d
00000050: bcd6 1dbd b0d0 833c 000c 783d 0ae1 aebd
00000060: 7c05 e2bd c8ca 543d f4b6 363d a5e7 2e3e
00000070: 268f e43d c23e f93d e1a2 bfbd cc7f 12bd
00000080: 82e1 e2bd 3c40 193d c09c 29bc ba65 fc3d
00000090: 9806 7c3d f8b3 b1bc 3aff ec3d f227 90bd
000000a0: 5a3a f1bd a65e 963d cfea 33be 40eb 163c
000000b0: a44e 03be 944f 3cbd e306 31be 8cc0 663d
000000c0: c04f 28be a0ed 25bd 480f 163d 507b ac3c
000000d0: 5031 95bd e60e 943d 349c 85bd 6add 82bd
000000e0: 580a 5b3d 9c41 b2bd 68c4 41bd 0ab9 87bd
000000f0: 1a73 9a3d 8a67 ad3d 5782 043e ee44 0fbe
00000100: 6edb be3d e000 c4bc f2e8 ffbd e5f8 243e
00000110: d631 d73d c0f4 5e3d 4c79 0f3d 2f68 053e
00000120: 883b cbbc 1304 113e 3fc1 d1bd 5085 4abd
00000130: 9285 09be 4e30 d33d 0971 143e b58f 0bbe
00000140: 9ee2 bc3d ec3d 34be 8073 7b3b d82b fabd
00000150: 572e 05be 0485 103d 4bff 2e3e e404 1e3d
00000160: 1421 3d3d 4867 ffbc ab51 163e 11e8 293e
00000170: b218 11be 4b14 0b3e 3dfe 053e 61ad 283e
00000180: b607 5fbd 0067 8a3b 5ef0 b23d dce7 613d
00000190: 9a20 be3d 7096 7b3d c220 bf3d a9d0 15be
000001a0: 2553 1ebe 7d36 193e d26a 8d3d 0861 683d
000001b0: daf4 99bd 90c6 e53c dc75 cdbd 10a4 0dbd
000001c0: d753 05be c056 c9bc a074 64bc ff78 1e3e
000001d0: b416 1fbd c47f 423d 91c5 05be 1ba6 dfbd
000001e0: d3b7 193e 19a4 cfbd ce5b b2bd 6178 123e
000001f0: f5ff 113e e2d8 eebd 7e0d b73d f032 923d

weight_ih_l1 f4 [128, 32]
-0.04487078 -0.16078925 0.1426837 0.12866546 0.13100381 0.12208699 0.0016819686 -0.011021197
-0.14061981 0.13797544 0.13920407 0.026131734 -0.018642902 0.071834385 0.004556671 -0.041825682
-0.060801424 0.05378987 -0.12175124 0.17645337 -0.10123521 -0.07750574 0.09946562 0.11778359
0.008785725 -0.13892111 -0.07277334 -0.044028223 0.051198304 -0.17451279 -0.09598068 -0.16969977
0.08194162 0.13010038 0.04130748 0.07428758 -0.040178955 0.031104818 0.060861737 -0.10043409
-0.14553751 0.06170827 0.14044209 -0.12487045 -0.11799931 -0.0012577027 0.1326256 -0.17406103
0.0828311 -0.07818375 0.043906495 0.09546791 -0.16651134 -0.013423145 -0.03810242 -0.088214405
0.0017376542 -0.1618954 0.0451279 0.09116469 -0.04682757 0.08067645 0.0005621612 0.048704863
0.11334993 0.13089956 -0.029757693 0.064770326 -0.06553443 -0.014509141 -0.11286454 -0.044238135
-0.09173938 0.037627757 0.0033650696 -0.0046999156 -0.15432239 -0.055960625 0.05695474 0.0864165
-0.09433533 -0.047003046 -0.09409202 0.056243837 -0.10669479 -0.04115808 0.0033902675 -0.019038275
-0.08716343 0.1529132 -0.13861836 -0.042875648 -0.10521735 -0.12951516 -0.05317101 -0.08874636
0.05465302 -0.02720265 -0.16227049 0.03703092 0.13128306 0.0463669 0.019886613 0.12561001
-0.07736031 0.058898687 -0.16909344 0.12592928 -0.0123465955 0.10305123 -0.025363341 0.15933432
0.04058528 0.04446195 -0.11323497 0.031646937 -0.17599441 -0.16772437 -0.016278625 -0.028808847
-0.03439024 0.047978014 0.17361774 -0.11249946 0.06147532 -0.10883943 0.058957458 0.14816277
-0.017287374 -0.011339992 -0.17116402 0.11004956 0.16168673 -0.04238607 -0.05857244 -0.02280359
0.09304376 0.1703939 0.046623513 -0.04730448 -0.13436498 0.047164574 0.00059626997 -0.040152818
-0.014459133 -0.094189964 -0.039031297 0.061467767 -0.10188588 0.10714845 0.09980272 0.11773832
-0.17306323 0.11710642 0.14468487 0.05829008 -0.070378095 -0.07677126 0.024449006 0.08784817
0.09597956 0.035652384 0.1284435 0.16637929 -0.1746621 -0.078880414 0.1451378 0.038881183
-0.07832193 -0.002252996 -0.053857855 0.09404267 0.16926186 -0.092308655 -0.033442065 -0.17185633
-0.16057934 0.0032646358 0.030039221 -0.04542665 -0.06859073 0.10540219 -0.03269656 0.17081524
-0.013749987 0.12380545 -0.019204631 -0.13223173 0.0012940615 -0.045148358 0.13704266 0.015159398
0.1759881 0.08725636 0.14638738 0.094965294 0.012419164 -0.07412895 -0.11290287 -0.056938097
0.12972812 -0.12293355 -0.032543078 -0.051441908 0.175503 -0.08330398 0.02546218 -0.11116478
0.105022505 -0.15929213 0.057364956 0.07028937 0.073335364 0.036122948 0.17446543 0.04110472
-0.12501249 -0.11908823 -0.16487017 0.14155243 -0.013306752 -0.054151595 0.0072639287 0.053502917
-0.081832744 0.073523924 -0.15015478 0.17662658 -0.08620552 0.0007131398 -0.1750631 -0.085839055
0.15885212 0.07756059 0.06367925 -0.074629046 0.108327314 0.08048679 0.048957363 -0.13556257
-0.09506995 -0.14670932 -0.15654524 -0.13928485 0.0036784112 -0.13743575 0.03803678 0.16116814
-0.039843187 -0.05159752 0.012154564 0.0909123 0.1403359 -0.09300071 -0.045640066 -0.10862231
00000000: 6cca 37bd f0a5 24be ad1b 123e e1c0 033e
00000010: dd25 063e be08 fa3d 8075 dc3a 4092 34bc
00000020: a4fe 0fbe 6f49 0d3e 838b 0e3e 3812 d63c
00000030: 00b9 98bc e81d 933d 2050 953b 6851 2bbd
00000040: ea0a 79bd c452 5c3d b758 f9bd 31b0 343e
00000050: 6854 cfbd 54bb 9ebd a2b4 cb3d 8638 f13d
00000060: 00f2 0f3c 5641 0ebe 300a 95bd f056 34bd
00000070: 50b5 513d 7bb3 32be 8591 c4bd c7c5 2dbe
00000080: 02d1 a73d 0939 053e 0832 293d 1624 983d
00000090: b092 24bd 88cf fe3c 284a 793d 63b0 cdbd
000000a0: c907 15be d0c1 7c3d 0dd0 0f3e 14bc ffbd
000000b0: 9fa9 f1bd 80d9 a4ba 01cf 073e 0e3d 32be
000000c0: 5aa3 a93d cd1e a0bd 4cd7 333d ae84 c33d
000000d0: f381 2abe c0ec 5bbc 4811 1cbd c1a9 b4bd
000000e0: 00c2 e33a e8c7 25be 08d8 383d 8eb4 ba3d
000000f0: 44ce 3fbd b239 a53d 005e 133a c07e 473d
00000100: 0224 e83d 890a 063e 68c6 f3bc 4ea6 843d
00000110: ea36 86bd c0b7 6dbc 8625 e7bd 0c33 35bd
00000120: dbe1 bbbd 901f 1a3d 8088 5c3b c001 9abb
00000130: b006 1ebe f836 65bd 6049 693d 22fb b03d
00000140: e232 c1bd 4486 40bd 51b3 c0bd f05f 663d
00000150: cc82 dabd 6095 28bd 402f 5e3b 28f6 9bbc
00000160: be82 b2bd 4795 1c3e f9f1 0dbe 609e 2fbd
00000170: 327c d7bd 9f9f 04be d8c9 59bd a7c0 b5bd
00000180: d8db 5f3d 18d8 debc 3c2a 26be bcad 173d
00000190: 116f 063e 38eb 3d3d 40e9 a23c e99f 003e
000001a0: 156f 9ebd c03f 713d d526 2dbe 9bf3 003e
000001b0: 6049 4abc 860c d33d c8c6 cfbc 8928 233e
000001c0: c03c 263d bc1d 363d bce7 e7bd 38a0 013d
000001d0: e137 34be f0bf 2bbe c05a 85bc 8800 ecbc
000001e0: c8dc 0cbd 9884 443d d9c8 313e 1e66 e6bd
000001f0: 8ccd 7b3d 35e7 debd 607d 713d fbb7 173e
00000200: 409e 8dbc 60cb 39bc 9f45 2fbe aa61 e13d
00000210: 3591 253e 049d 2dbd a8e9 6fbd 98ce babc
00000220: ba8d be3d bd7b 2e3e 4cf8 3e3d 58c2 41bd
00000230: f996 09be a42f 413d 004f 1c3a 4877 24bd
00000240: 00e6 6cbc abe6 c0bd 48df 1fbd a0c5 7b3d
00000250: 8ba9 d0bd a670 db3d 5e65 cc3d ca20 f13d
00000260: 7d37 31be 7ed5 ef3d 4528 143e 94c1 6e3d
00000270: 6422 90bd 403a 9dbd 4849 c83c bee9 b33d
00000280: ee90 c43d 3c08 123d b186 033e 555f 2a3e
00000290: 9fda 32be 0e8c a1bd 019f 143e e041 1f3d
000002a0: 3f67 a0bd 00a7 13bb 0e9a 5cbd 7299 c03d
000002b0: fb52 2d3e 520c bdbd 8cfa 08bd 1bfb 2fbe
000002c0: e96e 24be 80f3 553b d014 f63c 4c11 3abd
000002d0: 4c79 8cbd 1add d73d d4ec 05bd 31ea 2e3e
000002e0: a047 61bc b68d fd3d 0853 9dbc c167 07be
000002f0: 809d a93a 7ced 38bd e954 0c3e 205f 783c
00000300: 3936 343e 76b3 b23d 93e6 153e 2a7d c23d
00000310: c079 4b3c ebd0 97bd 9f39 e7bd ec37 69bd
00000320: 73d7 043e 96c4 fbbd e44b 05bd c0b4 52bd
00000330: 0fb7 333e 479b aabd 1096 d03c 5caa e3bd
00000340: 0a16 d73d 7a1d 23be 84f7 6a3d e0f3 8f3d
00000350: da30 963d a8f5 133d 11a7 323e 6c5d 283d
00000360: 4603 00be 88e4 f3bd bad3 28be 1ff3 103e
00000370: 9004 5abc 10ce 5dbd 4006 ee3b e025 5b3d
00000380: ed97 a7bd b693 963d 2dc2 19be 99dd 343e
00000390: 858c b0bd 00f2 3a3a be43 33be 63cc afbd
000003a0: 21aa 223e 16d8 9e3d 446a 823d 1dd7 98bd
000003b0: b6da dd3d 42d6 a43d 8487 483d ead0 0abe
000003c0: 09b4 c2bd f83a 16be 654d 20be b0a0 0ebe
000003d0: 8011 713b f5bb 0cbe 74cc 1b3d 4309 253e
000003e0: 9c32 23bd ec57 53bd f023 473c 3a30 ba3d
000003f0: 37b4 0f3e 2877 bebd 14f1 3abd 6075 debd

weight_hh_l1 f4 [128, 32]
-0.017792523 -0.17011248 -0.11167026 0.07053104 -0.08973144 0.16742541 0.13378127 0.025523856
-0.170012 0.099902496 -0.14327084 0.022046298 -0.024362475 0.041400358 -0.0924509 0.08294423
0.15106417 0.14593147 0.11981641 0.1607986 -0.042675287 -0.085002966 0.02980633 -0.08019397
0.05930832 -0.08851114 -0.16235733 0.07834722 -0.1325154 -0.015479252 0.059887335 -0.15534262
0.0040252805 0.04148583 0.08779015 -0.15136309 -0.0966725 -0.15077735 -0.066782 -0.08287579
0.1285377 0.048533008 0.10359134 -0.06935911 0.0019967705 0.008400187 0.097175464 -0.04497181
0.03171125 -0.046989456 -0.09215615 0.11308245 0.08521323 -0.03922318 0.07246044 0.04654397
-0.07700861 -0.021698594 0.10236104 -0.14389478 0.097844824 -0.16409408 0.06393932 0.080451176
-0.023997039 -0.09224392 0.13697667 0.07471819 -0.08926445 -0.105333425 0.001543045 -0.15586498
-0.044411883 0.094671205 -0.036562935 0.089745894 -0.042546734 0.134804 0.12879439 0.15102689
0.015220106 0.13418145 -0.07214542 -0.10389891 0.114683285 -0.118825704 -0.08666694 0.039942652
0.030899182 0.16880761 -0.0751437 -0.14089072 -0.075409435 -0.14115384 -0.0077031553 -0.1165248
0.13457923 -0.100001596 -0.14215635 -0.15763734 -0.120625496 0.0092379 0.004190907 -0.019859537
0.053000733 -0.10018982 0.062487885 -0.040424347 0.03664434 -0.03595303 -0.037485555 0.15128414
-0.036089733 -0.17499568 -0.049871325 -0.16248992 -0.17653844 -0.1335749 0.15950169 -0.07392692
0.036933213 -0.16360386 -0.16474248 0.1456893 -0.012524843 -0.051242054 0.036286682 0.003758341
-0.015992343 0.09517641 0.081713095 0.05312872 -0.060717106 -0.020988941 0.14343931 -0.12605755
0.061529234 -0.0037576258 -0.08071956 -0.069363534 -0.0698518 -0.13627943 0.17473201 -0.013392985
-0.0959555 -0.1608422 -0.1627279 -0.0049830675 -0.047148034 -0.16778304 -0.116415665 -0.06059549
-0.029351428 0.0034106672 0.10590814 -0.03315629 0.1603523 -0.07648517 0.020399854 0.10794832
-0.06647909 -0.028632626 0.070403695 0.04484111 -0.032490864 -0.16927075 0.06861013 -0.038026586
0.0064869225 0.021121204 0.014034525 -0.17185162 -0.078764156 -0.074723855 -0.006344244 -0.014687106
0.11575256 -0.100747444 -0.14640063 -0.09049539 -0.09311859 -0.09903974 0.15856425 0.024962708
-0.16965286 -0.036743492 0.10702048 -0.032174677 -0.1181785 0.086002186 0.16782124 -0.12688899
-0.08278425 0.10092981 -0.067370325 -0.15253603 0.068312705 0.10717197 0.1147479 0.12340258
-0.08754305 0.17303981 0.10863088 0.15363006 -0.09728272 -0.06902417 -0.10896743 0.07195562
-0.021668583 -0.10237322 0.12505771 0.12166275 -0.043549895 -0.11273829 -0.012953743 0.16989364
0.13103457 0.13726614 0.13888656 0.13634358 -0.106272265 -0.16464306 -0.14059088 0.1173621
-0.051157445 -0.0997052 0.085788086 -0.033850595 0.09608792 0.013486341 0.05000572 0.016375676
-0.10891104 -0.030595437 -0.02320765 -0.070966 -0.04338093 0.16894068 -0.16861361 -0.0038539022
-0.17167832 0.10354234 0.1535158 -0.083179526 0.120487556 0.16095577 0.03517528 0.11965288
-0.08759361 0.10977478 -0.07436895 0.16332994 0.11080445 -0.063340224 -0.11798422 0.09516434
00000000: a0c1 91bc f731 2ebe 61b3 e4bd 9472 903d
00000010: 1ec5 b7bd 9171 2b3e f5fd 083e 6817 d13c
00000020: a017 2ebe ae99 cc3d 97b5 12be 709a b43c
00000030: d093 c7bc 6c93 293d e656 bdbd aade a93d
00000040: 91b0 1a3e 0f6f 153e 4e62 f53d 63a8 243e
00000050: 48cc 2ebd 0916 aebd 682c f43c bc3c a4bd
00000060: 48ed 723d 5445 b5bd 0041 26be 8274 a03d
00000070: 1eb2 07be b09c 7dbc 6c4c 753d 2312 1fbe
00000080: 80e6 833b 0ced 293d 52cb b33d edfe 1abe
00000090: 3bfc c5bd 6165 1abe 00c5 88bd c8ba a9bd
000000a0: 639f 033e 8cca 463d b227 d43d 260c 8ebd
000000b0: 40dc 023b f0a0 093c ee03 c73d 5c34 38bd
000000c0: a8e3 013d 0478 40bd 5dbc bcbd c697 e73d
000000d0: 4684 ae3d 7ca8 20bd 2466 943d e4a4 3e3d
000000e0: b1b6 9dbd 40c1 b1bc aaa2 d13d 2759 13be
000000f0: de62 c83d 4708 28be 9ef2 823d 96c3 a43d
00000100: 7095 c4bc 61ea bcbd 9d43 0c3e da05 993d
00000110: 48d0 b6bd 0db9 d7bd 0040 ca3a 129b 1fbe
00000120: 3ce9 35bd fae2 c13d 04c3 15bd b2cc b73d
00000130: 7c45 2ebd 0f0a 0a3e ade2 033e cba6 1a3e
00000140: c05d 793c dd66 093e fac0 93bd f4c8 d4bd
00000150: 12df ea3d e45a f3bd 707e b1bd e89a 233d
00000160: 4820 fd3c e7db 2c3e f1e4 99bd a845 10be
00000170: 4370 9abd a28a 10be c06a fcbb 8ea4 eebd
00000180: 23cf 093e a3cd ccbd 6f91 11be af6b 21be
00000190: 800a f7bd 905a 173c e053 893b 78b0 a2bc
000001a0: 4c17 593d 5230 cdbd 4cf3 7f3d 0094 25bd
000001b0: 6018 163d 7c43 13bd 748a 19bd 3bea 1a3e
000001c0: d4d2 13bd 1132 33be e045 4cbd c263 26be
000001d0: 7ec6 34be dcc7 08be 6954 233e ff66 97bd
000001e0: 4847 173d c587 27be 41b2 28be 932f 153e
000001f0: 0035 4dbc 30e3 51bd 58a1 143d 804e 763b
00000200: 6002 83bc daeb c23d 3259 a73d 809d 593d
00000210: 80b2 78bd 00f1 abbc c1e1 123e 3b15 01be
00000220: 1406 7c3d 8042 76bb 4c50 a5bd 780e 8ebd
00000230: 760e 8fbd d68c 0bbe f3ec 323e 406e 5bbc
00000240: 5184 c4bd d1b3 24be 25a2 26be 0049 a3bb
00000250: 4c1e 41bd 51cf 2bbe 566b eebd fa32 78bd
00000260: 6872 f0bc 8085 5f3b 5ee6 d83d e4ce 07bd
00000270: 6533 243e 42a4 9cbd 981d a73c 0214 dd3d
00000280: 3026 88bd f88e eabc d02f 903d 50ab 373d
00000290: 2415 05bd 5055 2dbe 7883 8c3d c4c1 1bbd
000002a0: 4090 d43b 6006 ad3c 10f1 653c dff9 2fbe
000002b0: 1a4f a1bd d208 99bd 60e3 cfbb 30a2 70bc
000002c0: ae0f ed3d ad54 cebd 0cea 15be a655 b9bd
000002d0: f6b4 bebd 59d5 cabd ab5e 223e 987e cc3c
000002e0: 7bb9 2dbe 5880 16bd 8e2d db3d 98c9 03bd
000002f0: 9207 f2bd ea21 b03d 55d9 2b3e 30ef 01be
00000300: ca8a a9bd 4ab4 ce3d 74f9 89bd 6832 1cbe
00000310: 88e7 8b3d fa7c db3d f200 eb3d 7eba fc3d
00000320: c549 b3bd 5931 313e de79 de3d 3351 1d3e
00000330: 2a3c c7bd 8b5c 8dbd 512a dfbd 785d 933d
00000340: 5082 b1bc 0da9 d1bd 210f 003e 522a f93d
00000350: 6061 32bd 55e3 e6bd f03b 54bc 99f8 2d3e
00000360: ed2d 063e 7f8f 0c3e 4738 0e3e a79d 0b3e
00000370: 46a5 d9bd 3198 28be 0ef7 0fbe 8a5b f03d
00000380: 788a 51bd 3d32 ccbd aab1 af3d eca6 0abd
00000390: bec9 c43d d0f5 5c3c ccd2 4c3d 4826 863c
000003a0: c00c dfbd 48a3 fabc f81d bebc 9f56 91bd
000003b0: 34b0 31bd c9fe 2c3e 0ca9 2cbe c091 7cbb
000003c0: 71cc 2fbe 020e d43d 3f33 1d3e 075a aabd
000003d0: 2ec2 f63d 97d1 243e f413 103d 920c f53d
000003e0: 4764 b3bd 9ad1 e03d c04e 98bd f73f 273e
000003f0: 72ed e23d 85b8 81bd b6a1 f1bd 86e5 c23d

bias_ih_l1 f4 [128]
0.016031668 -0.12755221 -0.15489656 -0.049109638 -0.07722575 0.059447363 -0.10617731 -0.0061218143
0.15694083 0.08624141 -0.054323494 0.060908288 0.06503996 -0.16464269 0.15116759 -0.019604161
-0.094195805 -0.11875285 -0.00914523 0.07696815 -0.161487 -0.09603098 -0.1739045 -0.037968576
-0.11947356 0.11000623 0.021916866 -0.054164432 0.018986508 0.11467333 -0.005758211 -0.09440837
0.14909457 0.11450668 -0.026991263 -0.14936484 0.03295572 0.007698819 -0.13606256 0.060903504
-0.10038829 -0.1089901 0.04207492 0.12226875 0.08293159 -0.17129505 -0.15809578 0.026132181
-0.09491026 0.14131652 -0.1706568 -0.11242904 0.15317638 -0.11756323 -0.050860435 -0.03321661
-0.14423138 0.056305707 -0.07422349 -0.11821192 0.0701689 -0.044995725 -0.07219304 0.15685205
0.06866628 0.026947975 -0.015356705 -0.011484697 0.051407903 -0.00091697276 0.15439226 -0.13976228
0.0040394217 -0.08682634 -0.14927486 0.10568513 -0.11665413 0.13579123 0.021107823 -0.08912465
-0.018877804 0.15676998 0.15679444 0.127209 -0.052277178 0.110898 -0.03975603 0.14025517
-0.08208265 -0.12174125 0.022564173 0.030574948 -0.016172752 0.085758284 -0.13740793 -0.063247874
0.16069146 -0.07706956 -0.11570625 -0.09918009 -0.053359658 0.037586957 -0.038220167 0.009054497
0.100540176 0.09892751 -0.029146567 0.09034975 -0.03635551 0.06927924 0.14097811 -0.09541104
-0.074264534 0.124642804 0.167848 -0.14338139 0.14249034 0.05297652 0.06596631 0.04121232
-0.16225585 -0.15080608 -0.07536436 0.10612182 -0.056738973 -0.032218784 0.09983583 -0.13680223
00000000: d854 833c 0c9d 02be 349d 1ebe 3027 49bd
00000010: 8928 9ebd 147f 733d 7d73 d9bd 8099 c8bb
00000020: 19b5 203e 569f b03d 5082 5ebd f87a 793d
00000030: ac33 853d 1898 28be adcb 1a3e e898 a0bc
00000040: bbe9 c0bd b234 f3bd e0d5 15bc 7aa1 9d3d
00000050: d95c 25be e4ab c4bd 0514 32be f084 1bbd
00000060: 8eae f4bd f24a e13d 008b b33c 86db 5dbd
00000070: 9889 9b3c dad9 ea3d 60af bcbb 2d59 c1bd
00000080: 3fac 183e 7a82 ea3d c81c ddbc 19f3 18be
00000090: 94fc 063d 6046 fc3b fc53 0bbe f475 793d
000000a0: 6098 cdbd 3436 dfbd c056 2c3d 0a68 fa3d
000000b0: 0ad8 a93d f867 2fbe dce3 21be 2813 d63c
000000c0: 4f60 c2bd 47b5 103e a8c0 2ebe 3241 e6bd
000000d0: 45da 1c3e fec4 f0bd 0853 50bd 240e 08bd
000000e0: 64b1 13be d0a0 663d 7c02 98bd 1719 f2bd
000000f0: b6b4 8f3d 704d 38bd f2d9 93bd d39d 203e
00000100: e8a0 8c3d 00c2 dc3c b09a 7bbc 502a 3cbc
00000110: 1891 523d 0061 70ba 0119 1e3e d81d 0fbe
00000120: 205d 843b 02d2 b1bd 82db 18be 7271 d83d
00000130: 5ce8 eebd db0c 0b3e 50ea ac3c fc86 b6bd
00000140: a0a5 9abc 4f88 203e b98e 203e 1343 023e
00000150: 9820 56bd 7e1e e33d 38d7 22bd 0d9f 0f3e
00000160: f31a a8bd 7a53 f9bd 80d8 b83c 5078 fa3c
00000170: b87c 84bc 0aa2 af3d aab4 0cbe 1a88 81bd
00000180: 4d8c 243e a5d6 9dbd 66f7 ecbd ee1e cbbd
00000190: a88f 5abd c8f4 193d c08c 1cbd 5059 143c
000001a0: 02e8 cd3d 829a ca3d c8c4 eebc 4a09 b93d
000001b0: 84e9 14bd 46e2 8d3d 915c 103e dd66 c3bd
000001c0: 0118 98bd ba44 ff3d 59e0 2b3e 92d2 12be
000001d0: fde8 113e e8fd 583d 5819 873d 40ce 283d
000001e0: 6626 26be e96c 1abe a158 9abd 6656 d93d
000001f0: 2067 68bd d8f7 03bd ba76 cc3d e215 0cbe

bias_hh_l1 f4 [128]
-0.13493827 -0.13057469 -0.013983503 0.034864604 -0.15533556 0.14501657 0.006147057 -0.07198039
0.14177714 0.0003516525 -0.14767432 -0.060045794 0.1743914 -0.036115944 0.0815797 0.062256142
-0.14771968 0.035603017 -0.065976255 -0.020170897 -0.15406835 -0.10467825 0.005089253 -0.056347534
0.16745071 0.14285184 0.062178552 -0.13001332 0.013861358 -0.103075765 -0.14781865 -0.13553767
0.07294774 -0.06112498 -0.13953504 -0.07324256 -0.05427359 -0.052398503 -0.15331605 -0.027213678
-0.015251383 -0.09406707 -0.035384282 0.15127905 0.02619934 0.07884674 -0.13886744 -0.0033089072
0.011940852 0.061686024 -0.1149942 -0.057099707 -0.119714394 -0.021996066 0.0027954578 -0.10243884
0.10732095 -0.026470691 -0.15715593 -0.17018336 -0.08907448 -0.0022907406 -0.03682673 0.068556145
0.13314511 0.12742026 -0.040010944 -0.088506356 -0.079112016 0.037178203 -0.075252436 0.030412301
-0.004172921 -0.096609846 -0.040445164 -0.1273528 -0.11516647 -0.119683035 0.16343231 -0.09026523
-0.040354446 -0.12280552 -0.011964053 0.121092394 0.10445638 0.16210909 -0.0030462444 0.02428101
0.04104565 0.11586468 0.10703255 -0.1179351 -0.13018265 0.10446097 -0.17579886 0.066918194
-0.15036999 -0.023752347 0.020501956 0.15672733 -0.098753035 -0.16465372 -0.10846363 -0.0017488152
-0.011184633 0.025350839 0.11043908 0.13599111 3.1992793e-05 0.104791954 0.012004122 -0.09504605
0.041460365 0.10525973 -0.015378863 0.10305576 -0.08185422 -0.11962544 -0.04064952 0.114740685
0.16033803 0.034269348 -0.10728672 -0.043619096 0.14378132 -0.16162239 0.17404042 -0.025830418
00000000: 422d 0abe 5fb5 05be 101b 65bc 30ce 0e3d
00000010: 4910 1fbe 397f 143e 406d c93b 746a 93bd
00000020: 072e 113e 005e b839 f037 17be 94f2 75bd
00000030: a993 323e 50ee 13bd 4213 a73d 4c00 7f3d
00000040: d443 17be 78d4 113d 8f1e 87bd 703d a5bc
00000050: 18c4 1dbe 8d61 d6bd c0c3 a63b accc 66bd
00000060: 3378 2b3e c147 123e f0ae 7e3d 3622 05be
00000070: c01a 633c 6319 d3bd c65d 17be 63ca 0abe
00000080: a065 953d 305e 7abd 46e2 0ebe 3200 96bd
00000090: fc4d 5ebd d09f 56bd e2fe 1cbe 38ef debc
000000a0: f0e0 79bc 3ca6 c0bd 1cef 10bd e5e8 1a3e
000000b0: 00a0 d63c 667a a13d 4433 0ebe 40da 58bb
000000c0: 90a3 433c 7caa 7c3d 1482 ebbd 62e1 69bd
000000d0: d22c f5bd 1831 b4bc 0034 373b 74cb d1bd
000000e0: 16cb db3d 10d9 d8bc 7ced 20be 8c44 2ebe
000000f0: ae6c b6bd 4020 16bb a0d7 16bd 2a67 8c3d
00000100: 3157 083e 757a 023e 84e2 23bd d242 b5bd
00000110: 7b05 a2bd 2c48 183d f31d 9abd 3823 f93c
00000120: 00bd 88bb 62db c5bd d4a9 25bd c668 02be
00000130: 66dc ebbd 611c f5bd cd5a 273e fadc b8bd
00000140: b44a 25bd 7681 fbbd e004 44bc 4aff f73d
00000150: 3aed d53d edff 253e 80a3 47bb f8e8 c63c
00000160: 7c1f 283d 764a ed3d e233 db3d f587 f1bd
00000170: 9a4e 05be a2ef d53d 9e04 34be 680c 893d
00000180: 97fa 19be 4894 c2bc b8f3 a73c 217d 203e
00000190: 083f cabd fc9a 28be 2e22 debd 8038 e5ba
000001a0: c03f 37bc 90ac cf3c e22d e23d 4141 0b3e
000001b0: 0030 0638 2a9d d63d f0ac 443c 81a7 c2bd
000001c0: 58d2 293d 6a92 d73d a0f7 7bbc e60e d33d
000001d0: 2fa3 a7bd 2ffe f4bd 1c80 26bd 2afd ea3d
000001e0: a72f 243e 045e 0c3d 24b9 dbbd f0a9 32bd
000001f0: 693b 133e 5780 25be a737 323e 509a d3bc

weight f4 [1, 32]
-0.119951405 -0.17494874 -0.054802306 -0.120205104 0.046636537 -0.000110030174 0.11492346 -0.14095697
0.16529192 -0.13202904 -0.09513747 0.069017574 -0.01744005 -0.084967814 0.028218552 0.07980792
0.052722216 0.09720881 -0.026950195 0.16423018 -0.14969231 -0.07110464 0.051799342 0.06348123
-0.033908576 0.16345622 0.15428261 -0.14367057 -0.009251177 -0.11016217 -0.04672216 -0.08207599
00000000: 15a9 f5bd c325 33be 6278 60bd 182e f6bd
00000010: f405 3f3d 00c0 e6b8 fe5c eb3d 0657 10be
00000020: 4942 293e 9f32 07be 6fd7 c2bd 1659 8d3d
00000030: 70de 8ebc 9b03 aebd 982a e73c 5672 a33d
00000040: 40f3 573d 6a15 c73d a8c6 dcbc f52b 283e
00000050: f148 19be 4f9f 91bd 8c2b 543d 7202 823d
00000060: b8e3 0abd 1161 273e 43fc 1d3e 611e 13be
00000070: 4092 17bc b49c e1bd bc5f 3fbd 7517 a8bd

weight f4 [1, 32]
0.064297065 -0.11696075 0.059891984 -0.10751667 0.15413667 -0.029943943 -0.13032112 -0.0014600307
-0.084418304 -0.1161159 0.13118877 -0.12356585 -0.14141877 -0.02210465 -0.042452335 -0.091444775
0.04370451 0.091987595 0.00030463934 -0.16695116 -0.13690995 -0.012996316 0.037240654 0.16503282
-0.033179745 0.17283155 -0.017137185 0.15786304 0.115547135 0.0029828548 -0.11637543 -0.14502254
00000000: 2eae 833d 1e89 efbd 4c51 753d b331 dcbd
00000010: 01d6 1d3e 004d f5bc e672 05be 805e bfba
00000020: 81e3 acbd 2cce edbd 5956 063e 1810 fdbd
00000030: 15d0 10be d014 b5bc 80e2 2dbd 6647 bbbd
00000040: 8003 333d fe63 bc3d 00b8 9f39 3ff5 2abe
00000050: 1f32 0cbe 80ee 54bc a889 183d 5dfe 283e
00000060: 7ce7 07bd c1fa 303e 4863 8cbc d9a6 213e
00000070: faa3 ec3d 007c 433b 3e56 eebd ca80 14be
